{
  "storage" : "s320_3ch_fp32_2_0_2_0000000000_b4.espresso.weights",
  "analyses" : {

  },
  "properties" : {
  },
  "format_version" : 200,
  "layers" : [
    {
      "name" : "x",
      "weights" : {

      },
      "dst_w" : 320,
      "version" : 1,
      "dst_n" : 4,
      "dst_nd_rank" : 4,
      "type" : "reshape",
      "dst_h" : 320,
      "mode" : 0,
      "dynamic_shape" : false,
      "bottom" : "input_image",
      "debug_info" : "x",
      "dst_seq" : 1,
      "dst_k" : 3,
      "top" : "x"
    },
    {
      "top" : "1",
      "w" : 1,
      "h" : 1,
      "name" : "1",
      "nd_rank" : 4,
      "type" : "load_constant",
      "k" : 3,
      "bottom" : "",
      "debug_info" : "1",
      "n" : 1,
      "weights" : {

      },
      "constant_blob" : 1
    },
    {
      "bottom" : "x,1",
      "alpha" : 1,
      "operation" : 1,
      "weights" : {

      },
      "fused_relu" : 0,
      "debug_info" : "699",
      "top" : "699",
      "type" : "elementwise",
      "name" : "699",
      "beta" : 0
    },
    {
      "top" : "2",
      "w" : 1,
      "h" : 1,
      "name" : "2",
      "nd_rank" : 4,
      "type" : "load_constant",
      "k" : 3,
      "bottom" : "",
      "debug_info" : "2",
      "n" : 1,
      "weights" : {

      },
      "constant_blob" : 3
    },
    {
      "alpha" : -1,
      "bottom" : "2",
      "weights" : {

      },
      "mode" : 6,
      "debug_info" : "_neg_y_701",
      "top" : "_neg_y_701",
      "type" : "activation",
      "name" : "_neg_y_701",
      "beta" : 0
    },
    {
      "bottom" : "699,_neg_y_701",
      "alpha" : 1,
      "operation" : 0,
      "weights" : {

      },
      "fused_relu" : 0,
      "debug_info" : "701",
      "top" : "701",
      "type" : "elementwise",
      "name" : "701",
      "beta" : 0
    },
    {
      "top" : "_inversed_input.1_y_0",
      "w" : 1,
      "h" : 1,
      "name" : "_inversed_input.1_y_0",
      "nd_rank" : 4,
      "type" : "load_constant",
      "k" : 3,
      "bottom" : "",
      "debug_info" : "_inversed_input.1_y_0",
      "n" : 1,
      "weights" : {

      },
      "constant_blob" : 5
    },
    {
      "bottom" : "701,_inversed_input.1_y_0",
      "alpha" : 1,
      "operation" : 1,
      "weights" : {

      },
      "fused_relu" : 0,
      "debug_info" : "_inversed_input.1",
      "top" : "_inversed_input.1",
      "type" : "elementwise",
      "name" : "_inversed_input.1",
      "beta" : 0
    },
    {
      "pad_r" : 1,
      "fused_relu" : 1,
      "fused_tanh" : 0,
      "debug_info" : "input.2",
      "pad_fill_mode" : 0,
      "pad_b" : 1,
      "pad_l" : 1,
      "top" : "input.4",
      "K" : 3,
      "blob_biases" : 7,
      "name" : "input.2",
      "has_batch_norm" : 0,
      "type" : "convolution",
      "n_groups" : 1,
      "pad_t" : 1,
      "has_biases" : 1,
      "C" : 64,
      "bottom" : "_inversed_input.1",
      "weights" : {

      },
      "Nx" : 3,
      "pad_mode" : 0,
      "pad_value" : 0,
      "Ny" : 3,
      "n_parallel" : 1,
      "blob_weights_f16" : 9
    },
    {
      "pad_r" : 1,
      "fused_relu" : 1,
      "fused_tanh" : 0,
      "debug_info" : "input.5",
      "pad_fill_mode" : 0,
      "pad_b" : 1,
      "pad_l" : 1,
      "top" : "input.7",
      "K" : 64,
      "blob_biases" : 11,
      "name" : "input.5",
      "has_batch_norm" : 0,
      "type" : "convolution",
      "n_groups" : 1,
      "pad_t" : 1,
      "has_biases" : 1,
      "C" : 16,
      "bottom" : "input.4",
      "weights" : {

      },
      "Nx" : 3,
      "pad_mode" : 0,
      "pad_value" : 0,
      "Ny" : 3,
      "n_parallel" : 1,
      "blob_weights_f16" : 13
    },
    {
      "pad_r" : 0,
      "debug_info" : "input.8",
      "pad_fill_mode" : 0,
      "pad_b" : 0,
      "pad_l" : 0,
      "size_x" : 2,
      "top" : "input.8",
      "top_shape_style" : 0,
      "stride_x" : 2,
      "avg_or_max" : 1,
      "average_count_exclude_padding" : 1,
      "type" : "pool",
      "name" : "input.8",
      "pad_t" : 0,
      "stride_y" : 2,
      "bottom" : "input.7",
      "weights" : {

      },
      "pad_mode" : 2,
      "size_y" : 2,
      "pad_value" : 0
    },
    {
      "pad_r" : 1,
      "fused_relu" : 1,
      "fused_tanh" : 0,
      "debug_info" : "input.9",
      "pad_fill_mode" : 0,
      "pad_b" : 1,
      "pad_l" : 1,
      "top" : "input.11",
      "K" : 16,
      "blob_biases" : 15,
      "name" : "input.9",
      "has_batch_norm" : 0,
      "type" : "convolution",
      "n_groups" : 1,
      "pad_t" : 1,
      "has_biases" : 1,
      "C" : 16,
      "bottom" : "input.8",
      "weights" : {

      },
      "Nx" : 3,
      "pad_mode" : 0,
      "pad_value" : 0,
      "Ny" : 3,
      "n_parallel" : 1,
      "blob_weights_f16" : 17
    },
    {
      "pad_r" : 0,
      "debug_info" : "input.12",
      "pad_fill_mode" : 0,
      "pad_b" : 0,
      "pad_l" : 0,
      "size_x" : 2,
      "top" : "input.12",
      "top_shape_style" : 0,
      "stride_x" : 2,
      "avg_or_max" : 1,
      "average_count_exclude_padding" : 1,
      "type" : "pool",
      "name" : "input.12",
      "pad_t" : 0,
      "stride_y" : 2,
      "bottom" : "input.11",
      "weights" : {

      },
      "pad_mode" : 2,
      "size_y" : 2,
      "pad_value" : 0
    },
    {
      "pad_r" : 1,
      "fused_relu" : 1,
      "fused_tanh" : 0,
      "debug_info" : "input.13",
      "pad_fill_mode" : 0,
      "pad_b" : 1,
      "pad_l" : 1,
      "top" : "input.15",
      "K" : 16,
      "blob_biases" : 19,
      "name" : "input.13",
      "has_batch_norm" : 0,
      "type" : "convolution",
      "n_groups" : 1,
      "pad_t" : 1,
      "has_biases" : 1,
      "C" : 16,
      "bottom" : "input.12",
      "weights" : {

      },
      "Nx" : 3,
      "pad_mode" : 0,
      "pad_value" : 0,
      "Ny" : 3,
      "n_parallel" : 1,
      "blob_weights_f16" : 21
    },
    {
      "pad_r" : 0,
      "debug_info" : "input.16",
      "pad_fill_mode" : 0,
      "pad_b" : 0,
      "pad_l" : 0,
      "size_x" : 2,
      "top" : "input.16",
      "top_shape_style" : 0,
      "stride_x" : 2,
      "avg_or_max" : 1,
      "average_count_exclude_padding" : 1,
      "type" : "pool",
      "name" : "input.16",
      "pad_t" : 0,
      "stride_y" : 2,
      "bottom" : "input.15",
      "weights" : {

      },
      "pad_mode" : 2,
      "size_y" : 2,
      "pad_value" : 0
    },
    {
      "pad_r" : 1,
      "fused_relu" : 1,
      "fused_tanh" : 0,
      "debug_info" : "input.17",
      "pad_fill_mode" : 0,
      "pad_b" : 1,
      "pad_l" : 1,
      "top" : "input.19",
      "K" : 16,
      "blob_biases" : 23,
      "name" : "input.17",
      "has_batch_norm" : 0,
      "type" : "convolution",
      "n_groups" : 1,
      "pad_t" : 1,
      "has_biases" : 1,
      "C" : 16,
      "bottom" : "input.16",
      "weights" : {

      },
      "Nx" : 3,
      "pad_mode" : 0,
      "pad_value" : 0,
      "Ny" : 3,
      "n_parallel" : 1,
      "blob_weights_f16" : 25
    },
    {
      "pad_r" : 0,
      "debug_info" : "input.20",
      "pad_fill_mode" : 0,
      "pad_b" : 0,
      "pad_l" : 0,
      "size_x" : 2,
      "top" : "input.20",
      "top_shape_style" : 0,
      "stride_x" : 2,
      "avg_or_max" : 1,
      "average_count_exclude_padding" : 1,
      "type" : "pool",
      "name" : "input.20",
      "pad_t" : 0,
      "stride_y" : 2,
      "bottom" : "input.19",
      "weights" : {

      },
      "pad_mode" : 2,
      "size_y" : 2,
      "pad_value" : 0
    },
    {
      "pad_r" : 1,
      "fused_relu" : 1,
      "fused_tanh" : 0,
      "debug_info" : "input.21",
      "pad_fill_mode" : 0,
      "pad_b" : 1,
      "pad_l" : 1,
      "top" : "input.23",
      "K" : 16,
      "blob_biases" : 27,
      "name" : "input.21",
      "has_batch_norm" : 0,
      "type" : "convolution",
      "n_groups" : 1,
      "pad_t" : 1,
      "has_biases" : 1,
      "C" : 16,
      "bottom" : "input.20",
      "weights" : {

      },
      "Nx" : 3,
      "pad_mode" : 0,
      "pad_value" : 0,
      "Ny" : 3,
      "n_parallel" : 1,
      "blob_weights_f16" : 29
    },
    {
      "pad_r" : 0,
      "debug_info" : "input.24",
      "pad_fill_mode" : 0,
      "pad_b" : 0,
      "pad_l" : 0,
      "size_x" : 2,
      "top" : "input.24",
      "top_shape_style" : 0,
      "stride_x" : 2,
      "avg_or_max" : 1,
      "average_count_exclude_padding" : 1,
      "type" : "pool",
      "name" : "input.24",
      "pad_t" : 0,
      "stride_y" : 2,
      "bottom" : "input.23",
      "weights" : {

      },
      "pad_mode" : 2,
      "size_y" : 2,
      "pad_value" : 0
    },
    {
      "pad_r" : 1,
      "fused_relu" : 1,
      "fused_tanh" : 0,
      "debug_info" : "input.25",
      "pad_fill_mode" : 0,
      "pad_b" : 1,
      "pad_l" : 1,
      "top" : "input.27",
      "K" : 16,
      "blob_biases" : 31,
      "name" : "input.25",
      "has_batch_norm" : 0,
      "type" : "convolution",
      "n_groups" : 1,
      "pad_t" : 1,
      "has_biases" : 1,
      "C" : 16,
      "bottom" : "input.24",
      "weights" : {

      },
      "Nx" : 3,
      "pad_mode" : 0,
      "pad_value" : 0,
      "Ny" : 3,
      "n_parallel" : 1,
      "blob_weights_f16" : 33
    },
    {
      "pad_r" : 2,
      "fused_relu" : 1,
      "fused_tanh" : 0,
      "debug_info" : "input.28",
      "pad_fill_mode" : 0,
      "pad_b" : 2,
      "pad_l" : 2,
      "top" : "hx7.1",
      "K" : 16,
      "blob_biases" : 35,
      "name" : "input.28",
      "has_batch_norm" : 0,
      "type" : "convolution",
      "n_groups" : 1,
      "pad_t" : 2,
      "has_biases" : 1,
      "C" : 16,
      "bottom" : "input.27",
      "weights" : {

      },
      "Nx" : 3,
      "pad_mode" : 0,
      "dilation_x" : 2,
      "pad_value" : 0,
      "Ny" : 3,
      "n_parallel" : 1,
      "dilation_y" : 2,
      "blob_weights_f16" : 37
    },
    {
      "weights" : {

      },
      "debug_info" : "input.30",
      "top" : "input.30",
      "type" : "concat",
      "name" : "input.30",
      "bottom" : "hx7.1,input.27"
    },
    {
      "pad_r" : 1,
      "fused_relu" : 1,
      "fused_tanh" : 0,
      "debug_info" : "input.31",
      "pad_fill_mode" : 0,
      "pad_b" : 1,
      "pad_l" : 1,
      "top" : "input.33",
      "K" : 32,
      "blob_biases" : 39,
      "name" : "input.31",
      "has_batch_norm" : 0,
      "type" : "convolution",
      "n_groups" : 1,
      "pad_t" : 1,
      "has_biases" : 1,
      "C" : 16,
      "bottom" : "input.30",
      "weights" : {

      },
      "Nx" : 3,
      "pad_mode" : 0,
      "pad_value" : 0,
      "Ny" : 3,
      "n_parallel" : 1,
      "blob_weights_f16" : 41
    },
    {
      "top" : "hx6up.1",
      "use_fractional_scale_factors" : false,
      "weights" : {

      },
      "fractional_scaling_factor_y" : 1,
      "type" : "upsample",
      "scaling_factor_x" : 2,
      "mode" : 1,
      "align_corners" : 0,
      "bottom" : "input.33",
      "debug_info" : "hx6up.1",
      "fractional_scaling_factor_x" : 1,
      "is_legacy_mode" : 0,
      "name" : "hx6up.1",
      "scaling_factor_y" : 2
    },
    {
      "weights" : {

      },
      "debug_info" : "input.34",
      "top" : "input.34",
      "type" : "concat",
      "name" : "input.34",
      "bottom" : "hx6up.1,input.23"
    },
    {
      "pad_r" : 1,
      "fused_relu" : 1,
      "fused_tanh" : 0,
      "debug_info" : "input.35",
      "pad_fill_mode" : 0,
      "pad_b" : 1,
      "pad_l" : 1,
      "top" : "input.37",
      "K" : 32,
      "blob_biases" : 43,
      "name" : "input.35",
      "has_batch_norm" : 0,
      "type" : "convolution",
      "n_groups" : 1,
      "pad_t" : 1,
      "has_biases" : 1,
      "C" : 16,
      "bottom" : "input.34",
      "weights" : {

      },
      "Nx" : 3,
      "pad_mode" : 0,
      "pad_value" : 0,
      "Ny" : 3,
      "n_parallel" : 1,
      "blob_weights_f16" : 45
    },
    {
      "top" : "hx5dup.1",
      "use_fractional_scale_factors" : false,
      "weights" : {

      },
      "fractional_scaling_factor_y" : 1,
      "type" : "upsample",
      "scaling_factor_x" : 2,
      "mode" : 1,
      "align_corners" : 0,
      "bottom" : "input.37",
      "debug_info" : "hx5dup.1",
      "fractional_scaling_factor_x" : 1,
      "is_legacy_mode" : 0,
      "name" : "hx5dup.1",
      "scaling_factor_y" : 2
    },
    {
      "weights" : {

      },
      "debug_info" : "input.38",
      "top" : "input.38",
      "type" : "concat",
      "name" : "input.38",
      "bottom" : "hx5dup.1,input.19"
    },
    {
      "pad_r" : 1,
      "fused_relu" : 1,
      "fused_tanh" : 0,
      "debug_info" : "input.39",
      "pad_fill_mode" : 0,
      "pad_b" : 1,
      "pad_l" : 1,
      "top" : "input.41",
      "K" : 32,
      "blob_biases" : 47,
      "name" : "input.39",
      "has_batch_norm" : 0,
      "type" : "convolution",
      "n_groups" : 1,
      "pad_t" : 1,
      "has_biases" : 1,
      "C" : 16,
      "bottom" : "input.38",
      "weights" : {

      },
      "Nx" : 3,
      "pad_mode" : 0,
      "pad_value" : 0,
      "Ny" : 3,
      "n_parallel" : 1,
      "blob_weights_f16" : 49
    },
    {
      "top" : "hx4dup.1",
      "use_fractional_scale_factors" : false,
      "weights" : {

      },
      "fractional_scaling_factor_y" : 1,
      "type" : "upsample",
      "scaling_factor_x" : 2,
      "mode" : 1,
      "align_corners" : 0,
      "bottom" : "input.41",
      "debug_info" : "hx4dup.1",
      "fractional_scaling_factor_x" : 1,
      "is_legacy_mode" : 0,
      "name" : "hx4dup.1",
      "scaling_factor_y" : 2
    },
    {
      "weights" : {

      },
      "debug_info" : "input.42",
      "top" : "input.42",
      "type" : "concat",
      "name" : "input.42",
      "bottom" : "hx4dup.1,input.15"
    },
    {
      "pad_r" : 1,
      "fused_relu" : 1,
      "fused_tanh" : 0,
      "debug_info" : "input.43",
      "pad_fill_mode" : 0,
      "pad_b" : 1,
      "pad_l" : 1,
      "top" : "input.45",
      "K" : 32,
      "blob_biases" : 51,
      "name" : "input.43",
      "has_batch_norm" : 0,
      "type" : "convolution",
      "n_groups" : 1,
      "pad_t" : 1,
      "has_biases" : 1,
      "C" : 16,
      "bottom" : "input.42",
      "weights" : {

      },
      "Nx" : 3,
      "pad_mode" : 0,
      "pad_value" : 0,
      "Ny" : 3,
      "n_parallel" : 1,
      "blob_weights_f16" : 53
    },
    {
      "top" : "hx3dup.1",
      "use_fractional_scale_factors" : false,
      "weights" : {

      },
      "fractional_scaling_factor_y" : 1,
      "type" : "upsample",
      "scaling_factor_x" : 2,
      "mode" : 1,
      "align_corners" : 0,
      "bottom" : "input.45",
      "debug_info" : "hx3dup.1",
      "fractional_scaling_factor_x" : 1,
      "is_legacy_mode" : 0,
      "name" : "hx3dup.1",
      "scaling_factor_y" : 2
    },
    {
      "weights" : {

      },
      "debug_info" : "input.46",
      "top" : "input.46",
      "type" : "concat",
      "name" : "input.46",
      "bottom" : "hx3dup.1,input.11"
    },
    {
      "pad_r" : 1,
      "fused_relu" : 1,
      "fused_tanh" : 0,
      "debug_info" : "input.47",
      "pad_fill_mode" : 0,
      "pad_b" : 1,
      "pad_l" : 1,
      "top" : "input.49",
      "K" : 32,
      "blob_biases" : 55,
      "name" : "input.47",
      "has_batch_norm" : 0,
      "type" : "convolution",
      "n_groups" : 1,
      "pad_t" : 1,
      "has_biases" : 1,
      "C" : 16,
      "bottom" : "input.46",
      "weights" : {

      },
      "Nx" : 3,
      "pad_mode" : 0,
      "pad_value" : 0,
      "Ny" : 3,
      "n_parallel" : 1,
      "blob_weights_f16" : 57
    },
    {
      "top" : "hx2dup.1",
      "use_fractional_scale_factors" : false,
      "weights" : {

      },
      "fractional_scaling_factor_y" : 1,
      "type" : "upsample",
      "scaling_factor_x" : 2,
      "mode" : 1,
      "align_corners" : 0,
      "bottom" : "input.49",
      "debug_info" : "hx2dup.1",
      "fractional_scaling_factor_x" : 1,
      "is_legacy_mode" : 0,
      "name" : "hx2dup.1",
      "scaling_factor_y" : 2
    },
    {
      "weights" : {

      },
      "debug_info" : "input.50",
      "top" : "input.50",
      "type" : "concat",
      "name" : "input.50",
      "bottom" : "hx2dup.1,input.7"
    },
    {
      "pad_r" : 1,
      "fused_relu" : 1,
      "fused_tanh" : 0,
      "debug_info" : "input.51",
      "pad_fill_mode" : 0,
      "pad_b" : 1,
      "pad_l" : 1,
      "top" : "hx1d.1",
      "K" : 32,
      "blob_biases" : 59,
      "name" : "input.51",
      "has_batch_norm" : 0,
      "type" : "convolution",
      "n_groups" : 1,
      "pad_t" : 1,
      "has_biases" : 1,
      "C" : 64,
      "bottom" : "input.50",
      "weights" : {

      },
      "Nx" : 3,
      "pad_mode" : 0,
      "pad_value" : 0,
      "Ny" : 3,
      "n_parallel" : 1,
      "blob_weights_f16" : 61
    },
    {
      "bottom" : "input.4,hx1d.1",
      "alpha" : 1,
      "operation" : 0,
      "weights" : {

      },
      "fused_relu" : 0,
      "debug_info" : "input.53",
      "top" : "input.53",
      "type" : "elementwise",
      "name" : "input.53",
      "beta" : 0
    },
    {
      "pad_r" : 0,
      "debug_info" : "input.54",
      "pad_fill_mode" : 0,
      "pad_b" : 0,
      "pad_l" : 0,
      "size_x" : 2,
      "top" : "input.54",
      "top_shape_style" : 0,
      "stride_x" : 2,
      "avg_or_max" : 1,
      "average_count_exclude_padding" : 1,
      "type" : "pool",
      "name" : "input.54",
      "pad_t" : 0,
      "stride_y" : 2,
      "bottom" : "input.53",
      "weights" : {

      },
      "pad_mode" : 2,
      "size_y" : 2,
      "pad_value" : 0
    },
    {
      "pad_r" : 1,
      "fused_relu" : 1,
      "fused_tanh" : 0,
      "debug_info" : "input.55",
      "pad_fill_mode" : 0,
      "pad_b" : 1,
      "pad_l" : 1,
      "top" : "input.57",
      "K" : 64,
      "blob_biases" : 63,
      "name" : "input.55",
      "has_batch_norm" : 0,
      "type" : "convolution",
      "n_groups" : 1,
      "pad_t" : 1,
      "has_biases" : 1,
      "C" : 64,
      "bottom" : "input.54",
      "weights" : {

      },
      "Nx" : 3,
      "pad_mode" : 0,
      "pad_value" : 0,
      "Ny" : 3,
      "n_parallel" : 1,
      "blob_weights_f16" : 65
    },
    {
      "pad_r" : 1,
      "fused_relu" : 1,
      "fused_tanh" : 0,
      "debug_info" : "input.58",
      "pad_fill_mode" : 0,
      "pad_b" : 1,
      "pad_l" : 1,
      "top" : "input.60",
      "K" : 64,
      "blob_biases" : 67,
      "name" : "input.58",
      "has_batch_norm" : 0,
      "type" : "convolution",
      "n_groups" : 1,
      "pad_t" : 1,
      "has_biases" : 1,
      "C" : 16,
      "bottom" : "input.57",
      "weights" : {

      },
      "Nx" : 3,
      "pad_mode" : 0,
      "pad_value" : 0,
      "Ny" : 3,
      "n_parallel" : 1,
      "blob_weights_f16" : 69
    },
    {
      "pad_r" : 0,
      "debug_info" : "input.61",
      "pad_fill_mode" : 0,
      "pad_b" : 0,
      "pad_l" : 0,
      "size_x" : 2,
      "top" : "input.61",
      "top_shape_style" : 0,
      "stride_x" : 2,
      "avg_or_max" : 1,
      "average_count_exclude_padding" : 1,
      "type" : "pool",
      "name" : "input.61",
      "pad_t" : 0,
      "stride_y" : 2,
      "bottom" : "input.60",
      "weights" : {

      },
      "pad_mode" : 2,
      "size_y" : 2,
      "pad_value" : 0
    },
    {
      "pad_r" : 1,
      "fused_relu" : 1,
      "fused_tanh" : 0,
      "debug_info" : "input.62",
      "pad_fill_mode" : 0,
      "pad_b" : 1,
      "pad_l" : 1,
      "top" : "input.64",
      "K" : 16,
      "blob_biases" : 71,
      "name" : "input.62",
      "has_batch_norm" : 0,
      "type" : "convolution",
      "n_groups" : 1,
      "pad_t" : 1,
      "has_biases" : 1,
      "C" : 16,
      "bottom" : "input.61",
      "weights" : {

      },
      "Nx" : 3,
      "pad_mode" : 0,
      "pad_value" : 0,
      "Ny" : 3,
      "n_parallel" : 1,
      "blob_weights_f16" : 73
    },
    {
      "pad_r" : 0,
      "debug_info" : "input.65",
      "pad_fill_mode" : 0,
      "pad_b" : 0,
      "pad_l" : 0,
      "size_x" : 2,
      "top" : "input.65",
      "top_shape_style" : 0,
      "stride_x" : 2,
      "avg_or_max" : 1,
      "average_count_exclude_padding" : 1,
      "type" : "pool",
      "name" : "input.65",
      "pad_t" : 0,
      "stride_y" : 2,
      "bottom" : "input.64",
      "weights" : {

      },
      "pad_mode" : 2,
      "size_y" : 2,
      "pad_value" : 0
    },
    {
      "pad_r" : 1,
      "fused_relu" : 1,
      "fused_tanh" : 0,
      "debug_info" : "input.66",
      "pad_fill_mode" : 0,
      "pad_b" : 1,
      "pad_l" : 1,
      "top" : "input.68",
      "K" : 16,
      "blob_biases" : 75,
      "name" : "input.66",
      "has_batch_norm" : 0,
      "type" : "convolution",
      "n_groups" : 1,
      "pad_t" : 1,
      "has_biases" : 1,
      "C" : 16,
      "bottom" : "input.65",
      "weights" : {

      },
      "Nx" : 3,
      "pad_mode" : 0,
      "pad_value" : 0,
      "Ny" : 3,
      "n_parallel" : 1,
      "blob_weights_f16" : 77
    },
    {
      "pad_r" : 0,
      "debug_info" : "input.69",
      "pad_fill_mode" : 0,
      "pad_b" : 0,
      "pad_l" : 0,
      "size_x" : 2,
      "top" : "input.69",
      "top_shape_style" : 0,
      "stride_x" : 2,
      "avg_or_max" : 1,
      "average_count_exclude_padding" : 1,
      "type" : "pool",
      "name" : "input.69",
      "pad_t" : 0,
      "stride_y" : 2,
      "bottom" : "input.68",
      "weights" : {

      },
      "pad_mode" : 2,
      "size_y" : 2,
      "pad_value" : 0
    },
    {
      "pad_r" : 1,
      "fused_relu" : 1,
      "fused_tanh" : 0,
      "debug_info" : "input.70",
      "pad_fill_mode" : 0,
      "pad_b" : 1,
      "pad_l" : 1,
      "top" : "input.72",
      "K" : 16,
      "blob_biases" : 79,
      "name" : "input.70",
      "has_batch_norm" : 0,
      "type" : "convolution",
      "n_groups" : 1,
      "pad_t" : 1,
      "has_biases" : 1,
      "C" : 16,
      "bottom" : "input.69",
      "weights" : {

      },
      "Nx" : 3,
      "pad_mode" : 0,
      "pad_value" : 0,
      "Ny" : 3,
      "n_parallel" : 1,
      "blob_weights_f16" : 81
    },
    {
      "pad_r" : 0,
      "debug_info" : "input.73",
      "pad_fill_mode" : 0,
      "pad_b" : 0,
      "pad_l" : 0,
      "size_x" : 2,
      "top" : "input.73",
      "top_shape_style" : 0,
      "stride_x" : 2,
      "avg_or_max" : 1,
      "average_count_exclude_padding" : 1,
      "type" : "pool",
      "name" : "input.73",
      "pad_t" : 0,
      "stride_y" : 2,
      "bottom" : "input.72",
      "weights" : {

      },
      "pad_mode" : 2,
      "size_y" : 2,
      "pad_value" : 0
    },
    {
      "pad_r" : 1,
      "fused_relu" : 1,
      "fused_tanh" : 0,
      "debug_info" : "input.74",
      "pad_fill_mode" : 0,
      "pad_b" : 1,
      "pad_l" : 1,
      "top" : "input.76",
      "K" : 16,
      "blob_biases" : 83,
      "name" : "input.74",
      "has_batch_norm" : 0,
      "type" : "convolution",
      "n_groups" : 1,
      "pad_t" : 1,
      "has_biases" : 1,
      "C" : 16,
      "bottom" : "input.73",
      "weights" : {

      },
      "Nx" : 3,
      "pad_mode" : 0,
      "pad_value" : 0,
      "Ny" : 3,
      "n_parallel" : 1,
      "blob_weights_f16" : 85
    },
    {
      "pad_r" : 2,
      "fused_relu" : 1,
      "fused_tanh" : 0,
      "debug_info" : "input.77",
      "pad_fill_mode" : 0,
      "pad_b" : 2,
      "pad_l" : 2,
      "top" : "hx6.1",
      "K" : 16,
      "blob_biases" : 87,
      "name" : "input.77",
      "has_batch_norm" : 0,
      "type" : "convolution",
      "n_groups" : 1,
      "pad_t" : 2,
      "has_biases" : 1,
      "C" : 16,
      "bottom" : "input.76",
      "weights" : {

      },
      "Nx" : 3,
      "pad_mode" : 0,
      "dilation_x" : 2,
      "pad_value" : 0,
      "Ny" : 3,
      "n_parallel" : 1,
      "dilation_y" : 2,
      "blob_weights_f16" : 89
    },
    {
      "weights" : {

      },
      "debug_info" : "input.79",
      "top" : "input.79",
      "type" : "concat",
      "name" : "input.79",
      "bottom" : "hx6.1,input.76"
    },
    {
      "pad_r" : 1,
      "fused_relu" : 1,
      "fused_tanh" : 0,
      "debug_info" : "input.80",
      "pad_fill_mode" : 0,
      "pad_b" : 1,
      "pad_l" : 1,
      "top" : "input.82",
      "K" : 32,
      "blob_biases" : 91,
      "name" : "input.80",
      "has_batch_norm" : 0,
      "type" : "convolution",
      "n_groups" : 1,
      "pad_t" : 1,
      "has_biases" : 1,
      "C" : 16,
      "bottom" : "input.79",
      "weights" : {

      },
      "Nx" : 3,
      "pad_mode" : 0,
      "pad_value" : 0,
      "Ny" : 3,
      "n_parallel" : 1,
      "blob_weights_f16" : 93
    },
    {
      "top" : "hx5dup.2",
      "use_fractional_scale_factors" : false,
      "weights" : {

      },
      "fractional_scaling_factor_y" : 1,
      "type" : "upsample",
      "scaling_factor_x" : 2,
      "mode" : 1,
      "align_corners" : 0,
      "bottom" : "input.82",
      "debug_info" : "hx5dup.2",
      "fractional_scaling_factor_x" : 1,
      "is_legacy_mode" : 0,
      "name" : "hx5dup.2",
      "scaling_factor_y" : 2
    },
    {
      "weights" : {

      },
      "debug_info" : "input.83",
      "top" : "input.83",
      "type" : "concat",
      "name" : "input.83",
      "bottom" : "hx5dup.2,input.72"
    },
    {
      "pad_r" : 1,
      "fused_relu" : 1,
      "fused_tanh" : 0,
      "debug_info" : "input.84",
      "pad_fill_mode" : 0,
      "pad_b" : 1,
      "pad_l" : 1,
      "top" : "input.86",
      "K" : 32,
      "blob_biases" : 95,
      "name" : "input.84",
      "has_batch_norm" : 0,
      "type" : "convolution",
      "n_groups" : 1,
      "pad_t" : 1,
      "has_biases" : 1,
      "C" : 16,
      "bottom" : "input.83",
      "weights" : {

      },
      "Nx" : 3,
      "pad_mode" : 0,
      "pad_value" : 0,
      "Ny" : 3,
      "n_parallel" : 1,
      "blob_weights_f16" : 97
    },
    {
      "top" : "hx4dup.2",
      "use_fractional_scale_factors" : false,
      "weights" : {

      },
      "fractional_scaling_factor_y" : 1,
      "type" : "upsample",
      "scaling_factor_x" : 2,
      "mode" : 1,
      "align_corners" : 0,
      "bottom" : "input.86",
      "debug_info" : "hx4dup.2",
      "fractional_scaling_factor_x" : 1,
      "is_legacy_mode" : 0,
      "name" : "hx4dup.2",
      "scaling_factor_y" : 2
    },
    {
      "weights" : {

      },
      "debug_info" : "input.87",
      "top" : "input.87",
      "type" : "concat",
      "name" : "input.87",
      "bottom" : "hx4dup.2,input.68"
    },
    {
      "pad_r" : 1,
      "fused_relu" : 1,
      "fused_tanh" : 0,
      "debug_info" : "input.88",
      "pad_fill_mode" : 0,
      "pad_b" : 1,
      "pad_l" : 1,
      "top" : "input.90",
      "K" : 32,
      "blob_biases" : 99,
      "name" : "input.88",
      "has_batch_norm" : 0,
      "type" : "convolution",
      "n_groups" : 1,
      "pad_t" : 1,
      "has_biases" : 1,
      "C" : 16,
      "bottom" : "input.87",
      "weights" : {

      },
      "Nx" : 3,
      "pad_mode" : 0,
      "pad_value" : 0,
      "Ny" : 3,
      "n_parallel" : 1,
      "blob_weights_f16" : 101
    },
    {
      "top" : "hx3dup.2",
      "use_fractional_scale_factors" : false,
      "weights" : {

      },
      "fractional_scaling_factor_y" : 1,
      "type" : "upsample",
      "scaling_factor_x" : 2,
      "mode" : 1,
      "align_corners" : 0,
      "bottom" : "input.90",
      "debug_info" : "hx3dup.2",
      "fractional_scaling_factor_x" : 1,
      "is_legacy_mode" : 0,
      "name" : "hx3dup.2",
      "scaling_factor_y" : 2
    },
    {
      "weights" : {

      },
      "debug_info" : "input.91",
      "top" : "input.91",
      "type" : "concat",
      "name" : "input.91",
      "bottom" : "hx3dup.2,input.64"
    },
    {
      "pad_r" : 1,
      "fused_relu" : 1,
      "fused_tanh" : 0,
      "debug_info" : "input.92",
      "pad_fill_mode" : 0,
      "pad_b" : 1,
      "pad_l" : 1,
      "top" : "input.94",
      "K" : 32,
      "blob_biases" : 103,
      "name" : "input.92",
      "has_batch_norm" : 0,
      "type" : "convolution",
      "n_groups" : 1,
      "pad_t" : 1,
      "has_biases" : 1,
      "C" : 16,
      "bottom" : "input.91",
      "weights" : {

      },
      "Nx" : 3,
      "pad_mode" : 0,
      "pad_value" : 0,
      "Ny" : 3,
      "n_parallel" : 1,
      "blob_weights_f16" : 105
    },
    {
      "top" : "hx2dup.2",
      "use_fractional_scale_factors" : false,
      "weights" : {

      },
      "fractional_scaling_factor_y" : 1,
      "type" : "upsample",
      "scaling_factor_x" : 2,
      "mode" : 1,
      "align_corners" : 0,
      "bottom" : "input.94",
      "debug_info" : "hx2dup.2",
      "fractional_scaling_factor_x" : 1,
      "is_legacy_mode" : 0,
      "name" : "hx2dup.2",
      "scaling_factor_y" : 2
    },
    {
      "weights" : {

      },
      "debug_info" : "input.95",
      "top" : "input.95",
      "type" : "concat",
      "name" : "input.95",
      "bottom" : "hx2dup.2,input.60"
    },
    {
      "pad_r" : 1,
      "fused_relu" : 1,
      "fused_tanh" : 0,
      "debug_info" : "input.96",
      "pad_fill_mode" : 0,
      "pad_b" : 1,
      "pad_l" : 1,
      "top" : "hx1d.2",
      "K" : 32,
      "blob_biases" : 107,
      "name" : "input.96",
      "has_batch_norm" : 0,
      "type" : "convolution",
      "n_groups" : 1,
      "pad_t" : 1,
      "has_biases" : 1,
      "C" : 64,
      "bottom" : "input.95",
      "weights" : {

      },
      "Nx" : 3,
      "pad_mode" : 0,
      "pad_value" : 0,
      "Ny" : 3,
      "n_parallel" : 1,
      "blob_weights_f16" : 109
    },
    {
      "bottom" : "input.57,hx1d.2",
      "alpha" : 1,
      "operation" : 0,
      "weights" : {

      },
      "fused_relu" : 0,
      "debug_info" : "input.98",
      "top" : "input.98",
      "type" : "elementwise",
      "name" : "input.98",
      "beta" : 0
    },
    {
      "pad_r" : 0,
      "debug_info" : "input.99",
      "pad_fill_mode" : 0,
      "pad_b" : 0,
      "pad_l" : 0,
      "size_x" : 2,
      "top" : "input.99",
      "top_shape_style" : 0,
      "stride_x" : 2,
      "avg_or_max" : 1,
      "average_count_exclude_padding" : 1,
      "type" : "pool",
      "name" : "input.99",
      "pad_t" : 0,
      "stride_y" : 2,
      "bottom" : "input.98",
      "weights" : {

      },
      "pad_mode" : 2,
      "size_y" : 2,
      "pad_value" : 0
    },
    {
      "pad_r" : 1,
      "fused_relu" : 1,
      "fused_tanh" : 0,
      "debug_info" : "input.100",
      "pad_fill_mode" : 0,
      "pad_b" : 1,
      "pad_l" : 1,
      "top" : "input.102",
      "K" : 64,
      "blob_biases" : 111,
      "name" : "input.100",
      "has_batch_norm" : 0,
      "type" : "convolution",
      "n_groups" : 1,
      "pad_t" : 1,
      "has_biases" : 1,
      "C" : 64,
      "bottom" : "input.99",
      "weights" : {

      },
      "Nx" : 3,
      "pad_mode" : 0,
      "pad_value" : 0,
      "Ny" : 3,
      "n_parallel" : 1,
      "blob_weights_f16" : 113
    },
    {
      "pad_r" : 1,
      "fused_relu" : 1,
      "fused_tanh" : 0,
      "debug_info" : "input.103",
      "pad_fill_mode" : 0,
      "pad_b" : 1,
      "pad_l" : 1,
      "top" : "input.105",
      "K" : 64,
      "blob_biases" : 115,
      "name" : "input.103",
      "has_batch_norm" : 0,
      "type" : "convolution",
      "n_groups" : 1,
      "pad_t" : 1,
      "has_biases" : 1,
      "C" : 16,
      "bottom" : "input.102",
      "weights" : {

      },
      "Nx" : 3,
      "pad_mode" : 0,
      "pad_value" : 0,
      "Ny" : 3,
      "n_parallel" : 1,
      "blob_weights_f16" : 117
    },
    {
      "pad_r" : 0,
      "debug_info" : "input.106",
      "pad_fill_mode" : 0,
      "pad_b" : 0,
      "pad_l" : 0,
      "size_x" : 2,
      "top" : "input.106",
      "top_shape_style" : 0,
      "stride_x" : 2,
      "avg_or_max" : 1,
      "average_count_exclude_padding" : 1,
      "type" : "pool",
      "name" : "input.106",
      "pad_t" : 0,
      "stride_y" : 2,
      "bottom" : "input.105",
      "weights" : {

      },
      "pad_mode" : 2,
      "size_y" : 2,
      "pad_value" : 0
    },
    {
      "pad_r" : 1,
      "fused_relu" : 1,
      "fused_tanh" : 0,
      "debug_info" : "input.107",
      "pad_fill_mode" : 0,
      "pad_b" : 1,
      "pad_l" : 1,
      "top" : "input.109",
      "K" : 16,
      "blob_biases" : 119,
      "name" : "input.107",
      "has_batch_norm" : 0,
      "type" : "convolution",
      "n_groups" : 1,
      "pad_t" : 1,
      "has_biases" : 1,
      "C" : 16,
      "bottom" : "input.106",
      "weights" : {

      },
      "Nx" : 3,
      "pad_mode" : 0,
      "pad_value" : 0,
      "Ny" : 3,
      "n_parallel" : 1,
      "blob_weights_f16" : 121
    },
    {
      "pad_r" : 0,
      "debug_info" : "input.110",
      "pad_fill_mode" : 0,
      "pad_b" : 0,
      "pad_l" : 0,
      "size_x" : 2,
      "top" : "input.110",
      "top_shape_style" : 0,
      "stride_x" : 2,
      "avg_or_max" : 1,
      "average_count_exclude_padding" : 1,
      "type" : "pool",
      "name" : "input.110",
      "pad_t" : 0,
      "stride_y" : 2,
      "bottom" : "input.109",
      "weights" : {

      },
      "pad_mode" : 2,
      "size_y" : 2,
      "pad_value" : 0
    },
    {
      "pad_r" : 1,
      "fused_relu" : 1,
      "fused_tanh" : 0,
      "debug_info" : "input.111",
      "pad_fill_mode" : 0,
      "pad_b" : 1,
      "pad_l" : 1,
      "top" : "input.113",
      "K" : 16,
      "blob_biases" : 123,
      "name" : "input.111",
      "has_batch_norm" : 0,
      "type" : "convolution",
      "n_groups" : 1,
      "pad_t" : 1,
      "has_biases" : 1,
      "C" : 16,
      "bottom" : "input.110",
      "weights" : {

      },
      "Nx" : 3,
      "pad_mode" : 0,
      "pad_value" : 0,
      "Ny" : 3,
      "n_parallel" : 1,
      "blob_weights_f16" : 125
    },
    {
      "pad_r" : 0,
      "debug_info" : "input.114",
      "pad_fill_mode" : 0,
      "pad_b" : 0,
      "pad_l" : 0,
      "size_x" : 2,
      "top" : "input.114",
      "top_shape_style" : 0,
      "stride_x" : 2,
      "avg_or_max" : 1,
      "average_count_exclude_padding" : 1,
      "type" : "pool",
      "name" : "input.114",
      "pad_t" : 0,
      "stride_y" : 2,
      "bottom" : "input.113",
      "weights" : {

      },
      "pad_mode" : 2,
      "size_y" : 2,
      "pad_value" : 0
    },
    {
      "pad_r" : 1,
      "fused_relu" : 1,
      "fused_tanh" : 0,
      "debug_info" : "input.115",
      "pad_fill_mode" : 0,
      "pad_b" : 1,
      "pad_l" : 1,
      "top" : "input.117",
      "K" : 16,
      "blob_biases" : 127,
      "name" : "input.115",
      "has_batch_norm" : 0,
      "type" : "convolution",
      "n_groups" : 1,
      "pad_t" : 1,
      "has_biases" : 1,
      "C" : 16,
      "bottom" : "input.114",
      "weights" : {

      },
      "Nx" : 3,
      "pad_mode" : 0,
      "pad_value" : 0,
      "Ny" : 3,
      "n_parallel" : 1,
      "blob_weights_f16" : 129
    },
    {
      "pad_r" : 2,
      "fused_relu" : 1,
      "fused_tanh" : 0,
      "debug_info" : "input.118",
      "pad_fill_mode" : 0,
      "pad_b" : 2,
      "pad_l" : 2,
      "top" : "hx5.1",
      "K" : 16,
      "blob_biases" : 131,
      "name" : "input.118",
      "has_batch_norm" : 0,
      "type" : "convolution",
      "n_groups" : 1,
      "pad_t" : 2,
      "has_biases" : 1,
      "C" : 16,
      "bottom" : "input.117",
      "weights" : {

      },
      "Nx" : 3,
      "pad_mode" : 0,
      "dilation_x" : 2,
      "pad_value" : 0,
      "Ny" : 3,
      "n_parallel" : 1,
      "dilation_y" : 2,
      "blob_weights_f16" : 133
    },
    {
      "weights" : {

      },
      "debug_info" : "input.120",
      "top" : "input.120",
      "type" : "concat",
      "name" : "input.120",
      "bottom" : "hx5.1,input.117"
    },
    {
      "pad_r" : 1,
      "fused_relu" : 1,
      "fused_tanh" : 0,
      "debug_info" : "input.121",
      "pad_fill_mode" : 0,
      "pad_b" : 1,
      "pad_l" : 1,
      "top" : "input.123",
      "K" : 32,
      "blob_biases" : 135,
      "name" : "input.121",
      "has_batch_norm" : 0,
      "type" : "convolution",
      "n_groups" : 1,
      "pad_t" : 1,
      "has_biases" : 1,
      "C" : 16,
      "bottom" : "input.120",
      "weights" : {

      },
      "Nx" : 3,
      "pad_mode" : 0,
      "pad_value" : 0,
      "Ny" : 3,
      "n_parallel" : 1,
      "blob_weights_f16" : 137
    },
    {
      "top" : "hx4dup.3",
      "use_fractional_scale_factors" : false,
      "weights" : {

      },
      "fractional_scaling_factor_y" : 1,
      "type" : "upsample",
      "scaling_factor_x" : 2,
      "mode" : 1,
      "align_corners" : 0,
      "bottom" : "input.123",
      "debug_info" : "hx4dup.3",
      "fractional_scaling_factor_x" : 1,
      "is_legacy_mode" : 0,
      "name" : "hx4dup.3",
      "scaling_factor_y" : 2
    },
    {
      "weights" : {

      },
      "debug_info" : "input.124",
      "top" : "input.124",
      "type" : "concat",
      "name" : "input.124",
      "bottom" : "hx4dup.3,input.113"
    },
    {
      "pad_r" : 1,
      "fused_relu" : 1,
      "fused_tanh" : 0,
      "debug_info" : "input.125",
      "pad_fill_mode" : 0,
      "pad_b" : 1,
      "pad_l" : 1,
      "top" : "input.127",
      "K" : 32,
      "blob_biases" : 139,
      "name" : "input.125",
      "has_batch_norm" : 0,
      "type" : "convolution",
      "n_groups" : 1,
      "pad_t" : 1,
      "has_biases" : 1,
      "C" : 16,
      "bottom" : "input.124",
      "weights" : {

      },
      "Nx" : 3,
      "pad_mode" : 0,
      "pad_value" : 0,
      "Ny" : 3,
      "n_parallel" : 1,
      "blob_weights_f16" : 141
    },
    {
      "top" : "hx3dup.3",
      "use_fractional_scale_factors" : false,
      "weights" : {

      },
      "fractional_scaling_factor_y" : 1,
      "type" : "upsample",
      "scaling_factor_x" : 2,
      "mode" : 1,
      "align_corners" : 0,
      "bottom" : "input.127",
      "debug_info" : "hx3dup.3",
      "fractional_scaling_factor_x" : 1,
      "is_legacy_mode" : 0,
      "name" : "hx3dup.3",
      "scaling_factor_y" : 2
    },
    {
      "weights" : {

      },
      "debug_info" : "input.128",
      "top" : "input.128",
      "type" : "concat",
      "name" : "input.128",
      "bottom" : "hx3dup.3,input.109"
    },
    {
      "pad_r" : 1,
      "fused_relu" : 1,
      "fused_tanh" : 0,
      "debug_info" : "input.129",
      "pad_fill_mode" : 0,
      "pad_b" : 1,
      "pad_l" : 1,
      "top" : "input.131",
      "K" : 32,
      "blob_biases" : 143,
      "name" : "input.129",
      "has_batch_norm" : 0,
      "type" : "convolution",
      "n_groups" : 1,
      "pad_t" : 1,
      "has_biases" : 1,
      "C" : 16,
      "bottom" : "input.128",
      "weights" : {

      },
      "Nx" : 3,
      "pad_mode" : 0,
      "pad_value" : 0,
      "Ny" : 3,
      "n_parallel" : 1,
      "blob_weights_f16" : 145
    },
    {
      "top" : "hx2dup.3",
      "use_fractional_scale_factors" : false,
      "weights" : {

      },
      "fractional_scaling_factor_y" : 1,
      "type" : "upsample",
      "scaling_factor_x" : 2,
      "mode" : 1,
      "align_corners" : 0,
      "bottom" : "input.131",
      "debug_info" : "hx2dup.3",
      "fractional_scaling_factor_x" : 1,
      "is_legacy_mode" : 0,
      "name" : "hx2dup.3",
      "scaling_factor_y" : 2
    },
    {
      "weights" : {

      },
      "debug_info" : "input.132",
      "top" : "input.132",
      "type" : "concat",
      "name" : "input.132",
      "bottom" : "hx2dup.3,input.105"
    },
    {
      "pad_r" : 1,
      "fused_relu" : 1,
      "fused_tanh" : 0,
      "debug_info" : "input.133",
      "pad_fill_mode" : 0,
      "pad_b" : 1,
      "pad_l" : 1,
      "top" : "hx1d.3",
      "K" : 32,
      "blob_biases" : 147,
      "name" : "input.133",
      "has_batch_norm" : 0,
      "type" : "convolution",
      "n_groups" : 1,
      "pad_t" : 1,
      "has_biases" : 1,
      "C" : 64,
      "bottom" : "input.132",
      "weights" : {

      },
      "Nx" : 3,
      "pad_mode" : 0,
      "pad_value" : 0,
      "Ny" : 3,
      "n_parallel" : 1,
      "blob_weights_f16" : 149
    },
    {
      "bottom" : "input.102,hx1d.3",
      "alpha" : 1,
      "operation" : 0,
      "weights" : {

      },
      "fused_relu" : 0,
      "debug_info" : "input.135",
      "top" : "input.135",
      "type" : "elementwise",
      "name" : "input.135",
      "beta" : 0
    },
    {
      "pad_r" : 0,
      "debug_info" : "input.136",
      "pad_fill_mode" : 0,
      "pad_b" : 0,
      "pad_l" : 0,
      "size_x" : 2,
      "top" : "input.136",
      "top_shape_style" : 0,
      "stride_x" : 2,
      "avg_or_max" : 1,
      "average_count_exclude_padding" : 1,
      "type" : "pool",
      "name" : "input.136",
      "pad_t" : 0,
      "stride_y" : 2,
      "bottom" : "input.135",
      "weights" : {

      },
      "pad_mode" : 2,
      "size_y" : 2,
      "pad_value" : 0
    },
    {
      "pad_r" : 1,
      "fused_relu" : 1,
      "fused_tanh" : 0,
      "debug_info" : "input.137",
      "pad_fill_mode" : 0,
      "pad_b" : 1,
      "pad_l" : 1,
      "top" : "input.139",
      "K" : 64,
      "blob_biases" : 151,
      "name" : "input.137",
      "has_batch_norm" : 0,
      "type" : "convolution",
      "n_groups" : 1,
      "pad_t" : 1,
      "has_biases" : 1,
      "C" : 64,
      "bottom" : "input.136",
      "weights" : {

      },
      "Nx" : 3,
      "pad_mode" : 0,
      "pad_value" : 0,
      "Ny" : 3,
      "n_parallel" : 1,
      "blob_weights_f16" : 153
    },
    {
      "pad_r" : 1,
      "fused_relu" : 1,
      "fused_tanh" : 0,
      "debug_info" : "input.140",
      "pad_fill_mode" : 0,
      "pad_b" : 1,
      "pad_l" : 1,
      "top" : "input.142",
      "K" : 64,
      "blob_biases" : 155,
      "name" : "input.140",
      "has_batch_norm" : 0,
      "type" : "convolution",
      "n_groups" : 1,
      "pad_t" : 1,
      "has_biases" : 1,
      "C" : 16,
      "bottom" : "input.139",
      "weights" : {

      },
      "Nx" : 3,
      "pad_mode" : 0,
      "pad_value" : 0,
      "Ny" : 3,
      "n_parallel" : 1,
      "blob_weights_f16" : 157
    },
    {
      "pad_r" : 0,
      "debug_info" : "input.143",
      "pad_fill_mode" : 0,
      "pad_b" : 0,
      "pad_l" : 0,
      "size_x" : 2,
      "top" : "input.143",
      "top_shape_style" : 0,
      "stride_x" : 2,
      "avg_or_max" : 1,
      "average_count_exclude_padding" : 1,
      "type" : "pool",
      "name" : "input.143",
      "pad_t" : 0,
      "stride_y" : 2,
      "bottom" : "input.142",
      "weights" : {

      },
      "pad_mode" : 2,
      "size_y" : 2,
      "pad_value" : 0
    },
    {
      "pad_r" : 1,
      "fused_relu" : 1,
      "fused_tanh" : 0,
      "debug_info" : "input.144",
      "pad_fill_mode" : 0,
      "pad_b" : 1,
      "pad_l" : 1,
      "top" : "input.146",
      "K" : 16,
      "blob_biases" : 159,
      "name" : "input.144",
      "has_batch_norm" : 0,
      "type" : "convolution",
      "n_groups" : 1,
      "pad_t" : 1,
      "has_biases" : 1,
      "C" : 16,
      "bottom" : "input.143",
      "weights" : {

      },
      "Nx" : 3,
      "pad_mode" : 0,
      "pad_value" : 0,
      "Ny" : 3,
      "n_parallel" : 1,
      "blob_weights_f16" : 161
    },
    {
      "pad_r" : 0,
      "debug_info" : "input.147",
      "pad_fill_mode" : 0,
      "pad_b" : 0,
      "pad_l" : 0,
      "size_x" : 2,
      "top" : "input.147",
      "top_shape_style" : 0,
      "stride_x" : 2,
      "avg_or_max" : 1,
      "average_count_exclude_padding" : 1,
      "type" : "pool",
      "name" : "input.147",
      "pad_t" : 0,
      "stride_y" : 2,
      "bottom" : "input.146",
      "weights" : {

      },
      "pad_mode" : 2,
      "size_y" : 2,
      "pad_value" : 0
    },
    {
      "pad_r" : 1,
      "fused_relu" : 1,
      "fused_tanh" : 0,
      "debug_info" : "input.148",
      "pad_fill_mode" : 0,
      "pad_b" : 1,
      "pad_l" : 1,
      "top" : "input.150",
      "K" : 16,
      "blob_biases" : 163,
      "name" : "input.148",
      "has_batch_norm" : 0,
      "type" : "convolution",
      "n_groups" : 1,
      "pad_t" : 1,
      "has_biases" : 1,
      "C" : 16,
      "bottom" : "input.147",
      "weights" : {

      },
      "Nx" : 3,
      "pad_mode" : 0,
      "pad_value" : 0,
      "Ny" : 3,
      "n_parallel" : 1,
      "blob_weights_f16" : 165
    },
    {
      "pad_r" : 2,
      "fused_relu" : 1,
      "fused_tanh" : 0,
      "debug_info" : "input.151",
      "pad_fill_mode" : 0,
      "pad_b" : 2,
      "pad_l" : 2,
      "top" : "hx4.1",
      "K" : 16,
      "blob_biases" : 167,
      "name" : "input.151",
      "has_batch_norm" : 0,
      "type" : "convolution",
      "n_groups" : 1,
      "pad_t" : 2,
      "has_biases" : 1,
      "C" : 16,
      "bottom" : "input.150",
      "weights" : {

      },
      "Nx" : 3,
      "pad_mode" : 0,
      "dilation_x" : 2,
      "pad_value" : 0,
      "Ny" : 3,
      "n_parallel" : 1,
      "dilation_y" : 2,
      "blob_weights_f16" : 169
    },
    {
      "weights" : {

      },
      "debug_info" : "input.153",
      "top" : "input.153",
      "type" : "concat",
      "name" : "input.153",
      "bottom" : "hx4.1,input.150"
    },
    {
      "pad_r" : 1,
      "fused_relu" : 1,
      "fused_tanh" : 0,
      "debug_info" : "input.154",
      "pad_fill_mode" : 0,
      "pad_b" : 1,
      "pad_l" : 1,
      "top" : "input.156",
      "K" : 32,
      "blob_biases" : 171,
      "name" : "input.154",
      "has_batch_norm" : 0,
      "type" : "convolution",
      "n_groups" : 1,
      "pad_t" : 1,
      "has_biases" : 1,
      "C" : 16,
      "bottom" : "input.153",
      "weights" : {

      },
      "Nx" : 3,
      "pad_mode" : 0,
      "pad_value" : 0,
      "Ny" : 3,
      "n_parallel" : 1,
      "blob_weights_f16" : 173
    },
    {
      "top" : "hx3dup.4",
      "use_fractional_scale_factors" : false,
      "weights" : {

      },
      "fractional_scaling_factor_y" : 1,
      "type" : "upsample",
      "scaling_factor_x" : 2,
      "mode" : 1,
      "align_corners" : 0,
      "bottom" : "input.156",
      "debug_info" : "hx3dup.4",
      "fractional_scaling_factor_x" : 1,
      "is_legacy_mode" : 0,
      "name" : "hx3dup.4",
      "scaling_factor_y" : 2
    },
    {
      "weights" : {

      },
      "debug_info" : "input.157",
      "top" : "input.157",
      "type" : "concat",
      "name" : "input.157",
      "bottom" : "hx3dup.4,input.146"
    },
    {
      "pad_r" : 1,
      "fused_relu" : 1,
      "fused_tanh" : 0,
      "debug_info" : "input.158",
      "pad_fill_mode" : 0,
      "pad_b" : 1,
      "pad_l" : 1,
      "top" : "input.160",
      "K" : 32,
      "blob_biases" : 175,
      "name" : "input.158",
      "has_batch_norm" : 0,
      "type" : "convolution",
      "n_groups" : 1,
      "pad_t" : 1,
      "has_biases" : 1,
      "C" : 16,
      "bottom" : "input.157",
      "weights" : {

      },
      "Nx" : 3,
      "pad_mode" : 0,
      "pad_value" : 0,
      "Ny" : 3,
      "n_parallel" : 1,
      "blob_weights_f16" : 177
    },
    {
      "top" : "hx2dup.4",
      "use_fractional_scale_factors" : false,
      "weights" : {

      },
      "fractional_scaling_factor_y" : 1,
      "type" : "upsample",
      "scaling_factor_x" : 2,
      "mode" : 1,
      "align_corners" : 0,
      "bottom" : "input.160",
      "debug_info" : "hx2dup.4",
      "fractional_scaling_factor_x" : 1,
      "is_legacy_mode" : 0,
      "name" : "hx2dup.4",
      "scaling_factor_y" : 2
    },
    {
      "weights" : {

      },
      "debug_info" : "input.161",
      "top" : "input.161",
      "type" : "concat",
      "name" : "input.161",
      "bottom" : "hx2dup.4,input.142"
    },
    {
      "pad_r" : 1,
      "fused_relu" : 1,
      "fused_tanh" : 0,
      "debug_info" : "input.162",
      "pad_fill_mode" : 0,
      "pad_b" : 1,
      "pad_l" : 1,
      "top" : "hx1d.4",
      "K" : 32,
      "blob_biases" : 179,
      "name" : "input.162",
      "has_batch_norm" : 0,
      "type" : "convolution",
      "n_groups" : 1,
      "pad_t" : 1,
      "has_biases" : 1,
      "C" : 64,
      "bottom" : "input.161",
      "weights" : {

      },
      "Nx" : 3,
      "pad_mode" : 0,
      "pad_value" : 0,
      "Ny" : 3,
      "n_parallel" : 1,
      "blob_weights_f16" : 181
    },
    {
      "bottom" : "input.139,hx1d.4",
      "alpha" : 1,
      "operation" : 0,
      "weights" : {

      },
      "fused_relu" : 0,
      "debug_info" : "input.164",
      "top" : "input.164",
      "type" : "elementwise",
      "name" : "input.164",
      "beta" : 0
    },
    {
      "pad_r" : 0,
      "debug_info" : "input.165",
      "pad_fill_mode" : 0,
      "pad_b" : 0,
      "pad_l" : 0,
      "size_x" : 2,
      "top" : "input.165",
      "top_shape_style" : 0,
      "stride_x" : 2,
      "avg_or_max" : 1,
      "average_count_exclude_padding" : 1,
      "type" : "pool",
      "name" : "input.165",
      "pad_t" : 0,
      "stride_y" : 2,
      "bottom" : "input.164",
      "weights" : {

      },
      "pad_mode" : 2,
      "size_y" : 2,
      "pad_value" : 0
    },
    {
      "pad_r" : 1,
      "fused_relu" : 1,
      "fused_tanh" : 0,
      "debug_info" : "input.166",
      "pad_fill_mode" : 0,
      "pad_b" : 1,
      "pad_l" : 1,
      "top" : "input.168",
      "K" : 64,
      "blob_biases" : 183,
      "name" : "input.166",
      "has_batch_norm" : 0,
      "type" : "convolution",
      "n_groups" : 1,
      "pad_t" : 1,
      "has_biases" : 1,
      "C" : 64,
      "bottom" : "input.165",
      "weights" : {

      },
      "Nx" : 3,
      "pad_mode" : 0,
      "pad_value" : 0,
      "Ny" : 3,
      "n_parallel" : 1,
      "blob_weights_f16" : 185
    },
    {
      "pad_r" : 1,
      "fused_relu" : 1,
      "fused_tanh" : 0,
      "debug_info" : "input.169",
      "pad_fill_mode" : 0,
      "pad_b" : 1,
      "pad_l" : 1,
      "top" : "input.171",
      "K" : 64,
      "blob_biases" : 187,
      "name" : "input.169",
      "has_batch_norm" : 0,
      "type" : "convolution",
      "n_groups" : 1,
      "pad_t" : 1,
      "has_biases" : 1,
      "C" : 16,
      "bottom" : "input.168",
      "weights" : {

      },
      "Nx" : 3,
      "pad_mode" : 0,
      "pad_value" : 0,
      "Ny" : 3,
      "n_parallel" : 1,
      "blob_weights_f16" : 189
    },
    {
      "pad_r" : 2,
      "fused_relu" : 1,
      "fused_tanh" : 0,
      "debug_info" : "input.172",
      "pad_fill_mode" : 0,
      "pad_b" : 2,
      "pad_l" : 2,
      "top" : "input.174",
      "K" : 16,
      "blob_biases" : 191,
      "name" : "input.172",
      "has_batch_norm" : 0,
      "type" : "convolution",
      "n_groups" : 1,
      "pad_t" : 2,
      "has_biases" : 1,
      "C" : 16,
      "bottom" : "input.171",
      "weights" : {

      },
      "Nx" : 3,
      "pad_mode" : 0,
      "dilation_x" : 2,
      "pad_value" : 0,
      "Ny" : 3,
      "n_parallel" : 1,
      "dilation_y" : 2,
      "blob_weights_f16" : 193
    },
    {
      "pad_r" : 4,
      "fused_relu" : 1,
      "fused_tanh" : 0,
      "debug_info" : "input.175",
      "pad_fill_mode" : 0,
      "pad_b" : 4,
      "pad_l" : 4,
      "top" : "input.177",
      "K" : 16,
      "blob_biases" : 195,
      "name" : "input.175",
      "has_batch_norm" : 0,
      "type" : "convolution",
      "n_groups" : 1,
      "pad_t" : 4,
      "has_biases" : 1,
      "C" : 16,
      "bottom" : "input.174",
      "weights" : {

      },
      "Nx" : 3,
      "pad_mode" : 0,
      "dilation_x" : 4,
      "pad_value" : 0,
      "Ny" : 3,
      "n_parallel" : 1,
      "dilation_y" : 4,
      "blob_weights_f16" : 197
    },
    {
      "pad_r" : 8,
      "fused_relu" : 1,
      "fused_tanh" : 0,
      "debug_info" : "input.178",
      "pad_fill_mode" : 0,
      "pad_b" : 8,
      "pad_l" : 8,
      "top" : "hx4.2",
      "K" : 16,
      "blob_biases" : 199,
      "name" : "input.178",
      "has_batch_norm" : 0,
      "type" : "convolution",
      "n_groups" : 1,
      "pad_t" : 8,
      "has_biases" : 1,
      "C" : 16,
      "bottom" : "input.177",
      "weights" : {

      },
      "Nx" : 3,
      "pad_mode" : 0,
      "dilation_x" : 8,
      "pad_value" : 0,
      "Ny" : 3,
      "n_parallel" : 1,
      "dilation_y" : 8,
      "blob_weights_f16" : 201
    },
    {
      "weights" : {

      },
      "debug_info" : "input.180",
      "top" : "input.180",
      "type" : "concat",
      "name" : "input.180",
      "bottom" : "hx4.2,input.177"
    },
    {
      "pad_r" : 4,
      "fused_relu" : 1,
      "fused_tanh" : 0,
      "debug_info" : "input.181",
      "pad_fill_mode" : 0,
      "pad_b" : 4,
      "pad_l" : 4,
      "top" : "hx3d.1",
      "K" : 32,
      "blob_biases" : 203,
      "name" : "input.181",
      "has_batch_norm" : 0,
      "type" : "convolution",
      "n_groups" : 1,
      "pad_t" : 4,
      "has_biases" : 1,
      "C" : 16,
      "bottom" : "input.180",
      "weights" : {

      },
      "Nx" : 3,
      "pad_mode" : 0,
      "dilation_x" : 4,
      "pad_value" : 0,
      "Ny" : 3,
      "n_parallel" : 1,
      "dilation_y" : 4,
      "blob_weights_f16" : 205
    },
    {
      "weights" : {

      },
      "debug_info" : "input.183",
      "top" : "input.183",
      "type" : "concat",
      "name" : "input.183",
      "bottom" : "hx3d.1,input.174"
    },
    {
      "pad_r" : 2,
      "fused_relu" : 1,
      "fused_tanh" : 0,
      "debug_info" : "input.184",
      "pad_fill_mode" : 0,
      "pad_b" : 2,
      "pad_l" : 2,
      "top" : "hx2d.1",
      "K" : 32,
      "blob_biases" : 207,
      "name" : "input.184",
      "has_batch_norm" : 0,
      "type" : "convolution",
      "n_groups" : 1,
      "pad_t" : 2,
      "has_biases" : 1,
      "C" : 16,
      "bottom" : "input.183",
      "weights" : {

      },
      "Nx" : 3,
      "pad_mode" : 0,
      "dilation_x" : 2,
      "pad_value" : 0,
      "Ny" : 3,
      "n_parallel" : 1,
      "dilation_y" : 2,
      "blob_weights_f16" : 209
    },
    {
      "weights" : {

      },
      "debug_info" : "input.186",
      "top" : "input.186",
      "type" : "concat",
      "name" : "input.186",
      "bottom" : "hx2d.1,input.171"
    },
    {
      "pad_r" : 1,
      "fused_relu" : 1,
      "fused_tanh" : 0,
      "debug_info" : "input.187",
      "pad_fill_mode" : 0,
      "pad_b" : 1,
      "pad_l" : 1,
      "top" : "hx1d.5",
      "K" : 32,
      "blob_biases" : 211,
      "name" : "input.187",
      "has_batch_norm" : 0,
      "type" : "convolution",
      "n_groups" : 1,
      "pad_t" : 1,
      "has_biases" : 1,
      "C" : 64,
      "bottom" : "input.186",
      "weights" : {

      },
      "Nx" : 3,
      "pad_mode" : 0,
      "pad_value" : 0,
      "Ny" : 3,
      "n_parallel" : 1,
      "blob_weights_f16" : 213
    },
    {
      "bottom" : "input.168,hx1d.5",
      "alpha" : 1,
      "operation" : 0,
      "weights" : {

      },
      "fused_relu" : 0,
      "debug_info" : "input.189",
      "top" : "input.189",
      "type" : "elementwise",
      "name" : "input.189",
      "beta" : 0
    },
    {
      "pad_r" : 0,
      "debug_info" : "input.190",
      "pad_fill_mode" : 0,
      "pad_b" : 0,
      "pad_l" : 0,
      "size_x" : 2,
      "top" : "input.190",
      "top_shape_style" : 0,
      "stride_x" : 2,
      "avg_or_max" : 1,
      "average_count_exclude_padding" : 1,
      "type" : "pool",
      "name" : "input.190",
      "pad_t" : 0,
      "stride_y" : 2,
      "bottom" : "input.189",
      "weights" : {

      },
      "pad_mode" : 2,
      "size_y" : 2,
      "pad_value" : 0
    },
    {
      "pad_r" : 1,
      "fused_relu" : 1,
      "fused_tanh" : 0,
      "debug_info" : "input.191",
      "pad_fill_mode" : 0,
      "pad_b" : 1,
      "pad_l" : 1,
      "top" : "input.193",
      "K" : 64,
      "blob_biases" : 215,
      "name" : "input.191",
      "has_batch_norm" : 0,
      "type" : "convolution",
      "n_groups" : 1,
      "pad_t" : 1,
      "has_biases" : 1,
      "C" : 64,
      "bottom" : "input.190",
      "weights" : {

      },
      "Nx" : 3,
      "pad_mode" : 0,
      "pad_value" : 0,
      "Ny" : 3,
      "n_parallel" : 1,
      "blob_weights_f16" : 217
    },
    {
      "pad_r" : 1,
      "fused_relu" : 1,
      "fused_tanh" : 0,
      "debug_info" : "input.194",
      "pad_fill_mode" : 0,
      "pad_b" : 1,
      "pad_l" : 1,
      "top" : "input.196",
      "K" : 64,
      "blob_biases" : 219,
      "name" : "input.194",
      "has_batch_norm" : 0,
      "type" : "convolution",
      "n_groups" : 1,
      "pad_t" : 1,
      "has_biases" : 1,
      "C" : 16,
      "bottom" : "input.193",
      "weights" : {

      },
      "Nx" : 3,
      "pad_mode" : 0,
      "pad_value" : 0,
      "Ny" : 3,
      "n_parallel" : 1,
      "blob_weights_f16" : 221
    },
    {
      "pad_r" : 2,
      "fused_relu" : 1,
      "fused_tanh" : 0,
      "debug_info" : "input.197",
      "pad_fill_mode" : 0,
      "pad_b" : 2,
      "pad_l" : 2,
      "top" : "input.199",
      "K" : 16,
      "blob_biases" : 223,
      "name" : "input.197",
      "has_batch_norm" : 0,
      "type" : "convolution",
      "n_groups" : 1,
      "pad_t" : 2,
      "has_biases" : 1,
      "C" : 16,
      "bottom" : "input.196",
      "weights" : {

      },
      "Nx" : 3,
      "pad_mode" : 0,
      "dilation_x" : 2,
      "pad_value" : 0,
      "Ny" : 3,
      "n_parallel" : 1,
      "dilation_y" : 2,
      "blob_weights_f16" : 225
    },
    {
      "pad_r" : 4,
      "fused_relu" : 1,
      "fused_tanh" : 0,
      "debug_info" : "input.200",
      "pad_fill_mode" : 0,
      "pad_b" : 4,
      "pad_l" : 4,
      "top" : "input.202",
      "K" : 16,
      "blob_biases" : 227,
      "name" : "input.200",
      "has_batch_norm" : 0,
      "type" : "convolution",
      "n_groups" : 1,
      "pad_t" : 4,
      "has_biases" : 1,
      "C" : 16,
      "bottom" : "input.199",
      "weights" : {

      },
      "Nx" : 3,
      "pad_mode" : 0,
      "dilation_x" : 4,
      "pad_value" : 0,
      "Ny" : 3,
      "n_parallel" : 1,
      "dilation_y" : 4,
      "blob_weights_f16" : 229
    },
    {
      "pad_r" : 8,
      "fused_relu" : 1,
      "fused_tanh" : 0,
      "debug_info" : "input.203",
      "pad_fill_mode" : 0,
      "pad_b" : 8,
      "pad_l" : 8,
      "top" : "hx4.3",
      "K" : 16,
      "blob_biases" : 231,
      "name" : "input.203",
      "has_batch_norm" : 0,
      "type" : "convolution",
      "n_groups" : 1,
      "pad_t" : 8,
      "has_biases" : 1,
      "C" : 16,
      "bottom" : "input.202",
      "weights" : {

      },
      "Nx" : 3,
      "pad_mode" : 0,
      "dilation_x" : 8,
      "pad_value" : 0,
      "Ny" : 3,
      "n_parallel" : 1,
      "dilation_y" : 8,
      "blob_weights_f16" : 233
    },
    {
      "weights" : {

      },
      "debug_info" : "input.205",
      "top" : "input.205",
      "type" : "concat",
      "name" : "input.205",
      "bottom" : "hx4.3,input.202"
    },
    {
      "pad_r" : 4,
      "fused_relu" : 1,
      "fused_tanh" : 0,
      "debug_info" : "input.206",
      "pad_fill_mode" : 0,
      "pad_b" : 4,
      "pad_l" : 4,
      "top" : "hx3d.2",
      "K" : 32,
      "blob_biases" : 235,
      "name" : "input.206",
      "has_batch_norm" : 0,
      "type" : "convolution",
      "n_groups" : 1,
      "pad_t" : 4,
      "has_biases" : 1,
      "C" : 16,
      "bottom" : "input.205",
      "weights" : {

      },
      "Nx" : 3,
      "pad_mode" : 0,
      "dilation_x" : 4,
      "pad_value" : 0,
      "Ny" : 3,
      "n_parallel" : 1,
      "dilation_y" : 4,
      "blob_weights_f16" : 237
    },
    {
      "weights" : {

      },
      "debug_info" : "input.208",
      "top" : "input.208",
      "type" : "concat",
      "name" : "input.208",
      "bottom" : "hx3d.2,input.199"
    },
    {
      "pad_r" : 2,
      "fused_relu" : 1,
      "fused_tanh" : 0,
      "debug_info" : "input.209",
      "pad_fill_mode" : 0,
      "pad_b" : 2,
      "pad_l" : 2,
      "top" : "hx2d.2",
      "K" : 32,
      "blob_biases" : 239,
      "name" : "input.209",
      "has_batch_norm" : 0,
      "type" : "convolution",
      "n_groups" : 1,
      "pad_t" : 2,
      "has_biases" : 1,
      "C" : 16,
      "bottom" : "input.208",
      "weights" : {

      },
      "Nx" : 3,
      "pad_mode" : 0,
      "dilation_x" : 2,
      "pad_value" : 0,
      "Ny" : 3,
      "n_parallel" : 1,
      "dilation_y" : 2,
      "blob_weights_f16" : 241
    },
    {
      "weights" : {

      },
      "debug_info" : "input.211",
      "top" : "input.211",
      "type" : "concat",
      "name" : "input.211",
      "bottom" : "hx2d.2,input.196"
    },
    {
      "pad_r" : 1,
      "fused_relu" : 1,
      "fused_tanh" : 0,
      "debug_info" : "input.212",
      "pad_fill_mode" : 0,
      "pad_b" : 1,
      "pad_l" : 1,
      "top" : "hx1d.6",
      "K" : 32,
      "blob_biases" : 243,
      "name" : "input.212",
      "has_batch_norm" : 0,
      "type" : "convolution",
      "n_groups" : 1,
      "pad_t" : 1,
      "has_biases" : 1,
      "C" : 64,
      "bottom" : "input.211",
      "weights" : {

      },
      "Nx" : 3,
      "pad_mode" : 0,
      "pad_value" : 0,
      "Ny" : 3,
      "n_parallel" : 1,
      "blob_weights_f16" : 245
    },
    {
      "bottom" : "input.193,hx1d.6",
      "alpha" : 1,
      "operation" : 0,
      "weights" : {

      },
      "fused_relu" : 0,
      "debug_info" : "input.214",
      "top" : "input.214",
      "type" : "elementwise",
      "name" : "input.214",
      "beta" : 0
    },
    {
      "top" : "hx6up.2",
      "use_fractional_scale_factors" : false,
      "weights" : {

      },
      "fractional_scaling_factor_y" : 1,
      "type" : "upsample",
      "scaling_factor_x" : 2,
      "mode" : 1,
      "align_corners" : 0,
      "bottom" : "input.214",
      "debug_info" : "hx6up.2",
      "fractional_scaling_factor_x" : 1,
      "is_legacy_mode" : 0,
      "name" : "hx6up.2",
      "scaling_factor_y" : 2
    },
    {
      "weights" : {

      },
      "debug_info" : "input.215",
      "top" : "input.215",
      "type" : "concat",
      "name" : "input.215",
      "bottom" : "hx6up.2,input.189"
    },
    {
      "pad_r" : 1,
      "fused_relu" : 1,
      "fused_tanh" : 0,
      "debug_info" : "input.216",
      "pad_fill_mode" : 0,
      "pad_b" : 1,
      "pad_l" : 1,
      "top" : "input.218",
      "K" : 128,
      "blob_biases" : 247,
      "name" : "input.216",
      "has_batch_norm" : 0,
      "type" : "convolution",
      "n_groups" : 1,
      "pad_t" : 1,
      "has_biases" : 1,
      "C" : 64,
      "bottom" : "input.215",
      "weights" : {

      },
      "Nx" : 3,
      "pad_mode" : 0,
      "pad_value" : 0,
      "Ny" : 3,
      "n_parallel" : 1,
      "blob_weights_f16" : 249
    },
    {
      "pad_r" : 1,
      "fused_relu" : 1,
      "fused_tanh" : 0,
      "debug_info" : "input.219",
      "pad_fill_mode" : 0,
      "pad_b" : 1,
      "pad_l" : 1,
      "top" : "input.221",
      "K" : 64,
      "blob_biases" : 251,
      "name" : "input.219",
      "has_batch_norm" : 0,
      "type" : "convolution",
      "n_groups" : 1,
      "pad_t" : 1,
      "has_biases" : 1,
      "C" : 16,
      "bottom" : "input.218",
      "weights" : {

      },
      "Nx" : 3,
      "pad_mode" : 0,
      "pad_value" : 0,
      "Ny" : 3,
      "n_parallel" : 1,
      "blob_weights_f16" : 253
    },
    {
      "pad_r" : 2,
      "fused_relu" : 1,
      "fused_tanh" : 0,
      "debug_info" : "input.222",
      "pad_fill_mode" : 0,
      "pad_b" : 2,
      "pad_l" : 2,
      "top" : "input.224",
      "K" : 16,
      "blob_biases" : 255,
      "name" : "input.222",
      "has_batch_norm" : 0,
      "type" : "convolution",
      "n_groups" : 1,
      "pad_t" : 2,
      "has_biases" : 1,
      "C" : 16,
      "bottom" : "input.221",
      "weights" : {

      },
      "Nx" : 3,
      "pad_mode" : 0,
      "dilation_x" : 2,
      "pad_value" : 0,
      "Ny" : 3,
      "n_parallel" : 1,
      "dilation_y" : 2,
      "blob_weights_f16" : 257
    },
    {
      "pad_r" : 4,
      "fused_relu" : 1,
      "fused_tanh" : 0,
      "debug_info" : "input.225",
      "pad_fill_mode" : 0,
      "pad_b" : 4,
      "pad_l" : 4,
      "top" : "input.227",
      "K" : 16,
      "blob_biases" : 259,
      "name" : "input.225",
      "has_batch_norm" : 0,
      "type" : "convolution",
      "n_groups" : 1,
      "pad_t" : 4,
      "has_biases" : 1,
      "C" : 16,
      "bottom" : "input.224",
      "weights" : {

      },
      "Nx" : 3,
      "pad_mode" : 0,
      "dilation_x" : 4,
      "pad_value" : 0,
      "Ny" : 3,
      "n_parallel" : 1,
      "dilation_y" : 4,
      "blob_weights_f16" : 261
    },
    {
      "pad_r" : 8,
      "fused_relu" : 1,
      "fused_tanh" : 0,
      "debug_info" : "input.228",
      "pad_fill_mode" : 0,
      "pad_b" : 8,
      "pad_l" : 8,
      "top" : "hx4.4",
      "K" : 16,
      "blob_biases" : 263,
      "name" : "input.228",
      "has_batch_norm" : 0,
      "type" : "convolution",
      "n_groups" : 1,
      "pad_t" : 8,
      "has_biases" : 1,
      "C" : 16,
      "bottom" : "input.227",
      "weights" : {

      },
      "Nx" : 3,
      "pad_mode" : 0,
      "dilation_x" : 8,
      "pad_value" : 0,
      "Ny" : 3,
      "n_parallel" : 1,
      "dilation_y" : 8,
      "blob_weights_f16" : 265
    },
    {
      "weights" : {

      },
      "debug_info" : "input.230",
      "top" : "input.230",
      "type" : "concat",
      "name" : "input.230",
      "bottom" : "hx4.4,input.227"
    },
    {
      "pad_r" : 4,
      "fused_relu" : 1,
      "fused_tanh" : 0,
      "debug_info" : "input.231",
      "pad_fill_mode" : 0,
      "pad_b" : 4,
      "pad_l" : 4,
      "top" : "hx3d",
      "K" : 32,
      "blob_biases" : 267,
      "name" : "input.231",
      "has_batch_norm" : 0,
      "type" : "convolution",
      "n_groups" : 1,
      "pad_t" : 4,
      "has_biases" : 1,
      "C" : 16,
      "bottom" : "input.230",
      "weights" : {

      },
      "Nx" : 3,
      "pad_mode" : 0,
      "dilation_x" : 4,
      "pad_value" : 0,
      "Ny" : 3,
      "n_parallel" : 1,
      "dilation_y" : 4,
      "blob_weights_f16" : 269
    },
    {
      "weights" : {

      },
      "debug_info" : "input.233",
      "top" : "input.233",
      "type" : "concat",
      "name" : "input.233",
      "bottom" : "hx3d,input.224"
    },
    {
      "pad_r" : 2,
      "fused_relu" : 1,
      "fused_tanh" : 0,
      "debug_info" : "input.234",
      "pad_fill_mode" : 0,
      "pad_b" : 2,
      "pad_l" : 2,
      "top" : "hx2d",
      "K" : 32,
      "blob_biases" : 271,
      "name" : "input.234",
      "has_batch_norm" : 0,
      "type" : "convolution",
      "n_groups" : 1,
      "pad_t" : 2,
      "has_biases" : 1,
      "C" : 16,
      "bottom" : "input.233",
      "weights" : {

      },
      "Nx" : 3,
      "pad_mode" : 0,
      "dilation_x" : 2,
      "pad_value" : 0,
      "Ny" : 3,
      "n_parallel" : 1,
      "dilation_y" : 2,
      "blob_weights_f16" : 273
    },
    {
      "weights" : {

      },
      "debug_info" : "input.236",
      "top" : "input.236",
      "type" : "concat",
      "name" : "input.236",
      "bottom" : "hx2d,input.221"
    },
    {
      "pad_r" : 1,
      "fused_relu" : 1,
      "fused_tanh" : 0,
      "debug_info" : "input.237",
      "pad_fill_mode" : 0,
      "pad_b" : 1,
      "pad_l" : 1,
      "top" : "hx1d.7",
      "K" : 32,
      "blob_biases" : 275,
      "name" : "input.237",
      "has_batch_norm" : 0,
      "type" : "convolution",
      "n_groups" : 1,
      "pad_t" : 1,
      "has_biases" : 1,
      "C" : 64,
      "bottom" : "input.236",
      "weights" : {

      },
      "Nx" : 3,
      "pad_mode" : 0,
      "pad_value" : 0,
      "Ny" : 3,
      "n_parallel" : 1,
      "blob_weights_f16" : 277
    },
    {
      "bottom" : "input.218,hx1d.7",
      "alpha" : 1,
      "operation" : 0,
      "weights" : {

      },
      "fused_relu" : 0,
      "debug_info" : "input.239",
      "top" : "input.239",
      "type" : "elementwise",
      "name" : "input.239",
      "beta" : 0
    },
    {
      "top" : "hx5dup.3",
      "use_fractional_scale_factors" : false,
      "weights" : {

      },
      "fractional_scaling_factor_y" : 1,
      "type" : "upsample",
      "scaling_factor_x" : 2,
      "mode" : 1,
      "align_corners" : 0,
      "bottom" : "input.239",
      "debug_info" : "hx5dup.3",
      "fractional_scaling_factor_x" : 1,
      "is_legacy_mode" : 0,
      "name" : "hx5dup.3",
      "scaling_factor_y" : 2
    },
    {
      "weights" : {

      },
      "debug_info" : "input.240",
      "top" : "input.240",
      "type" : "concat",
      "name" : "input.240",
      "bottom" : "hx5dup.3,input.164"
    },
    {
      "pad_r" : 1,
      "fused_relu" : 1,
      "fused_tanh" : 0,
      "debug_info" : "input.241",
      "pad_fill_mode" : 0,
      "pad_b" : 1,
      "pad_l" : 1,
      "top" : "input.243",
      "K" : 128,
      "blob_biases" : 279,
      "name" : "input.241",
      "has_batch_norm" : 0,
      "type" : "convolution",
      "n_groups" : 1,
      "pad_t" : 1,
      "has_biases" : 1,
      "C" : 64,
      "bottom" : "input.240",
      "weights" : {

      },
      "Nx" : 3,
      "pad_mode" : 0,
      "pad_value" : 0,
      "Ny" : 3,
      "n_parallel" : 1,
      "blob_weights_f16" : 281
    },
    {
      "pad_r" : 1,
      "fused_relu" : 1,
      "fused_tanh" : 0,
      "debug_info" : "input.244",
      "pad_fill_mode" : 0,
      "pad_b" : 1,
      "pad_l" : 1,
      "top" : "input.246",
      "K" : 64,
      "blob_biases" : 283,
      "name" : "input.244",
      "has_batch_norm" : 0,
      "type" : "convolution",
      "n_groups" : 1,
      "pad_t" : 1,
      "has_biases" : 1,
      "C" : 16,
      "bottom" : "input.243",
      "weights" : {

      },
      "Nx" : 3,
      "pad_mode" : 0,
      "pad_value" : 0,
      "Ny" : 3,
      "n_parallel" : 1,
      "blob_weights_f16" : 285
    },
    {
      "pad_r" : 0,
      "debug_info" : "input.247",
      "pad_fill_mode" : 0,
      "pad_b" : 0,
      "pad_l" : 0,
      "size_x" : 2,
      "top" : "input.247",
      "top_shape_style" : 0,
      "stride_x" : 2,
      "avg_or_max" : 1,
      "average_count_exclude_padding" : 1,
      "type" : "pool",
      "name" : "input.247",
      "pad_t" : 0,
      "stride_y" : 2,
      "bottom" : "input.246",
      "weights" : {

      },
      "pad_mode" : 2,
      "size_y" : 2,
      "pad_value" : 0
    },
    {
      "pad_r" : 1,
      "fused_relu" : 1,
      "fused_tanh" : 0,
      "debug_info" : "input.248",
      "pad_fill_mode" : 0,
      "pad_b" : 1,
      "pad_l" : 1,
      "top" : "input.250",
      "K" : 16,
      "blob_biases" : 287,
      "name" : "input.248",
      "has_batch_norm" : 0,
      "type" : "convolution",
      "n_groups" : 1,
      "pad_t" : 1,
      "has_biases" : 1,
      "C" : 16,
      "bottom" : "input.247",
      "weights" : {

      },
      "Nx" : 3,
      "pad_mode" : 0,
      "pad_value" : 0,
      "Ny" : 3,
      "n_parallel" : 1,
      "blob_weights_f16" : 289
    },
    {
      "pad_r" : 0,
      "debug_info" : "input.251",
      "pad_fill_mode" : 0,
      "pad_b" : 0,
      "pad_l" : 0,
      "size_x" : 2,
      "top" : "input.251",
      "top_shape_style" : 0,
      "stride_x" : 2,
      "avg_or_max" : 1,
      "average_count_exclude_padding" : 1,
      "type" : "pool",
      "name" : "input.251",
      "pad_t" : 0,
      "stride_y" : 2,
      "bottom" : "input.250",
      "weights" : {

      },
      "pad_mode" : 2,
      "size_y" : 2,
      "pad_value" : 0
    },
    {
      "pad_r" : 1,
      "fused_relu" : 1,
      "fused_tanh" : 0,
      "debug_info" : "input.252",
      "pad_fill_mode" : 0,
      "pad_b" : 1,
      "pad_l" : 1,
      "top" : "input.254",
      "K" : 16,
      "blob_biases" : 291,
      "name" : "input.252",
      "has_batch_norm" : 0,
      "type" : "convolution",
      "n_groups" : 1,
      "pad_t" : 1,
      "has_biases" : 1,
      "C" : 16,
      "bottom" : "input.251",
      "weights" : {

      },
      "Nx" : 3,
      "pad_mode" : 0,
      "pad_value" : 0,
      "Ny" : 3,
      "n_parallel" : 1,
      "blob_weights_f16" : 293
    },
    {
      "pad_r" : 2,
      "fused_relu" : 1,
      "fused_tanh" : 0,
      "debug_info" : "input.255",
      "pad_fill_mode" : 0,
      "pad_b" : 2,
      "pad_l" : 2,
      "top" : "hx4",
      "K" : 16,
      "blob_biases" : 295,
      "name" : "input.255",
      "has_batch_norm" : 0,
      "type" : "convolution",
      "n_groups" : 1,
      "pad_t" : 2,
      "has_biases" : 1,
      "C" : 16,
      "bottom" : "input.254",
      "weights" : {

      },
      "Nx" : 3,
      "pad_mode" : 0,
      "dilation_x" : 2,
      "pad_value" : 0,
      "Ny" : 3,
      "n_parallel" : 1,
      "dilation_y" : 2,
      "blob_weights_f16" : 297
    },
    {
      "weights" : {

      },
      "debug_info" : "input.257",
      "top" : "input.257",
      "type" : "concat",
      "name" : "input.257",
      "bottom" : "hx4,input.254"
    },
    {
      "pad_r" : 1,
      "fused_relu" : 1,
      "fused_tanh" : 0,
      "debug_info" : "input.258",
      "pad_fill_mode" : 0,
      "pad_b" : 1,
      "pad_l" : 1,
      "top" : "input.260",
      "K" : 32,
      "blob_biases" : 299,
      "name" : "input.258",
      "has_batch_norm" : 0,
      "type" : "convolution",
      "n_groups" : 1,
      "pad_t" : 1,
      "has_biases" : 1,
      "C" : 16,
      "bottom" : "input.257",
      "weights" : {

      },
      "Nx" : 3,
      "pad_mode" : 0,
      "pad_value" : 0,
      "Ny" : 3,
      "n_parallel" : 1,
      "blob_weights_f16" : 301
    },
    {
      "top" : "hx3dup.5",
      "use_fractional_scale_factors" : false,
      "weights" : {

      },
      "fractional_scaling_factor_y" : 1,
      "type" : "upsample",
      "scaling_factor_x" : 2,
      "mode" : 1,
      "align_corners" : 0,
      "bottom" : "input.260",
      "debug_info" : "hx3dup.5",
      "fractional_scaling_factor_x" : 1,
      "is_legacy_mode" : 0,
      "name" : "hx3dup.5",
      "scaling_factor_y" : 2
    },
    {
      "weights" : {

      },
      "debug_info" : "input.261",
      "top" : "input.261",
      "type" : "concat",
      "name" : "input.261",
      "bottom" : "hx3dup.5,input.250"
    },
    {
      "pad_r" : 1,
      "fused_relu" : 1,
      "fused_tanh" : 0,
      "debug_info" : "input.262",
      "pad_fill_mode" : 0,
      "pad_b" : 1,
      "pad_l" : 1,
      "top" : "input.264",
      "K" : 32,
      "blob_biases" : 303,
      "name" : "input.262",
      "has_batch_norm" : 0,
      "type" : "convolution",
      "n_groups" : 1,
      "pad_t" : 1,
      "has_biases" : 1,
      "C" : 16,
      "bottom" : "input.261",
      "weights" : {

      },
      "Nx" : 3,
      "pad_mode" : 0,
      "pad_value" : 0,
      "Ny" : 3,
      "n_parallel" : 1,
      "blob_weights_f16" : 305
    },
    {
      "top" : "hx2dup.5",
      "use_fractional_scale_factors" : false,
      "weights" : {

      },
      "fractional_scaling_factor_y" : 1,
      "type" : "upsample",
      "scaling_factor_x" : 2,
      "mode" : 1,
      "align_corners" : 0,
      "bottom" : "input.264",
      "debug_info" : "hx2dup.5",
      "fractional_scaling_factor_x" : 1,
      "is_legacy_mode" : 0,
      "name" : "hx2dup.5",
      "scaling_factor_y" : 2
    },
    {
      "weights" : {

      },
      "debug_info" : "input.265",
      "top" : "input.265",
      "type" : "concat",
      "name" : "input.265",
      "bottom" : "hx2dup.5,input.246"
    },
    {
      "pad_r" : 1,
      "fused_relu" : 1,
      "fused_tanh" : 0,
      "debug_info" : "input.266",
      "pad_fill_mode" : 0,
      "pad_b" : 1,
      "pad_l" : 1,
      "top" : "hx1d.8",
      "K" : 32,
      "blob_biases" : 307,
      "name" : "input.266",
      "has_batch_norm" : 0,
      "type" : "convolution",
      "n_groups" : 1,
      "pad_t" : 1,
      "has_biases" : 1,
      "C" : 64,
      "bottom" : "input.265",
      "weights" : {

      },
      "Nx" : 3,
      "pad_mode" : 0,
      "pad_value" : 0,
      "Ny" : 3,
      "n_parallel" : 1,
      "blob_weights_f16" : 309
    },
    {
      "bottom" : "input.243,hx1d.8",
      "alpha" : 1,
      "operation" : 0,
      "weights" : {

      },
      "fused_relu" : 0,
      "debug_info" : "input.268",
      "top" : "input.268",
      "type" : "elementwise",
      "name" : "input.268",
      "beta" : 0
    },
    {
      "top" : "hx4dup.4",
      "use_fractional_scale_factors" : false,
      "weights" : {

      },
      "fractional_scaling_factor_y" : 1,
      "type" : "upsample",
      "scaling_factor_x" : 2,
      "mode" : 1,
      "align_corners" : 0,
      "bottom" : "input.268",
      "debug_info" : "hx4dup.4",
      "fractional_scaling_factor_x" : 1,
      "is_legacy_mode" : 0,
      "name" : "hx4dup.4",
      "scaling_factor_y" : 2
    },
    {
      "weights" : {

      },
      "debug_info" : "input.269",
      "top" : "input.269",
      "type" : "concat",
      "name" : "input.269",
      "bottom" : "hx4dup.4,input.135"
    },
    {
      "pad_r" : 1,
      "fused_relu" : 1,
      "fused_tanh" : 0,
      "debug_info" : "input.270",
      "pad_fill_mode" : 0,
      "pad_b" : 1,
      "pad_l" : 1,
      "top" : "input.272",
      "K" : 128,
      "blob_biases" : 311,
      "name" : "input.270",
      "has_batch_norm" : 0,
      "type" : "convolution",
      "n_groups" : 1,
      "pad_t" : 1,
      "has_biases" : 1,
      "C" : 64,
      "bottom" : "input.269",
      "weights" : {

      },
      "Nx" : 3,
      "pad_mode" : 0,
      "pad_value" : 0,
      "Ny" : 3,
      "n_parallel" : 1,
      "blob_weights_f16" : 313
    },
    {
      "pad_r" : 1,
      "fused_relu" : 1,
      "fused_tanh" : 0,
      "debug_info" : "input.273",
      "pad_fill_mode" : 0,
      "pad_b" : 1,
      "pad_l" : 1,
      "top" : "input.275",
      "K" : 64,
      "blob_biases" : 315,
      "name" : "input.273",
      "has_batch_norm" : 0,
      "type" : "convolution",
      "n_groups" : 1,
      "pad_t" : 1,
      "has_biases" : 1,
      "C" : 16,
      "bottom" : "input.272",
      "weights" : {

      },
      "Nx" : 3,
      "pad_mode" : 0,
      "pad_value" : 0,
      "Ny" : 3,
      "n_parallel" : 1,
      "blob_weights_f16" : 317
    },
    {
      "pad_r" : 0,
      "debug_info" : "input.276",
      "pad_fill_mode" : 0,
      "pad_b" : 0,
      "pad_l" : 0,
      "size_x" : 2,
      "top" : "input.276",
      "top_shape_style" : 0,
      "stride_x" : 2,
      "avg_or_max" : 1,
      "average_count_exclude_padding" : 1,
      "type" : "pool",
      "name" : "input.276",
      "pad_t" : 0,
      "stride_y" : 2,
      "bottom" : "input.275",
      "weights" : {

      },
      "pad_mode" : 2,
      "size_y" : 2,
      "pad_value" : 0
    },
    {
      "pad_r" : 1,
      "fused_relu" : 1,
      "fused_tanh" : 0,
      "debug_info" : "input.277",
      "pad_fill_mode" : 0,
      "pad_b" : 1,
      "pad_l" : 1,
      "top" : "input.279",
      "K" : 16,
      "blob_biases" : 319,
      "name" : "input.277",
      "has_batch_norm" : 0,
      "type" : "convolution",
      "n_groups" : 1,
      "pad_t" : 1,
      "has_biases" : 1,
      "C" : 16,
      "bottom" : "input.276",
      "weights" : {

      },
      "Nx" : 3,
      "pad_mode" : 0,
      "pad_value" : 0,
      "Ny" : 3,
      "n_parallel" : 1,
      "blob_weights_f16" : 321
    },
    {
      "pad_r" : 0,
      "debug_info" : "input.280",
      "pad_fill_mode" : 0,
      "pad_b" : 0,
      "pad_l" : 0,
      "size_x" : 2,
      "top" : "input.280",
      "top_shape_style" : 0,
      "stride_x" : 2,
      "avg_or_max" : 1,
      "average_count_exclude_padding" : 1,
      "type" : "pool",
      "name" : "input.280",
      "pad_t" : 0,
      "stride_y" : 2,
      "bottom" : "input.279",
      "weights" : {

      },
      "pad_mode" : 2,
      "size_y" : 2,
      "pad_value" : 0
    },
    {
      "pad_r" : 1,
      "fused_relu" : 1,
      "fused_tanh" : 0,
      "debug_info" : "input.281",
      "pad_fill_mode" : 0,
      "pad_b" : 1,
      "pad_l" : 1,
      "top" : "input.283",
      "K" : 16,
      "blob_biases" : 323,
      "name" : "input.281",
      "has_batch_norm" : 0,
      "type" : "convolution",
      "n_groups" : 1,
      "pad_t" : 1,
      "has_biases" : 1,
      "C" : 16,
      "bottom" : "input.280",
      "weights" : {

      },
      "Nx" : 3,
      "pad_mode" : 0,
      "pad_value" : 0,
      "Ny" : 3,
      "n_parallel" : 1,
      "blob_weights_f16" : 325
    },
    {
      "pad_r" : 0,
      "debug_info" : "input.284",
      "pad_fill_mode" : 0,
      "pad_b" : 0,
      "pad_l" : 0,
      "size_x" : 2,
      "top" : "input.284",
      "top_shape_style" : 0,
      "stride_x" : 2,
      "avg_or_max" : 1,
      "average_count_exclude_padding" : 1,
      "type" : "pool",
      "name" : "input.284",
      "pad_t" : 0,
      "stride_y" : 2,
      "bottom" : "input.283",
      "weights" : {

      },
      "pad_mode" : 2,
      "size_y" : 2,
      "pad_value" : 0
    },
    {
      "pad_r" : 1,
      "fused_relu" : 1,
      "fused_tanh" : 0,
      "debug_info" : "input.285",
      "pad_fill_mode" : 0,
      "pad_b" : 1,
      "pad_l" : 1,
      "top" : "input.287",
      "K" : 16,
      "blob_biases" : 327,
      "name" : "input.285",
      "has_batch_norm" : 0,
      "type" : "convolution",
      "n_groups" : 1,
      "pad_t" : 1,
      "has_biases" : 1,
      "C" : 16,
      "bottom" : "input.284",
      "weights" : {

      },
      "Nx" : 3,
      "pad_mode" : 0,
      "pad_value" : 0,
      "Ny" : 3,
      "n_parallel" : 1,
      "blob_weights_f16" : 329
    },
    {
      "pad_r" : 2,
      "fused_relu" : 1,
      "fused_tanh" : 0,
      "debug_info" : "input.288",
      "pad_fill_mode" : 0,
      "pad_b" : 2,
      "pad_l" : 2,
      "top" : "hx5",
      "K" : 16,
      "blob_biases" : 331,
      "name" : "input.288",
      "has_batch_norm" : 0,
      "type" : "convolution",
      "n_groups" : 1,
      "pad_t" : 2,
      "has_biases" : 1,
      "C" : 16,
      "bottom" : "input.287",
      "weights" : {

      },
      "Nx" : 3,
      "pad_mode" : 0,
      "dilation_x" : 2,
      "pad_value" : 0,
      "Ny" : 3,
      "n_parallel" : 1,
      "dilation_y" : 2,
      "blob_weights_f16" : 333
    },
    {
      "weights" : {

      },
      "debug_info" : "input.290",
      "top" : "input.290",
      "type" : "concat",
      "name" : "input.290",
      "bottom" : "hx5,input.287"
    },
    {
      "pad_r" : 1,
      "fused_relu" : 1,
      "fused_tanh" : 0,
      "debug_info" : "input.291",
      "pad_fill_mode" : 0,
      "pad_b" : 1,
      "pad_l" : 1,
      "top" : "input.293",
      "K" : 32,
      "blob_biases" : 335,
      "name" : "input.291",
      "has_batch_norm" : 0,
      "type" : "convolution",
      "n_groups" : 1,
      "pad_t" : 1,
      "has_biases" : 1,
      "C" : 16,
      "bottom" : "input.290",
      "weights" : {

      },
      "Nx" : 3,
      "pad_mode" : 0,
      "pad_value" : 0,
      "Ny" : 3,
      "n_parallel" : 1,
      "blob_weights_f16" : 337
    },
    {
      "top" : "hx4dup.5",
      "use_fractional_scale_factors" : false,
      "weights" : {

      },
      "fractional_scaling_factor_y" : 1,
      "type" : "upsample",
      "scaling_factor_x" : 2,
      "mode" : 1,
      "align_corners" : 0,
      "bottom" : "input.293",
      "debug_info" : "hx4dup.5",
      "fractional_scaling_factor_x" : 1,
      "is_legacy_mode" : 0,
      "name" : "hx4dup.5",
      "scaling_factor_y" : 2
    },
    {
      "weights" : {

      },
      "debug_info" : "input.294",
      "top" : "input.294",
      "type" : "concat",
      "name" : "input.294",
      "bottom" : "hx4dup.5,input.283"
    },
    {
      "pad_r" : 1,
      "fused_relu" : 1,
      "fused_tanh" : 0,
      "debug_info" : "input.295",
      "pad_fill_mode" : 0,
      "pad_b" : 1,
      "pad_l" : 1,
      "top" : "input.297",
      "K" : 32,
      "blob_biases" : 339,
      "name" : "input.295",
      "has_batch_norm" : 0,
      "type" : "convolution",
      "n_groups" : 1,
      "pad_t" : 1,
      "has_biases" : 1,
      "C" : 16,
      "bottom" : "input.294",
      "weights" : {

      },
      "Nx" : 3,
      "pad_mode" : 0,
      "pad_value" : 0,
      "Ny" : 3,
      "n_parallel" : 1,
      "blob_weights_f16" : 341
    },
    {
      "top" : "hx3dup.6",
      "use_fractional_scale_factors" : false,
      "weights" : {

      },
      "fractional_scaling_factor_y" : 1,
      "type" : "upsample",
      "scaling_factor_x" : 2,
      "mode" : 1,
      "align_corners" : 0,
      "bottom" : "input.297",
      "debug_info" : "hx3dup.6",
      "fractional_scaling_factor_x" : 1,
      "is_legacy_mode" : 0,
      "name" : "hx3dup.6",
      "scaling_factor_y" : 2
    },
    {
      "weights" : {

      },
      "debug_info" : "input.298",
      "top" : "input.298",
      "type" : "concat",
      "name" : "input.298",
      "bottom" : "hx3dup.6,input.279"
    },
    {
      "pad_r" : 1,
      "fused_relu" : 1,
      "fused_tanh" : 0,
      "debug_info" : "input.299",
      "pad_fill_mode" : 0,
      "pad_b" : 1,
      "pad_l" : 1,
      "top" : "input.301",
      "K" : 32,
      "blob_biases" : 343,
      "name" : "input.299",
      "has_batch_norm" : 0,
      "type" : "convolution",
      "n_groups" : 1,
      "pad_t" : 1,
      "has_biases" : 1,
      "C" : 16,
      "bottom" : "input.298",
      "weights" : {

      },
      "Nx" : 3,
      "pad_mode" : 0,
      "pad_value" : 0,
      "Ny" : 3,
      "n_parallel" : 1,
      "blob_weights_f16" : 345
    },
    {
      "top" : "hx2dup.6",
      "use_fractional_scale_factors" : false,
      "weights" : {

      },
      "fractional_scaling_factor_y" : 1,
      "type" : "upsample",
      "scaling_factor_x" : 2,
      "mode" : 1,
      "align_corners" : 0,
      "bottom" : "input.301",
      "debug_info" : "hx2dup.6",
      "fractional_scaling_factor_x" : 1,
      "is_legacy_mode" : 0,
      "name" : "hx2dup.6",
      "scaling_factor_y" : 2
    },
    {
      "weights" : {

      },
      "debug_info" : "input.302",
      "top" : "input.302",
      "type" : "concat",
      "name" : "input.302",
      "bottom" : "hx2dup.6,input.275"
    },
    {
      "pad_r" : 1,
      "fused_relu" : 1,
      "fused_tanh" : 0,
      "debug_info" : "input.303",
      "pad_fill_mode" : 0,
      "pad_b" : 1,
      "pad_l" : 1,
      "top" : "hx1d.9",
      "K" : 32,
      "blob_biases" : 347,
      "name" : "input.303",
      "has_batch_norm" : 0,
      "type" : "convolution",
      "n_groups" : 1,
      "pad_t" : 1,
      "has_biases" : 1,
      "C" : 64,
      "bottom" : "input.302",
      "weights" : {

      },
      "Nx" : 3,
      "pad_mode" : 0,
      "pad_value" : 0,
      "Ny" : 3,
      "n_parallel" : 1,
      "blob_weights_f16" : 349
    },
    {
      "bottom" : "input.272,hx1d.9",
      "alpha" : 1,
      "operation" : 0,
      "weights" : {

      },
      "fused_relu" : 0,
      "debug_info" : "input.305",
      "top" : "input.305",
      "type" : "elementwise",
      "name" : "input.305",
      "beta" : 0
    },
    {
      "top" : "hx3dup.7",
      "use_fractional_scale_factors" : false,
      "weights" : {

      },
      "fractional_scaling_factor_y" : 1,
      "type" : "upsample",
      "scaling_factor_x" : 2,
      "mode" : 1,
      "align_corners" : 0,
      "bottom" : "input.305",
      "debug_info" : "hx3dup.7",
      "fractional_scaling_factor_x" : 1,
      "is_legacy_mode" : 0,
      "name" : "hx3dup.7",
      "scaling_factor_y" : 2
    },
    {
      "weights" : {

      },
      "debug_info" : "input.306",
      "top" : "input.306",
      "type" : "concat",
      "name" : "input.306",
      "bottom" : "hx3dup.7,input.98"
    },
    {
      "pad_r" : 1,
      "fused_relu" : 1,
      "fused_tanh" : 0,
      "debug_info" : "input.307",
      "pad_fill_mode" : 0,
      "pad_b" : 1,
      "pad_l" : 1,
      "top" : "input.309",
      "K" : 128,
      "blob_biases" : 351,
      "name" : "input.307",
      "has_batch_norm" : 0,
      "type" : "convolution",
      "n_groups" : 1,
      "pad_t" : 1,
      "has_biases" : 1,
      "C" : 64,
      "bottom" : "input.306",
      "weights" : {

      },
      "Nx" : 3,
      "pad_mode" : 0,
      "pad_value" : 0,
      "Ny" : 3,
      "n_parallel" : 1,
      "blob_weights_f16" : 353
    },
    {
      "pad_r" : 1,
      "fused_relu" : 1,
      "fused_tanh" : 0,
      "debug_info" : "input.310",
      "pad_fill_mode" : 0,
      "pad_b" : 1,
      "pad_l" : 1,
      "top" : "input.312",
      "K" : 64,
      "blob_biases" : 355,
      "name" : "input.310",
      "has_batch_norm" : 0,
      "type" : "convolution",
      "n_groups" : 1,
      "pad_t" : 1,
      "has_biases" : 1,
      "C" : 16,
      "bottom" : "input.309",
      "weights" : {

      },
      "Nx" : 3,
      "pad_mode" : 0,
      "pad_value" : 0,
      "Ny" : 3,
      "n_parallel" : 1,
      "blob_weights_f16" : 357
    },
    {
      "pad_r" : 0,
      "debug_info" : "input.313",
      "pad_fill_mode" : 0,
      "pad_b" : 0,
      "pad_l" : 0,
      "size_x" : 2,
      "top" : "input.313",
      "top_shape_style" : 0,
      "stride_x" : 2,
      "avg_or_max" : 1,
      "average_count_exclude_padding" : 1,
      "type" : "pool",
      "name" : "input.313",
      "pad_t" : 0,
      "stride_y" : 2,
      "bottom" : "input.312",
      "weights" : {

      },
      "pad_mode" : 2,
      "size_y" : 2,
      "pad_value" : 0
    },
    {
      "pad_r" : 1,
      "fused_relu" : 1,
      "fused_tanh" : 0,
      "debug_info" : "input.314",
      "pad_fill_mode" : 0,
      "pad_b" : 1,
      "pad_l" : 1,
      "top" : "input.316",
      "K" : 16,
      "blob_biases" : 359,
      "name" : "input.314",
      "has_batch_norm" : 0,
      "type" : "convolution",
      "n_groups" : 1,
      "pad_t" : 1,
      "has_biases" : 1,
      "C" : 16,
      "bottom" : "input.313",
      "weights" : {

      },
      "Nx" : 3,
      "pad_mode" : 0,
      "pad_value" : 0,
      "Ny" : 3,
      "n_parallel" : 1,
      "blob_weights_f16" : 361
    },
    {
      "pad_r" : 0,
      "debug_info" : "input.317",
      "pad_fill_mode" : 0,
      "pad_b" : 0,
      "pad_l" : 0,
      "size_x" : 2,
      "top" : "input.317",
      "top_shape_style" : 0,
      "stride_x" : 2,
      "avg_or_max" : 1,
      "average_count_exclude_padding" : 1,
      "type" : "pool",
      "name" : "input.317",
      "pad_t" : 0,
      "stride_y" : 2,
      "bottom" : "input.316",
      "weights" : {

      },
      "pad_mode" : 2,
      "size_y" : 2,
      "pad_value" : 0
    },
    {
      "pad_r" : 1,
      "fused_relu" : 1,
      "fused_tanh" : 0,
      "debug_info" : "input.318",
      "pad_fill_mode" : 0,
      "pad_b" : 1,
      "pad_l" : 1,
      "top" : "input.320",
      "K" : 16,
      "blob_biases" : 363,
      "name" : "input.318",
      "has_batch_norm" : 0,
      "type" : "convolution",
      "n_groups" : 1,
      "pad_t" : 1,
      "has_biases" : 1,
      "C" : 16,
      "bottom" : "input.317",
      "weights" : {

      },
      "Nx" : 3,
      "pad_mode" : 0,
      "pad_value" : 0,
      "Ny" : 3,
      "n_parallel" : 1,
      "blob_weights_f16" : 365
    },
    {
      "pad_r" : 0,
      "debug_info" : "input.321",
      "pad_fill_mode" : 0,
      "pad_b" : 0,
      "pad_l" : 0,
      "size_x" : 2,
      "top" : "input.321",
      "top_shape_style" : 0,
      "stride_x" : 2,
      "avg_or_max" : 1,
      "average_count_exclude_padding" : 1,
      "type" : "pool",
      "name" : "input.321",
      "pad_t" : 0,
      "stride_y" : 2,
      "bottom" : "input.320",
      "weights" : {

      },
      "pad_mode" : 2,
      "size_y" : 2,
      "pad_value" : 0
    },
    {
      "pad_r" : 1,
      "fused_relu" : 1,
      "fused_tanh" : 0,
      "debug_info" : "input.322",
      "pad_fill_mode" : 0,
      "pad_b" : 1,
      "pad_l" : 1,
      "top" : "input.324",
      "K" : 16,
      "blob_biases" : 367,
      "name" : "input.322",
      "has_batch_norm" : 0,
      "type" : "convolution",
      "n_groups" : 1,
      "pad_t" : 1,
      "has_biases" : 1,
      "C" : 16,
      "bottom" : "input.321",
      "weights" : {

      },
      "Nx" : 3,
      "pad_mode" : 0,
      "pad_value" : 0,
      "Ny" : 3,
      "n_parallel" : 1,
      "blob_weights_f16" : 369
    },
    {
      "pad_r" : 0,
      "debug_info" : "input.325",
      "pad_fill_mode" : 0,
      "pad_b" : 0,
      "pad_l" : 0,
      "size_x" : 2,
      "top" : "input.325",
      "top_shape_style" : 0,
      "stride_x" : 2,
      "avg_or_max" : 1,
      "average_count_exclude_padding" : 1,
      "type" : "pool",
      "name" : "input.325",
      "pad_t" : 0,
      "stride_y" : 2,
      "bottom" : "input.324",
      "weights" : {

      },
      "pad_mode" : 2,
      "size_y" : 2,
      "pad_value" : 0
    },
    {
      "pad_r" : 1,
      "fused_relu" : 1,
      "fused_tanh" : 0,
      "debug_info" : "input.326",
      "pad_fill_mode" : 0,
      "pad_b" : 1,
      "pad_l" : 1,
      "top" : "input.328",
      "K" : 16,
      "blob_biases" : 371,
      "name" : "input.326",
      "has_batch_norm" : 0,
      "type" : "convolution",
      "n_groups" : 1,
      "pad_t" : 1,
      "has_biases" : 1,
      "C" : 16,
      "bottom" : "input.325",
      "weights" : {

      },
      "Nx" : 3,
      "pad_mode" : 0,
      "pad_value" : 0,
      "Ny" : 3,
      "n_parallel" : 1,
      "blob_weights_f16" : 373
    },
    {
      "pad_r" : 2,
      "fused_relu" : 1,
      "fused_tanh" : 0,
      "debug_info" : "input.329",
      "pad_fill_mode" : 0,
      "pad_b" : 2,
      "pad_l" : 2,
      "top" : "hx6",
      "K" : 16,
      "blob_biases" : 375,
      "name" : "input.329",
      "has_batch_norm" : 0,
      "type" : "convolution",
      "n_groups" : 1,
      "pad_t" : 2,
      "has_biases" : 1,
      "C" : 16,
      "bottom" : "input.328",
      "weights" : {

      },
      "Nx" : 3,
      "pad_mode" : 0,
      "dilation_x" : 2,
      "pad_value" : 0,
      "Ny" : 3,
      "n_parallel" : 1,
      "dilation_y" : 2,
      "blob_weights_f16" : 377
    },
    {
      "weights" : {

      },
      "debug_info" : "input.331",
      "top" : "input.331",
      "type" : "concat",
      "name" : "input.331",
      "bottom" : "hx6,input.328"
    },
    {
      "pad_r" : 1,
      "fused_relu" : 1,
      "fused_tanh" : 0,
      "debug_info" : "input.332",
      "pad_fill_mode" : 0,
      "pad_b" : 1,
      "pad_l" : 1,
      "top" : "input.334",
      "K" : 32,
      "blob_biases" : 379,
      "name" : "input.332",
      "has_batch_norm" : 0,
      "type" : "convolution",
      "n_groups" : 1,
      "pad_t" : 1,
      "has_biases" : 1,
      "C" : 16,
      "bottom" : "input.331",
      "weights" : {

      },
      "Nx" : 3,
      "pad_mode" : 0,
      "pad_value" : 0,
      "Ny" : 3,
      "n_parallel" : 1,
      "blob_weights_f16" : 381
    },
    {
      "top" : "hx5dup.4",
      "use_fractional_scale_factors" : false,
      "weights" : {

      },
      "fractional_scaling_factor_y" : 1,
      "type" : "upsample",
      "scaling_factor_x" : 2,
      "mode" : 1,
      "align_corners" : 0,
      "bottom" : "input.334",
      "debug_info" : "hx5dup.4",
      "fractional_scaling_factor_x" : 1,
      "is_legacy_mode" : 0,
      "name" : "hx5dup.4",
      "scaling_factor_y" : 2
    },
    {
      "weights" : {

      },
      "debug_info" : "input.335",
      "top" : "input.335",
      "type" : "concat",
      "name" : "input.335",
      "bottom" : "hx5dup.4,input.324"
    },
    {
      "pad_r" : 1,
      "fused_relu" : 1,
      "fused_tanh" : 0,
      "debug_info" : "input.336",
      "pad_fill_mode" : 0,
      "pad_b" : 1,
      "pad_l" : 1,
      "top" : "input.338",
      "K" : 32,
      "blob_biases" : 383,
      "name" : "input.336",
      "has_batch_norm" : 0,
      "type" : "convolution",
      "n_groups" : 1,
      "pad_t" : 1,
      "has_biases" : 1,
      "C" : 16,
      "bottom" : "input.335",
      "weights" : {

      },
      "Nx" : 3,
      "pad_mode" : 0,
      "pad_value" : 0,
      "Ny" : 3,
      "n_parallel" : 1,
      "blob_weights_f16" : 385
    },
    {
      "top" : "hx4dup.6",
      "use_fractional_scale_factors" : false,
      "weights" : {

      },
      "fractional_scaling_factor_y" : 1,
      "type" : "upsample",
      "scaling_factor_x" : 2,
      "mode" : 1,
      "align_corners" : 0,
      "bottom" : "input.338",
      "debug_info" : "hx4dup.6",
      "fractional_scaling_factor_x" : 1,
      "is_legacy_mode" : 0,
      "name" : "hx4dup.6",
      "scaling_factor_y" : 2
    },
    {
      "weights" : {

      },
      "debug_info" : "input.339",
      "top" : "input.339",
      "type" : "concat",
      "name" : "input.339",
      "bottom" : "hx4dup.6,input.320"
    },
    {
      "pad_r" : 1,
      "fused_relu" : 1,
      "fused_tanh" : 0,
      "debug_info" : "input.340",
      "pad_fill_mode" : 0,
      "pad_b" : 1,
      "pad_l" : 1,
      "top" : "input.342",
      "K" : 32,
      "blob_biases" : 387,
      "name" : "input.340",
      "has_batch_norm" : 0,
      "type" : "convolution",
      "n_groups" : 1,
      "pad_t" : 1,
      "has_biases" : 1,
      "C" : 16,
      "bottom" : "input.339",
      "weights" : {

      },
      "Nx" : 3,
      "pad_mode" : 0,
      "pad_value" : 0,
      "Ny" : 3,
      "n_parallel" : 1,
      "blob_weights_f16" : 389
    },
    {
      "top" : "hx3dup.8",
      "use_fractional_scale_factors" : false,
      "weights" : {

      },
      "fractional_scaling_factor_y" : 1,
      "type" : "upsample",
      "scaling_factor_x" : 2,
      "mode" : 1,
      "align_corners" : 0,
      "bottom" : "input.342",
      "debug_info" : "hx3dup.8",
      "fractional_scaling_factor_x" : 1,
      "is_legacy_mode" : 0,
      "name" : "hx3dup.8",
      "scaling_factor_y" : 2
    },
    {
      "weights" : {

      },
      "debug_info" : "input.343",
      "top" : "input.343",
      "type" : "concat",
      "name" : "input.343",
      "bottom" : "hx3dup.8,input.316"
    },
    {
      "pad_r" : 1,
      "fused_relu" : 1,
      "fused_tanh" : 0,
      "debug_info" : "input.344",
      "pad_fill_mode" : 0,
      "pad_b" : 1,
      "pad_l" : 1,
      "top" : "input.346",
      "K" : 32,
      "blob_biases" : 391,
      "name" : "input.344",
      "has_batch_norm" : 0,
      "type" : "convolution",
      "n_groups" : 1,
      "pad_t" : 1,
      "has_biases" : 1,
      "C" : 16,
      "bottom" : "input.343",
      "weights" : {

      },
      "Nx" : 3,
      "pad_mode" : 0,
      "pad_value" : 0,
      "Ny" : 3,
      "n_parallel" : 1,
      "blob_weights_f16" : 393
    },
    {
      "top" : "hx2dup.7",
      "use_fractional_scale_factors" : false,
      "weights" : {

      },
      "fractional_scaling_factor_y" : 1,
      "type" : "upsample",
      "scaling_factor_x" : 2,
      "mode" : 1,
      "align_corners" : 0,
      "bottom" : "input.346",
      "debug_info" : "hx2dup.7",
      "fractional_scaling_factor_x" : 1,
      "is_legacy_mode" : 0,
      "name" : "hx2dup.7",
      "scaling_factor_y" : 2
    },
    {
      "weights" : {

      },
      "debug_info" : "input.347",
      "top" : "input.347",
      "type" : "concat",
      "name" : "input.347",
      "bottom" : "hx2dup.7,input.312"
    },
    {
      "pad_r" : 1,
      "fused_relu" : 1,
      "fused_tanh" : 0,
      "debug_info" : "input.348",
      "pad_fill_mode" : 0,
      "pad_b" : 1,
      "pad_l" : 1,
      "top" : "hx1d.10",
      "K" : 32,
      "blob_biases" : 395,
      "name" : "input.348",
      "has_batch_norm" : 0,
      "type" : "convolution",
      "n_groups" : 1,
      "pad_t" : 1,
      "has_biases" : 1,
      "C" : 64,
      "bottom" : "input.347",
      "weights" : {

      },
      "Nx" : 3,
      "pad_mode" : 0,
      "pad_value" : 0,
      "Ny" : 3,
      "n_parallel" : 1,
      "blob_weights_f16" : 397
    },
    {
      "bottom" : "input.309,hx1d.10",
      "alpha" : 1,
      "operation" : 0,
      "weights" : {

      },
      "fused_relu" : 0,
      "debug_info" : "input.350",
      "top" : "input.350",
      "type" : "elementwise",
      "name" : "input.350",
      "beta" : 0
    },
    {
      "top" : "hx2dup.8",
      "use_fractional_scale_factors" : false,
      "weights" : {

      },
      "fractional_scaling_factor_y" : 1,
      "type" : "upsample",
      "scaling_factor_x" : 2,
      "mode" : 1,
      "align_corners" : 0,
      "bottom" : "input.350",
      "debug_info" : "hx2dup.8",
      "fractional_scaling_factor_x" : 1,
      "is_legacy_mode" : 0,
      "name" : "hx2dup.8",
      "scaling_factor_y" : 2
    },
    {
      "weights" : {

      },
      "debug_info" : "input.351",
      "top" : "input.351",
      "type" : "concat",
      "name" : "input.351",
      "bottom" : "hx2dup.8,input.53"
    },
    {
      "pad_r" : 1,
      "fused_relu" : 1,
      "fused_tanh" : 0,
      "debug_info" : "input.352",
      "pad_fill_mode" : 0,
      "pad_b" : 1,
      "pad_l" : 1,
      "top" : "input.354",
      "K" : 128,
      "blob_biases" : 399,
      "name" : "input.352",
      "has_batch_norm" : 0,
      "type" : "convolution",
      "n_groups" : 1,
      "pad_t" : 1,
      "has_biases" : 1,
      "C" : 64,
      "bottom" : "input.351",
      "weights" : {

      },
      "Nx" : 3,
      "pad_mode" : 0,
      "pad_value" : 0,
      "Ny" : 3,
      "n_parallel" : 1,
      "blob_weights_f16" : 401
    },
    {
      "pad_r" : 1,
      "fused_relu" : 1,
      "fused_tanh" : 0,
      "debug_info" : "input.355",
      "pad_fill_mode" : 0,
      "pad_b" : 1,
      "pad_l" : 1,
      "top" : "input.357",
      "K" : 64,
      "blob_biases" : 403,
      "name" : "input.355",
      "has_batch_norm" : 0,
      "type" : "convolution",
      "n_groups" : 1,
      "pad_t" : 1,
      "has_biases" : 1,
      "C" : 16,
      "bottom" : "input.354",
      "weights" : {

      },
      "Nx" : 3,
      "pad_mode" : 0,
      "pad_value" : 0,
      "Ny" : 3,
      "n_parallel" : 1,
      "blob_weights_f16" : 405
    },
    {
      "pad_r" : 0,
      "debug_info" : "input.358",
      "pad_fill_mode" : 0,
      "pad_b" : 0,
      "pad_l" : 0,
      "size_x" : 2,
      "top" : "input.358",
      "top_shape_style" : 0,
      "stride_x" : 2,
      "avg_or_max" : 1,
      "average_count_exclude_padding" : 1,
      "type" : "pool",
      "name" : "input.358",
      "pad_t" : 0,
      "stride_y" : 2,
      "bottom" : "input.357",
      "weights" : {

      },
      "pad_mode" : 2,
      "size_y" : 2,
      "pad_value" : 0
    },
    {
      "pad_r" : 1,
      "fused_relu" : 1,
      "fused_tanh" : 0,
      "debug_info" : "input.359",
      "pad_fill_mode" : 0,
      "pad_b" : 1,
      "pad_l" : 1,
      "top" : "input.361",
      "K" : 16,
      "blob_biases" : 407,
      "name" : "input.359",
      "has_batch_norm" : 0,
      "type" : "convolution",
      "n_groups" : 1,
      "pad_t" : 1,
      "has_biases" : 1,
      "C" : 16,
      "bottom" : "input.358",
      "weights" : {

      },
      "Nx" : 3,
      "pad_mode" : 0,
      "pad_value" : 0,
      "Ny" : 3,
      "n_parallel" : 1,
      "blob_weights_f16" : 409
    },
    {
      "pad_r" : 0,
      "debug_info" : "input.362",
      "pad_fill_mode" : 0,
      "pad_b" : 0,
      "pad_l" : 0,
      "size_x" : 2,
      "top" : "input.362",
      "top_shape_style" : 0,
      "stride_x" : 2,
      "avg_or_max" : 1,
      "average_count_exclude_padding" : 1,
      "type" : "pool",
      "name" : "input.362",
      "pad_t" : 0,
      "stride_y" : 2,
      "bottom" : "input.361",
      "weights" : {

      },
      "pad_mode" : 2,
      "size_y" : 2,
      "pad_value" : 0
    },
    {
      "pad_r" : 1,
      "fused_relu" : 1,
      "fused_tanh" : 0,
      "debug_info" : "input.363",
      "pad_fill_mode" : 0,
      "pad_b" : 1,
      "pad_l" : 1,
      "top" : "input.365",
      "K" : 16,
      "blob_biases" : 411,
      "name" : "input.363",
      "has_batch_norm" : 0,
      "type" : "convolution",
      "n_groups" : 1,
      "pad_t" : 1,
      "has_biases" : 1,
      "C" : 16,
      "bottom" : "input.362",
      "weights" : {

      },
      "Nx" : 3,
      "pad_mode" : 0,
      "pad_value" : 0,
      "Ny" : 3,
      "n_parallel" : 1,
      "blob_weights_f16" : 413
    },
    {
      "pad_r" : 0,
      "debug_info" : "input.366",
      "pad_fill_mode" : 0,
      "pad_b" : 0,
      "pad_l" : 0,
      "size_x" : 2,
      "top" : "input.366",
      "top_shape_style" : 0,
      "stride_x" : 2,
      "avg_or_max" : 1,
      "average_count_exclude_padding" : 1,
      "type" : "pool",
      "name" : "input.366",
      "pad_t" : 0,
      "stride_y" : 2,
      "bottom" : "input.365",
      "weights" : {

      },
      "pad_mode" : 2,
      "size_y" : 2,
      "pad_value" : 0
    },
    {
      "pad_r" : 1,
      "fused_relu" : 1,
      "fused_tanh" : 0,
      "debug_info" : "input.367",
      "pad_fill_mode" : 0,
      "pad_b" : 1,
      "pad_l" : 1,
      "top" : "input.369",
      "K" : 16,
      "blob_biases" : 415,
      "name" : "input.367",
      "has_batch_norm" : 0,
      "type" : "convolution",
      "n_groups" : 1,
      "pad_t" : 1,
      "has_biases" : 1,
      "C" : 16,
      "bottom" : "input.366",
      "weights" : {

      },
      "Nx" : 3,
      "pad_mode" : 0,
      "pad_value" : 0,
      "Ny" : 3,
      "n_parallel" : 1,
      "blob_weights_f16" : 417
    },
    {
      "pad_r" : 0,
      "debug_info" : "input.370",
      "pad_fill_mode" : 0,
      "pad_b" : 0,
      "pad_l" : 0,
      "size_x" : 2,
      "top" : "input.370",
      "top_shape_style" : 0,
      "stride_x" : 2,
      "avg_or_max" : 1,
      "average_count_exclude_padding" : 1,
      "type" : "pool",
      "name" : "input.370",
      "pad_t" : 0,
      "stride_y" : 2,
      "bottom" : "input.369",
      "weights" : {

      },
      "pad_mode" : 2,
      "size_y" : 2,
      "pad_value" : 0
    },
    {
      "pad_r" : 1,
      "fused_relu" : 1,
      "fused_tanh" : 0,
      "debug_info" : "input.371",
      "pad_fill_mode" : 0,
      "pad_b" : 1,
      "pad_l" : 1,
      "top" : "input.373",
      "K" : 16,
      "blob_biases" : 419,
      "name" : "input.371",
      "has_batch_norm" : 0,
      "type" : "convolution",
      "n_groups" : 1,
      "pad_t" : 1,
      "has_biases" : 1,
      "C" : 16,
      "bottom" : "input.370",
      "weights" : {

      },
      "Nx" : 3,
      "pad_mode" : 0,
      "pad_value" : 0,
      "Ny" : 3,
      "n_parallel" : 1,
      "blob_weights_f16" : 421
    },
    {
      "pad_r" : 0,
      "debug_info" : "input.374",
      "pad_fill_mode" : 0,
      "pad_b" : 0,
      "pad_l" : 0,
      "size_x" : 2,
      "top" : "input.374",
      "top_shape_style" : 0,
      "stride_x" : 2,
      "avg_or_max" : 1,
      "average_count_exclude_padding" : 1,
      "type" : "pool",
      "name" : "input.374",
      "pad_t" : 0,
      "stride_y" : 2,
      "bottom" : "input.373",
      "weights" : {

      },
      "pad_mode" : 2,
      "size_y" : 2,
      "pad_value" : 0
    },
    {
      "pad_r" : 1,
      "fused_relu" : 1,
      "fused_tanh" : 0,
      "debug_info" : "input.375",
      "pad_fill_mode" : 0,
      "pad_b" : 1,
      "pad_l" : 1,
      "top" : "input.377",
      "K" : 16,
      "blob_biases" : 423,
      "name" : "input.375",
      "has_batch_norm" : 0,
      "type" : "convolution",
      "n_groups" : 1,
      "pad_t" : 1,
      "has_biases" : 1,
      "C" : 16,
      "bottom" : "input.374",
      "weights" : {

      },
      "Nx" : 3,
      "pad_mode" : 0,
      "pad_value" : 0,
      "Ny" : 3,
      "n_parallel" : 1,
      "blob_weights_f16" : 425
    },
    {
      "pad_r" : 2,
      "fused_relu" : 1,
      "fused_tanh" : 0,
      "debug_info" : "input.378",
      "pad_fill_mode" : 0,
      "pad_b" : 2,
      "pad_l" : 2,
      "top" : "hx7",
      "K" : 16,
      "blob_biases" : 427,
      "name" : "input.378",
      "has_batch_norm" : 0,
      "type" : "convolution",
      "n_groups" : 1,
      "pad_t" : 2,
      "has_biases" : 1,
      "C" : 16,
      "bottom" : "input.377",
      "weights" : {

      },
      "Nx" : 3,
      "pad_mode" : 0,
      "dilation_x" : 2,
      "pad_value" : 0,
      "Ny" : 3,
      "n_parallel" : 1,
      "dilation_y" : 2,
      "blob_weights_f16" : 429
    },
    {
      "weights" : {

      },
      "debug_info" : "input.380",
      "top" : "input.380",
      "type" : "concat",
      "name" : "input.380",
      "bottom" : "hx7,input.377"
    },
    {
      "pad_r" : 1,
      "fused_relu" : 1,
      "fused_tanh" : 0,
      "debug_info" : "input.381",
      "pad_fill_mode" : 0,
      "pad_b" : 1,
      "pad_l" : 1,
      "top" : "input.383",
      "K" : 32,
      "blob_biases" : 431,
      "name" : "input.381",
      "has_batch_norm" : 0,
      "type" : "convolution",
      "n_groups" : 1,
      "pad_t" : 1,
      "has_biases" : 1,
      "C" : 16,
      "bottom" : "input.380",
      "weights" : {

      },
      "Nx" : 3,
      "pad_mode" : 0,
      "pad_value" : 0,
      "Ny" : 3,
      "n_parallel" : 1,
      "blob_weights_f16" : 433
    },
    {
      "top" : "hx6up",
      "use_fractional_scale_factors" : false,
      "weights" : {

      },
      "fractional_scaling_factor_y" : 1,
      "type" : "upsample",
      "scaling_factor_x" : 2,
      "mode" : 1,
      "align_corners" : 0,
      "bottom" : "input.383",
      "debug_info" : "hx6up",
      "fractional_scaling_factor_x" : 1,
      "is_legacy_mode" : 0,
      "name" : "hx6up",
      "scaling_factor_y" : 2
    },
    {
      "weights" : {

      },
      "debug_info" : "input.384",
      "top" : "input.384",
      "type" : "concat",
      "name" : "input.384",
      "bottom" : "hx6up,input.373"
    },
    {
      "pad_r" : 1,
      "fused_relu" : 1,
      "fused_tanh" : 0,
      "debug_info" : "input.385",
      "pad_fill_mode" : 0,
      "pad_b" : 1,
      "pad_l" : 1,
      "top" : "input.387",
      "K" : 32,
      "blob_biases" : 435,
      "name" : "input.385",
      "has_batch_norm" : 0,
      "type" : "convolution",
      "n_groups" : 1,
      "pad_t" : 1,
      "has_biases" : 1,
      "C" : 16,
      "bottom" : "input.384",
      "weights" : {

      },
      "Nx" : 3,
      "pad_mode" : 0,
      "pad_value" : 0,
      "Ny" : 3,
      "n_parallel" : 1,
      "blob_weights_f16" : 437
    },
    {
      "top" : "hx5dup",
      "use_fractional_scale_factors" : false,
      "weights" : {

      },
      "fractional_scaling_factor_y" : 1,
      "type" : "upsample",
      "scaling_factor_x" : 2,
      "mode" : 1,
      "align_corners" : 0,
      "bottom" : "input.387",
      "debug_info" : "hx5dup",
      "fractional_scaling_factor_x" : 1,
      "is_legacy_mode" : 0,
      "name" : "hx5dup",
      "scaling_factor_y" : 2
    },
    {
      "weights" : {

      },
      "debug_info" : "input.388",
      "top" : "input.388",
      "type" : "concat",
      "name" : "input.388",
      "bottom" : "hx5dup,input.369"
    },
    {
      "pad_r" : 1,
      "fused_relu" : 1,
      "fused_tanh" : 0,
      "debug_info" : "input.389",
      "pad_fill_mode" : 0,
      "pad_b" : 1,
      "pad_l" : 1,
      "top" : "input.391",
      "K" : 32,
      "blob_biases" : 439,
      "name" : "input.389",
      "has_batch_norm" : 0,
      "type" : "convolution",
      "n_groups" : 1,
      "pad_t" : 1,
      "has_biases" : 1,
      "C" : 16,
      "bottom" : "input.388",
      "weights" : {

      },
      "Nx" : 3,
      "pad_mode" : 0,
      "pad_value" : 0,
      "Ny" : 3,
      "n_parallel" : 1,
      "blob_weights_f16" : 441
    },
    {
      "top" : "hx4dup",
      "use_fractional_scale_factors" : false,
      "weights" : {

      },
      "fractional_scaling_factor_y" : 1,
      "type" : "upsample",
      "scaling_factor_x" : 2,
      "mode" : 1,
      "align_corners" : 0,
      "bottom" : "input.391",
      "debug_info" : "hx4dup",
      "fractional_scaling_factor_x" : 1,
      "is_legacy_mode" : 0,
      "name" : "hx4dup",
      "scaling_factor_y" : 2
    },
    {
      "weights" : {

      },
      "debug_info" : "input.392",
      "top" : "input.392",
      "type" : "concat",
      "name" : "input.392",
      "bottom" : "hx4dup,input.365"
    },
    {
      "pad_r" : 1,
      "fused_relu" : 1,
      "fused_tanh" : 0,
      "debug_info" : "input.393",
      "pad_fill_mode" : 0,
      "pad_b" : 1,
      "pad_l" : 1,
      "top" : "input.395",
      "K" : 32,
      "blob_biases" : 443,
      "name" : "input.393",
      "has_batch_norm" : 0,
      "type" : "convolution",
      "n_groups" : 1,
      "pad_t" : 1,
      "has_biases" : 1,
      "C" : 16,
      "bottom" : "input.392",
      "weights" : {

      },
      "Nx" : 3,
      "pad_mode" : 0,
      "pad_value" : 0,
      "Ny" : 3,
      "n_parallel" : 1,
      "blob_weights_f16" : 445
    },
    {
      "top" : "hx3dup",
      "use_fractional_scale_factors" : false,
      "weights" : {

      },
      "fractional_scaling_factor_y" : 1,
      "type" : "upsample",
      "scaling_factor_x" : 2,
      "mode" : 1,
      "align_corners" : 0,
      "bottom" : "input.395",
      "debug_info" : "hx3dup",
      "fractional_scaling_factor_x" : 1,
      "is_legacy_mode" : 0,
      "name" : "hx3dup",
      "scaling_factor_y" : 2
    },
    {
      "weights" : {

      },
      "debug_info" : "input.396",
      "top" : "input.396",
      "type" : "concat",
      "name" : "input.396",
      "bottom" : "hx3dup,input.361"
    },
    {
      "pad_r" : 1,
      "fused_relu" : 1,
      "fused_tanh" : 0,
      "debug_info" : "input.397",
      "pad_fill_mode" : 0,
      "pad_b" : 1,
      "pad_l" : 1,
      "top" : "input.399",
      "K" : 32,
      "blob_biases" : 447,
      "name" : "input.397",
      "has_batch_norm" : 0,
      "type" : "convolution",
      "n_groups" : 1,
      "pad_t" : 1,
      "has_biases" : 1,
      "C" : 16,
      "bottom" : "input.396",
      "weights" : {

      },
      "Nx" : 3,
      "pad_mode" : 0,
      "pad_value" : 0,
      "Ny" : 3,
      "n_parallel" : 1,
      "blob_weights_f16" : 449
    },
    {
      "top" : "hx2dup",
      "use_fractional_scale_factors" : false,
      "weights" : {

      },
      "fractional_scaling_factor_y" : 1,
      "type" : "upsample",
      "scaling_factor_x" : 2,
      "mode" : 1,
      "align_corners" : 0,
      "bottom" : "input.399",
      "debug_info" : "hx2dup",
      "fractional_scaling_factor_x" : 1,
      "is_legacy_mode" : 0,
      "name" : "hx2dup",
      "scaling_factor_y" : 2
    },
    {
      "weights" : {

      },
      "debug_info" : "input.400",
      "top" : "input.400",
      "type" : "concat",
      "name" : "input.400",
      "bottom" : "hx2dup,input.357"
    },
    {
      "pad_r" : 1,
      "fused_relu" : 1,
      "fused_tanh" : 0,
      "debug_info" : "input.401",
      "pad_fill_mode" : 0,
      "pad_b" : 1,
      "pad_l" : 1,
      "top" : "hx1d",
      "K" : 32,
      "blob_biases" : 451,
      "name" : "input.401",
      "has_batch_norm" : 0,
      "type" : "convolution",
      "n_groups" : 1,
      "pad_t" : 1,
      "has_biases" : 1,
      "C" : 64,
      "bottom" : "input.400",
      "weights" : {

      },
      "Nx" : 3,
      "pad_mode" : 0,
      "pad_value" : 0,
      "Ny" : 3,
      "n_parallel" : 1,
      "blob_weights_f16" : 453
    },
    {
      "bottom" : "input.354,hx1d",
      "alpha" : 1,
      "operation" : 0,
      "weights" : {

      },
      "fused_relu" : 0,
      "debug_info" : "input.403",
      "top" : "input.403",
      "type" : "elementwise",
      "name" : "input.403",
      "beta" : 0
    },
    {
      "pad_r" : 1,
      "fused_relu" : 0,
      "fused_tanh" : 0,
      "debug_info" : "d1",
      "pad_fill_mode" : 0,
      "pad_b" : 1,
      "pad_l" : 1,
      "top" : "d1",
      "K" : 64,
      "blob_biases" : 455,
      "name" : "d1",
      "has_batch_norm" : 0,
      "type" : "convolution",
      "n_groups" : 1,
      "pad_t" : 1,
      "has_biases" : 1,
      "C" : 1,
      "bottom" : "input.403",
      "weights" : {

      },
      "Nx" : 3,
      "pad_mode" : 0,
      "pad_value" : 0,
      "Ny" : 3,
      "n_parallel" : 1,
      "blob_weights_f16" : 457
    },
    {
      "pad_r" : 1,
      "fused_relu" : 0,
      "fused_tanh" : 0,
      "debug_info" : "input.404",
      "pad_fill_mode" : 0,
      "pad_b" : 1,
      "pad_l" : 1,
      "top" : "input.404",
      "K" : 64,
      "blob_biases" : 459,
      "name" : "input.404",
      "has_batch_norm" : 0,
      "type" : "convolution",
      "n_groups" : 1,
      "pad_t" : 1,
      "has_biases" : 1,
      "C" : 1,
      "bottom" : "input.350",
      "weights" : {

      },
      "Nx" : 3,
      "pad_mode" : 0,
      "pad_value" : 0,
      "Ny" : 3,
      "n_parallel" : 1,
      "blob_weights_f16" : 461
    },
    {
      "top" : "d2",
      "use_fractional_scale_factors" : false,
      "weights" : {

      },
      "fractional_scaling_factor_y" : 1,
      "type" : "upsample",
      "scaling_factor_x" : 2,
      "mode" : 1,
      "align_corners" : 0,
      "bottom" : "input.404",
      "debug_info" : "d2",
      "fractional_scaling_factor_x" : 1,
      "is_legacy_mode" : 0,
      "name" : "d2",
      "scaling_factor_y" : 2
    },
    {
      "pad_r" : 1,
      "fused_relu" : 0,
      "fused_tanh" : 0,
      "debug_info" : "input.405",
      "pad_fill_mode" : 0,
      "pad_b" : 1,
      "pad_l" : 1,
      "top" : "input.405",
      "K" : 64,
      "blob_biases" : 463,
      "name" : "input.405",
      "has_batch_norm" : 0,
      "type" : "convolution",
      "n_groups" : 1,
      "pad_t" : 1,
      "has_biases" : 1,
      "C" : 1,
      "bottom" : "input.305",
      "weights" : {

      },
      "Nx" : 3,
      "pad_mode" : 0,
      "pad_value" : 0,
      "Ny" : 3,
      "n_parallel" : 1,
      "blob_weights_f16" : 465
    },
    {
      "top" : "d3",
      "use_fractional_scale_factors" : false,
      "weights" : {

      },
      "fractional_scaling_factor_y" : 1,
      "type" : "upsample",
      "scaling_factor_x" : 4,
      "mode" : 1,
      "align_corners" : 0,
      "bottom" : "input.405",
      "debug_info" : "d3",
      "fractional_scaling_factor_x" : 1,
      "is_legacy_mode" : 0,
      "name" : "d3",
      "scaling_factor_y" : 4
    },
    {
      "pad_r" : 1,
      "fused_relu" : 0,
      "fused_tanh" : 0,
      "debug_info" : "input.406",
      "pad_fill_mode" : 0,
      "pad_b" : 1,
      "pad_l" : 1,
      "top" : "input.406",
      "K" : 64,
      "blob_biases" : 467,
      "name" : "input.406",
      "has_batch_norm" : 0,
      "type" : "convolution",
      "n_groups" : 1,
      "pad_t" : 1,
      "has_biases" : 1,
      "C" : 1,
      "bottom" : "input.268",
      "weights" : {

      },
      "Nx" : 3,
      "pad_mode" : 0,
      "pad_value" : 0,
      "Ny" : 3,
      "n_parallel" : 1,
      "blob_weights_f16" : 469
    },
    {
      "top" : "d4",
      "use_fractional_scale_factors" : false,
      "weights" : {

      },
      "fractional_scaling_factor_y" : 1,
      "type" : "upsample",
      "scaling_factor_x" : 8,
      "mode" : 1,
      "align_corners" : 0,
      "bottom" : "input.406",
      "debug_info" : "d4",
      "fractional_scaling_factor_x" : 1,
      "is_legacy_mode" : 0,
      "name" : "d4",
      "scaling_factor_y" : 8
    },
    {
      "pad_r" : 1,
      "fused_relu" : 0,
      "fused_tanh" : 0,
      "debug_info" : "input.407",
      "pad_fill_mode" : 0,
      "pad_b" : 1,
      "pad_l" : 1,
      "top" : "input.407",
      "K" : 64,
      "blob_biases" : 471,
      "name" : "input.407",
      "has_batch_norm" : 0,
      "type" : "convolution",
      "n_groups" : 1,
      "pad_t" : 1,
      "has_biases" : 1,
      "C" : 1,
      "bottom" : "input.239",
      "weights" : {

      },
      "Nx" : 3,
      "pad_mode" : 0,
      "pad_value" : 0,
      "Ny" : 3,
      "n_parallel" : 1,
      "blob_weights_f16" : 473
    },
    {
      "top" : "d5",
      "use_fractional_scale_factors" : false,
      "weights" : {

      },
      "fractional_scaling_factor_y" : 1,
      "type" : "upsample",
      "scaling_factor_x" : 16,
      "mode" : 1,
      "align_corners" : 0,
      "bottom" : "input.407",
      "debug_info" : "d5",
      "fractional_scaling_factor_x" : 1,
      "is_legacy_mode" : 0,
      "name" : "d5",
      "scaling_factor_y" : 16
    },
    {
      "pad_r" : 1,
      "fused_relu" : 0,
      "fused_tanh" : 0,
      "debug_info" : "input.408",
      "pad_fill_mode" : 0,
      "pad_b" : 1,
      "pad_l" : 1,
      "top" : "input.408",
      "K" : 64,
      "blob_biases" : 475,
      "name" : "input.408",
      "has_batch_norm" : 0,
      "type" : "convolution",
      "n_groups" : 1,
      "pad_t" : 1,
      "has_biases" : 1,
      "C" : 1,
      "bottom" : "input.214",
      "weights" : {

      },
      "Nx" : 3,
      "pad_mode" : 0,
      "pad_value" : 0,
      "Ny" : 3,
      "n_parallel" : 1,
      "blob_weights_f16" : 477
    },
    {
      "top" : "d6",
      "use_fractional_scale_factors" : false,
      "weights" : {

      },
      "fractional_scaling_factor_y" : 1,
      "type" : "upsample",
      "scaling_factor_x" : 32,
      "mode" : 1,
      "align_corners" : 0,
      "bottom" : "input.408",
      "debug_info" : "d6",
      "fractional_scaling_factor_x" : 1,
      "is_legacy_mode" : 0,
      "name" : "d6",
      "scaling_factor_y" : 32
    },
    {
      "weights" : {

      },
      "debug_info" : "input.409",
      "top" : "input.409",
      "type" : "concat",
      "name" : "input.409",
      "bottom" : "d1,d2,d3,d4,d5,d6"
    },
    {
      "pad_r" : 0,
      "fused_relu" : 0,
      "fused_tanh" : 0,
      "debug_info" : "input",
      "pad_fill_mode" : 0,
      "pad_b" : 0,
      "pad_l" : 0,
      "top" : "input",
      "K" : 6,
      "blob_biases" : 479,
      "name" : "input",
      "has_batch_norm" : 0,
      "type" : "convolution",
      "n_groups" : 1,
      "pad_t" : 0,
      "has_biases" : 1,
      "C" : 1,
      "bottom" : "input.409",
      "weights" : {

      },
      "Nx" : 1,
      "pad_mode" : 0,
      "pad_value" : 0,
      "Ny" : 1,
      "n_parallel" : 1,
      "blob_weights_f16" : 481
    },
    {
      "bottom" : "input",
      "weights" : {

      },
      "mode" : 3,
      "debug_info" : "2079",
      "top" : "pred_mask",
      "type" : "activation",
      "name" : "2079",
      "attributes" : {
        "is_output" : 1
      }
    }
  ]
}