{
  "layers" : [
    {
      "pad_r" : 0,
      "fused_relu" : 0,
      "fused_tanh" : 0,
      "debug_info" : "",
      "pad_fill_mode" : 0,
      "pad_b" : 0,
      "pad_l" : 0,
      "top" : "stem\/MobilenetV3\/Conv2d_0\/Conv2D",
      "K" : 3,
      "blob_biases" : 1,
      "stride_x" : 2,
      "name" : "stem\/MobilenetV3\/Conv2d_0\/Conv2D",
      "has_batch_norm" : 0,
      "type" : "convolution",
      "n_groups" : 1,
      "pad_t" : 0,
      "stride_y" : 2,
      "has_biases" : 1,
      "C" : 24,
      "bottom" : "image",
      "weights" : {

      },
      "Nx" : 3,
      "pad_mode" : 1,
      "pad_value" : 0,
      "Ny" : 3,
      "n_parallel" : 1,
      "blob_weights_f16" : 3
    },
    {
      "bottom" : "stem\/MobilenetV3\/Conv2d_0\/Conv2D",
      "alpha" : 3,
      "operation" : 2,
      "weights" : {

      },
      "fused_relu" : 0,
      "debug_info" : "",
      "top" : "stem\/MobilenetV3\/Conv2d_0\/add",
      "type" : "elementwise",
      "name" : "stem\/MobilenetV3\/Conv2d_0\/add",
      "beta" : 0
    },
    {
      "bottom" : "stem\/MobilenetV3\/Conv2d_0\/add",
      "alpha" : 0,
      "operation" : 119,
      "weights" : {

      },
      "fused_relu" : 0,
      "debug_info" : "",
      "top" : "stem\/MobilenetV3\/Conv2d_0\/Relu6",
      "type" : "elementwise",
      "name" : "stem\/MobilenetV3\/Conv2d_0\/Relu6",
      "beta" : 6
    },
    {
      "bottom" : "stem\/MobilenetV3\/Conv2d_0\/Relu6",
      "alpha" : 0.1666666716337204,
      "operation" : 3,
      "weights" : {

      },
      "fused_relu" : 0,
      "debug_info" : "",
      "top" : "stem\/MobilenetV3\/Conv2d_0\/mul",
      "type" : "elementwise",
      "name" : "stem\/MobilenetV3\/Conv2d_0\/mul",
      "beta" : 0
    },
    {
      "bottom" : "stem\/MobilenetV3\/Conv2d_0\/Conv2D,stem\/MobilenetV3\/Conv2d_0\/mul",
      "alpha" : 1,
      "operation" : 1,
      "weights" : {

      },
      "fused_relu" : 0,
      "debug_info" : "",
      "top" : "stem\/MobilenetV3\/Conv2d_0\/mul_1",
      "type" : "elementwise",
      "name" : "stem\/MobilenetV3\/Conv2d_0\/mul_1",
      "beta" : 0
    },
    {
      "pad_r" : 0,
      "fused_relu" : 1,
      "fused_tanh" : 0,
      "debug_info" : "",
      "pad_fill_mode" : 0,
      "pad_b" : 0,
      "pad_l" : 0,
      "top" : "stem\/MobilenetV3\/Bottleneck_1\/expand\/Conv2D",
      "K" : 24,
      "blob_biases" : 5,
      "name" : "stem\/MobilenetV3\/Bottleneck_1\/expand\/Conv2D",
      "has_batch_norm" : 0,
      "type" : "convolution",
      "n_groups" : 1,
      "pad_t" : 0,
      "has_biases" : 1,
      "C" : 24,
      "bottom" : "stem\/MobilenetV3\/Conv2d_0\/mul_1",
      "weights" : {

      },
      "Nx" : 1,
      "pad_mode" : 1,
      "pad_value" : 0,
      "Ny" : 1,
      "n_parallel" : 1,
      "blob_weights_f16" : 7
    },
    {
      "pad_r" : 0,
      "fused_relu" : 1,
      "fused_tanh" : 0,
      "debug_info" : "",
      "pad_fill_mode" : 0,
      "pad_b" : 0,
      "pad_l" : 0,
      "top" : "stem\/MobilenetV3\/Bottleneck_1\/depthwise\/depthwise",
      "K" : 24,
      "blob_biases" : 9,
      "name" : "stem\/MobilenetV3\/Bottleneck_1\/depthwise\/depthwise",
      "has_batch_norm" : 0,
      "type" : "convolution",
      "n_groups" : 24,
      "pad_t" : 0,
      "has_biases" : 1,
      "C" : 24,
      "bottom" : "stem\/MobilenetV3\/Bottleneck_1\/expand\/Conv2D",
      "weights" : {

      },
      "Nx" : 3,
      "pad_mode" : 1,
      "pad_value" : 0,
      "Ny" : 3,
      "n_parallel" : 1,
      "blob_weights_f16" : 11
    },
    {
      "pad_r" : 0,
      "fused_relu" : 0,
      "fused_tanh" : 0,
      "debug_info" : "",
      "pad_fill_mode" : 0,
      "pad_b" : 0,
      "pad_l" : 0,
      "top" : "stem\/MobilenetV3\/Bottleneck_1\/compress\/Conv2D",
      "K" : 24,
      "blob_biases" : 13,
      "name" : "stem\/MobilenetV3\/Bottleneck_1\/compress\/Conv2D",
      "has_batch_norm" : 0,
      "type" : "convolution",
      "n_groups" : 1,
      "pad_t" : 0,
      "has_biases" : 1,
      "C" : 24,
      "bottom" : "stem\/MobilenetV3\/Bottleneck_1\/depthwise\/depthwise",
      "weights" : {

      },
      "Nx" : 1,
      "pad_mode" : 1,
      "pad_value" : 0,
      "Ny" : 1,
      "n_parallel" : 1,
      "blob_weights_f16" : 15
    },
    {
      "bottom" : "stem\/MobilenetV3\/Bottleneck_1\/compress\/Conv2D,stem\/MobilenetV3\/Conv2d_0\/mul_1",
      "alpha" : 1,
      "operation" : 0,
      "weights" : {

      },
      "fused_relu" : 0,
      "debug_info" : "",
      "top" : "stem\/MobilenetV3\/Bottleneck_1\/add",
      "type" : "elementwise",
      "name" : "stem\/MobilenetV3\/Bottleneck_1\/add",
      "beta" : 0
    },
    {
      "pad_r" : 0,
      "fused_relu" : 1,
      "fused_tanh" : 0,
      "debug_info" : "",
      "pad_fill_mode" : 0,
      "pad_b" : 0,
      "pad_l" : 0,
      "top" : "stem\/MobilenetV3\/Bottleneck_2\/expand\/Conv2D",
      "K" : 24,
      "blob_biases" : 17,
      "name" : "stem\/MobilenetV3\/Bottleneck_2\/expand\/Conv2D",
      "has_batch_norm" : 0,
      "type" : "convolution",
      "n_groups" : 1,
      "pad_t" : 0,
      "has_biases" : 1,
      "C" : 96,
      "bottom" : "stem\/MobilenetV3\/Bottleneck_1\/add",
      "weights" : {

      },
      "Nx" : 1,
      "pad_mode" : 1,
      "pad_value" : 0,
      "Ny" : 1,
      "n_parallel" : 1,
      "blob_weights_f16" : 19
    },
    {
      "pad_r" : 0,
      "fused_relu" : 1,
      "fused_tanh" : 0,
      "debug_info" : "",
      "pad_fill_mode" : 0,
      "pad_b" : 0,
      "pad_l" : 0,
      "top" : "stem\/MobilenetV3\/Bottleneck_2\/depthwise\/depthwise",
      "K" : 96,
      "blob_biases" : 21,
      "stride_x" : 2,
      "name" : "stem\/MobilenetV3\/Bottleneck_2\/depthwise\/depthwise",
      "has_batch_norm" : 0,
      "type" : "convolution",
      "n_groups" : 96,
      "pad_t" : 0,
      "stride_y" : 2,
      "has_biases" : 1,
      "C" : 96,
      "bottom" : "stem\/MobilenetV3\/Bottleneck_2\/expand\/Conv2D",
      "weights" : {

      },
      "Nx" : 3,
      "pad_mode" : 1,
      "pad_value" : 0,
      "Ny" : 3,
      "n_parallel" : 1,
      "blob_weights_f16" : 23
    },
    {
      "pad_r" : 0,
      "fused_relu" : 0,
      "fused_tanh" : 0,
      "debug_info" : "",
      "pad_fill_mode" : 0,
      "pad_b" : 0,
      "pad_l" : 0,
      "top" : "stem\/MobilenetV3\/Bottleneck_2\/compress\/Conv2D",
      "K" : 96,
      "blob_biases" : 25,
      "name" : "stem\/MobilenetV3\/Bottleneck_2\/compress\/Conv2D",
      "has_batch_norm" : 0,
      "type" : "convolution",
      "n_groups" : 1,
      "pad_t" : 0,
      "has_biases" : 1,
      "C" : 40,
      "bottom" : "stem\/MobilenetV3\/Bottleneck_2\/depthwise\/depthwise",
      "weights" : {

      },
      "Nx" : 1,
      "pad_mode" : 1,
      "pad_value" : 0,
      "Ny" : 1,
      "n_parallel" : 1,
      "blob_weights_f16" : 27
    },
    {
      "pad_r" : 0,
      "fused_relu" : 1,
      "fused_tanh" : 0,
      "debug_info" : "",
      "pad_fill_mode" : 0,
      "pad_b" : 0,
      "pad_l" : 0,
      "top" : "stem\/MobilenetV3\/Bottleneck_3\/expand\/Conv2D",
      "K" : 40,
      "blob_biases" : 29,
      "quantization_lut_weights_blob" : 31,
      "name" : "stem\/MobilenetV3\/Bottleneck_3\/expand\/Conv2D",
      "has_batch_norm" : 0,
      "type" : "convolution",
      "n_groups" : 1,
      "pad_t" : 0,
      "has_biases" : 1,
      "C" : 112,
      "bottom" : "stem\/MobilenetV3\/Bottleneck_2\/compress\/Conv2D",
      "weights" : {

      },
      "Nx" : 1,
      "pad_mode" : 1,
      "pad_value" : 0,
      "Ny" : 1,
      "n_parallel" : 1,
      "quantization_ranges_blob" : 33
    },
    {
      "pad_r" : 0,
      "fused_relu" : 1,
      "fused_tanh" : 0,
      "debug_info" : "",
      "pad_fill_mode" : 0,
      "pad_b" : 0,
      "pad_l" : 0,
      "top" : "stem\/MobilenetV3\/Bottleneck_3\/depthwise\/depthwise",
      "K" : 112,
      "blob_biases" : 35,
      "name" : "stem\/MobilenetV3\/Bottleneck_3\/depthwise\/depthwise",
      "has_batch_norm" : 0,
      "type" : "convolution",
      "n_groups" : 112,
      "pad_t" : 0,
      "has_biases" : 1,
      "C" : 112,
      "bottom" : "stem\/MobilenetV3\/Bottleneck_3\/expand\/Conv2D",
      "weights" : {

      },
      "Nx" : 3,
      "pad_mode" : 1,
      "pad_value" : 0,
      "Ny" : 3,
      "n_parallel" : 1,
      "blob_weights_f16" : 37
    },
    {
      "pad_r" : 0,
      "fused_relu" : 0,
      "fused_tanh" : 0,
      "debug_info" : "",
      "pad_fill_mode" : 0,
      "pad_b" : 0,
      "pad_l" : 0,
      "top" : "stem\/MobilenetV3\/Bottleneck_3\/compress\/Conv2D",
      "K" : 112,
      "blob_biases" : 39,
      "quantization_lut_weights_blob" : 41,
      "name" : "stem\/MobilenetV3\/Bottleneck_3\/compress\/Conv2D",
      "has_batch_norm" : 0,
      "type" : "convolution",
      "n_groups" : 1,
      "pad_t" : 0,
      "has_biases" : 1,
      "C" : 40,
      "bottom" : "stem\/MobilenetV3\/Bottleneck_3\/depthwise\/depthwise",
      "weights" : {

      },
      "Nx" : 1,
      "pad_mode" : 1,
      "pad_value" : 0,
      "Ny" : 1,
      "n_parallel" : 1,
      "quantization_ranges_blob" : 43
    },
    {
      "bottom" : "stem\/MobilenetV3\/Bottleneck_3\/compress\/Conv2D,stem\/MobilenetV3\/Bottleneck_2\/compress\/Conv2D",
      "alpha" : 1,
      "operation" : 0,
      "weights" : {

      },
      "fused_relu" : 0,
      "debug_info" : "",
      "top" : "stem\/MobilenetV3\/Bottleneck_3\/add",
      "type" : "elementwise",
      "name" : "stem\/MobilenetV3\/Bottleneck_3\/add",
      "beta" : 0
    },
    {
      "pad_r" : 0,
      "fused_relu" : 1,
      "fused_tanh" : 0,
      "debug_info" : "",
      "pad_fill_mode" : 0,
      "pad_b" : 0,
      "pad_l" : 0,
      "top" : "stem\/MobilenetV3\/Bottleneck_4\/expand\/Conv2D",
      "K" : 40,
      "blob_biases" : 45,
      "quantization_lut_weights_blob" : 47,
      "name" : "stem\/MobilenetV3\/Bottleneck_4\/expand\/Conv2D",
      "has_batch_norm" : 0,
      "type" : "convolution",
      "n_groups" : 1,
      "pad_t" : 0,
      "has_biases" : 1,
      "C" : 112,
      "bottom" : "stem\/MobilenetV3\/Bottleneck_3\/add",
      "weights" : {

      },
      "Nx" : 1,
      "pad_mode" : 1,
      "pad_value" : 0,
      "Ny" : 1,
      "n_parallel" : 1,
      "quantization_ranges_blob" : 49
    },
    {
      "pad_r" : 0,
      "fused_relu" : 0,
      "fused_tanh" : 0,
      "debug_info" : "",
      "pad_fill_mode" : 0,
      "pad_b" : 0,
      "pad_l" : 0,
      "top" : "stem\/MobilenetV3\/Bottleneck_4\/depthwise\/depthwise",
      "K" : 112,
      "blob_biases" : 51,
      "stride_x" : 2,
      "name" : "stem\/MobilenetV3\/Bottleneck_4\/depthwise\/depthwise",
      "has_batch_norm" : 0,
      "type" : "convolution",
      "n_groups" : 112,
      "pad_t" : 0,
      "stride_y" : 2,
      "has_biases" : 1,
      "C" : 112,
      "bottom" : "stem\/MobilenetV3\/Bottleneck_4\/expand\/Conv2D",
      "weights" : {

      },
      "Nx" : 5,
      "pad_mode" : 1,
      "pad_value" : 0,
      "Ny" : 5,
      "n_parallel" : 1,
      "blob_weights_f16" : 53
    },
    {
      "pad_r" : 0,
      "debug_info" : "",
      "pad_fill_mode" : 0,
      "pad_b" : 0,
      "pad_l" : 0,
      "size_x" : 38,
      "is_global" : 1,
      "top" : "stem\/MobilenetV3\/Bottleneck_4\/gap\/Mean",
      "top_shape_style" : 0,
      "stride_x" : 1,
      "avg_or_max" : 0,
      "average_count_exclude_padding" : 1,
      "type" : "pool",
      "name" : "stem\/MobilenetV3\/Bottleneck_4\/gap\/Mean",
      "pad_t" : 0,
      "stride_y" : 1,
      "bottom" : "stem\/MobilenetV3\/Bottleneck_4\/depthwise\/depthwise",
      "weights" : {

      },
      "pad_mode" : 0,
      "size_y" : 38,
      "pad_value" : 0
    },
    {
      "pad_r" : 0,
      "fused_relu" : 1,
      "fused_tanh" : 0,
      "debug_info" : "",
      "pad_fill_mode" : 0,
      "pad_b" : 0,
      "pad_l" : 0,
      "top" : "stem\/MobilenetV3\/Bottleneck_4\/Bottleneck_4\/Conv\/Conv2D",
      "K" : 112,
      "blob_biases" : 55,
      "name" : "stem\/MobilenetV3\/Bottleneck_4\/Bottleneck_4\/Conv\/Conv2D",
      "has_batch_norm" : 0,
      "type" : "convolution",
      "n_groups" : 1,
      "pad_t" : 0,
      "has_biases" : 1,
      "C" : 28,
      "bottom" : "stem\/MobilenetV3\/Bottleneck_4\/gap\/Mean",
      "weights" : {

      },
      "Nx" : 1,
      "pad_mode" : 2,
      "pad_value" : 0,
      "Ny" : 1,
      "n_parallel" : 1,
      "blob_weights_f16" : 57
    },
    {
      "pad_r" : 0,
      "fused_relu" : 0,
      "fused_tanh" : 0,
      "debug_info" : "",
      "pad_fill_mode" : 0,
      "pad_b" : 0,
      "pad_l" : 0,
      "top" : "stem\/MobilenetV3\/Bottleneck_4\/Bottleneck_4_1\/Conv_1\/Conv2D",
      "K" : 28,
      "blob_biases" : 59,
      "name" : "stem\/MobilenetV3\/Bottleneck_4\/Bottleneck_4_1\/Conv_1\/Conv2D",
      "has_batch_norm" : 0,
      "type" : "convolution",
      "n_groups" : 1,
      "pad_t" : 0,
      "has_biases" : 1,
      "C" : 112,
      "bottom" : "stem\/MobilenetV3\/Bottleneck_4\/Bottleneck_4\/Conv\/Conv2D",
      "weights" : {

      },
      "Nx" : 1,
      "pad_mode" : 2,
      "pad_value" : 0,
      "Ny" : 1,
      "n_parallel" : 1,
      "blob_weights_f16" : 61
    },
    {
      "bottom" : "stem\/MobilenetV3\/Bottleneck_4\/Bottleneck_4_1\/Conv_1\/Conv2D",
      "alpha" : 3,
      "operation" : 2,
      "weights" : {

      },
      "fused_relu" : 0,
      "debug_info" : "",
      "top" : "stem\/MobilenetV3\/Bottleneck_4\/Bottleneck_4_1\/Conv_1\/add",
      "type" : "elementwise",
      "name" : "stem\/MobilenetV3\/Bottleneck_4\/Bottleneck_4_1\/Conv_1\/add",
      "beta" : 0
    },
    {
      "bottom" : "stem\/MobilenetV3\/Bottleneck_4\/Bottleneck_4_1\/Conv_1\/add",
      "alpha" : 0,
      "operation" : 119,
      "weights" : {

      },
      "fused_relu" : 0,
      "debug_info" : "",
      "top" : "stem\/MobilenetV3\/Bottleneck_4\/Bottleneck_4_1\/Conv_1\/Relu6",
      "type" : "elementwise",
      "name" : "stem\/MobilenetV3\/Bottleneck_4\/Bottleneck_4_1\/Conv_1\/Relu6",
      "beta" : 6
    },
    {
      "bottom" : "stem\/MobilenetV3\/Bottleneck_4\/Bottleneck_4_1\/Conv_1\/Relu6",
      "alpha" : 0.1666666716337204,
      "operation" : 3,
      "weights" : {

      },
      "fused_relu" : 0,
      "debug_info" : "",
      "top" : "stem\/MobilenetV3\/Bottleneck_4\/Bottleneck_4_1\/Conv_1\/mul",
      "type" : "elementwise",
      "name" : "stem\/MobilenetV3\/Bottleneck_4\/Bottleneck_4_1\/Conv_1\/mul",
      "beta" : 0
    },
    {
      "bottom" : "stem\/MobilenetV3\/Bottleneck_4\/depthwise\/depthwise,stem\/MobilenetV3\/Bottleneck_4\/Bottleneck_4_1\/Conv_1\/mul",
      "alpha" : 1,
      "operation" : 1,
      "weights" : {

      },
      "fused_relu" : 0,
      "debug_info" : "",
      "nd_mode" : true,
      "top" : "stem\/MobilenetV3\/Bottleneck_4\/mul",
      "type" : "elementwise",
      "name" : "stem\/MobilenetV3\/Bottleneck_4\/mul",
      "beta" : 0
    },
    {
      "bottom" : "stem\/MobilenetV3\/Bottleneck_4\/mul",
      "weights" : {

      },
      "mode" : 0,
      "debug_info" : "",
      "top" : "stem\/MobilenetV3\/Bottleneck_4\/Relu",
      "type" : "activation",
      "name" : "stem\/MobilenetV3\/Bottleneck_4\/Relu",
      "beta" : 0
    },
    {
      "pad_r" : 0,
      "fused_relu" : 0,
      "fused_tanh" : 0,
      "debug_info" : "",
      "pad_fill_mode" : 0,
      "pad_b" : 0,
      "pad_l" : 0,
      "top" : "stem\/MobilenetV3\/Bottleneck_4\/compress\/Conv2D",
      "K" : 112,
      "blob_biases" : 63,
      "quantization_lut_weights_blob" : 65,
      "name" : "stem\/MobilenetV3\/Bottleneck_4\/compress\/Conv2D",
      "has_batch_norm" : 0,
      "type" : "convolution",
      "n_groups" : 1,
      "pad_t" : 0,
      "has_biases" : 1,
      "C" : 64,
      "bottom" : "stem\/MobilenetV3\/Bottleneck_4\/Relu",
      "weights" : {

      },
      "Nx" : 1,
      "pad_mode" : 1,
      "pad_value" : 0,
      "Ny" : 1,
      "n_parallel" : 1,
      "quantization_ranges_blob" : 67
    },
    {
      "pad_r" : 0,
      "fused_relu" : 1,
      "fused_tanh" : 0,
      "debug_info" : "",
      "pad_fill_mode" : 0,
      "pad_b" : 0,
      "pad_l" : 0,
      "top" : "stem\/MobilenetV3\/Bottleneck_5\/expand\/Conv2D",
      "K" : 64,
      "blob_biases" : 69,
      "quantization_lut_weights_blob" : 71,
      "name" : "stem\/MobilenetV3\/Bottleneck_5\/expand\/Conv2D",
      "has_batch_norm" : 0,
      "type" : "convolution",
      "n_groups" : 1,
      "pad_t" : 0,
      "has_biases" : 1,
      "C" : 184,
      "bottom" : "stem\/MobilenetV3\/Bottleneck_4\/compress\/Conv2D",
      "weights" : {

      },
      "Nx" : 1,
      "pad_mode" : 1,
      "pad_value" : 0,
      "Ny" : 1,
      "n_parallel" : 1,
      "quantization_ranges_blob" : 73
    },
    {
      "pad_r" : 0,
      "fused_relu" : 0,
      "fused_tanh" : 0,
      "debug_info" : "",
      "pad_fill_mode" : 0,
      "pad_b" : 0,
      "pad_l" : 0,
      "top" : "stem\/MobilenetV3\/Bottleneck_5\/depthwise\/depthwise",
      "K" : 184,
      "blob_biases" : 75,
      "name" : "stem\/MobilenetV3\/Bottleneck_5\/depthwise\/depthwise",
      "has_batch_norm" : 0,
      "type" : "convolution",
      "n_groups" : 184,
      "pad_t" : 0,
      "has_biases" : 1,
      "C" : 184,
      "bottom" : "stem\/MobilenetV3\/Bottleneck_5\/expand\/Conv2D",
      "weights" : {

      },
      "Nx" : 5,
      "pad_mode" : 1,
      "pad_value" : 0,
      "Ny" : 5,
      "n_parallel" : 1,
      "blob_weights_f16" : 77
    },
    {
      "pad_r" : 0,
      "debug_info" : "",
      "pad_fill_mode" : 0,
      "pad_b" : 0,
      "pad_l" : 0,
      "size_x" : 38,
      "is_global" : 1,
      "top" : "stem\/MobilenetV3\/Bottleneck_5\/gap\/Mean",
      "top_shape_style" : 0,
      "stride_x" : 1,
      "avg_or_max" : 0,
      "average_count_exclude_padding" : 1,
      "type" : "pool",
      "name" : "stem\/MobilenetV3\/Bottleneck_5\/gap\/Mean",
      "pad_t" : 0,
      "stride_y" : 1,
      "bottom" : "stem\/MobilenetV3\/Bottleneck_5\/depthwise\/depthwise",
      "weights" : {

      },
      "pad_mode" : 0,
      "size_y" : 38,
      "pad_value" : 0
    },
    {
      "pad_r" : 0,
      "fused_relu" : 1,
      "fused_tanh" : 0,
      "debug_info" : "",
      "pad_fill_mode" : 0,
      "pad_b" : 0,
      "pad_l" : 0,
      "top" : "stem\/MobilenetV3\/Bottleneck_5\/Bottleneck_5\/Conv\/Conv2D",
      "K" : 184,
      "blob_biases" : 79,
      "quantization_lut_weights_blob" : 81,
      "name" : "stem\/MobilenetV3\/Bottleneck_5\/Bottleneck_5\/Conv\/Conv2D",
      "has_batch_norm" : 0,
      "type" : "convolution",
      "n_groups" : 1,
      "pad_t" : 0,
      "has_biases" : 1,
      "C" : 46,
      "bottom" : "stem\/MobilenetV3\/Bottleneck_5\/gap\/Mean",
      "weights" : {

      },
      "Nx" : 1,
      "pad_mode" : 2,
      "pad_value" : 0,
      "Ny" : 1,
      "n_parallel" : 1,
      "quantization_ranges_blob" : 83
    },
    {
      "pad_r" : 0,
      "fused_relu" : 0,
      "fused_tanh" : 0,
      "debug_info" : "",
      "pad_fill_mode" : 0,
      "pad_b" : 0,
      "pad_l" : 0,
      "top" : "stem\/MobilenetV3\/Bottleneck_5\/Bottleneck_5_1\/Conv_1\/Conv2D",
      "K" : 46,
      "blob_biases" : 85,
      "quantization_lut_weights_blob" : 87,
      "name" : "stem\/MobilenetV3\/Bottleneck_5\/Bottleneck_5_1\/Conv_1\/Conv2D",
      "has_batch_norm" : 0,
      "type" : "convolution",
      "n_groups" : 1,
      "pad_t" : 0,
      "has_biases" : 1,
      "C" : 184,
      "bottom" : "stem\/MobilenetV3\/Bottleneck_5\/Bottleneck_5\/Conv\/Conv2D",
      "weights" : {

      },
      "Nx" : 1,
      "pad_mode" : 2,
      "pad_value" : 0,
      "Ny" : 1,
      "n_parallel" : 1,
      "quantization_ranges_blob" : 89
    },
    {
      "bottom" : "stem\/MobilenetV3\/Bottleneck_5\/Bottleneck_5_1\/Conv_1\/Conv2D",
      "alpha" : 3,
      "operation" : 2,
      "weights" : {

      },
      "fused_relu" : 0,
      "debug_info" : "",
      "top" : "stem\/MobilenetV3\/Bottleneck_5\/Bottleneck_5_1\/Conv_1\/add",
      "type" : "elementwise",
      "name" : "stem\/MobilenetV3\/Bottleneck_5\/Bottleneck_5_1\/Conv_1\/add",
      "beta" : 0
    },
    {
      "bottom" : "stem\/MobilenetV3\/Bottleneck_5\/Bottleneck_5_1\/Conv_1\/add",
      "alpha" : 0,
      "operation" : 119,
      "weights" : {

      },
      "fused_relu" : 0,
      "debug_info" : "",
      "top" : "stem\/MobilenetV3\/Bottleneck_5\/Bottleneck_5_1\/Conv_1\/Relu6",
      "type" : "elementwise",
      "name" : "stem\/MobilenetV3\/Bottleneck_5\/Bottleneck_5_1\/Conv_1\/Relu6",
      "beta" : 6
    },
    {
      "bottom" : "stem\/MobilenetV3\/Bottleneck_5\/Bottleneck_5_1\/Conv_1\/Relu6",
      "alpha" : 0.1666666716337204,
      "operation" : 3,
      "weights" : {

      },
      "fused_relu" : 0,
      "debug_info" : "",
      "top" : "stem\/MobilenetV3\/Bottleneck_5\/Bottleneck_5_1\/Conv_1\/mul",
      "type" : "elementwise",
      "name" : "stem\/MobilenetV3\/Bottleneck_5\/Bottleneck_5_1\/Conv_1\/mul",
      "beta" : 0
    },
    {
      "bottom" : "stem\/MobilenetV3\/Bottleneck_5\/depthwise\/depthwise,stem\/MobilenetV3\/Bottleneck_5\/Bottleneck_5_1\/Conv_1\/mul",
      "alpha" : 1,
      "operation" : 1,
      "weights" : {

      },
      "fused_relu" : 0,
      "debug_info" : "",
      "nd_mode" : true,
      "top" : "stem\/MobilenetV3\/Bottleneck_5\/mul",
      "type" : "elementwise",
      "name" : "stem\/MobilenetV3\/Bottleneck_5\/mul",
      "beta" : 0
    },
    {
      "bottom" : "stem\/MobilenetV3\/Bottleneck_5\/mul",
      "weights" : {

      },
      "mode" : 0,
      "debug_info" : "",
      "top" : "stem\/MobilenetV3\/Bottleneck_5\/Relu",
      "type" : "activation",
      "name" : "stem\/MobilenetV3\/Bottleneck_5\/Relu",
      "beta" : 0
    },
    {
      "pad_r" : 0,
      "fused_relu" : 0,
      "fused_tanh" : 0,
      "debug_info" : "",
      "pad_fill_mode" : 0,
      "pad_b" : 0,
      "pad_l" : 0,
      "top" : "stem\/MobilenetV3\/Bottleneck_5\/compress\/Conv2D",
      "K" : 184,
      "blob_biases" : 91,
      "quantization_lut_weights_blob" : 93,
      "name" : "stem\/MobilenetV3\/Bottleneck_5\/compress\/Conv2D",
      "has_batch_norm" : 0,
      "type" : "convolution",
      "n_groups" : 1,
      "pad_t" : 0,
      "has_biases" : 1,
      "C" : 64,
      "bottom" : "stem\/MobilenetV3\/Bottleneck_5\/Relu",
      "weights" : {

      },
      "Nx" : 1,
      "pad_mode" : 1,
      "pad_value" : 0,
      "Ny" : 1,
      "n_parallel" : 1,
      "quantization_ranges_blob" : 95
    },
    {
      "bottom" : "stem\/MobilenetV3\/Bottleneck_5\/compress\/Conv2D,stem\/MobilenetV3\/Bottleneck_4\/compress\/Conv2D",
      "alpha" : 1,
      "operation" : 0,
      "weights" : {

      },
      "fused_relu" : 0,
      "debug_info" : "",
      "top" : "stem\/MobilenetV3\/Bottleneck_5\/add",
      "type" : "elementwise",
      "name" : "stem\/MobilenetV3\/Bottleneck_5\/add",
      "beta" : 0
    },
    {
      "pad_r" : 0,
      "fused_relu" : 1,
      "fused_tanh" : 0,
      "debug_info" : "",
      "pad_fill_mode" : 0,
      "pad_b" : 0,
      "pad_l" : 0,
      "top" : "stem\/MobilenetV3\/Bottleneck_6\/expand\/Conv2D",
      "K" : 64,
      "blob_biases" : 97,
      "quantization_lut_weights_blob" : 99,
      "name" : "stem\/MobilenetV3\/Bottleneck_6\/expand\/Conv2D",
      "has_batch_norm" : 0,
      "type" : "convolution",
      "n_groups" : 1,
      "pad_t" : 0,
      "has_biases" : 1,
      "C" : 184,
      "bottom" : "stem\/MobilenetV3\/Bottleneck_5\/add",
      "weights" : {

      },
      "Nx" : 1,
      "pad_mode" : 1,
      "pad_value" : 0,
      "Ny" : 1,
      "n_parallel" : 1,
      "quantization_ranges_blob" : 101
    },
    {
      "pad_r" : 0,
      "fused_relu" : 0,
      "fused_tanh" : 0,
      "debug_info" : "",
      "pad_fill_mode" : 0,
      "pad_b" : 0,
      "pad_l" : 0,
      "top" : "stem\/MobilenetV3\/Bottleneck_6\/depthwise\/depthwise",
      "K" : 184,
      "blob_biases" : 103,
      "name" : "stem\/MobilenetV3\/Bottleneck_6\/depthwise\/depthwise",
      "has_batch_norm" : 0,
      "type" : "convolution",
      "n_groups" : 184,
      "pad_t" : 0,
      "has_biases" : 1,
      "C" : 184,
      "bottom" : "stem\/MobilenetV3\/Bottleneck_6\/expand\/Conv2D",
      "weights" : {

      },
      "Nx" : 5,
      "pad_mode" : 1,
      "pad_value" : 0,
      "Ny" : 5,
      "n_parallel" : 1,
      "blob_weights_f16" : 105
    },
    {
      "pad_r" : 0,
      "debug_info" : "",
      "pad_fill_mode" : 0,
      "pad_b" : 0,
      "pad_l" : 0,
      "size_x" : 38,
      "is_global" : 1,
      "top" : "stem\/MobilenetV3\/Bottleneck_6\/gap\/Mean",
      "top_shape_style" : 0,
      "stride_x" : 1,
      "avg_or_max" : 0,
      "average_count_exclude_padding" : 1,
      "type" : "pool",
      "name" : "stem\/MobilenetV3\/Bottleneck_6\/gap\/Mean",
      "pad_t" : 0,
      "stride_y" : 1,
      "bottom" : "stem\/MobilenetV3\/Bottleneck_6\/depthwise\/depthwise",
      "weights" : {

      },
      "pad_mode" : 0,
      "size_y" : 38,
      "pad_value" : 0
    },
    {
      "pad_r" : 0,
      "fused_relu" : 1,
      "fused_tanh" : 0,
      "debug_info" : "",
      "pad_fill_mode" : 0,
      "pad_b" : 0,
      "pad_l" : 0,
      "top" : "stem\/MobilenetV3\/Bottleneck_6\/Bottleneck_6\/Conv\/Conv2D",
      "K" : 184,
      "blob_biases" : 107,
      "quantization_lut_weights_blob" : 109,
      "name" : "stem\/MobilenetV3\/Bottleneck_6\/Bottleneck_6\/Conv\/Conv2D",
      "has_batch_norm" : 0,
      "type" : "convolution",
      "n_groups" : 1,
      "pad_t" : 0,
      "has_biases" : 1,
      "C" : 46,
      "bottom" : "stem\/MobilenetV3\/Bottleneck_6\/gap\/Mean",
      "weights" : {

      },
      "Nx" : 1,
      "pad_mode" : 2,
      "pad_value" : 0,
      "Ny" : 1,
      "n_parallel" : 1,
      "quantization_ranges_blob" : 111
    },
    {
      "pad_r" : 0,
      "fused_relu" : 0,
      "fused_tanh" : 0,
      "debug_info" : "",
      "pad_fill_mode" : 0,
      "pad_b" : 0,
      "pad_l" : 0,
      "top" : "stem\/MobilenetV3\/Bottleneck_6\/Bottleneck_6_1\/Conv_1\/Conv2D",
      "K" : 46,
      "blob_biases" : 113,
      "quantization_lut_weights_blob" : 115,
      "name" : "stem\/MobilenetV3\/Bottleneck_6\/Bottleneck_6_1\/Conv_1\/Conv2D",
      "has_batch_norm" : 0,
      "type" : "convolution",
      "n_groups" : 1,
      "pad_t" : 0,
      "has_biases" : 1,
      "C" : 184,
      "bottom" : "stem\/MobilenetV3\/Bottleneck_6\/Bottleneck_6\/Conv\/Conv2D",
      "weights" : {

      },
      "Nx" : 1,
      "pad_mode" : 2,
      "pad_value" : 0,
      "Ny" : 1,
      "n_parallel" : 1,
      "quantization_ranges_blob" : 117
    },
    {
      "bottom" : "stem\/MobilenetV3\/Bottleneck_6\/Bottleneck_6_1\/Conv_1\/Conv2D",
      "alpha" : 3,
      "operation" : 2,
      "weights" : {

      },
      "fused_relu" : 0,
      "debug_info" : "",
      "top" : "stem\/MobilenetV3\/Bottleneck_6\/Bottleneck_6_1\/Conv_1\/add",
      "type" : "elementwise",
      "name" : "stem\/MobilenetV3\/Bottleneck_6\/Bottleneck_6_1\/Conv_1\/add",
      "beta" : 0
    },
    {
      "bottom" : "stem\/MobilenetV3\/Bottleneck_6\/Bottleneck_6_1\/Conv_1\/add",
      "alpha" : 0,
      "operation" : 119,
      "weights" : {

      },
      "fused_relu" : 0,
      "debug_info" : "",
      "top" : "stem\/MobilenetV3\/Bottleneck_6\/Bottleneck_6_1\/Conv_1\/Relu6",
      "type" : "elementwise",
      "name" : "stem\/MobilenetV3\/Bottleneck_6\/Bottleneck_6_1\/Conv_1\/Relu6",
      "beta" : 6
    },
    {
      "bottom" : "stem\/MobilenetV3\/Bottleneck_6\/Bottleneck_6_1\/Conv_1\/Relu6",
      "alpha" : 0.1666666716337204,
      "operation" : 3,
      "weights" : {

      },
      "fused_relu" : 0,
      "debug_info" : "",
      "top" : "stem\/MobilenetV3\/Bottleneck_6\/Bottleneck_6_1\/Conv_1\/mul",
      "type" : "elementwise",
      "name" : "stem\/MobilenetV3\/Bottleneck_6\/Bottleneck_6_1\/Conv_1\/mul",
      "beta" : 0
    },
    {
      "bottom" : "stem\/MobilenetV3\/Bottleneck_6\/depthwise\/depthwise,stem\/MobilenetV3\/Bottleneck_6\/Bottleneck_6_1\/Conv_1\/mul",
      "alpha" : 1,
      "operation" : 1,
      "weights" : {

      },
      "fused_relu" : 0,
      "debug_info" : "",
      "nd_mode" : true,
      "top" : "stem\/MobilenetV3\/Bottleneck_6\/mul",
      "type" : "elementwise",
      "name" : "stem\/MobilenetV3\/Bottleneck_6\/mul",
      "beta" : 0
    },
    {
      "bottom" : "stem\/MobilenetV3\/Bottleneck_6\/mul",
      "weights" : {

      },
      "mode" : 0,
      "debug_info" : "",
      "top" : "stem\/MobilenetV3\/Bottleneck_6\/Relu",
      "type" : "activation",
      "name" : "stem\/MobilenetV3\/Bottleneck_6\/Relu",
      "beta" : 0
    },
    {
      "pad_r" : 0,
      "fused_relu" : 0,
      "fused_tanh" : 0,
      "debug_info" : "",
      "pad_fill_mode" : 0,
      "pad_b" : 0,
      "pad_l" : 0,
      "top" : "stem\/MobilenetV3\/Bottleneck_6\/compress\/Conv2D",
      "K" : 184,
      "blob_biases" : 119,
      "quantization_lut_weights_blob" : 121,
      "name" : "stem\/MobilenetV3\/Bottleneck_6\/compress\/Conv2D",
      "has_batch_norm" : 0,
      "type" : "convolution",
      "n_groups" : 1,
      "pad_t" : 0,
      "has_biases" : 1,
      "C" : 64,
      "bottom" : "stem\/MobilenetV3\/Bottleneck_6\/Relu",
      "weights" : {

      },
      "Nx" : 1,
      "pad_mode" : 1,
      "pad_value" : 0,
      "Ny" : 1,
      "n_parallel" : 1,
      "quantization_ranges_blob" : 123
    },
    {
      "bottom" : "stem\/MobilenetV3\/Bottleneck_6\/compress\/Conv2D,stem\/MobilenetV3\/Bottleneck_5\/add",
      "alpha" : 1,
      "operation" : 0,
      "weights" : {

      },
      "fused_relu" : 0,
      "debug_info" : "",
      "top" : "stem\/MobilenetV3\/Bottleneck_6\/add",
      "type" : "elementwise",
      "name" : "stem\/MobilenetV3\/Bottleneck_6\/add",
      "beta" : 0
    },
    {
      "pad_r" : 0,
      "fused_relu" : 0,
      "fused_tanh" : 0,
      "debug_info" : "",
      "pad_fill_mode" : 0,
      "pad_b" : 0,
      "pad_l" : 0,
      "top" : "stem\/MobilenetV3\/Bottleneck_7\/expand\/Conv2D",
      "K" : 64,
      "blob_biases" : 125,
      "quantization_lut_weights_blob" : 127,
      "name" : "stem\/MobilenetV3\/Bottleneck_7\/expand\/Conv2D",
      "has_batch_norm" : 0,
      "type" : "convolution",
      "n_groups" : 1,
      "pad_t" : 0,
      "has_biases" : 1,
      "C" : 360,
      "bottom" : "stem\/MobilenetV3\/Bottleneck_6\/add",
      "weights" : {

      },
      "Nx" : 1,
      "pad_mode" : 1,
      "pad_value" : 0,
      "Ny" : 1,
      "n_parallel" : 1,
      "quantization_ranges_blob" : 129
    },
    {
      "bottom" : "stem\/MobilenetV3\/Bottleneck_7\/expand\/Conv2D",
      "alpha" : 3,
      "operation" : 2,
      "weights" : {

      },
      "fused_relu" : 0,
      "debug_info" : "",
      "top" : "stem\/MobilenetV3\/Bottleneck_7\/expand\/add",
      "type" : "elementwise",
      "name" : "stem\/MobilenetV3\/Bottleneck_7\/expand\/add",
      "beta" : 0
    },
    {
      "bottom" : "stem\/MobilenetV3\/Bottleneck_7\/expand\/add",
      "alpha" : 0,
      "operation" : 119,
      "weights" : {

      },
      "fused_relu" : 0,
      "debug_info" : "",
      "top" : "stem\/MobilenetV3\/Bottleneck_7\/expand\/Relu6",
      "type" : "elementwise",
      "name" : "stem\/MobilenetV3\/Bottleneck_7\/expand\/Relu6",
      "beta" : 6
    },
    {
      "bottom" : "stem\/MobilenetV3\/Bottleneck_7\/expand\/Relu6",
      "alpha" : 0.1666666716337204,
      "operation" : 3,
      "weights" : {

      },
      "fused_relu" : 0,
      "debug_info" : "",
      "top" : "stem\/MobilenetV3\/Bottleneck_7\/expand\/mul",
      "type" : "elementwise",
      "name" : "stem\/MobilenetV3\/Bottleneck_7\/expand\/mul",
      "beta" : 0
    },
    {
      "bottom" : "stem\/MobilenetV3\/Bottleneck_7\/expand\/Conv2D,stem\/MobilenetV3\/Bottleneck_7\/expand\/mul",
      "alpha" : 1,
      "operation" : 1,
      "weights" : {

      },
      "fused_relu" : 0,
      "debug_info" : "",
      "top" : "stem\/MobilenetV3\/Bottleneck_7\/expand\/mul_1",
      "type" : "elementwise",
      "name" : "stem\/MobilenetV3\/Bottleneck_7\/expand\/mul_1",
      "beta" : 0
    },
    {
      "pad_r" : 0,
      "fused_relu" : 0,
      "fused_tanh" : 0,
      "debug_info" : "",
      "pad_fill_mode" : 0,
      "pad_b" : 0,
      "pad_l" : 0,
      "top" : "stem\/MobilenetV3\/Bottleneck_7\/depthwise\/depthwise",
      "K" : 360,
      "blob_biases" : 131,
      "stride_x" : 2,
      "name" : "stem\/MobilenetV3\/Bottleneck_7\/depthwise\/depthwise",
      "has_batch_norm" : 0,
      "type" : "convolution",
      "n_groups" : 360,
      "pad_t" : 0,
      "stride_y" : 2,
      "has_biases" : 1,
      "C" : 360,
      "bottom" : "stem\/MobilenetV3\/Bottleneck_7\/expand\/mul_1",
      "weights" : {

      },
      "Nx" : 3,
      "pad_mode" : 1,
      "pad_value" : 0,
      "Ny" : 3,
      "n_parallel" : 1,
      "blob_weights_f16" : 133
    },
    {
      "bottom" : "stem\/MobilenetV3\/Bottleneck_7\/depthwise\/depthwise",
      "alpha" : 3,
      "operation" : 2,
      "weights" : {

      },
      "fused_relu" : 0,
      "debug_info" : "",
      "top" : "stem\/MobilenetV3\/Bottleneck_7\/add",
      "type" : "elementwise",
      "name" : "stem\/MobilenetV3\/Bottleneck_7\/add",
      "beta" : 0
    },
    {
      "bottom" : "stem\/MobilenetV3\/Bottleneck_7\/add",
      "alpha" : 0,
      "operation" : 119,
      "weights" : {

      },
      "fused_relu" : 0,
      "debug_info" : "",
      "top" : "stem\/MobilenetV3\/Bottleneck_7\/Relu6",
      "type" : "elementwise",
      "name" : "stem\/MobilenetV3\/Bottleneck_7\/Relu6",
      "beta" : 6
    },
    {
      "bottom" : "stem\/MobilenetV3\/Bottleneck_7\/Relu6",
      "alpha" : 0.1666666716337204,
      "operation" : 3,
      "weights" : {

      },
      "fused_relu" : 0,
      "debug_info" : "",
      "top" : "stem\/MobilenetV3\/Bottleneck_7\/mul",
      "type" : "elementwise",
      "name" : "stem\/MobilenetV3\/Bottleneck_7\/mul",
      "beta" : 0
    },
    {
      "bottom" : "stem\/MobilenetV3\/Bottleneck_7\/depthwise\/depthwise,stem\/MobilenetV3\/Bottleneck_7\/mul",
      "alpha" : 1,
      "operation" : 1,
      "weights" : {

      },
      "fused_relu" : 0,
      "debug_info" : "",
      "top" : "stem\/MobilenetV3\/Bottleneck_7\/mul_1",
      "type" : "elementwise",
      "name" : "stem\/MobilenetV3\/Bottleneck_7\/mul_1",
      "beta" : 0
    },
    {
      "pad_r" : 0,
      "fused_relu" : 0,
      "fused_tanh" : 0,
      "debug_info" : "",
      "pad_fill_mode" : 0,
      "pad_b" : 0,
      "pad_l" : 0,
      "top" : "stem\/MobilenetV3\/Bottleneck_7\/compress\/Conv2D",
      "K" : 360,
      "blob_biases" : 135,
      "quantization_lut_weights_blob" : 137,
      "name" : "stem\/MobilenetV3\/Bottleneck_7\/compress\/Conv2D",
      "has_batch_norm" : 0,
      "type" : "convolution",
      "n_groups" : 1,
      "pad_t" : 0,
      "has_biases" : 1,
      "C" : 120,
      "bottom" : "stem\/MobilenetV3\/Bottleneck_7\/mul_1",
      "weights" : {

      },
      "Nx" : 1,
      "pad_mode" : 1,
      "pad_value" : 0,
      "Ny" : 1,
      "n_parallel" : 1,
      "quantization_ranges_blob" : 139
    },
    {
      "pad_r" : 0,
      "fused_relu" : 0,
      "fused_tanh" : 0,
      "debug_info" : "",
      "pad_fill_mode" : 0,
      "pad_b" : 0,
      "pad_l" : 0,
      "top" : "stem\/MobilenetV3\/Bottleneck_8\/expand\/Conv2D",
      "K" : 120,
      "blob_biases" : 141,
      "quantization_lut_weights_blob" : 143,
      "name" : "stem\/MobilenetV3\/Bottleneck_8\/expand\/Conv2D",
      "has_batch_norm" : 0,
      "type" : "convolution",
      "n_groups" : 1,
      "pad_t" : 0,
      "has_biases" : 1,
      "C" : 304,
      "bottom" : "stem\/MobilenetV3\/Bottleneck_7\/compress\/Conv2D",
      "weights" : {

      },
      "Nx" : 1,
      "pad_mode" : 1,
      "pad_value" : 0,
      "Ny" : 1,
      "n_parallel" : 1,
      "quantization_ranges_blob" : 145
    },
    {
      "bottom" : "stem\/MobilenetV3\/Bottleneck_8\/expand\/Conv2D",
      "alpha" : 3,
      "operation" : 2,
      "weights" : {

      },
      "fused_relu" : 0,
      "debug_info" : "",
      "top" : "stem\/MobilenetV3\/Bottleneck_8\/expand\/add",
      "type" : "elementwise",
      "name" : "stem\/MobilenetV3\/Bottleneck_8\/expand\/add",
      "beta" : 0
    },
    {
      "bottom" : "stem\/MobilenetV3\/Bottleneck_8\/expand\/add",
      "alpha" : 0,
      "operation" : 119,
      "weights" : {

      },
      "fused_relu" : 0,
      "debug_info" : "",
      "top" : "stem\/MobilenetV3\/Bottleneck_8\/expand\/Relu6",
      "type" : "elementwise",
      "name" : "stem\/MobilenetV3\/Bottleneck_8\/expand\/Relu6",
      "beta" : 6
    },
    {
      "bottom" : "stem\/MobilenetV3\/Bottleneck_8\/expand\/Relu6",
      "alpha" : 0.1666666716337204,
      "operation" : 3,
      "weights" : {

      },
      "fused_relu" : 0,
      "debug_info" : "",
      "top" : "stem\/MobilenetV3\/Bottleneck_8\/expand\/mul",
      "type" : "elementwise",
      "name" : "stem\/MobilenetV3\/Bottleneck_8\/expand\/mul",
      "beta" : 0
    },
    {
      "bottom" : "stem\/MobilenetV3\/Bottleneck_8\/expand\/Conv2D,stem\/MobilenetV3\/Bottleneck_8\/expand\/mul",
      "alpha" : 1,
      "operation" : 1,
      "weights" : {

      },
      "fused_relu" : 0,
      "debug_info" : "",
      "top" : "stem\/MobilenetV3\/Bottleneck_8\/expand\/mul_1",
      "type" : "elementwise",
      "name" : "stem\/MobilenetV3\/Bottleneck_8\/expand\/mul_1",
      "beta" : 0
    },
    {
      "pad_r" : 0,
      "fused_relu" : 0,
      "fused_tanh" : 0,
      "debug_info" : "",
      "pad_fill_mode" : 0,
      "pad_b" : 0,
      "pad_l" : 0,
      "top" : "stem\/MobilenetV3\/Bottleneck_8\/depthwise\/depthwise",
      "K" : 304,
      "blob_biases" : 147,
      "name" : "stem\/MobilenetV3\/Bottleneck_8\/depthwise\/depthwise",
      "has_batch_norm" : 0,
      "type" : "convolution",
      "n_groups" : 304,
      "pad_t" : 0,
      "has_biases" : 1,
      "C" : 304,
      "bottom" : "stem\/MobilenetV3\/Bottleneck_8\/expand\/mul_1",
      "weights" : {

      },
      "Nx" : 3,
      "pad_mode" : 1,
      "pad_value" : 0,
      "Ny" : 3,
      "n_parallel" : 1,
      "blob_weights_f16" : 149
    },
    {
      "bottom" : "stem\/MobilenetV3\/Bottleneck_8\/depthwise\/depthwise",
      "alpha" : 3,
      "operation" : 2,
      "weights" : {

      },
      "fused_relu" : 0,
      "debug_info" : "",
      "top" : "stem\/MobilenetV3\/Bottleneck_8\/add",
      "type" : "elementwise",
      "name" : "stem\/MobilenetV3\/Bottleneck_8\/add",
      "beta" : 0
    },
    {
      "bottom" : "stem\/MobilenetV3\/Bottleneck_8\/add",
      "alpha" : 0,
      "operation" : 119,
      "weights" : {

      },
      "fused_relu" : 0,
      "debug_info" : "",
      "top" : "stem\/MobilenetV3\/Bottleneck_8\/Relu6",
      "type" : "elementwise",
      "name" : "stem\/MobilenetV3\/Bottleneck_8\/Relu6",
      "beta" : 6
    },
    {
      "bottom" : "stem\/MobilenetV3\/Bottleneck_8\/Relu6",
      "alpha" : 0.1666666716337204,
      "operation" : 3,
      "weights" : {

      },
      "fused_relu" : 0,
      "debug_info" : "",
      "top" : "stem\/MobilenetV3\/Bottleneck_8\/mul",
      "type" : "elementwise",
      "name" : "stem\/MobilenetV3\/Bottleneck_8\/mul",
      "beta" : 0
    },
    {
      "bottom" : "stem\/MobilenetV3\/Bottleneck_8\/depthwise\/depthwise,stem\/MobilenetV3\/Bottleneck_8\/mul",
      "alpha" : 1,
      "operation" : 1,
      "weights" : {

      },
      "fused_relu" : 0,
      "debug_info" : "",
      "top" : "stem\/MobilenetV3\/Bottleneck_8\/mul_1",
      "type" : "elementwise",
      "name" : "stem\/MobilenetV3\/Bottleneck_8\/mul_1",
      "beta" : 0
    },
    {
      "pad_r" : 0,
      "fused_relu" : 0,
      "fused_tanh" : 0,
      "debug_info" : "",
      "pad_fill_mode" : 0,
      "pad_b" : 0,
      "pad_l" : 0,
      "top" : "stem\/MobilenetV3\/Bottleneck_8\/compress\/Conv2D",
      "K" : 304,
      "blob_biases" : 151,
      "quantization_lut_weights_blob" : 153,
      "name" : "stem\/MobilenetV3\/Bottleneck_8\/compress\/Conv2D",
      "has_batch_norm" : 0,
      "type" : "convolution",
      "n_groups" : 1,
      "pad_t" : 0,
      "has_biases" : 1,
      "C" : 120,
      "bottom" : "stem\/MobilenetV3\/Bottleneck_8\/mul_1",
      "weights" : {

      },
      "Nx" : 1,
      "pad_mode" : 1,
      "pad_value" : 0,
      "Ny" : 1,
      "n_parallel" : 1,
      "quantization_ranges_blob" : 155
    },
    {
      "bottom" : "stem\/MobilenetV3\/Bottleneck_8\/compress\/Conv2D,stem\/MobilenetV3\/Bottleneck_7\/compress\/Conv2D",
      "alpha" : 1,
      "operation" : 0,
      "weights" : {

      },
      "fused_relu" : 0,
      "debug_info" : "",
      "top" : "stem\/MobilenetV3\/Bottleneck_8\/add_1",
      "type" : "elementwise",
      "name" : "stem\/MobilenetV3\/Bottleneck_8\/add_1",
      "beta" : 0
    },
    {
      "pad_r" : 0,
      "fused_relu" : 0,
      "fused_tanh" : 0,
      "debug_info" : "",
      "pad_fill_mode" : 0,
      "pad_b" : 0,
      "pad_l" : 0,
      "top" : "stem\/MobilenetV3\/Bottleneck_9\/expand\/Conv2D",
      "K" : 120,
      "blob_biases" : 157,
      "quantization_lut_weights_blob" : 159,
      "name" : "stem\/MobilenetV3\/Bottleneck_9\/expand\/Conv2D",
      "has_batch_norm" : 0,
      "type" : "convolution",
      "n_groups" : 1,
      "pad_t" : 0,
      "has_biases" : 1,
      "C" : 280,
      "bottom" : "stem\/MobilenetV3\/Bottleneck_8\/add_1",
      "weights" : {

      },
      "Nx" : 1,
      "pad_mode" : 1,
      "pad_value" : 0,
      "Ny" : 1,
      "n_parallel" : 1,
      "quantization_ranges_blob" : 161
    },
    {
      "bottom" : "stem\/MobilenetV3\/Bottleneck_9\/expand\/Conv2D",
      "alpha" : 3,
      "operation" : 2,
      "weights" : {

      },
      "fused_relu" : 0,
      "debug_info" : "",
      "top" : "stem\/MobilenetV3\/Bottleneck_9\/expand\/add",
      "type" : "elementwise",
      "name" : "stem\/MobilenetV3\/Bottleneck_9\/expand\/add",
      "beta" : 0
    },
    {
      "bottom" : "stem\/MobilenetV3\/Bottleneck_9\/expand\/add",
      "alpha" : 0,
      "operation" : 119,
      "weights" : {

      },
      "fused_relu" : 0,
      "debug_info" : "",
      "top" : "stem\/MobilenetV3\/Bottleneck_9\/expand\/Relu6",
      "type" : "elementwise",
      "name" : "stem\/MobilenetV3\/Bottleneck_9\/expand\/Relu6",
      "beta" : 6
    },
    {
      "bottom" : "stem\/MobilenetV3\/Bottleneck_9\/expand\/Relu6",
      "alpha" : 0.1666666716337204,
      "operation" : 3,
      "weights" : {

      },
      "fused_relu" : 0,
      "debug_info" : "",
      "top" : "stem\/MobilenetV3\/Bottleneck_9\/expand\/mul",
      "type" : "elementwise",
      "name" : "stem\/MobilenetV3\/Bottleneck_9\/expand\/mul",
      "beta" : 0
    },
    {
      "bottom" : "stem\/MobilenetV3\/Bottleneck_9\/expand\/Conv2D,stem\/MobilenetV3\/Bottleneck_9\/expand\/mul",
      "alpha" : 1,
      "operation" : 1,
      "weights" : {

      },
      "fused_relu" : 0,
      "debug_info" : "",
      "top" : "stem\/MobilenetV3\/Bottleneck_9\/expand\/mul_1",
      "type" : "elementwise",
      "name" : "stem\/MobilenetV3\/Bottleneck_9\/expand\/mul_1",
      "beta" : 0
    },
    {
      "pad_r" : 0,
      "fused_relu" : 0,
      "fused_tanh" : 0,
      "debug_info" : "",
      "pad_fill_mode" : 0,
      "pad_b" : 0,
      "pad_l" : 0,
      "top" : "stem\/MobilenetV3\/Bottleneck_9\/depthwise\/depthwise",
      "K" : 280,
      "blob_biases" : 163,
      "name" : "stem\/MobilenetV3\/Bottleneck_9\/depthwise\/depthwise",
      "has_batch_norm" : 0,
      "type" : "convolution",
      "n_groups" : 280,
      "pad_t" : 0,
      "has_biases" : 1,
      "C" : 280,
      "bottom" : "stem\/MobilenetV3\/Bottleneck_9\/expand\/mul_1",
      "weights" : {

      },
      "Nx" : 3,
      "pad_mode" : 1,
      "pad_value" : 0,
      "Ny" : 3,
      "n_parallel" : 1,
      "blob_weights_f16" : 165
    },
    {
      "bottom" : "stem\/MobilenetV3\/Bottleneck_9\/depthwise\/depthwise",
      "alpha" : 3,
      "operation" : 2,
      "weights" : {

      },
      "fused_relu" : 0,
      "debug_info" : "",
      "top" : "stem\/MobilenetV3\/Bottleneck_9\/add",
      "type" : "elementwise",
      "name" : "stem\/MobilenetV3\/Bottleneck_9\/add",
      "beta" : 0
    },
    {
      "bottom" : "stem\/MobilenetV3\/Bottleneck_9\/add",
      "alpha" : 0,
      "operation" : 119,
      "weights" : {

      },
      "fused_relu" : 0,
      "debug_info" : "",
      "top" : "stem\/MobilenetV3\/Bottleneck_9\/Relu6",
      "type" : "elementwise",
      "name" : "stem\/MobilenetV3\/Bottleneck_9\/Relu6",
      "beta" : 6
    },
    {
      "bottom" : "stem\/MobilenetV3\/Bottleneck_9\/Relu6",
      "alpha" : 0.1666666716337204,
      "operation" : 3,
      "weights" : {

      },
      "fused_relu" : 0,
      "debug_info" : "",
      "top" : "stem\/MobilenetV3\/Bottleneck_9\/mul",
      "type" : "elementwise",
      "name" : "stem\/MobilenetV3\/Bottleneck_9\/mul",
      "beta" : 0
    },
    {
      "bottom" : "stem\/MobilenetV3\/Bottleneck_9\/depthwise\/depthwise,stem\/MobilenetV3\/Bottleneck_9\/mul",
      "alpha" : 1,
      "operation" : 1,
      "weights" : {

      },
      "fused_relu" : 0,
      "debug_info" : "",
      "top" : "stem\/MobilenetV3\/Bottleneck_9\/mul_1",
      "type" : "elementwise",
      "name" : "stem\/MobilenetV3\/Bottleneck_9\/mul_1",
      "beta" : 0
    },
    {
      "pad_r" : 0,
      "fused_relu" : 0,
      "fused_tanh" : 0,
      "debug_info" : "",
      "pad_fill_mode" : 0,
      "pad_b" : 0,
      "pad_l" : 0,
      "top" : "stem\/MobilenetV3\/Bottleneck_9\/compress\/Conv2D",
      "K" : 280,
      "blob_biases" : 167,
      "quantization_lut_weights_blob" : 169,
      "name" : "stem\/MobilenetV3\/Bottleneck_9\/compress\/Conv2D",
      "has_batch_norm" : 0,
      "type" : "convolution",
      "n_groups" : 1,
      "pad_t" : 0,
      "has_biases" : 1,
      "C" : 120,
      "bottom" : "stem\/MobilenetV3\/Bottleneck_9\/mul_1",
      "weights" : {

      },
      "Nx" : 1,
      "pad_mode" : 1,
      "pad_value" : 0,
      "Ny" : 1,
      "n_parallel" : 1,
      "quantization_ranges_blob" : 171
    },
    {
      "bottom" : "stem\/MobilenetV3\/Bottleneck_9\/compress\/Conv2D,stem\/MobilenetV3\/Bottleneck_8\/add_1",
      "alpha" : 1,
      "operation" : 0,
      "weights" : {

      },
      "fused_relu" : 0,
      "debug_info" : "",
      "top" : "stem\/MobilenetV3\/Bottleneck_9\/add_1",
      "type" : "elementwise",
      "name" : "stem\/MobilenetV3\/Bottleneck_9\/add_1",
      "beta" : 0
    },
    {
      "pad_r" : 0,
      "fused_relu" : 0,
      "fused_tanh" : 0,
      "debug_info" : "",
      "pad_fill_mode" : 0,
      "pad_b" : 0,
      "pad_l" : 0,
      "top" : "stem\/MobilenetV3\/Bottleneck_10\/expand\/Conv2D",
      "K" : 120,
      "blob_biases" : 173,
      "quantization_lut_weights_blob" : 175,
      "name" : "stem\/MobilenetV3\/Bottleneck_10\/expand\/Conv2D",
      "has_batch_norm" : 0,
      "type" : "convolution",
      "n_groups" : 1,
      "pad_t" : 0,
      "has_biases" : 1,
      "C" : 280,
      "bottom" : "stem\/MobilenetV3\/Bottleneck_9\/add_1",
      "weights" : {

      },
      "Nx" : 1,
      "pad_mode" : 1,
      "pad_value" : 0,
      "Ny" : 1,
      "n_parallel" : 1,
      "quantization_ranges_blob" : 177
    },
    {
      "bottom" : "stem\/MobilenetV3\/Bottleneck_10\/expand\/Conv2D",
      "alpha" : 3,
      "operation" : 2,
      "weights" : {

      },
      "fused_relu" : 0,
      "debug_info" : "",
      "top" : "stem\/MobilenetV3\/Bottleneck_10\/expand\/add",
      "type" : "elementwise",
      "name" : "stem\/MobilenetV3\/Bottleneck_10\/expand\/add",
      "beta" : 0
    },
    {
      "bottom" : "stem\/MobilenetV3\/Bottleneck_10\/expand\/add",
      "alpha" : 0,
      "operation" : 119,
      "weights" : {

      },
      "fused_relu" : 0,
      "debug_info" : "",
      "top" : "stem\/MobilenetV3\/Bottleneck_10\/expand\/Relu6",
      "type" : "elementwise",
      "name" : "stem\/MobilenetV3\/Bottleneck_10\/expand\/Relu6",
      "beta" : 6
    },
    {
      "bottom" : "stem\/MobilenetV3\/Bottleneck_10\/expand\/Relu6",
      "alpha" : 0.1666666716337204,
      "operation" : 3,
      "weights" : {

      },
      "fused_relu" : 0,
      "debug_info" : "",
      "top" : "stem\/MobilenetV3\/Bottleneck_10\/expand\/mul",
      "type" : "elementwise",
      "name" : "stem\/MobilenetV3\/Bottleneck_10\/expand\/mul",
      "beta" : 0
    },
    {
      "bottom" : "stem\/MobilenetV3\/Bottleneck_10\/expand\/Conv2D,stem\/MobilenetV3\/Bottleneck_10\/expand\/mul",
      "alpha" : 1,
      "operation" : 1,
      "weights" : {

      },
      "fused_relu" : 0,
      "debug_info" : "",
      "top" : "stem\/MobilenetV3\/Bottleneck_10\/expand\/mul_1",
      "type" : "elementwise",
      "name" : "stem\/MobilenetV3\/Bottleneck_10\/expand\/mul_1",
      "beta" : 0
    },
    {
      "pad_r" : 0,
      "fused_relu" : 0,
      "fused_tanh" : 0,
      "debug_info" : "",
      "pad_fill_mode" : 0,
      "pad_b" : 0,
      "pad_l" : 0,
      "top" : "stem\/MobilenetV3\/Bottleneck_10\/depthwise\/depthwise",
      "K" : 280,
      "blob_biases" : 179,
      "name" : "stem\/MobilenetV3\/Bottleneck_10\/depthwise\/depthwise",
      "has_batch_norm" : 0,
      "type" : "convolution",
      "n_groups" : 280,
      "pad_t" : 0,
      "has_biases" : 1,
      "C" : 280,
      "bottom" : "stem\/MobilenetV3\/Bottleneck_10\/expand\/mul_1",
      "weights" : {

      },
      "Nx" : 3,
      "pad_mode" : 1,
      "pad_value" : 0,
      "Ny" : 3,
      "n_parallel" : 1,
      "blob_weights_f16" : 181
    },
    {
      "bottom" : "stem\/MobilenetV3\/Bottleneck_10\/depthwise\/depthwise",
      "alpha" : 3,
      "operation" : 2,
      "weights" : {

      },
      "fused_relu" : 0,
      "debug_info" : "",
      "top" : "stem\/MobilenetV3\/Bottleneck_10\/add",
      "type" : "elementwise",
      "name" : "stem\/MobilenetV3\/Bottleneck_10\/add",
      "beta" : 0
    },
    {
      "bottom" : "stem\/MobilenetV3\/Bottleneck_10\/add",
      "alpha" : 0,
      "operation" : 119,
      "weights" : {

      },
      "fused_relu" : 0,
      "debug_info" : "",
      "top" : "stem\/MobilenetV3\/Bottleneck_10\/Relu6",
      "type" : "elementwise",
      "name" : "stem\/MobilenetV3\/Bottleneck_10\/Relu6",
      "beta" : 6
    },
    {
      "bottom" : "stem\/MobilenetV3\/Bottleneck_10\/Relu6",
      "alpha" : 0.1666666716337204,
      "operation" : 3,
      "weights" : {

      },
      "fused_relu" : 0,
      "debug_info" : "",
      "top" : "stem\/MobilenetV3\/Bottleneck_10\/mul",
      "type" : "elementwise",
      "name" : "stem\/MobilenetV3\/Bottleneck_10\/mul",
      "beta" : 0
    },
    {
      "bottom" : "stem\/MobilenetV3\/Bottleneck_10\/depthwise\/depthwise,stem\/MobilenetV3\/Bottleneck_10\/mul",
      "alpha" : 1,
      "operation" : 1,
      "weights" : {

      },
      "fused_relu" : 0,
      "debug_info" : "",
      "top" : "stem\/MobilenetV3\/Bottleneck_10\/mul_1",
      "type" : "elementwise",
      "name" : "stem\/MobilenetV3\/Bottleneck_10\/mul_1",
      "beta" : 0
    },
    {
      "pad_r" : 0,
      "fused_relu" : 0,
      "fused_tanh" : 0,
      "debug_info" : "",
      "pad_fill_mode" : 0,
      "pad_b" : 0,
      "pad_l" : 0,
      "top" : "stem\/MobilenetV3\/Bottleneck_10\/compress\/Conv2D",
      "K" : 280,
      "blob_biases" : 183,
      "quantization_lut_weights_blob" : 185,
      "name" : "stem\/MobilenetV3\/Bottleneck_10\/compress\/Conv2D",
      "has_batch_norm" : 0,
      "type" : "convolution",
      "n_groups" : 1,
      "pad_t" : 0,
      "has_biases" : 1,
      "C" : 120,
      "bottom" : "stem\/MobilenetV3\/Bottleneck_10\/mul_1",
      "weights" : {

      },
      "Nx" : 1,
      "pad_mode" : 1,
      "pad_value" : 0,
      "Ny" : 1,
      "n_parallel" : 1,
      "quantization_ranges_blob" : 187
    },
    {
      "bottom" : "stem\/MobilenetV3\/Bottleneck_10\/compress\/Conv2D,stem\/MobilenetV3\/Bottleneck_9\/add_1",
      "alpha" : 1,
      "operation" : 0,
      "weights" : {

      },
      "fused_relu" : 0,
      "debug_info" : "",
      "top" : "stem\/MobilenetV3\/Bottleneck_10\/add_1",
      "type" : "elementwise",
      "name" : "stem\/MobilenetV3\/Bottleneck_10\/add_1",
      "beta" : 0
    },
    {
      "pad_r" : 0,
      "fused_relu" : 0,
      "fused_tanh" : 0,
      "debug_info" : "",
      "pad_fill_mode" : 0,
      "pad_b" : 0,
      "pad_l" : 0,
      "top" : "stem\/MobilenetV3\/Bottleneck_11\/expand\/Conv2D",
      "K" : 120,
      "blob_biases" : 189,
      "quantization_lut_weights_blob" : 191,
      "name" : "stem\/MobilenetV3\/Bottleneck_11\/expand\/Conv2D",
      "has_batch_norm" : 0,
      "type" : "convolution",
      "n_groups" : 1,
      "pad_t" : 0,
      "has_biases" : 1,
      "C" : 720,
      "bottom" : "stem\/MobilenetV3\/Bottleneck_10\/add_1",
      "weights" : {

      },
      "Nx" : 1,
      "pad_mode" : 1,
      "pad_value" : 0,
      "Ny" : 1,
      "n_parallel" : 1,
      "quantization_ranges_blob" : 193
    },
    {
      "bottom" : "stem\/MobilenetV3\/Bottleneck_11\/expand\/Conv2D",
      "alpha" : 3,
      "operation" : 2,
      "weights" : {

      },
      "fused_relu" : 0,
      "debug_info" : "",
      "top" : "stem\/MobilenetV3\/Bottleneck_11\/expand\/add",
      "type" : "elementwise",
      "name" : "stem\/MobilenetV3\/Bottleneck_11\/expand\/add",
      "beta" : 0
    },
    {
      "bottom" : "stem\/MobilenetV3\/Bottleneck_11\/expand\/add",
      "alpha" : 0,
      "operation" : 119,
      "weights" : {

      },
      "fused_relu" : 0,
      "debug_info" : "",
      "top" : "stem\/MobilenetV3\/Bottleneck_11\/expand\/Relu6",
      "type" : "elementwise",
      "name" : "stem\/MobilenetV3\/Bottleneck_11\/expand\/Relu6",
      "beta" : 6
    },
    {
      "bottom" : "stem\/MobilenetV3\/Bottleneck_11\/expand\/Relu6",
      "alpha" : 0.1666666716337204,
      "operation" : 3,
      "weights" : {

      },
      "fused_relu" : 0,
      "debug_info" : "",
      "top" : "stem\/MobilenetV3\/Bottleneck_11\/expand\/mul",
      "type" : "elementwise",
      "name" : "stem\/MobilenetV3\/Bottleneck_11\/expand\/mul",
      "beta" : 0
    },
    {
      "bottom" : "stem\/MobilenetV3\/Bottleneck_11\/expand\/Conv2D,stem\/MobilenetV3\/Bottleneck_11\/expand\/mul",
      "alpha" : 1,
      "operation" : 1,
      "weights" : {

      },
      "fused_relu" : 0,
      "debug_info" : "",
      "top" : "stem\/MobilenetV3\/Bottleneck_11\/expand\/mul_1",
      "type" : "elementwise",
      "name" : "stem\/MobilenetV3\/Bottleneck_11\/expand\/mul_1",
      "beta" : 0
    },
    {
      "pad_r" : 0,
      "fused_relu" : 0,
      "fused_tanh" : 0,
      "debug_info" : "",
      "pad_fill_mode" : 0,
      "pad_b" : 0,
      "pad_l" : 0,
      "top" : "stem\/MobilenetV3\/Bottleneck_11\/depthwise\/depthwise",
      "K" : 720,
      "blob_biases" : 195,
      "name" : "stem\/MobilenetV3\/Bottleneck_11\/depthwise\/depthwise",
      "has_batch_norm" : 0,
      "type" : "convolution",
      "n_groups" : 720,
      "pad_t" : 0,
      "has_biases" : 1,
      "C" : 720,
      "bottom" : "stem\/MobilenetV3\/Bottleneck_11\/expand\/mul_1",
      "weights" : {

      },
      "Nx" : 3,
      "pad_mode" : 1,
      "pad_value" : 0,
      "Ny" : 3,
      "n_parallel" : 1,
      "blob_weights_f16" : 197
    },
    {
      "pad_r" : 0,
      "debug_info" : "",
      "pad_fill_mode" : 0,
      "pad_b" : 0,
      "pad_l" : 0,
      "size_x" : 19,
      "is_global" : 1,
      "top" : "stem\/MobilenetV3\/Bottleneck_11\/gap\/Mean",
      "top_shape_style" : 0,
      "stride_x" : 1,
      "avg_or_max" : 0,
      "average_count_exclude_padding" : 1,
      "type" : "pool",
      "name" : "stem\/MobilenetV3\/Bottleneck_11\/gap\/Mean",
      "pad_t" : 0,
      "stride_y" : 1,
      "bottom" : "stem\/MobilenetV3\/Bottleneck_11\/depthwise\/depthwise",
      "weights" : {

      },
      "pad_mode" : 0,
      "size_y" : 19,
      "pad_value" : 0
    },
    {
      "pad_r" : 0,
      "fused_relu" : 1,
      "fused_tanh" : 0,
      "debug_info" : "",
      "pad_fill_mode" : 0,
      "pad_b" : 0,
      "pad_l" : 0,
      "top" : "stem\/MobilenetV3\/Bottleneck_11\/Bottleneck_11\/Conv\/Conv2D",
      "K" : 720,
      "blob_biases" : 199,
      "quantization_lut_weights_blob" : 201,
      "name" : "stem\/MobilenetV3\/Bottleneck_11\/Bottleneck_11\/Conv\/Conv2D",
      "has_batch_norm" : 0,
      "type" : "convolution",
      "n_groups" : 1,
      "pad_t" : 0,
      "has_biases" : 1,
      "C" : 180,
      "bottom" : "stem\/MobilenetV3\/Bottleneck_11\/gap\/Mean",
      "weights" : {

      },
      "Nx" : 1,
      "pad_mode" : 2,
      "pad_value" : 0,
      "Ny" : 1,
      "n_parallel" : 1,
      "quantization_ranges_blob" : 203
    },
    {
      "pad_r" : 0,
      "fused_relu" : 0,
      "fused_tanh" : 0,
      "debug_info" : "",
      "pad_fill_mode" : 0,
      "pad_b" : 0,
      "pad_l" : 0,
      "top" : "stem\/MobilenetV3\/Bottleneck_11\/Bottleneck_11_1\/Conv_1\/Conv2D",
      "K" : 180,
      "blob_biases" : 205,
      "quantization_lut_weights_blob" : 207,
      "name" : "stem\/MobilenetV3\/Bottleneck_11\/Bottleneck_11_1\/Conv_1\/Conv2D",
      "has_batch_norm" : 0,
      "type" : "convolution",
      "n_groups" : 1,
      "pad_t" : 0,
      "has_biases" : 1,
      "C" : 720,
      "bottom" : "stem\/MobilenetV3\/Bottleneck_11\/Bottleneck_11\/Conv\/Conv2D",
      "weights" : {

      },
      "Nx" : 1,
      "pad_mode" : 2,
      "pad_value" : 0,
      "Ny" : 1,
      "n_parallel" : 1,
      "quantization_ranges_blob" : 209
    },
    {
      "bottom" : "stem\/MobilenetV3\/Bottleneck_11\/Bottleneck_11_1\/Conv_1\/Conv2D",
      "alpha" : 3,
      "operation" : 2,
      "weights" : {

      },
      "fused_relu" : 0,
      "debug_info" : "",
      "top" : "stem\/MobilenetV3\/Bottleneck_11\/Bottleneck_11_1\/Conv_1\/add",
      "type" : "elementwise",
      "name" : "stem\/MobilenetV3\/Bottleneck_11\/Bottleneck_11_1\/Conv_1\/add",
      "beta" : 0
    },
    {
      "bottom" : "stem\/MobilenetV3\/Bottleneck_11\/Bottleneck_11_1\/Conv_1\/add",
      "alpha" : 0,
      "operation" : 119,
      "weights" : {

      },
      "fused_relu" : 0,
      "debug_info" : "",
      "top" : "stem\/MobilenetV3\/Bottleneck_11\/Bottleneck_11_1\/Conv_1\/Relu6",
      "type" : "elementwise",
      "name" : "stem\/MobilenetV3\/Bottleneck_11\/Bottleneck_11_1\/Conv_1\/Relu6",
      "beta" : 6
    },
    {
      "bottom" : "stem\/MobilenetV3\/Bottleneck_11\/Bottleneck_11_1\/Conv_1\/Relu6",
      "alpha" : 0.1666666716337204,
      "operation" : 3,
      "weights" : {

      },
      "fused_relu" : 0,
      "debug_info" : "",
      "top" : "stem\/MobilenetV3\/Bottleneck_11\/Bottleneck_11_1\/Conv_1\/mul",
      "type" : "elementwise",
      "name" : "stem\/MobilenetV3\/Bottleneck_11\/Bottleneck_11_1\/Conv_1\/mul",
      "beta" : 0
    },
    {
      "bottom" : "stem\/MobilenetV3\/Bottleneck_11\/depthwise\/depthwise,stem\/MobilenetV3\/Bottleneck_11\/Bottleneck_11_1\/Conv_1\/mul",
      "alpha" : 1,
      "operation" : 1,
      "weights" : {

      },
      "fused_relu" : 0,
      "debug_info" : "",
      "nd_mode" : true,
      "top" : "stem\/MobilenetV3\/Bottleneck_11\/mul",
      "type" : "elementwise",
      "name" : "stem\/MobilenetV3\/Bottleneck_11\/mul",
      "beta" : 0
    },
    {
      "bottom" : "stem\/MobilenetV3\/Bottleneck_11\/mul",
      "alpha" : 3,
      "operation" : 2,
      "weights" : {

      },
      "fused_relu" : 0,
      "debug_info" : "",
      "top" : "stem\/MobilenetV3\/Bottleneck_11\/add",
      "type" : "elementwise",
      "name" : "stem\/MobilenetV3\/Bottleneck_11\/add",
      "beta" : 0
    },
    {
      "bottom" : "stem\/MobilenetV3\/Bottleneck_11\/add",
      "alpha" : 0,
      "operation" : 119,
      "weights" : {

      },
      "fused_relu" : 0,
      "debug_info" : "",
      "top" : "stem\/MobilenetV3\/Bottleneck_11\/Relu6",
      "type" : "elementwise",
      "name" : "stem\/MobilenetV3\/Bottleneck_11\/Relu6",
      "beta" : 6
    },
    {
      "bottom" : "stem\/MobilenetV3\/Bottleneck_11\/Relu6",
      "alpha" : 0.1666666716337204,
      "operation" : 3,
      "weights" : {

      },
      "fused_relu" : 0,
      "debug_info" : "",
      "top" : "stem\/MobilenetV3\/Bottleneck_11\/mul_1",
      "type" : "elementwise",
      "name" : "stem\/MobilenetV3\/Bottleneck_11\/mul_1",
      "beta" : 0
    },
    {
      "bottom" : "stem\/MobilenetV3\/Bottleneck_11\/mul,stem\/MobilenetV3\/Bottleneck_11\/mul_1",
      "alpha" : 1,
      "operation" : 1,
      "weights" : {

      },
      "fused_relu" : 0,
      "debug_info" : "",
      "top" : "stem\/MobilenetV3\/Bottleneck_11\/mul_2",
      "type" : "elementwise",
      "name" : "stem\/MobilenetV3\/Bottleneck_11\/mul_2",
      "beta" : 0
    },
    {
      "pad_r" : 0,
      "fused_relu" : 0,
      "fused_tanh" : 0,
      "debug_info" : "",
      "pad_fill_mode" : 0,
      "pad_b" : 0,
      "pad_l" : 0,
      "top" : "stem\/MobilenetV3\/Bottleneck_11\/compress\/Conv2D",
      "K" : 720,
      "blob_biases" : 211,
      "quantization_lut_weights_blob" : 213,
      "name" : "stem\/MobilenetV3\/Bottleneck_11\/compress\/Conv2D",
      "has_batch_norm" : 0,
      "type" : "convolution",
      "n_groups" : 1,
      "pad_t" : 0,
      "has_biases" : 1,
      "C" : 168,
      "bottom" : "stem\/MobilenetV3\/Bottleneck_11\/mul_2",
      "weights" : {

      },
      "Nx" : 1,
      "pad_mode" : 1,
      "pad_value" : 0,
      "Ny" : 1,
      "n_parallel" : 1,
      "quantization_ranges_blob" : 215
    },
    {
      "pad_r" : 0,
      "fused_relu" : 0,
      "fused_tanh" : 0,
      "debug_info" : "",
      "pad_fill_mode" : 0,
      "pad_b" : 0,
      "pad_l" : 0,
      "top" : "stem\/MobilenetV3\/Bottleneck_12\/expand\/Conv2D",
      "K" : 168,
      "blob_biases" : 217,
      "quantization_lut_weights_blob" : 219,
      "name" : "stem\/MobilenetV3\/Bottleneck_12\/expand\/Conv2D",
      "has_batch_norm" : 0,
      "type" : "convolution",
      "n_groups" : 1,
      "pad_t" : 0,
      "has_biases" : 1,
      "C" : 1008,
      "bottom" : "stem\/MobilenetV3\/Bottleneck_11\/compress\/Conv2D",
      "weights" : {

      },
      "Nx" : 1,
      "pad_mode" : 1,
      "pad_value" : 0,
      "Ny" : 1,
      "n_parallel" : 1,
      "quantization_ranges_blob" : 221
    },
    {
      "bottom" : "stem\/MobilenetV3\/Bottleneck_12\/expand\/Conv2D",
      "alpha" : 3,
      "operation" : 2,
      "weights" : {

      },
      "fused_relu" : 0,
      "debug_info" : "",
      "top" : "stem\/MobilenetV3\/Bottleneck_12\/expand\/add",
      "type" : "elementwise",
      "name" : "stem\/MobilenetV3\/Bottleneck_12\/expand\/add",
      "beta" : 0
    },
    {
      "bottom" : "stem\/MobilenetV3\/Bottleneck_12\/expand\/add",
      "alpha" : 0,
      "operation" : 119,
      "weights" : {

      },
      "fused_relu" : 0,
      "debug_info" : "",
      "top" : "stem\/MobilenetV3\/Bottleneck_12\/expand\/Relu6",
      "type" : "elementwise",
      "name" : "stem\/MobilenetV3\/Bottleneck_12\/expand\/Relu6",
      "beta" : 6
    },
    {
      "bottom" : "stem\/MobilenetV3\/Bottleneck_12\/expand\/Relu6",
      "alpha" : 0.1666666716337204,
      "operation" : 3,
      "weights" : {

      },
      "fused_relu" : 0,
      "debug_info" : "",
      "top" : "stem\/MobilenetV3\/Bottleneck_12\/expand\/mul",
      "type" : "elementwise",
      "name" : "stem\/MobilenetV3\/Bottleneck_12\/expand\/mul",
      "beta" : 0
    },
    {
      "bottom" : "stem\/MobilenetV3\/Bottleneck_12\/expand\/Conv2D,stem\/MobilenetV3\/Bottleneck_12\/expand\/mul",
      "alpha" : 1,
      "operation" : 1,
      "weights" : {

      },
      "fused_relu" : 0,
      "debug_info" : "",
      "top" : "stem\/MobilenetV3\/Bottleneck_12\/expand\/mul_1",
      "type" : "elementwise",
      "name" : "stem\/MobilenetV3\/Bottleneck_12\/expand\/mul_1",
      "beta" : 0
    },
    {
      "pad_r" : 0,
      "fused_relu" : 0,
      "fused_tanh" : 0,
      "debug_info" : "",
      "pad_fill_mode" : 0,
      "pad_b" : 0,
      "pad_l" : 0,
      "top" : "stem\/MobilenetV3\/Bottleneck_12\/depthwise\/depthwise",
      "K" : 1008,
      "blob_biases" : 223,
      "name" : "stem\/MobilenetV3\/Bottleneck_12\/depthwise\/depthwise",
      "has_batch_norm" : 0,
      "type" : "convolution",
      "n_groups" : 1008,
      "pad_t" : 0,
      "has_biases" : 1,
      "C" : 1008,
      "bottom" : "stem\/MobilenetV3\/Bottleneck_12\/expand\/mul_1",
      "weights" : {

      },
      "Nx" : 3,
      "pad_mode" : 1,
      "pad_value" : 0,
      "Ny" : 3,
      "n_parallel" : 1,
      "blob_weights_f16" : 225
    },
    {
      "pad_r" : 0,
      "debug_info" : "",
      "pad_fill_mode" : 0,
      "pad_b" : 0,
      "pad_l" : 0,
      "size_x" : 19,
      "is_global" : 1,
      "top" : "stem\/MobilenetV3\/Bottleneck_12\/gap\/Mean",
      "top_shape_style" : 0,
      "stride_x" : 1,
      "avg_or_max" : 0,
      "average_count_exclude_padding" : 1,
      "type" : "pool",
      "name" : "stem\/MobilenetV3\/Bottleneck_12\/gap\/Mean",
      "pad_t" : 0,
      "stride_y" : 1,
      "bottom" : "stem\/MobilenetV3\/Bottleneck_12\/depthwise\/depthwise",
      "weights" : {

      },
      "pad_mode" : 0,
      "size_y" : 19,
      "pad_value" : 0
    },
    {
      "pad_r" : 0,
      "fused_relu" : 1,
      "fused_tanh" : 0,
      "debug_info" : "",
      "pad_fill_mode" : 0,
      "pad_b" : 0,
      "pad_l" : 0,
      "top" : "stem\/MobilenetV3\/Bottleneck_12\/Bottleneck_12\/Conv\/Conv2D",
      "K" : 1008,
      "blob_biases" : 227,
      "quantization_lut_weights_blob" : 229,
      "name" : "stem\/MobilenetV3\/Bottleneck_12\/Bottleneck_12\/Conv\/Conv2D",
      "has_batch_norm" : 0,
      "type" : "convolution",
      "n_groups" : 1,
      "pad_t" : 0,
      "has_biases" : 1,
      "C" : 252,
      "bottom" : "stem\/MobilenetV3\/Bottleneck_12\/gap\/Mean",
      "weights" : {

      },
      "Nx" : 1,
      "pad_mode" : 2,
      "pad_value" : 0,
      "Ny" : 1,
      "n_parallel" : 1,
      "quantization_ranges_blob" : 231
    },
    {
      "pad_r" : 0,
      "fused_relu" : 0,
      "fused_tanh" : 0,
      "debug_info" : "",
      "pad_fill_mode" : 0,
      "pad_b" : 0,
      "pad_l" : 0,
      "top" : "stem\/MobilenetV3\/Bottleneck_12\/Bottleneck_12_1\/Conv_1\/Conv2D",
      "K" : 252,
      "blob_biases" : 233,
      "quantization_lut_weights_blob" : 235,
      "name" : "stem\/MobilenetV3\/Bottleneck_12\/Bottleneck_12_1\/Conv_1\/Conv2D",
      "has_batch_norm" : 0,
      "type" : "convolution",
      "n_groups" : 1,
      "pad_t" : 0,
      "has_biases" : 1,
      "C" : 1008,
      "bottom" : "stem\/MobilenetV3\/Bottleneck_12\/Bottleneck_12\/Conv\/Conv2D",
      "weights" : {

      },
      "Nx" : 1,
      "pad_mode" : 2,
      "pad_value" : 0,
      "Ny" : 1,
      "n_parallel" : 1,
      "quantization_ranges_blob" : 237
    },
    {
      "bottom" : "stem\/MobilenetV3\/Bottleneck_12\/Bottleneck_12_1\/Conv_1\/Conv2D",
      "alpha" : 3,
      "operation" : 2,
      "weights" : {

      },
      "fused_relu" : 0,
      "debug_info" : "",
      "top" : "stem\/MobilenetV3\/Bottleneck_12\/Bottleneck_12_1\/Conv_1\/add",
      "type" : "elementwise",
      "name" : "stem\/MobilenetV3\/Bottleneck_12\/Bottleneck_12_1\/Conv_1\/add",
      "beta" : 0
    },
    {
      "bottom" : "stem\/MobilenetV3\/Bottleneck_12\/Bottleneck_12_1\/Conv_1\/add",
      "alpha" : 0,
      "operation" : 119,
      "weights" : {

      },
      "fused_relu" : 0,
      "debug_info" : "",
      "top" : "stem\/MobilenetV3\/Bottleneck_12\/Bottleneck_12_1\/Conv_1\/Relu6",
      "type" : "elementwise",
      "name" : "stem\/MobilenetV3\/Bottleneck_12\/Bottleneck_12_1\/Conv_1\/Relu6",
      "beta" : 6
    },
    {
      "bottom" : "stem\/MobilenetV3\/Bottleneck_12\/Bottleneck_12_1\/Conv_1\/Relu6",
      "alpha" : 0.1666666716337204,
      "operation" : 3,
      "weights" : {

      },
      "fused_relu" : 0,
      "debug_info" : "",
      "top" : "stem\/MobilenetV3\/Bottleneck_12\/Bottleneck_12_1\/Conv_1\/mul",
      "type" : "elementwise",
      "name" : "stem\/MobilenetV3\/Bottleneck_12\/Bottleneck_12_1\/Conv_1\/mul",
      "beta" : 0
    },
    {
      "bottom" : "stem\/MobilenetV3\/Bottleneck_12\/depthwise\/depthwise,stem\/MobilenetV3\/Bottleneck_12\/Bottleneck_12_1\/Conv_1\/mul",
      "alpha" : 1,
      "operation" : 1,
      "weights" : {

      },
      "fused_relu" : 0,
      "debug_info" : "",
      "nd_mode" : true,
      "top" : "stem\/MobilenetV3\/Bottleneck_12\/mul",
      "type" : "elementwise",
      "name" : "stem\/MobilenetV3\/Bottleneck_12\/mul",
      "beta" : 0
    },
    {
      "bottom" : "stem\/MobilenetV3\/Bottleneck_12\/mul",
      "alpha" : 3,
      "operation" : 2,
      "weights" : {

      },
      "fused_relu" : 0,
      "debug_info" : "",
      "top" : "stem\/MobilenetV3\/Bottleneck_12\/add",
      "type" : "elementwise",
      "name" : "stem\/MobilenetV3\/Bottleneck_12\/add",
      "beta" : 0
    },
    {
      "bottom" : "stem\/MobilenetV3\/Bottleneck_12\/add",
      "alpha" : 0,
      "operation" : 119,
      "weights" : {

      },
      "fused_relu" : 0,
      "debug_info" : "",
      "top" : "stem\/MobilenetV3\/Bottleneck_12\/Relu6",
      "type" : "elementwise",
      "name" : "stem\/MobilenetV3\/Bottleneck_12\/Relu6",
      "beta" : 6
    },
    {
      "bottom" : "stem\/MobilenetV3\/Bottleneck_12\/Relu6",
      "alpha" : 0.1666666716337204,
      "operation" : 3,
      "weights" : {

      },
      "fused_relu" : 0,
      "debug_info" : "",
      "top" : "stem\/MobilenetV3\/Bottleneck_12\/mul_1",
      "type" : "elementwise",
      "name" : "stem\/MobilenetV3\/Bottleneck_12\/mul_1",
      "beta" : 0
    },
    {
      "bottom" : "stem\/MobilenetV3\/Bottleneck_12\/mul,stem\/MobilenetV3\/Bottleneck_12\/mul_1",
      "alpha" : 1,
      "operation" : 1,
      "weights" : {

      },
      "fused_relu" : 0,
      "debug_info" : "",
      "top" : "stem\/MobilenetV3\/Bottleneck_12\/mul_2",
      "type" : "elementwise",
      "name" : "stem\/MobilenetV3\/Bottleneck_12\/mul_2",
      "beta" : 0
    },
    {
      "pad_r" : 0,
      "fused_relu" : 0,
      "fused_tanh" : 0,
      "debug_info" : "",
      "pad_fill_mode" : 0,
      "pad_b" : 0,
      "pad_l" : 0,
      "top" : "stem\/MobilenetV3\/Bottleneck_12\/compress\/Conv2D",
      "K" : 1008,
      "blob_biases" : 239,
      "quantization_lut_weights_blob" : 241,
      "name" : "stem\/MobilenetV3\/Bottleneck_12\/compress\/Conv2D",
      "has_batch_norm" : 0,
      "type" : "convolution",
      "n_groups" : 1,
      "pad_t" : 0,
      "has_biases" : 1,
      "C" : 168,
      "bottom" : "stem\/MobilenetV3\/Bottleneck_12\/mul_2",
      "weights" : {

      },
      "Nx" : 1,
      "pad_mode" : 1,
      "pad_value" : 0,
      "Ny" : 1,
      "n_parallel" : 1,
      "quantization_ranges_blob" : 243
    },
    {
      "bottom" : "stem\/MobilenetV3\/Bottleneck_12\/compress\/Conv2D,stem\/MobilenetV3\/Bottleneck_11\/compress\/Conv2D",
      "alpha" : 1,
      "operation" : 0,
      "weights" : {

      },
      "fused_relu" : 0,
      "debug_info" : "",
      "top" : "stem\/MobilenetV3\/Bottleneck_12\/add_1",
      "type" : "elementwise",
      "name" : "stem\/MobilenetV3\/Bottleneck_12\/add_1",
      "beta" : 0
    },
    {
      "pad_r" : 0,
      "fused_relu" : 0,
      "fused_tanh" : 0,
      "debug_info" : "",
      "pad_fill_mode" : 0,
      "pad_b" : 0,
      "pad_l" : 0,
      "top" : "stem\/MobilenetV3\/Bottleneck_13\/expand\/Conv2D",
      "K" : 168,
      "blob_biases" : 245,
      "quantization_lut_weights_blob" : 247,
      "name" : "stem\/MobilenetV3\/Bottleneck_13\/expand\/Conv2D",
      "has_batch_norm" : 0,
      "type" : "convolution",
      "n_groups" : 1,
      "pad_t" : 0,
      "has_biases" : 1,
      "C" : 1008,
      "bottom" : "stem\/MobilenetV3\/Bottleneck_12\/add_1",
      "weights" : {

      },
      "Nx" : 1,
      "pad_mode" : 1,
      "pad_value" : 0,
      "Ny" : 1,
      "n_parallel" : 1,
      "quantization_ranges_blob" : 249
    },
    {
      "bottom" : "stem\/MobilenetV3\/Bottleneck_13\/expand\/Conv2D",
      "alpha" : 3,
      "operation" : 2,
      "weights" : {

      },
      "fused_relu" : 0,
      "debug_info" : "",
      "top" : "stem\/MobilenetV3\/Bottleneck_13\/expand\/add",
      "type" : "elementwise",
      "name" : "stem\/MobilenetV3\/Bottleneck_13\/expand\/add",
      "beta" : 0
    },
    {
      "bottom" : "stem\/MobilenetV3\/Bottleneck_13\/expand\/add",
      "alpha" : 0,
      "operation" : 119,
      "weights" : {

      },
      "fused_relu" : 0,
      "debug_info" : "",
      "top" : "stem\/MobilenetV3\/Bottleneck_13\/expand\/Relu6",
      "type" : "elementwise",
      "name" : "stem\/MobilenetV3\/Bottleneck_13\/expand\/Relu6",
      "beta" : 6
    },
    {
      "bottom" : "stem\/MobilenetV3\/Bottleneck_13\/expand\/Relu6",
      "alpha" : 0.1666666716337204,
      "operation" : 3,
      "weights" : {

      },
      "fused_relu" : 0,
      "debug_info" : "",
      "top" : "stem\/MobilenetV3\/Bottleneck_13\/expand\/mul",
      "type" : "elementwise",
      "name" : "stem\/MobilenetV3\/Bottleneck_13\/expand\/mul",
      "beta" : 0
    },
    {
      "bottom" : "stem\/MobilenetV3\/Bottleneck_13\/expand\/Conv2D,stem\/MobilenetV3\/Bottleneck_13\/expand\/mul",
      "alpha" : 1,
      "operation" : 1,
      "weights" : {

      },
      "fused_relu" : 0,
      "debug_info" : "",
      "top" : "stem\/MobilenetV3\/Bottleneck_13\/expand\/mul_1",
      "type" : "elementwise",
      "name" : "stem\/MobilenetV3\/Bottleneck_13\/expand\/mul_1",
      "beta" : 0
    },
    {
      "pad_r" : 0,
      "fused_relu" : 0,
      "fused_tanh" : 0,
      "debug_info" : "",
      "pad_fill_mode" : 0,
      "pad_b" : 0,
      "pad_l" : 0,
      "top" : "stem\/MobilenetV3\/Bottleneck_13\/depthwise\/depthwise",
      "K" : 1008,
      "blob_biases" : 251,
      "stride_x" : 2,
      "name" : "stem\/MobilenetV3\/Bottleneck_13\/depthwise\/depthwise",
      "has_batch_norm" : 0,
      "type" : "convolution",
      "n_groups" : 1008,
      "pad_t" : 0,
      "stride_y" : 2,
      "has_biases" : 1,
      "C" : 1008,
      "bottom" : "stem\/MobilenetV3\/Bottleneck_13\/expand\/mul_1",
      "weights" : {

      },
      "Nx" : 3,
      "pad_mode" : 1,
      "pad_value" : 0,
      "Ny" : 3,
      "n_parallel" : 1,
      "blob_weights_f16" : 253
    },
    {
      "pad_r" : 0,
      "debug_info" : "",
      "pad_fill_mode" : 0,
      "pad_b" : 0,
      "pad_l" : 0,
      "size_x" : 10,
      "is_global" : 1,
      "top" : "stem\/MobilenetV3\/Bottleneck_13\/gap\/Mean",
      "top_shape_style" : 0,
      "stride_x" : 1,
      "avg_or_max" : 0,
      "average_count_exclude_padding" : 1,
      "type" : "pool",
      "name" : "stem\/MobilenetV3\/Bottleneck_13\/gap\/Mean",
      "pad_t" : 0,
      "stride_y" : 1,
      "bottom" : "stem\/MobilenetV3\/Bottleneck_13\/depthwise\/depthwise",
      "weights" : {

      },
      "pad_mode" : 0,
      "size_y" : 10,
      "pad_value" : 0
    },
    {
      "pad_r" : 0,
      "fused_relu" : 1,
      "fused_tanh" : 0,
      "debug_info" : "",
      "pad_fill_mode" : 0,
      "pad_b" : 0,
      "pad_l" : 0,
      "top" : "stem\/MobilenetV3\/Bottleneck_13\/Bottleneck_13\/Conv\/Conv2D",
      "K" : 1008,
      "blob_biases" : 255,
      "quantization_lut_weights_blob" : 257,
      "name" : "stem\/MobilenetV3\/Bottleneck_13\/Bottleneck_13\/Conv\/Conv2D",
      "has_batch_norm" : 0,
      "type" : "convolution",
      "n_groups" : 1,
      "pad_t" : 0,
      "has_biases" : 1,
      "C" : 252,
      "bottom" : "stem\/MobilenetV3\/Bottleneck_13\/gap\/Mean",
      "weights" : {

      },
      "Nx" : 1,
      "pad_mode" : 2,
      "pad_value" : 0,
      "Ny" : 1,
      "n_parallel" : 1,
      "quantization_ranges_blob" : 259
    },
    {
      "pad_r" : 0,
      "fused_relu" : 0,
      "fused_tanh" : 0,
      "debug_info" : "",
      "pad_fill_mode" : 0,
      "pad_b" : 0,
      "pad_l" : 0,
      "top" : "stem\/MobilenetV3\/Bottleneck_13\/Bottleneck_13_1\/Conv_1\/Conv2D",
      "K" : 252,
      "blob_biases" : 261,
      "quantization_lut_weights_blob" : 263,
      "name" : "stem\/MobilenetV3\/Bottleneck_13\/Bottleneck_13_1\/Conv_1\/Conv2D",
      "has_batch_norm" : 0,
      "type" : "convolution",
      "n_groups" : 1,
      "pad_t" : 0,
      "has_biases" : 1,
      "C" : 1008,
      "bottom" : "stem\/MobilenetV3\/Bottleneck_13\/Bottleneck_13\/Conv\/Conv2D",
      "weights" : {

      },
      "Nx" : 1,
      "pad_mode" : 2,
      "pad_value" : 0,
      "Ny" : 1,
      "n_parallel" : 1,
      "quantization_ranges_blob" : 265
    },
    {
      "bottom" : "stem\/MobilenetV3\/Bottleneck_13\/Bottleneck_13_1\/Conv_1\/Conv2D",
      "alpha" : 3,
      "operation" : 2,
      "weights" : {

      },
      "fused_relu" : 0,
      "debug_info" : "",
      "top" : "stem\/MobilenetV3\/Bottleneck_13\/Bottleneck_13_1\/Conv_1\/add",
      "type" : "elementwise",
      "name" : "stem\/MobilenetV3\/Bottleneck_13\/Bottleneck_13_1\/Conv_1\/add",
      "beta" : 0
    },
    {
      "bottom" : "stem\/MobilenetV3\/Bottleneck_13\/Bottleneck_13_1\/Conv_1\/add",
      "alpha" : 0,
      "operation" : 119,
      "weights" : {

      },
      "fused_relu" : 0,
      "debug_info" : "",
      "top" : "stem\/MobilenetV3\/Bottleneck_13\/Bottleneck_13_1\/Conv_1\/Relu6",
      "type" : "elementwise",
      "name" : "stem\/MobilenetV3\/Bottleneck_13\/Bottleneck_13_1\/Conv_1\/Relu6",
      "beta" : 6
    },
    {
      "bottom" : "stem\/MobilenetV3\/Bottleneck_13\/Bottleneck_13_1\/Conv_1\/Relu6",
      "alpha" : 0.1666666716337204,
      "operation" : 3,
      "weights" : {

      },
      "fused_relu" : 0,
      "debug_info" : "",
      "top" : "stem\/MobilenetV3\/Bottleneck_13\/Bottleneck_13_1\/Conv_1\/mul",
      "type" : "elementwise",
      "name" : "stem\/MobilenetV3\/Bottleneck_13\/Bottleneck_13_1\/Conv_1\/mul",
      "beta" : 0
    },
    {
      "bottom" : "stem\/MobilenetV3\/Bottleneck_13\/depthwise\/depthwise,stem\/MobilenetV3\/Bottleneck_13\/Bottleneck_13_1\/Conv_1\/mul",
      "alpha" : 1,
      "operation" : 1,
      "weights" : {

      },
      "fused_relu" : 0,
      "debug_info" : "",
      "nd_mode" : true,
      "top" : "stem\/MobilenetV3\/Bottleneck_13\/mul",
      "type" : "elementwise",
      "name" : "stem\/MobilenetV3\/Bottleneck_13\/mul",
      "beta" : 0
    },
    {
      "bottom" : "stem\/MobilenetV3\/Bottleneck_13\/mul",
      "alpha" : 3,
      "operation" : 2,
      "weights" : {

      },
      "fused_relu" : 0,
      "debug_info" : "",
      "top" : "stem\/MobilenetV3\/Bottleneck_13\/add",
      "type" : "elementwise",
      "name" : "stem\/MobilenetV3\/Bottleneck_13\/add",
      "beta" : 0
    },
    {
      "bottom" : "stem\/MobilenetV3\/Bottleneck_13\/add",
      "alpha" : 0,
      "operation" : 119,
      "weights" : {

      },
      "fused_relu" : 0,
      "debug_info" : "",
      "top" : "stem\/MobilenetV3\/Bottleneck_13\/Relu6",
      "type" : "elementwise",
      "name" : "stem\/MobilenetV3\/Bottleneck_13\/Relu6",
      "beta" : 6
    },
    {
      "bottom" : "stem\/MobilenetV3\/Bottleneck_13\/Relu6",
      "alpha" : 0.1666666716337204,
      "operation" : 3,
      "weights" : {

      },
      "fused_relu" : 0,
      "debug_info" : "",
      "top" : "stem\/MobilenetV3\/Bottleneck_13\/mul_1",
      "type" : "elementwise",
      "name" : "stem\/MobilenetV3\/Bottleneck_13\/mul_1",
      "beta" : 0
    },
    {
      "bottom" : "stem\/MobilenetV3\/Bottleneck_13\/mul,stem\/MobilenetV3\/Bottleneck_13\/mul_1",
      "alpha" : 1,
      "operation" : 1,
      "weights" : {

      },
      "fused_relu" : 0,
      "debug_info" : "",
      "top" : "stem\/MobilenetV3\/Bottleneck_13\/mul_2",
      "type" : "elementwise",
      "name" : "stem\/MobilenetV3\/Bottleneck_13\/mul_2",
      "beta" : 0
    },
    {
      "pad_r" : 0,
      "fused_relu" : 0,
      "fused_tanh" : 0,
      "debug_info" : "",
      "pad_fill_mode" : 0,
      "pad_b" : 0,
      "pad_l" : 0,
      "top" : "stem\/MobilenetV3\/Bottleneck_13\/compress\/Conv2D",
      "K" : 1008,
      "blob_biases" : 267,
      "quantization_lut_weights_blob" : 269,
      "name" : "stem\/MobilenetV3\/Bottleneck_13\/compress\/Conv2D",
      "has_batch_norm" : 0,
      "type" : "convolution",
      "n_groups" : 1,
      "pad_t" : 0,
      "has_biases" : 1,
      "C" : 240,
      "bottom" : "stem\/MobilenetV3\/Bottleneck_13\/mul_2",
      "weights" : {

      },
      "Nx" : 1,
      "pad_mode" : 1,
      "pad_value" : 0,
      "Ny" : 1,
      "n_parallel" : 1,
      "quantization_ranges_blob" : 271
    },
    {
      "pad_r" : 0,
      "fused_relu" : 0,
      "fused_tanh" : 0,
      "debug_info" : "",
      "pad_fill_mode" : 0,
      "pad_b" : 0,
      "pad_l" : 0,
      "top" : "stem\/MobilenetV3\/Bottleneck_14\/expand\/Conv2D",
      "K" : 240,
      "blob_biases" : 273,
      "quantization_lut_weights_blob" : 275,
      "name" : "stem\/MobilenetV3\/Bottleneck_14\/expand\/Conv2D",
      "has_batch_norm" : 0,
      "type" : "convolution",
      "n_groups" : 1,
      "pad_t" : 0,
      "has_biases" : 1,
      "C" : 1440,
      "bottom" : "stem\/MobilenetV3\/Bottleneck_13\/compress\/Conv2D",
      "weights" : {

      },
      "Nx" : 1,
      "pad_mode" : 1,
      "pad_value" : 0,
      "Ny" : 1,
      "n_parallel" : 1,
      "quantization_ranges_blob" : 277
    },
    {
      "bottom" : "stem\/MobilenetV3\/Bottleneck_14\/expand\/Conv2D",
      "alpha" : 3,
      "operation" : 2,
      "weights" : {

      },
      "fused_relu" : 0,
      "debug_info" : "",
      "top" : "stem\/MobilenetV3\/Bottleneck_14\/expand\/add",
      "type" : "elementwise",
      "name" : "stem\/MobilenetV3\/Bottleneck_14\/expand\/add",
      "beta" : 0
    },
    {
      "bottom" : "stem\/MobilenetV3\/Bottleneck_14\/expand\/add",
      "alpha" : 0,
      "operation" : 119,
      "weights" : {

      },
      "fused_relu" : 0,
      "debug_info" : "",
      "top" : "stem\/MobilenetV3\/Bottleneck_14\/expand\/Relu6",
      "type" : "elementwise",
      "name" : "stem\/MobilenetV3\/Bottleneck_14\/expand\/Relu6",
      "beta" : 6
    },
    {
      "bottom" : "stem\/MobilenetV3\/Bottleneck_14\/expand\/Relu6",
      "alpha" : 0.1666666716337204,
      "operation" : 3,
      "weights" : {

      },
      "fused_relu" : 0,
      "debug_info" : "",
      "top" : "stem\/MobilenetV3\/Bottleneck_14\/expand\/mul",
      "type" : "elementwise",
      "name" : "stem\/MobilenetV3\/Bottleneck_14\/expand\/mul",
      "beta" : 0
    },
    {
      "bottom" : "stem\/MobilenetV3\/Bottleneck_14\/expand\/Conv2D,stem\/MobilenetV3\/Bottleneck_14\/expand\/mul",
      "alpha" : 1,
      "operation" : 1,
      "weights" : {

      },
      "fused_relu" : 0,
      "debug_info" : "",
      "top" : "stem\/MobilenetV3\/Bottleneck_14\/expand\/mul_1",
      "type" : "elementwise",
      "name" : "stem\/MobilenetV3\/Bottleneck_14\/expand\/mul_1",
      "beta" : 0
    },
    {
      "pad_r" : 0,
      "fused_relu" : 0,
      "fused_tanh" : 0,
      "debug_info" : "",
      "pad_fill_mode" : 0,
      "pad_b" : 0,
      "pad_l" : 0,
      "top" : "stem\/MobilenetV3\/Bottleneck_14\/depthwise\/depthwise",
      "K" : 1440,
      "blob_biases" : 279,
      "name" : "stem\/MobilenetV3\/Bottleneck_14\/depthwise\/depthwise",
      "has_batch_norm" : 0,
      "type" : "convolution",
      "n_groups" : 1440,
      "pad_t" : 0,
      "has_biases" : 1,
      "C" : 1440,
      "bottom" : "stem\/MobilenetV3\/Bottleneck_14\/expand\/mul_1",
      "weights" : {

      },
      "Nx" : 3,
      "pad_mode" : 1,
      "pad_value" : 0,
      "Ny" : 3,
      "n_parallel" : 1,
      "blob_weights_f16" : 281
    },
    {
      "pad_r" : 0,
      "debug_info" : "",
      "pad_fill_mode" : 0,
      "pad_b" : 0,
      "pad_l" : 0,
      "size_x" : 10,
      "is_global" : 1,
      "top" : "stem\/MobilenetV3\/Bottleneck_14\/gap\/Mean",
      "top_shape_style" : 0,
      "stride_x" : 1,
      "avg_or_max" : 0,
      "average_count_exclude_padding" : 1,
      "type" : "pool",
      "name" : "stem\/MobilenetV3\/Bottleneck_14\/gap\/Mean",
      "pad_t" : 0,
      "stride_y" : 1,
      "bottom" : "stem\/MobilenetV3\/Bottleneck_14\/depthwise\/depthwise",
      "weights" : {

      },
      "pad_mode" : 0,
      "size_y" : 10,
      "pad_value" : 0
    },
    {
      "pad_r" : 0,
      "fused_relu" : 1,
      "fused_tanh" : 0,
      "debug_info" : "",
      "pad_fill_mode" : 0,
      "pad_b" : 0,
      "pad_l" : 0,
      "top" : "stem\/MobilenetV3\/Bottleneck_14\/Bottleneck_14\/Conv\/Conv2D",
      "K" : 1440,
      "blob_biases" : 283,
      "quantization_lut_weights_blob" : 285,
      "name" : "stem\/MobilenetV3\/Bottleneck_14\/Bottleneck_14\/Conv\/Conv2D",
      "has_batch_norm" : 0,
      "type" : "convolution",
      "n_groups" : 1,
      "pad_t" : 0,
      "has_biases" : 1,
      "C" : 360,
      "bottom" : "stem\/MobilenetV3\/Bottleneck_14\/gap\/Mean",
      "weights" : {

      },
      "Nx" : 1,
      "pad_mode" : 2,
      "pad_value" : 0,
      "Ny" : 1,
      "n_parallel" : 1,
      "quantization_ranges_blob" : 287
    },
    {
      "pad_r" : 0,
      "fused_relu" : 0,
      "fused_tanh" : 0,
      "debug_info" : "",
      "pad_fill_mode" : 0,
      "pad_b" : 0,
      "pad_l" : 0,
      "top" : "stem\/MobilenetV3\/Bottleneck_14\/Bottleneck_14_1\/Conv_1\/Conv2D",
      "K" : 360,
      "blob_biases" : 289,
      "quantization_lut_weights_blob" : 291,
      "name" : "stem\/MobilenetV3\/Bottleneck_14\/Bottleneck_14_1\/Conv_1\/Conv2D",
      "has_batch_norm" : 0,
      "type" : "convolution",
      "n_groups" : 1,
      "pad_t" : 0,
      "has_biases" : 1,
      "C" : 1440,
      "bottom" : "stem\/MobilenetV3\/Bottleneck_14\/Bottleneck_14\/Conv\/Conv2D",
      "weights" : {

      },
      "Nx" : 1,
      "pad_mode" : 2,
      "pad_value" : 0,
      "Ny" : 1,
      "n_parallel" : 1,
      "quantization_ranges_blob" : 293
    },
    {
      "bottom" : "stem\/MobilenetV3\/Bottleneck_14\/Bottleneck_14_1\/Conv_1\/Conv2D",
      "alpha" : 3,
      "operation" : 2,
      "weights" : {

      },
      "fused_relu" : 0,
      "debug_info" : "",
      "top" : "stem\/MobilenetV3\/Bottleneck_14\/Bottleneck_14_1\/Conv_1\/add",
      "type" : "elementwise",
      "name" : "stem\/MobilenetV3\/Bottleneck_14\/Bottleneck_14_1\/Conv_1\/add",
      "beta" : 0
    },
    {
      "bottom" : "stem\/MobilenetV3\/Bottleneck_14\/Bottleneck_14_1\/Conv_1\/add",
      "alpha" : 0,
      "operation" : 119,
      "weights" : {

      },
      "fused_relu" : 0,
      "debug_info" : "",
      "top" : "stem\/MobilenetV3\/Bottleneck_14\/Bottleneck_14_1\/Conv_1\/Relu6",
      "type" : "elementwise",
      "name" : "stem\/MobilenetV3\/Bottleneck_14\/Bottleneck_14_1\/Conv_1\/Relu6",
      "beta" : 6
    },
    {
      "bottom" : "stem\/MobilenetV3\/Bottleneck_14\/Bottleneck_14_1\/Conv_1\/Relu6",
      "alpha" : 0.1666666716337204,
      "operation" : 3,
      "weights" : {

      },
      "fused_relu" : 0,
      "debug_info" : "",
      "top" : "stem\/MobilenetV3\/Bottleneck_14\/Bottleneck_14_1\/Conv_1\/mul",
      "type" : "elementwise",
      "name" : "stem\/MobilenetV3\/Bottleneck_14\/Bottleneck_14_1\/Conv_1\/mul",
      "beta" : 0
    },
    {
      "bottom" : "stem\/MobilenetV3\/Bottleneck_14\/depthwise\/depthwise,stem\/MobilenetV3\/Bottleneck_14\/Bottleneck_14_1\/Conv_1\/mul",
      "alpha" : 1,
      "operation" : 1,
      "weights" : {

      },
      "fused_relu" : 0,
      "debug_info" : "",
      "nd_mode" : true,
      "top" : "stem\/MobilenetV3\/Bottleneck_14\/mul",
      "type" : "elementwise",
      "name" : "stem\/MobilenetV3\/Bottleneck_14\/mul",
      "beta" : 0
    },
    {
      "bottom" : "stem\/MobilenetV3\/Bottleneck_14\/mul",
      "alpha" : 3,
      "operation" : 2,
      "weights" : {

      },
      "fused_relu" : 0,
      "debug_info" : "",
      "top" : "stem\/MobilenetV3\/Bottleneck_14\/add",
      "type" : "elementwise",
      "name" : "stem\/MobilenetV3\/Bottleneck_14\/add",
      "beta" : 0
    },
    {
      "bottom" : "stem\/MobilenetV3\/Bottleneck_14\/add",
      "alpha" : 0,
      "operation" : 119,
      "weights" : {

      },
      "fused_relu" : 0,
      "debug_info" : "",
      "top" : "stem\/MobilenetV3\/Bottleneck_14\/Relu6",
      "type" : "elementwise",
      "name" : "stem\/MobilenetV3\/Bottleneck_14\/Relu6",
      "beta" : 6
    },
    {
      "bottom" : "stem\/MobilenetV3\/Bottleneck_14\/Relu6",
      "alpha" : 0.1666666716337204,
      "operation" : 3,
      "weights" : {

      },
      "fused_relu" : 0,
      "debug_info" : "",
      "top" : "stem\/MobilenetV3\/Bottleneck_14\/mul_1",
      "type" : "elementwise",
      "name" : "stem\/MobilenetV3\/Bottleneck_14\/mul_1",
      "beta" : 0
    },
    {
      "bottom" : "stem\/MobilenetV3\/Bottleneck_14\/mul,stem\/MobilenetV3\/Bottleneck_14\/mul_1",
      "alpha" : 1,
      "operation" : 1,
      "weights" : {

      },
      "fused_relu" : 0,
      "debug_info" : "",
      "top" : "stem\/MobilenetV3\/Bottleneck_14\/mul_2",
      "type" : "elementwise",
      "name" : "stem\/MobilenetV3\/Bottleneck_14\/mul_2",
      "beta" : 0
    },
    {
      "pad_r" : 0,
      "fused_relu" : 0,
      "fused_tanh" : 0,
      "debug_info" : "",
      "pad_fill_mode" : 0,
      "pad_b" : 0,
      "pad_l" : 0,
      "top" : "stem\/MobilenetV3\/Bottleneck_14\/compress\/Conv2D",
      "K" : 1440,
      "blob_biases" : 295,
      "quantization_lut_weights_blob" : 297,
      "name" : "stem\/MobilenetV3\/Bottleneck_14\/compress\/Conv2D",
      "has_batch_norm" : 0,
      "type" : "convolution",
      "n_groups" : 1,
      "pad_t" : 0,
      "has_biases" : 1,
      "C" : 240,
      "bottom" : "stem\/MobilenetV3\/Bottleneck_14\/mul_2",
      "weights" : {

      },
      "Nx" : 1,
      "pad_mode" : 1,
      "pad_value" : 0,
      "Ny" : 1,
      "n_parallel" : 1,
      "quantization_ranges_blob" : 299
    },
    {
      "bottom" : "stem\/MobilenetV3\/Bottleneck_14\/compress\/Conv2D,stem\/MobilenetV3\/Bottleneck_13\/compress\/Conv2D",
      "alpha" : 1,
      "operation" : 0,
      "weights" : {

      },
      "fused_relu" : 0,
      "debug_info" : "",
      "top" : "stem\/MobilenetV3\/Bottleneck_14\/add_1",
      "type" : "elementwise",
      "name" : "stem\/MobilenetV3\/Bottleneck_14\/add_1",
      "beta" : 0
    },
    {
      "pad_r" : 0,
      "fused_relu" : 0,
      "fused_tanh" : 0,
      "debug_info" : "",
      "pad_fill_mode" : 0,
      "pad_b" : 0,
      "pad_l" : 0,
      "top" : "stem\/MobilenetV3\/Bottleneck_15\/expand\/Conv2D",
      "K" : 240,
      "blob_biases" : 301,
      "quantization_lut_weights_blob" : 303,
      "name" : "stem\/MobilenetV3\/Bottleneck_15\/expand\/Conv2D",
      "has_batch_norm" : 0,
      "type" : "convolution",
      "n_groups" : 1,
      "pad_t" : 0,
      "has_biases" : 1,
      "C" : 1440,
      "bottom" : "stem\/MobilenetV3\/Bottleneck_14\/add_1",
      "weights" : {

      },
      "Nx" : 1,
      "pad_mode" : 1,
      "pad_value" : 0,
      "Ny" : 1,
      "n_parallel" : 1,
      "quantization_ranges_blob" : 305
    },
    {
      "bottom" : "stem\/MobilenetV3\/Bottleneck_15\/expand\/Conv2D",
      "alpha" : 3,
      "operation" : 2,
      "weights" : {

      },
      "fused_relu" : 0,
      "debug_info" : "",
      "top" : "stem\/MobilenetV3\/Bottleneck_15\/expand\/add",
      "type" : "elementwise",
      "name" : "stem\/MobilenetV3\/Bottleneck_15\/expand\/add",
      "beta" : 0
    },
    {
      "bottom" : "stem\/MobilenetV3\/Bottleneck_15\/expand\/add",
      "alpha" : 0,
      "operation" : 119,
      "weights" : {

      },
      "fused_relu" : 0,
      "debug_info" : "",
      "top" : "stem\/MobilenetV3\/Bottleneck_15\/expand\/Relu6",
      "type" : "elementwise",
      "name" : "stem\/MobilenetV3\/Bottleneck_15\/expand\/Relu6",
      "beta" : 6
    },
    {
      "bottom" : "stem\/MobilenetV3\/Bottleneck_15\/expand\/Relu6",
      "alpha" : 0.1666666716337204,
      "operation" : 3,
      "weights" : {

      },
      "fused_relu" : 0,
      "debug_info" : "",
      "top" : "stem\/MobilenetV3\/Bottleneck_15\/expand\/mul",
      "type" : "elementwise",
      "name" : "stem\/MobilenetV3\/Bottleneck_15\/expand\/mul",
      "beta" : 0
    },
    {
      "bottom" : "stem\/MobilenetV3\/Bottleneck_15\/expand\/Conv2D,stem\/MobilenetV3\/Bottleneck_15\/expand\/mul",
      "alpha" : 1,
      "operation" : 1,
      "weights" : {

      },
      "fused_relu" : 0,
      "debug_info" : "",
      "top" : "stem\/MobilenetV3\/Bottleneck_15\/expand\/mul_1",
      "type" : "elementwise",
      "name" : "stem\/MobilenetV3\/Bottleneck_15\/expand\/mul_1",
      "beta" : 0
    },
    {
      "pad_r" : 0,
      "fused_relu" : 0,
      "fused_tanh" : 0,
      "debug_info" : "",
      "pad_fill_mode" : 0,
      "pad_b" : 0,
      "pad_l" : 0,
      "top" : "stem\/MobilenetV3\/Bottleneck_15\/depthwise\/depthwise",
      "K" : 1440,
      "blob_biases" : 307,
      "name" : "stem\/MobilenetV3\/Bottleneck_15\/depthwise\/depthwise",
      "has_batch_norm" : 0,
      "type" : "convolution",
      "n_groups" : 1440,
      "pad_t" : 0,
      "has_biases" : 1,
      "C" : 1440,
      "bottom" : "stem\/MobilenetV3\/Bottleneck_15\/expand\/mul_1",
      "weights" : {

      },
      "Nx" : 3,
      "pad_mode" : 1,
      "pad_value" : 0,
      "Ny" : 3,
      "n_parallel" : 1,
      "blob_weights_f16" : 309
    },
    {
      "pad_r" : 0,
      "debug_info" : "",
      "pad_fill_mode" : 0,
      "pad_b" : 0,
      "pad_l" : 0,
      "size_x" : 10,
      "is_global" : 1,
      "top" : "stem\/MobilenetV3\/Bottleneck_15\/gap\/Mean",
      "top_shape_style" : 0,
      "stride_x" : 1,
      "avg_or_max" : 0,
      "average_count_exclude_padding" : 1,
      "type" : "pool",
      "name" : "stem\/MobilenetV3\/Bottleneck_15\/gap\/Mean",
      "pad_t" : 0,
      "stride_y" : 1,
      "bottom" : "stem\/MobilenetV3\/Bottleneck_15\/depthwise\/depthwise",
      "weights" : {

      },
      "pad_mode" : 0,
      "size_y" : 10,
      "pad_value" : 0
    },
    {
      "pad_r" : 0,
      "fused_relu" : 1,
      "fused_tanh" : 0,
      "debug_info" : "",
      "pad_fill_mode" : 0,
      "pad_b" : 0,
      "pad_l" : 0,
      "top" : "stem\/MobilenetV3\/Bottleneck_15\/Bottleneck_15\/Conv\/Conv2D",
      "K" : 1440,
      "blob_biases" : 311,
      "quantization_lut_weights_blob" : 313,
      "name" : "stem\/MobilenetV3\/Bottleneck_15\/Bottleneck_15\/Conv\/Conv2D",
      "has_batch_norm" : 0,
      "type" : "convolution",
      "n_groups" : 1,
      "pad_t" : 0,
      "has_biases" : 1,
      "C" : 360,
      "bottom" : "stem\/MobilenetV3\/Bottleneck_15\/gap\/Mean",
      "weights" : {

      },
      "Nx" : 1,
      "pad_mode" : 2,
      "pad_value" : 0,
      "Ny" : 1,
      "n_parallel" : 1,
      "quantization_ranges_blob" : 315
    },
    {
      "pad_r" : 0,
      "fused_relu" : 0,
      "fused_tanh" : 0,
      "debug_info" : "",
      "pad_fill_mode" : 0,
      "pad_b" : 0,
      "pad_l" : 0,
      "top" : "stem\/MobilenetV3\/Bottleneck_15\/Bottleneck_15_1\/Conv_1\/Conv2D",
      "K" : 360,
      "blob_biases" : 317,
      "quantization_lut_weights_blob" : 319,
      "name" : "stem\/MobilenetV3\/Bottleneck_15\/Bottleneck_15_1\/Conv_1\/Conv2D",
      "has_batch_norm" : 0,
      "type" : "convolution",
      "n_groups" : 1,
      "pad_t" : 0,
      "has_biases" : 1,
      "C" : 1440,
      "bottom" : "stem\/MobilenetV3\/Bottleneck_15\/Bottleneck_15\/Conv\/Conv2D",
      "weights" : {

      },
      "Nx" : 1,
      "pad_mode" : 2,
      "pad_value" : 0,
      "Ny" : 1,
      "n_parallel" : 1,
      "quantization_ranges_blob" : 321
    },
    {
      "bottom" : "stem\/MobilenetV3\/Bottleneck_15\/Bottleneck_15_1\/Conv_1\/Conv2D",
      "alpha" : 3,
      "operation" : 2,
      "weights" : {

      },
      "fused_relu" : 0,
      "debug_info" : "",
      "top" : "stem\/MobilenetV3\/Bottleneck_15\/Bottleneck_15_1\/Conv_1\/add",
      "type" : "elementwise",
      "name" : "stem\/MobilenetV3\/Bottleneck_15\/Bottleneck_15_1\/Conv_1\/add",
      "beta" : 0
    },
    {
      "bottom" : "stem\/MobilenetV3\/Bottleneck_15\/Bottleneck_15_1\/Conv_1\/add",
      "alpha" : 0,
      "operation" : 119,
      "weights" : {

      },
      "fused_relu" : 0,
      "debug_info" : "",
      "top" : "stem\/MobilenetV3\/Bottleneck_15\/Bottleneck_15_1\/Conv_1\/Relu6",
      "type" : "elementwise",
      "name" : "stem\/MobilenetV3\/Bottleneck_15\/Bottleneck_15_1\/Conv_1\/Relu6",
      "beta" : 6
    },
    {
      "bottom" : "stem\/MobilenetV3\/Bottleneck_15\/Bottleneck_15_1\/Conv_1\/Relu6",
      "alpha" : 0.1666666716337204,
      "operation" : 3,
      "weights" : {

      },
      "fused_relu" : 0,
      "debug_info" : "",
      "top" : "stem\/MobilenetV3\/Bottleneck_15\/Bottleneck_15_1\/Conv_1\/mul",
      "type" : "elementwise",
      "name" : "stem\/MobilenetV3\/Bottleneck_15\/Bottleneck_15_1\/Conv_1\/mul",
      "beta" : 0
    },
    {
      "bottom" : "stem\/MobilenetV3\/Bottleneck_15\/depthwise\/depthwise,stem\/MobilenetV3\/Bottleneck_15\/Bottleneck_15_1\/Conv_1\/mul",
      "alpha" : 1,
      "operation" : 1,
      "weights" : {

      },
      "fused_relu" : 0,
      "debug_info" : "",
      "nd_mode" : true,
      "top" : "stem\/MobilenetV3\/Bottleneck_15\/mul",
      "type" : "elementwise",
      "name" : "stem\/MobilenetV3\/Bottleneck_15\/mul",
      "beta" : 0
    },
    {
      "bottom" : "stem\/MobilenetV3\/Bottleneck_15\/mul",
      "alpha" : 3,
      "operation" : 2,
      "weights" : {

      },
      "fused_relu" : 0,
      "debug_info" : "",
      "top" : "stem\/MobilenetV3\/Bottleneck_15\/add",
      "type" : "elementwise",
      "name" : "stem\/MobilenetV3\/Bottleneck_15\/add",
      "beta" : 0
    },
    {
      "bottom" : "stem\/MobilenetV3\/Bottleneck_15\/add",
      "alpha" : 0,
      "operation" : 119,
      "weights" : {

      },
      "fused_relu" : 0,
      "debug_info" : "",
      "top" : "stem\/MobilenetV3\/Bottleneck_15\/Relu6",
      "type" : "elementwise",
      "name" : "stem\/MobilenetV3\/Bottleneck_15\/Relu6",
      "beta" : 6
    },
    {
      "bottom" : "stem\/MobilenetV3\/Bottleneck_15\/Relu6",
      "alpha" : 0.1666666716337204,
      "operation" : 3,
      "weights" : {

      },
      "fused_relu" : 0,
      "debug_info" : "",
      "top" : "stem\/MobilenetV3\/Bottleneck_15\/mul_1",
      "type" : "elementwise",
      "name" : "stem\/MobilenetV3\/Bottleneck_15\/mul_1",
      "beta" : 0
    },
    {
      "bottom" : "stem\/MobilenetV3\/Bottleneck_15\/mul,stem\/MobilenetV3\/Bottleneck_15\/mul_1",
      "alpha" : 1,
      "operation" : 1,
      "weights" : {

      },
      "fused_relu" : 0,
      "debug_info" : "",
      "top" : "stem\/MobilenetV3\/Bottleneck_15\/mul_2",
      "type" : "elementwise",
      "name" : "stem\/MobilenetV3\/Bottleneck_15\/mul_2",
      "beta" : 0
    },
    {
      "pad_r" : 0,
      "fused_relu" : 0,
      "fused_tanh" : 0,
      "debug_info" : "",
      "pad_fill_mode" : 0,
      "pad_b" : 0,
      "pad_l" : 0,
      "top" : "stem\/MobilenetV3\/Bottleneck_15\/compress\/Conv2D",
      "K" : 1440,
      "blob_biases" : 323,
      "quantization_lut_weights_blob" : 325,
      "name" : "stem\/MobilenetV3\/Bottleneck_15\/compress\/Conv2D",
      "has_batch_norm" : 0,
      "type" : "convolution",
      "n_groups" : 1,
      "pad_t" : 0,
      "has_biases" : 1,
      "C" : 240,
      "bottom" : "stem\/MobilenetV3\/Bottleneck_15\/mul_2",
      "weights" : {

      },
      "Nx" : 1,
      "pad_mode" : 1,
      "pad_value" : 0,
      "Ny" : 1,
      "n_parallel" : 1,
      "quantization_ranges_blob" : 327
    },
    {
      "bottom" : "stem\/MobilenetV3\/Bottleneck_15\/compress\/Conv2D,stem\/MobilenetV3\/Bottleneck_14\/add_1",
      "alpha" : 1,
      "operation" : 0,
      "weights" : {

      },
      "fused_relu" : 0,
      "debug_info" : "",
      "top" : "stem\/MobilenetV3\/Bottleneck_15\/add_1",
      "type" : "elementwise",
      "name" : "stem\/MobilenetV3\/Bottleneck_15\/add_1",
      "beta" : 0
    },
    {
      "pad_r" : 0,
      "fused_relu" : 0,
      "fused_tanh" : 0,
      "debug_info" : "",
      "pad_fill_mode" : 0,
      "pad_b" : 0,
      "pad_l" : 0,
      "top" : "stem\/MobilenetV3\/Conv2d_16\/Conv2D",
      "K" : 240,
      "blob_biases" : 329,
      "quantization_lut_weights_blob" : 331,
      "name" : "stem\/MobilenetV3\/Conv2d_16\/Conv2D",
      "has_batch_norm" : 0,
      "type" : "convolution",
      "n_groups" : 1,
      "pad_t" : 0,
      "has_biases" : 1,
      "C" : 1440,
      "bottom" : "stem\/MobilenetV3\/Bottleneck_15\/add_1",
      "weights" : {

      },
      "Nx" : 1,
      "pad_mode" : 1,
      "pad_value" : 0,
      "Ny" : 1,
      "n_parallel" : 1,
      "quantization_ranges_blob" : 333
    },
    {
      "bottom" : "stem\/MobilenetV3\/Conv2d_16\/Conv2D",
      "alpha" : 3,
      "operation" : 2,
      "weights" : {

      },
      "fused_relu" : 0,
      "debug_info" : "",
      "top" : "stem\/MobilenetV3\/Conv2d_16\/add",
      "type" : "elementwise",
      "name" : "stem\/MobilenetV3\/Conv2d_16\/add",
      "beta" : 0
    },
    {
      "bottom" : "stem\/MobilenetV3\/Conv2d_16\/add",
      "alpha" : 0,
      "operation" : 119,
      "weights" : {

      },
      "fused_relu" : 0,
      "debug_info" : "",
      "top" : "stem\/MobilenetV3\/Conv2d_16\/Relu6",
      "type" : "elementwise",
      "name" : "stem\/MobilenetV3\/Conv2d_16\/Relu6",
      "beta" : 6
    },
    {
      "bottom" : "stem\/MobilenetV3\/Conv2d_16\/Relu6",
      "alpha" : 0.1666666716337204,
      "operation" : 3,
      "weights" : {

      },
      "fused_relu" : 0,
      "debug_info" : "",
      "top" : "stem\/MobilenetV3\/Conv2d_16\/mul",
      "type" : "elementwise",
      "name" : "stem\/MobilenetV3\/Conv2d_16\/mul",
      "beta" : 0
    },
    {
      "bottom" : "stem\/MobilenetV3\/Conv2d_16\/Conv2D,stem\/MobilenetV3\/Conv2d_16\/mul",
      "alpha" : 1,
      "operation" : 1,
      "weights" : {

      },
      "fused_relu" : 0,
      "debug_info" : "",
      "top" : "stem\/MobilenetV3\/Conv2d_16\/mul_1",
      "type" : "elementwise",
      "name" : "stem\/MobilenetV3\/Conv2d_16\/mul_1",
      "beta" : 0
    },
    {
      "pad_r" : 0,
      "debug_info" : "",
      "pad_fill_mode" : 0,
      "pad_b" : 0,
      "pad_l" : 0,
      "size_x" : 10,
      "is_global" : 1,
      "top" : "stem\/MobilenetV3\/gap\/Mean",
      "top_shape_style" : 0,
      "stride_x" : 1,
      "avg_or_max" : 0,
      "average_count_exclude_padding" : 1,
      "type" : "pool",
      "name" : "stem\/MobilenetV3\/gap\/Mean",
      "pad_t" : 0,
      "stride_y" : 1,
      "bottom" : "stem\/MobilenetV3\/Conv2d_16\/mul_1",
      "weights" : {

      },
      "pad_mode" : 0,
      "size_y" : 10,
      "pad_value" : 0
    },
    {
      "pad_r" : 0,
      "fused_relu" : 0,
      "fused_tanh" : 0,
      "debug_info" : "",
      "pad_fill_mode" : 0,
      "pad_b" : 0,
      "pad_l" : 0,
      "top" : "stem\/MobilenetV3\/GAP_17\/Conv2D",
      "K" : 1440,
      "blob_biases" : 335,
      "quantization_lut_weights_blob" : 337,
      "name" : "stem\/MobilenetV3\/GAP_17\/Conv2D",
      "has_batch_norm" : 0,
      "type" : "convolution",
      "n_groups" : 1,
      "pad_t" : 0,
      "has_biases" : 1,
      "C" : 1280,
      "bottom" : "stem\/MobilenetV3\/gap\/Mean",
      "weights" : {

      },
      "Nx" : 1,
      "pad_mode" : 1,
      "pad_value" : 0,
      "Ny" : 1,
      "n_parallel" : 1,
      "quantization_ranges_blob" : 339
    },
    {
      "bottom" : "stem\/MobilenetV3\/GAP_17\/Conv2D",
      "alpha" : 3,
      "operation" : 2,
      "weights" : {

      },
      "fused_relu" : 0,
      "debug_info" : "",
      "top" : "stem\/MobilenetV3\/GAP_17\/add",
      "type" : "elementwise",
      "name" : "stem\/MobilenetV3\/GAP_17\/add",
      "beta" : 0
    },
    {
      "bottom" : "stem\/MobilenetV3\/GAP_17\/add",
      "alpha" : 0,
      "operation" : 119,
      "weights" : {

      },
      "fused_relu" : 0,
      "debug_info" : "",
      "top" : "stem\/MobilenetV3\/GAP_17\/Relu6",
      "type" : "elementwise",
      "name" : "stem\/MobilenetV3\/GAP_17\/Relu6",
      "beta" : 6
    },
    {
      "bottom" : "stem\/MobilenetV3\/GAP_17\/Relu6",
      "alpha" : 0.1666666716337204,
      "operation" : 3,
      "weights" : {

      },
      "fused_relu" : 0,
      "debug_info" : "",
      "top" : "stem\/MobilenetV3\/GAP_17\/mul",
      "type" : "elementwise",
      "name" : "stem\/MobilenetV3\/GAP_17\/mul",
      "beta" : 0
    },
    {
      "bottom" : "stem\/MobilenetV3\/GAP_17\/Conv2D,stem\/MobilenetV3\/GAP_17\/mul",
      "alpha" : 1,
      "operation" : 1,
      "weights" : {

      },
      "fused_relu" : 0,
      "debug_info" : "",
      "top" : "stem\/MobilenetV3\/GAP_17\/mul_1",
      "type" : "elementwise",
      "name" : "stem\/MobilenetV3\/GAP_17\/mul_1",
      "beta" : 0
    },
    {
      "bottom" : "stem\/MobilenetV3\/GAP_17\/mul_1",
      "alpha" : 1,
      "operation" : 3,
      "weights" : {

      },
      "fused_relu" : 0,
      "debug_info" : "",
      "top" : "cell_leaf\/mul",
      "type" : "elementwise",
      "name" : "cell_leaf\/mul",
      "beta" : 0
    },
    {
      "nB" : 1280,
      "top" : "cell_leaf\/fully_connected\/MatMul",
      "has_biases" : 1,
      "blob_weights_f16" : 343,
      "nC" : 14,
      "weights" : {

      },
      "type" : "inner_product",
      "has_relu" : 0,
      "bottom" : "cell_leaf\/mul",
      "blob_biases" : 341,
      "has_tanh" : 0,
      "debug_info" : "",
      "name" : "cell_leaf\/fully_connected\/MatMul",
      "has_prelu" : 0
    },
    {
      "bottom" : "cell_leaf\/fully_connected\/MatMul",
      "beta" : 0,
      "weights" : {

      },
      "mode" : 3,
      "debug_info" : "",
      "top" : "leaf\/probabilities",
      "type" : "activation",
      "name" : "leaf\/probabilities",
      "attributes" : {
        "is_output" : 1
      }
    }
  ],
  "transform_params" : {
    "image" : {
      "bias_a" : 0,
      "bias_g" : -1,
      "bias_r" : -1,
      "bias_b" : -1,
      "center_mean" : 0,
      "is_network_bgr" : 0,
      "scale" : 0.0078431377187371254
    }
  },
  "storage" : "ivs-1.5.0_quantized.espresso.weights",
  "metadata_in_weights" : [

  ],
  "properties" : {

  },
  "analyses" : {

  },
  "format_version" : 200
}