{
	"analyses": {},
	"format_version": 200,
	"layers": [
		{
			"C": 24,
			"K": 3,
			"Nx": 3,
			"Ny": 3,
			"blob_biases": 1,
			"blob_weights_f16": 3,
			"bottom": "input",
			"debug_info": "input0.6",
			"fused_relu": 1,
			"fused_tanh": 0,
			"has_batch_norm": 0,
			"has_biases": 1,
			"n_groups": 1,
			"n_parallel": 1,
			"name": "input0.6",
			"pad_b": 1,
			"pad_fill_mode": 0,
			"pad_l": 1,
			"pad_mode": 0,
			"pad_r": 1,
			"pad_t": 1,
			"pad_value": 0,
			"stride_x": 2,
			"stride_y": 2,
			"top": "283",
			"type": "convolution",
			"weights": {}
		},
		{
			"average_count_exclude_padding": 1,
			"avg_or_max": 1,
			"bottom": "283",
			"debug_info": "input0.11",
			"name": "input0.11",
			"pad_b": 1,
			"pad_fill_mode": 0,
			"pad_l": 1,
			"pad_mode": 0,
			"pad_r": 1,
			"pad_t": 1,
			"pad_value": 0,
			"size_x": 3,
			"size_y": 3,
			"stride_x": 2,
			"stride_y": 2,
			"top": "input0.11",
			"top_shape_style": 0,
			"type": "pool",
			"weights": {}
		},
		{
			"C": 132,
			"K": 24,
			"Nx": 1,
			"Ny": 1,
			"blob_biases": 5,
			"blob_weights_f16": 7,
			"bottom": "input0.11",
			"debug_info": "input0.8",
			"fused_relu": 1,
			"fused_tanh": 0,
			"has_batch_norm": 0,
			"has_biases": 1,
			"n_groups": 1,
			"n_parallel": 1,
			"name": "input0.8",
			"pad_b": 0,
			"pad_fill_mode": 0,
			"pad_l": 0,
			"pad_mode": 0,
			"pad_r": 0,
			"pad_t": 0,
			"pad_value": 0,
			"top": "295",
			"type": "convolution",
			"weights": {}
		},
		{
			"C": 132,
			"K": 132,
			"Nx": 5,
			"Ny": 5,
			"blob_biases": 9,
			"blob_weights_f16": 11,
			"bottom": "295",
			"debug_info": "input0.10",
			"fused_relu": 1,
			"fused_tanh": 0,
			"has_batch_norm": 0,
			"has_biases": 1,
			"n_groups": 132,
			"n_parallel": 1,
			"name": "input0.10",
			"pad_b": 2,
			"pad_fill_mode": 0,
			"pad_l": 2,
			"pad_mode": 0,
			"pad_r": 2,
			"pad_t": 2,
			"pad_value": 0,
			"stride_x": 2,
			"stride_y": 2,
			"top": "302",
			"type": "convolution",
			"weights": {}
		},
		{
			"C": 132,
			"K": 132,
			"Nx": 1,
			"Ny": 1,
			"blob_biases": 13,
			"blob_weights_f16": 15,
			"bottom": "302",
			"debug_info": "x.2",
			"fused_relu": 0,
			"fused_tanh": 0,
			"has_batch_norm": 0,
			"has_biases": 1,
			"n_groups": 1,
			"n_parallel": 1,
			"name": "x.2",
			"pad_b": 0,
			"pad_fill_mode": 0,
			"pad_l": 0,
			"pad_mode": 0,
			"pad_r": 0,
			"pad_t": 0,
			"pad_value": 0,
			"top": "x.2",
			"type": "convolution",
			"weights": {}
		},
		{
			"axis": 2,
			"bottom": "x.2",
			"debug_info": "314",
			"end": 66,
			"name": "314",
			"start": 0,
			"top": "314",
			"type": "slice",
			"weights": {}
		},
		{
			"axis": 2,
			"bottom": "x.2",
			"debug_info": "320",
			"end": 132,
			"name": "320",
			"start": 66,
			"top": "320",
			"type": "slice",
			"weights": {}
		},
		{
			"C": 66,
			"K": 66,
			"Nx": 1,
			"Ny": 1,
			"blob_biases": 17,
			"blob_weights_f16": 19,
			"bottom": "320",
			"debug_info": "input0.15",
			"fused_relu": 1,
			"fused_tanh": 0,
			"has_batch_norm": 0,
			"has_biases": 1,
			"n_groups": 1,
			"n_parallel": 1,
			"name": "input0.15",
			"pad_b": 0,
			"pad_fill_mode": 0,
			"pad_l": 0,
			"pad_mode": 0,
			"pad_r": 0,
			"pad_t": 0,
			"pad_value": 0,
			"top": "329",
			"type": "convolution",
			"weights": {}
		},
		{
			"C": 66,
			"K": 66,
			"Nx": 5,
			"Ny": 5,
			"blob_biases": 21,
			"blob_weights_f16": 23,
			"bottom": "329",
			"debug_info": "input0.16",
			"fused_relu": 0,
			"fused_tanh": 0,
			"has_batch_norm": 0,
			"has_biases": 1,
			"n_groups": 66,
			"n_parallel": 1,
			"name": "input0.16",
			"pad_b": 2,
			"pad_fill_mode": 0,
			"pad_l": 2,
			"pad_mode": 0,
			"pad_r": 2,
			"pad_t": 2,
			"pad_value": 0,
			"top": "input0.16",
			"type": "convolution",
			"weights": {}
		},
		{
			"C": 66,
			"K": 66,
			"Nx": 1,
			"Ny": 1,
			"blob_biases": 25,
			"blob_weights_f16": 27,
			"bottom": "input0.16",
			"debug_info": "input0.13",
			"fused_relu": 1,
			"fused_tanh": 0,
			"has_batch_norm": 0,
			"has_biases": 1,
			"n_groups": 1,
			"n_parallel": 1,
			"name": "input0.13",
			"pad_b": 0,
			"pad_fill_mode": 0,
			"pad_l": 0,
			"pad_mode": 0,
			"pad_r": 0,
			"pad_t": 0,
			"pad_value": 0,
			"top": "342",
			"type": "convolution",
			"weights": {}
		},
		{
			"bottom": "314,342",
			"debug_info": "input0.18",
			"name": "input0.18",
			"top": "input0.18",
			"type": "concat",
			"weights": {}
		},
		{
			"C": 132,
			"K": 132,
			"Nx": 1,
			"Ny": 1,
			"blob_biases": 29,
			"blob_weights_f16": 31,
			"bottom": "input0.18",
			"debug_info": "input0.14",
			"fused_relu": 1,
			"fused_tanh": 0,
			"has_batch_norm": 0,
			"has_biases": 1,
			"n_groups": 1,
			"n_parallel": 1,
			"name": "input0.14",
			"pad_b": 0,
			"pad_fill_mode": 0,
			"pad_l": 0,
			"pad_mode": 0,
			"pad_r": 0,
			"pad_t": 0,
			"pad_value": 0,
			"top": "351",
			"type": "convolution",
			"weights": {}
		},
		{
			"C": 132,
			"K": 132,
			"Nx": 5,
			"Ny": 5,
			"blob_biases": 33,
			"blob_weights_f16": 35,
			"bottom": "351",
			"debug_info": "input0.17",
			"fused_relu": 1,
			"fused_tanh": 0,
			"has_batch_norm": 0,
			"has_biases": 1,
			"n_groups": 132,
			"n_parallel": 1,
			"name": "input0.17",
			"pad_b": 2,
			"pad_fill_mode": 0,
			"pad_l": 2,
			"pad_mode": 0,
			"pad_r": 2,
			"pad_t": 2,
			"pad_value": 0,
			"top": "358",
			"type": "convolution",
			"weights": {}
		},
		{
			"C": 132,
			"K": 132,
			"Nx": 1,
			"Ny": 1,
			"blob_biases": 37,
			"blob_weights_f16": 39,
			"bottom": "358",
			"debug_info": "364",
			"fused_relu": 0,
			"fused_tanh": 0,
			"has_batch_norm": 0,
			"has_biases": 1,
			"n_groups": 1,
			"n_parallel": 1,
			"name": "364",
			"pad_b": 0,
			"pad_fill_mode": 0,
			"pad_l": 0,
			"pad_mode": 0,
			"pad_r": 0,
			"pad_t": 0,
			"pad_value": 0,
			"top": "364",
			"type": "convolution",
			"weights": {}
		},
		{
			"alpha": 1,
			"beta": 0,
			"bottom": "364,input0.18",
			"debug_info": "x.3",
			"fused_relu": 0,
			"name": "x.3",
			"operation": 0,
			"top": "x.3",
			"type": "elementwise",
			"weights": {}
		},
		{
			"axis": 2,
			"bottom": "x.3",
			"debug_info": "371",
			"end": 66,
			"name": "371",
			"start": 0,
			"top": "371",
			"type": "slice",
			"weights": {}
		},
		{
			"axis": 2,
			"bottom": "x.3",
			"debug_info": "377",
			"end": 132,
			"name": "377",
			"start": 66,
			"top": "377",
			"type": "slice",
			"weights": {}
		},
		{
			"C": 66,
			"K": 66,
			"Nx": 1,
			"Ny": 1,
			"blob_biases": 41,
			"blob_weights_f16": 43,
			"bottom": "377",
			"debug_info": "input0.22",
			"fused_relu": 1,
			"fused_tanh": 0,
			"has_batch_norm": 0,
			"has_biases": 1,
			"n_groups": 1,
			"n_parallel": 1,
			"name": "input0.22",
			"pad_b": 0,
			"pad_fill_mode": 0,
			"pad_l": 0,
			"pad_mode": 0,
			"pad_r": 0,
			"pad_t": 0,
			"pad_value": 0,
			"top": "386",
			"type": "convolution",
			"weights": {}
		},
		{
			"C": 66,
			"K": 66,
			"Nx": 5,
			"Ny": 5,
			"blob_biases": 45,
			"blob_weights_f16": 47,
			"bottom": "386",
			"debug_info": "input0.23",
			"fused_relu": 0,
			"fused_tanh": 0,
			"has_batch_norm": 0,
			"has_biases": 1,
			"n_groups": 66,
			"n_parallel": 1,
			"name": "input0.23",
			"pad_b": 2,
			"pad_fill_mode": 0,
			"pad_l": 2,
			"pad_mode": 0,
			"pad_r": 2,
			"pad_t": 2,
			"pad_value": 0,
			"top": "input0.23",
			"type": "convolution",
			"weights": {}
		},
		{
			"C": 66,
			"K": 66,
			"Nx": 1,
			"Ny": 1,
			"blob_biases": 49,
			"blob_weights_f16": 51,
			"bottom": "input0.23",
			"debug_info": "input0.20",
			"fused_relu": 1,
			"fused_tanh": 0,
			"has_batch_norm": 0,
			"has_biases": 1,
			"n_groups": 1,
			"n_parallel": 1,
			"name": "input0.20",
			"pad_b": 0,
			"pad_fill_mode": 0,
			"pad_l": 0,
			"pad_mode": 0,
			"pad_r": 0,
			"pad_t": 0,
			"pad_value": 0,
			"top": "399",
			"type": "convolution",
			"weights": {}
		},
		{
			"bottom": "371,399",
			"debug_info": "input0.25",
			"name": "input0.25",
			"top": "input0.25",
			"type": "concat",
			"weights": {}
		},
		{
			"C": 264,
			"K": 132,
			"Nx": 1,
			"Ny": 1,
			"blob_biases": 53,
			"blob_weights_f16": 55,
			"bottom": "input0.25",
			"debug_info": "input0.21",
			"fused_relu": 1,
			"fused_tanh": 0,
			"has_batch_norm": 0,
			"has_biases": 1,
			"n_groups": 1,
			"n_parallel": 1,
			"name": "input0.21",
			"pad_b": 0,
			"pad_fill_mode": 0,
			"pad_l": 0,
			"pad_mode": 0,
			"pad_r": 0,
			"pad_t": 0,
			"pad_value": 0,
			"top": "408",
			"type": "convolution",
			"weights": {}
		},
		{
			"C": 264,
			"K": 264,
			"Nx": 5,
			"Ny": 5,
			"blob_biases": 57,
			"blob_weights_f16": 59,
			"bottom": "408",
			"debug_info": "input0.24",
			"fused_relu": 1,
			"fused_tanh": 0,
			"has_batch_norm": 0,
			"has_biases": 1,
			"n_groups": 264,
			"n_parallel": 1,
			"name": "input0.24",
			"pad_b": 2,
			"pad_fill_mode": 0,
			"pad_l": 2,
			"pad_mode": 0,
			"pad_r": 2,
			"pad_t": 2,
			"pad_value": 0,
			"stride_x": 2,
			"stride_y": 2,
			"top": "415",
			"type": "convolution",
			"weights": {}
		},
		{
			"C": 264,
			"K": 264,
			"Nx": 1,
			"Ny": 1,
			"blob_biases": 61,
			"blob_weights_f16": 63,
			"bottom": "415",
			"debug_info": "x.4",
			"fused_relu": 0,
			"fused_tanh": 0,
			"has_batch_norm": 0,
			"has_biases": 1,
			"n_groups": 1,
			"n_parallel": 1,
			"name": "x.4",
			"pad_b": 0,
			"pad_fill_mode": 0,
			"pad_l": 0,
			"pad_mode": 0,
			"pad_r": 0,
			"pad_t": 0,
			"pad_value": 0,
			"top": "x.4",
			"type": "convolution",
			"weights": {}
		},
		{
			"axis": 2,
			"bottom": "x.4",
			"debug_info": "427",
			"end": 132,
			"name": "427",
			"start": 0,
			"top": "427",
			"type": "slice",
			"weights": {}
		},
		{
			"axis": 2,
			"bottom": "x.4",
			"debug_info": "433",
			"end": 264,
			"name": "433",
			"start": 132,
			"top": "433",
			"type": "slice",
			"weights": {}
		},
		{
			"C": 132,
			"K": 132,
			"Nx": 1,
			"Ny": 1,
			"blob_biases": 65,
			"blob_weights_f16": 67,
			"bottom": "433",
			"debug_info": "input0.29",
			"fused_relu": 1,
			"fused_tanh": 0,
			"has_batch_norm": 0,
			"has_biases": 1,
			"n_groups": 1,
			"n_parallel": 1,
			"name": "input0.29",
			"pad_b": 0,
			"pad_fill_mode": 0,
			"pad_l": 0,
			"pad_mode": 0,
			"pad_r": 0,
			"pad_t": 0,
			"pad_value": 0,
			"top": "442",
			"type": "convolution",
			"weights": {}
		},
		{
			"C": 132,
			"K": 132,
			"Nx": 5,
			"Ny": 5,
			"blob_biases": 69,
			"blob_weights_f16": 71,
			"bottom": "442",
			"debug_info": "input0.30",
			"fused_relu": 0,
			"fused_tanh": 0,
			"has_batch_norm": 0,
			"has_biases": 1,
			"n_groups": 132,
			"n_parallel": 1,
			"name": "input0.30",
			"pad_b": 2,
			"pad_fill_mode": 0,
			"pad_l": 2,
			"pad_mode": 0,
			"pad_r": 2,
			"pad_t": 2,
			"pad_value": 0,
			"top": "input0.30",
			"type": "convolution",
			"weights": {}
		},
		{
			"C": 132,
			"K": 132,
			"Nx": 1,
			"Ny": 1,
			"blob_biases": 73,
			"blob_weights_f16": 75,
			"bottom": "input0.30",
			"debug_info": "input0.27",
			"fused_relu": 1,
			"fused_tanh": 0,
			"has_batch_norm": 0,
			"has_biases": 1,
			"n_groups": 1,
			"n_parallel": 1,
			"name": "input0.27",
			"pad_b": 0,
			"pad_fill_mode": 0,
			"pad_l": 0,
			"pad_mode": 0,
			"pad_r": 0,
			"pad_t": 0,
			"pad_value": 0,
			"top": "455",
			"type": "convolution",
			"weights": {}
		},
		{
			"bottom": "427,455",
			"debug_info": "input0.32",
			"name": "input0.32",
			"top": "input0.32",
			"type": "concat",
			"weights": {}
		},
		{
			"C": 264,
			"K": 264,
			"Nx": 1,
			"Ny": 1,
			"blob_biases": 77,
			"blob_weights_f16": 79,
			"bottom": "input0.32",
			"debug_info": "input0.28",
			"fused_relu": 1,
			"fused_tanh": 0,
			"has_batch_norm": 0,
			"has_biases": 1,
			"n_groups": 1,
			"n_parallel": 1,
			"name": "input0.28",
			"pad_b": 0,
			"pad_fill_mode": 0,
			"pad_l": 0,
			"pad_mode": 0,
			"pad_r": 0,
			"pad_t": 0,
			"pad_value": 0,
			"top": "464",
			"type": "convolution",
			"weights": {}
		},
		{
			"C": 264,
			"K": 264,
			"Nx": 5,
			"Ny": 5,
			"blob_biases": 81,
			"blob_weights_f16": 83,
			"bottom": "464",
			"debug_info": "input0.31",
			"fused_relu": 1,
			"fused_tanh": 0,
			"has_batch_norm": 0,
			"has_biases": 1,
			"n_groups": 264,
			"n_parallel": 1,
			"name": "input0.31",
			"pad_b": 2,
			"pad_fill_mode": 0,
			"pad_l": 2,
			"pad_mode": 0,
			"pad_r": 2,
			"pad_t": 2,
			"pad_value": 0,
			"top": "471",
			"type": "convolution",
			"weights": {}
		},
		{
			"C": 264,
			"K": 264,
			"Nx": 1,
			"Ny": 1,
			"blob_biases": 85,
			"blob_weights_f16": 87,
			"bottom": "471",
			"debug_info": "477",
			"fused_relu": 0,
			"fused_tanh": 0,
			"has_batch_norm": 0,
			"has_biases": 1,
			"n_groups": 1,
			"n_parallel": 1,
			"name": "477",
			"pad_b": 0,
			"pad_fill_mode": 0,
			"pad_l": 0,
			"pad_mode": 0,
			"pad_r": 0,
			"pad_t": 0,
			"pad_value": 0,
			"top": "477",
			"type": "convolution",
			"weights": {}
		},
		{
			"alpha": 1,
			"beta": 0,
			"bottom": "477,input0.32",
			"debug_info": "x.5",
			"fused_relu": 0,
			"name": "x.5",
			"operation": 0,
			"top": "x.5",
			"type": "elementwise",
			"weights": {}
		},
		{
			"axis": 2,
			"bottom": "x.5",
			"debug_info": "484",
			"end": 132,
			"name": "484",
			"start": 0,
			"top": "484",
			"type": "slice",
			"weights": {}
		},
		{
			"axis": 2,
			"bottom": "x.5",
			"debug_info": "490",
			"end": 264,
			"name": "490",
			"start": 132,
			"top": "490",
			"type": "slice",
			"weights": {}
		},
		{
			"C": 132,
			"K": 132,
			"Nx": 1,
			"Ny": 1,
			"blob_biases": 89,
			"blob_weights_f16": 91,
			"bottom": "490",
			"debug_info": "input0.36",
			"fused_relu": 1,
			"fused_tanh": 0,
			"has_batch_norm": 0,
			"has_biases": 1,
			"n_groups": 1,
			"n_parallel": 1,
			"name": "input0.36",
			"pad_b": 0,
			"pad_fill_mode": 0,
			"pad_l": 0,
			"pad_mode": 0,
			"pad_r": 0,
			"pad_t": 0,
			"pad_value": 0,
			"top": "499",
			"type": "convolution",
			"weights": {}
		},
		{
			"C": 132,
			"K": 132,
			"Nx": 5,
			"Ny": 5,
			"blob_biases": 93,
			"blob_weights_f16": 95,
			"bottom": "499",
			"debug_info": "input0.37",
			"fused_relu": 0,
			"fused_tanh": 0,
			"has_batch_norm": 0,
			"has_biases": 1,
			"n_groups": 132,
			"n_parallel": 1,
			"name": "input0.37",
			"pad_b": 2,
			"pad_fill_mode": 0,
			"pad_l": 2,
			"pad_mode": 0,
			"pad_r": 2,
			"pad_t": 2,
			"pad_value": 0,
			"top": "input0.37",
			"type": "convolution",
			"weights": {}
		},
		{
			"C": 132,
			"K": 132,
			"Nx": 1,
			"Ny": 1,
			"blob_biases": 97,
			"blob_weights_f16": 99,
			"bottom": "input0.37",
			"debug_info": "input0.34",
			"fused_relu": 1,
			"fused_tanh": 0,
			"has_batch_norm": 0,
			"has_biases": 1,
			"n_groups": 1,
			"n_parallel": 1,
			"name": "input0.34",
			"pad_b": 0,
			"pad_fill_mode": 0,
			"pad_l": 0,
			"pad_mode": 0,
			"pad_r": 0,
			"pad_t": 0,
			"pad_value": 0,
			"top": "512",
			"type": "convolution",
			"weights": {}
		},
		{
			"bottom": "484,512",
			"debug_info": "input0.39",
			"name": "input0.39",
			"top": "input0.39",
			"type": "concat",
			"weights": {}
		},
		{
			"C": 264,
			"K": 264,
			"Nx": 1,
			"Ny": 1,
			"blob_biases": 101,
			"blob_weights_f16": 103,
			"bottom": "input0.39",
			"debug_info": "input0.35",
			"fused_relu": 1,
			"fused_tanh": 0,
			"has_batch_norm": 0,
			"has_biases": 1,
			"n_groups": 1,
			"n_parallel": 1,
			"name": "input0.35",
			"pad_b": 0,
			"pad_fill_mode": 0,
			"pad_l": 0,
			"pad_mode": 0,
			"pad_r": 0,
			"pad_t": 0,
			"pad_value": 0,
			"top": "521",
			"type": "convolution",
			"weights": {}
		},
		{
			"C": 264,
			"K": 264,
			"Nx": 5,
			"Ny": 5,
			"blob_biases": 105,
			"blob_weights_f16": 107,
			"bottom": "521",
			"debug_info": "input0.38",
			"fused_relu": 1,
			"fused_tanh": 0,
			"has_batch_norm": 0,
			"has_biases": 1,
			"n_groups": 264,
			"n_parallel": 1,
			"name": "input0.38",
			"pad_b": 2,
			"pad_fill_mode": 0,
			"pad_l": 2,
			"pad_mode": 0,
			"pad_r": 2,
			"pad_t": 2,
			"pad_value": 0,
			"top": "528",
			"type": "convolution",
			"weights": {}
		},
		{
			"C": 264,
			"K": 264,
			"Nx": 1,
			"Ny": 1,
			"blob_biases": 109,
			"blob_weights_f16": 111,
			"bottom": "528",
			"debug_info": "534",
			"fused_relu": 0,
			"fused_tanh": 0,
			"has_batch_norm": 0,
			"has_biases": 1,
			"n_groups": 1,
			"n_parallel": 1,
			"name": "534",
			"pad_b": 0,
			"pad_fill_mode": 0,
			"pad_l": 0,
			"pad_mode": 0,
			"pad_r": 0,
			"pad_t": 0,
			"pad_value": 0,
			"top": "534",
			"type": "convolution",
			"weights": {}
		},
		{
			"alpha": 1,
			"beta": 0,
			"bottom": "534,input0.39",
			"debug_info": "x.6",
			"fused_relu": 0,
			"name": "x.6",
			"operation": 0,
			"top": "x.6",
			"type": "elementwise",
			"weights": {}
		},
		{
			"axis": 2,
			"bottom": "x.6",
			"debug_info": "541",
			"end": 132,
			"name": "541",
			"start": 0,
			"top": "541",
			"type": "slice",
			"weights": {}
		},
		{
			"axis": 2,
			"bottom": "x.6",
			"debug_info": "547",
			"end": 264,
			"name": "547",
			"start": 132,
			"top": "547",
			"type": "slice",
			"weights": {}
		},
		{
			"C": 132,
			"K": 132,
			"Nx": 1,
			"Ny": 1,
			"blob_biases": 113,
			"blob_weights_f16": 115,
			"bottom": "547",
			"debug_info": "input0.43",
			"fused_relu": 1,
			"fused_tanh": 0,
			"has_batch_norm": 0,
			"has_biases": 1,
			"n_groups": 1,
			"n_parallel": 1,
			"name": "input0.43",
			"pad_b": 0,
			"pad_fill_mode": 0,
			"pad_l": 0,
			"pad_mode": 0,
			"pad_r": 0,
			"pad_t": 0,
			"pad_value": 0,
			"top": "556",
			"type": "convolution",
			"weights": {}
		},
		{
			"C": 132,
			"K": 132,
			"Nx": 5,
			"Ny": 5,
			"blob_biases": 117,
			"blob_weights_f16": 119,
			"bottom": "556",
			"debug_info": "input0.44",
			"fused_relu": 0,
			"fused_tanh": 0,
			"has_batch_norm": 0,
			"has_biases": 1,
			"n_groups": 132,
			"n_parallel": 1,
			"name": "input0.44",
			"pad_b": 2,
			"pad_fill_mode": 0,
			"pad_l": 2,
			"pad_mode": 0,
			"pad_r": 2,
			"pad_t": 2,
			"pad_value": 0,
			"top": "input0.44",
			"type": "convolution",
			"weights": {}
		},
		{
			"C": 132,
			"K": 132,
			"Nx": 1,
			"Ny": 1,
			"blob_biases": 121,
			"blob_weights_f16": 123,
			"bottom": "input0.44",
			"debug_info": "input0.41",
			"fused_relu": 1,
			"fused_tanh": 0,
			"has_batch_norm": 0,
			"has_biases": 1,
			"n_groups": 1,
			"n_parallel": 1,
			"name": "input0.41",
			"pad_b": 0,
			"pad_fill_mode": 0,
			"pad_l": 0,
			"pad_mode": 0,
			"pad_r": 0,
			"pad_t": 0,
			"pad_value": 0,
			"top": "569",
			"type": "convolution",
			"weights": {}
		},
		{
			"bottom": "541,569",
			"debug_info": "input0.46",
			"name": "input0.46",
			"top": "input0.46",
			"type": "concat",
			"weights": {}
		},
		{
			"C": 264,
			"K": 264,
			"Nx": 1,
			"Ny": 1,
			"blob_biases": 125,
			"blob_weights_f16": 127,
			"bottom": "input0.46",
			"debug_info": "input0.42",
			"fused_relu": 1,
			"fused_tanh": 0,
			"has_batch_norm": 0,
			"has_biases": 1,
			"n_groups": 1,
			"n_parallel": 1,
			"name": "input0.42",
			"pad_b": 0,
			"pad_fill_mode": 0,
			"pad_l": 0,
			"pad_mode": 0,
			"pad_r": 0,
			"pad_t": 0,
			"pad_value": 0,
			"top": "578",
			"type": "convolution",
			"weights": {}
		},
		{
			"C": 264,
			"K": 264,
			"Nx": 5,
			"Ny": 5,
			"blob_biases": 129,
			"blob_weights_f16": 131,
			"bottom": "578",
			"debug_info": "input0.45",
			"fused_relu": 1,
			"fused_tanh": 0,
			"has_batch_norm": 0,
			"has_biases": 1,
			"n_groups": 264,
			"n_parallel": 1,
			"name": "input0.45",
			"pad_b": 2,
			"pad_fill_mode": 0,
			"pad_l": 2,
			"pad_mode": 0,
			"pad_r": 2,
			"pad_t": 2,
			"pad_value": 0,
			"top": "585",
			"type": "convolution",
			"weights": {}
		},
		{
			"C": 264,
			"K": 264,
			"Nx": 1,
			"Ny": 1,
			"blob_biases": 133,
			"blob_weights_f16": 135,
			"bottom": "585",
			"debug_info": "591",
			"fused_relu": 0,
			"fused_tanh": 0,
			"has_batch_norm": 0,
			"has_biases": 1,
			"n_groups": 1,
			"n_parallel": 1,
			"name": "591",
			"pad_b": 0,
			"pad_fill_mode": 0,
			"pad_l": 0,
			"pad_mode": 0,
			"pad_r": 0,
			"pad_t": 0,
			"pad_value": 0,
			"top": "591",
			"type": "convolution",
			"weights": {}
		},
		{
			"alpha": 1,
			"beta": 0,
			"bottom": "591,input0.46",
			"debug_info": "x.7",
			"fused_relu": 0,
			"name": "x.7",
			"operation": 0,
			"top": "x.7",
			"type": "elementwise",
			"weights": {}
		},
		{
			"axis": 2,
			"bottom": "x.7",
			"debug_info": "598",
			"end": 132,
			"name": "598",
			"start": 0,
			"top": "598",
			"type": "slice",
			"weights": {}
		},
		{
			"axis": 2,
			"bottom": "x.7",
			"debug_info": "604",
			"end": 264,
			"name": "604",
			"start": 132,
			"top": "604",
			"type": "slice",
			"weights": {}
		},
		{
			"C": 132,
			"K": 132,
			"Nx": 1,
			"Ny": 1,
			"blob_biases": 137,
			"blob_weights_f16": 139,
			"bottom": "604",
			"debug_info": "input0.50",
			"fused_relu": 1,
			"fused_tanh": 0,
			"has_batch_norm": 0,
			"has_biases": 1,
			"n_groups": 1,
			"n_parallel": 1,
			"name": "input0.50",
			"pad_b": 0,
			"pad_fill_mode": 0,
			"pad_l": 0,
			"pad_mode": 0,
			"pad_r": 0,
			"pad_t": 0,
			"pad_value": 0,
			"top": "613",
			"type": "convolution",
			"weights": {}
		},
		{
			"C": 132,
			"K": 132,
			"Nx": 5,
			"Ny": 5,
			"blob_biases": 141,
			"blob_weights_f16": 143,
			"bottom": "613",
			"debug_info": "input0.51",
			"fused_relu": 0,
			"fused_tanh": 0,
			"has_batch_norm": 0,
			"has_biases": 1,
			"n_groups": 132,
			"n_parallel": 1,
			"name": "input0.51",
			"pad_b": 2,
			"pad_fill_mode": 0,
			"pad_l": 2,
			"pad_mode": 0,
			"pad_r": 2,
			"pad_t": 2,
			"pad_value": 0,
			"top": "input0.51",
			"type": "convolution",
			"weights": {}
		},
		{
			"C": 132,
			"K": 132,
			"Nx": 1,
			"Ny": 1,
			"blob_biases": 145,
			"blob_weights_f16": 147,
			"bottom": "input0.51",
			"debug_info": "input0.48",
			"fused_relu": 1,
			"fused_tanh": 0,
			"has_batch_norm": 0,
			"has_biases": 1,
			"n_groups": 1,
			"n_parallel": 1,
			"name": "input0.48",
			"pad_b": 0,
			"pad_fill_mode": 0,
			"pad_l": 0,
			"pad_mode": 0,
			"pad_r": 0,
			"pad_t": 0,
			"pad_value": 0,
			"top": "626",
			"type": "convolution",
			"weights": {}
		},
		{
			"bottom": "598,626",
			"debug_info": "input0.53",
			"name": "input0.53",
			"top": "input0.53",
			"type": "concat",
			"weights": {}
		},
		{
			"C": 528,
			"K": 264,
			"Nx": 1,
			"Ny": 1,
			"blob_biases": 149,
			"blob_weights_f16": 151,
			"bottom": "input0.53",
			"debug_info": "input0.49",
			"fused_relu": 1,
			"fused_tanh": 0,
			"has_batch_norm": 0,
			"has_biases": 1,
			"n_groups": 1,
			"n_parallel": 1,
			"name": "input0.49",
			"pad_b": 0,
			"pad_fill_mode": 0,
			"pad_l": 0,
			"pad_mode": 0,
			"pad_r": 0,
			"pad_t": 0,
			"pad_value": 0,
			"top": "635",
			"type": "convolution",
			"weights": {}
		},
		{
			"C": 528,
			"K": 528,
			"Nx": 5,
			"Ny": 5,
			"blob_biases": 153,
			"blob_weights_f16": 155,
			"bottom": "635",
			"debug_info": "input0.52",
			"fused_relu": 1,
			"fused_tanh": 0,
			"has_batch_norm": 0,
			"has_biases": 1,
			"n_groups": 528,
			"n_parallel": 1,
			"name": "input0.52",
			"pad_b": 2,
			"pad_fill_mode": 0,
			"pad_l": 2,
			"pad_mode": 0,
			"pad_r": 2,
			"pad_t": 2,
			"pad_value": 0,
			"stride_x": 2,
			"stride_y": 2,
			"top": "642",
			"type": "convolution",
			"weights": {}
		},
		{
			"C": 528,
			"K": 528,
			"Nx": 1,
			"Ny": 1,
			"blob_biases": 157,
			"blob_weights_f16": 159,
			"bottom": "642",
			"debug_info": "x.8",
			"fused_relu": 0,
			"fused_tanh": 0,
			"has_batch_norm": 0,
			"has_biases": 1,
			"n_groups": 1,
			"n_parallel": 1,
			"name": "x.8",
			"pad_b": 0,
			"pad_fill_mode": 0,
			"pad_l": 0,
			"pad_mode": 0,
			"pad_r": 0,
			"pad_t": 0,
			"pad_value": 0,
			"top": "x.8",
			"type": "convolution",
			"weights": {}
		},
		{
			"axis": 2,
			"bottom": "x.8",
			"debug_info": "654",
			"end": 264,
			"name": "654",
			"start": 0,
			"top": "654",
			"type": "slice",
			"weights": {}
		},
		{
			"axis": 2,
			"bottom": "x.8",
			"debug_info": "660",
			"end": 528,
			"name": "660",
			"start": 264,
			"top": "660",
			"type": "slice",
			"weights": {}
		},
		{
			"C": 264,
			"K": 264,
			"Nx": 1,
			"Ny": 1,
			"blob_biases": 161,
			"blob_weights_f16": 163,
			"bottom": "660",
			"debug_info": "input0.57",
			"fused_relu": 1,
			"fused_tanh": 0,
			"has_batch_norm": 0,
			"has_biases": 1,
			"n_groups": 1,
			"n_parallel": 1,
			"name": "input0.57",
			"pad_b": 0,
			"pad_fill_mode": 0,
			"pad_l": 0,
			"pad_mode": 0,
			"pad_r": 0,
			"pad_t": 0,
			"pad_value": 0,
			"top": "669",
			"type": "convolution",
			"weights": {}
		},
		{
			"C": 264,
			"K": 264,
			"Nx": 5,
			"Ny": 5,
			"blob_biases": 165,
			"blob_weights_f16": 167,
			"bottom": "669",
			"debug_info": "input0.58",
			"fused_relu": 0,
			"fused_tanh": 0,
			"has_batch_norm": 0,
			"has_biases": 1,
			"n_groups": 264,
			"n_parallel": 1,
			"name": "input0.58",
			"pad_b": 2,
			"pad_fill_mode": 0,
			"pad_l": 2,
			"pad_mode": 0,
			"pad_r": 2,
			"pad_t": 2,
			"pad_value": 0,
			"top": "input0.58",
			"type": "convolution",
			"weights": {}
		},
		{
			"C": 264,
			"K": 264,
			"Nx": 1,
			"Ny": 1,
			"blob_biases": 169,
			"blob_weights_f16": 171,
			"bottom": "input0.58",
			"debug_info": "input0.55",
			"fused_relu": 1,
			"fused_tanh": 0,
			"has_batch_norm": 0,
			"has_biases": 1,
			"n_groups": 1,
			"n_parallel": 1,
			"name": "input0.55",
			"pad_b": 0,
			"pad_fill_mode": 0,
			"pad_l": 0,
			"pad_mode": 0,
			"pad_r": 0,
			"pad_t": 0,
			"pad_value": 0,
			"top": "682",
			"type": "convolution",
			"weights": {}
		},
		{
			"bottom": "654,682",
			"debug_info": "input0.60",
			"name": "input0.60",
			"top": "input0.60",
			"type": "concat",
			"weights": {}
		},
		{
			"C": 528,
			"K": 528,
			"Nx": 1,
			"Ny": 1,
			"blob_biases": 173,
			"blob_weights_f16": 175,
			"bottom": "input0.60",
			"debug_info": "input0.56",
			"fused_relu": 1,
			"fused_tanh": 0,
			"has_batch_norm": 0,
			"has_biases": 1,
			"n_groups": 1,
			"n_parallel": 1,
			"name": "input0.56",
			"pad_b": 0,
			"pad_fill_mode": 0,
			"pad_l": 0,
			"pad_mode": 0,
			"pad_r": 0,
			"pad_t": 0,
			"pad_value": 0,
			"top": "691",
			"type": "convolution",
			"weights": {}
		},
		{
			"C": 528,
			"K": 528,
			"Nx": 5,
			"Ny": 5,
			"blob_biases": 177,
			"blob_weights_f16": 179,
			"bottom": "691",
			"debug_info": "input0.59",
			"fused_relu": 1,
			"fused_tanh": 0,
			"has_batch_norm": 0,
			"has_biases": 1,
			"n_groups": 528,
			"n_parallel": 1,
			"name": "input0.59",
			"pad_b": 2,
			"pad_fill_mode": 0,
			"pad_l": 2,
			"pad_mode": 0,
			"pad_r": 2,
			"pad_t": 2,
			"pad_value": 0,
			"top": "698",
			"type": "convolution",
			"weights": {}
		},
		{
			"C": 528,
			"K": 528,
			"Nx": 1,
			"Ny": 1,
			"blob_biases": 181,
			"blob_weights_f16": 183,
			"bottom": "698",
			"debug_info": "704",
			"fused_relu": 0,
			"fused_tanh": 0,
			"has_batch_norm": 0,
			"has_biases": 1,
			"n_groups": 1,
			"n_parallel": 1,
			"name": "704",
			"pad_b": 0,
			"pad_fill_mode": 0,
			"pad_l": 0,
			"pad_mode": 0,
			"pad_r": 0,
			"pad_t": 0,
			"pad_value": 0,
			"top": "704",
			"type": "convolution",
			"weights": {}
		},
		{
			"alpha": 1,
			"beta": 0,
			"bottom": "704,input0.60",
			"debug_info": "x.1",
			"fused_relu": 0,
			"name": "x.1",
			"operation": 0,
			"top": "x.1",
			"type": "elementwise",
			"weights": {}
		},
		{
			"axis": 2,
			"bottom": "x.1",
			"debug_info": "711",
			"end": 264,
			"name": "711",
			"start": 0,
			"top": "711",
			"type": "slice",
			"weights": {}
		},
		{
			"axis": 2,
			"bottom": "x.1",
			"debug_info": "717",
			"end": 528,
			"name": "717",
			"start": 264,
			"top": "717",
			"type": "slice",
			"weights": {}
		},
		{
			"C": 264,
			"K": 264,
			"Nx": 1,
			"Ny": 1,
			"blob_biases": 185,
			"blob_weights_f16": 187,
			"bottom": "717",
			"debug_info": "input0.3",
			"fused_relu": 1,
			"fused_tanh": 0,
			"has_batch_norm": 0,
			"has_biases": 1,
			"n_groups": 1,
			"n_parallel": 1,
			"name": "input0.3",
			"pad_b": 0,
			"pad_fill_mode": 0,
			"pad_l": 0,
			"pad_mode": 0,
			"pad_r": 0,
			"pad_t": 0,
			"pad_value": 0,
			"top": "726",
			"type": "convolution",
			"weights": {}
		},
		{
			"C": 264,
			"K": 264,
			"Nx": 5,
			"Ny": 5,
			"blob_biases": 189,
			"blob_weights_f16": 191,
			"bottom": "726",
			"debug_info": "input0.4",
			"fused_relu": 0,
			"fused_tanh": 0,
			"has_batch_norm": 0,
			"has_biases": 1,
			"n_groups": 264,
			"n_parallel": 1,
			"name": "input0.4",
			"pad_b": 2,
			"pad_fill_mode": 0,
			"pad_l": 2,
			"pad_mode": 0,
			"pad_r": 2,
			"pad_t": 2,
			"pad_value": 0,
			"top": "input0.4",
			"type": "convolution",
			"weights": {}
		},
		{
			"C": 264,
			"K": 264,
			"Nx": 1,
			"Ny": 1,
			"blob_biases": 193,
			"blob_weights_f16": 195,
			"bottom": "input0.4",
			"debug_info": "input0.1",
			"fused_relu": 1,
			"fused_tanh": 0,
			"has_batch_norm": 0,
			"has_biases": 1,
			"n_groups": 1,
			"n_parallel": 1,
			"name": "input0.1",
			"pad_b": 0,
			"pad_fill_mode": 0,
			"pad_l": 0,
			"pad_mode": 0,
			"pad_r": 0,
			"pad_t": 0,
			"pad_value": 0,
			"top": "739",
			"type": "convolution",
			"weights": {}
		},
		{
			"bottom": "711,739",
			"debug_info": "input0.5",
			"name": "input0.5",
			"top": "input0.5",
			"type": "concat",
			"weights": {}
		},
		{
			"average_count_exclude_padding": 1,
			"avg_or_max": 0,
			"bottom": "input0.5",
			"debug_info": "input.1",
			"is_global": 1,
			"name": "input.1",
			"pad_b": 0,
			"pad_fill_mode": 0,
			"pad_l": 0,
			"pad_mode": 2,
			"pad_r": 0,
			"pad_t": 0,
			"pad_value": 0,
			"size_x": 10,
			"size_y": 10,
			"stride_x": 1,
			"stride_y": 1,
			"top": "input.1",
			"top_shape_style": 0,
			"type": "pool",
			"weights": {}
		},
		{
			"C": 128,
			"K": 528,
			"Nx": 1,
			"Ny": 1,
			"attributes": {
				"is_output": 1
			},
			"blob_biases": 197,
			"blob_weights_f16": 199,
			"bottom": "input.1",
			"debug_info": "features.1",
			"fused_relu": 0,
			"fused_tanh": 0,
			"has_batch_norm": 0,
			"has_biases": 1,
			"n_groups": 1,
			"n_parallel": 1,
			"name": "features.1",
			"pad_b": 0,
			"pad_fill_mode": 0,
			"pad_l": 0,
			"pad_mode": 0,
			"pad_r": 0,
			"pad_t": 0,
			"pad_value": 0,
			"top": "embedding",
			"type": "convolution",
			"weights": {}
		},
		{
			"alpha": 1,
			"beta": 0,
			"bottom": "embedding,embedding",
			"debug_info": "758",
			"fused_relu": 0,
			"name": "758",
			"operation": 1,
			"top": "758",
			"type": "elementwise",
			"weights": {}
		},
		{
			"axis_mode": 4,
			"bottom": "758",
			"debug_info": "760",
			"mode": 0,
			"name": "760",
			"nd_axis": 1,
			"nd_mode": true,
			"top": "760",
			"type": "reduce",
			"use_version": 1,
			"weights": {}
		},
		{
			"alpha": 1,
			"beta": 0,
			"bottom": "760",
			"debug_info": "761",
			"fused_relu": 0,
			"name": "761",
			"operation": 11,
			"top": "761",
			"type": "elementwise",
			"weights": {}
		},
		{
			"alpha": 9.999999960041972e-13,
			"beta": 0,
			"bottom": "761",
			"debug_info": "763",
			"fused_relu": 0,
			"name": "763",
			"operation": 0,
			"top": "763",
			"type": "elementwise",
			"weights": {}
		},
		{
			"alpha": 1,
			"beta": 0,
			"bottom": "embedding,763",
			"debug_info": "feature_norm.2",
			"fused_relu": 0,
			"name": "feature_norm.2",
			"nd_mode": true,
			"operation": 102,
			"top": "feature_norm.2",
			"type": "elementwise",
			"weights": {}
		},
		{
			"C": 134,
			"K": 128,
			"Nx": 1,
			"Ny": 1,
			"blob_biases": 201,
			"blob_weights_f16": 203,
			"bottom": "feature_norm.2",
			"debug_info": "778",
			"fused_relu": 0,
			"fused_tanh": 0,
			"has_batch_norm": 0,
			"has_biases": 1,
			"n_groups": 1,
			"n_parallel": 1,
			"name": "778",
			"pad_b": 0,
			"pad_fill_mode": 0,
			"pad_l": 0,
			"pad_mode": 0,
			"pad_r": 0,
			"pad_t": 0,
			"pad_value": 0,
			"top": "778",
			"type": "convolution",
			"weights": {}
		},
		{
			"alpha": 1,
			"beta": 0,
			"bottom": "embedding,embedding",
			"debug_info": "784",
			"fused_relu": 0,
			"name": "784",
			"operation": 1,
			"top": "784",
			"type": "elementwise",
			"weights": {}
		},
		{
			"axis_mode": 4,
			"bottom": "784",
			"debug_info": "786",
			"mode": 0,
			"name": "786",
			"nd_axis": 1,
			"nd_mode": true,
			"top": "786",
			"type": "reduce",
			"use_version": 1,
			"weights": {}
		},
		{
			"alpha": 1,
			"beta": 0,
			"bottom": "786",
			"debug_info": "787",
			"fused_relu": 0,
			"name": "787",
			"operation": 11,
			"top": "787",
			"type": "elementwise",
			"weights": {}
		},
		{
			"alpha": 9.999999960041972e-13,
			"beta": 0,
			"bottom": "787",
			"debug_info": "789",
			"fused_relu": 0,
			"name": "789",
			"operation": 0,
			"top": "789",
			"type": "elementwise",
			"weights": {}
		},
		{
			"alpha": 1,
			"beta": 0,
			"bottom": "embedding,789",
			"debug_info": "feature_norm.3",
			"fused_relu": 0,
			"name": "feature_norm.3",
			"nd_mode": true,
			"operation": 102,
			"top": "feature_norm.3",
			"type": "elementwise",
			"weights": {}
		},
		{
			"C": 36,
			"K": 128,
			"Nx": 1,
			"Ny": 1,
			"blob_biases": 205,
			"blob_weights_f16": 207,
			"bottom": "feature_norm.3",
			"debug_info": "804",
			"fused_relu": 0,
			"fused_tanh": 0,
			"has_batch_norm": 0,
			"has_biases": 1,
			"n_groups": 1,
			"n_parallel": 1,
			"name": "804",
			"pad_b": 0,
			"pad_fill_mode": 0,
			"pad_l": 0,
			"pad_mode": 0,
			"pad_r": 0,
			"pad_t": 0,
			"pad_value": 0,
			"top": "804",
			"type": "convolution",
			"weights": {}
		},
		{
			"alpha": 1,
			"beta": 0,
			"bottom": "embedding,embedding",
			"debug_info": "810",
			"fused_relu": 0,
			"name": "810",
			"operation": 1,
			"top": "810",
			"type": "elementwise",
			"weights": {}
		},
		{
			"axis_mode": 4,
			"bottom": "810",
			"debug_info": "812",
			"mode": 0,
			"name": "812",
			"nd_axis": 1,
			"nd_mode": true,
			"top": "812",
			"type": "reduce",
			"use_version": 1,
			"weights": {}
		},
		{
			"alpha": 1,
			"beta": 0,
			"bottom": "812",
			"debug_info": "813",
			"fused_relu": 0,
			"name": "813",
			"operation": 11,
			"top": "813",
			"type": "elementwise",
			"weights": {}
		},
		{
			"alpha": 9.999999960041972e-13,
			"beta": 0,
			"bottom": "813",
			"debug_info": "815",
			"fused_relu": 0,
			"name": "815",
			"operation": 0,
			"top": "815",
			"type": "elementwise",
			"weights": {}
		},
		{
			"alpha": 1,
			"beta": 0,
			"bottom": "embedding,815",
			"debug_info": "feature_norm.4",
			"fused_relu": 0,
			"name": "feature_norm.4",
			"nd_mode": true,
			"operation": 102,
			"top": "feature_norm.4",
			"type": "elementwise",
			"weights": {}
		},
		{
			"C": 7,
			"K": 128,
			"Nx": 1,
			"Ny": 1,
			"blob_biases": 209,
			"blob_weights_f16": 211,
			"bottom": "feature_norm.4",
			"debug_info": "830",
			"fused_relu": 0,
			"fused_tanh": 0,
			"has_batch_norm": 0,
			"has_biases": 1,
			"n_groups": 1,
			"n_parallel": 1,
			"name": "830",
			"pad_b": 0,
			"pad_fill_mode": 0,
			"pad_l": 0,
			"pad_mode": 0,
			"pad_r": 0,
			"pad_t": 0,
			"pad_value": 0,
			"top": "830",
			"type": "convolution",
			"weights": {}
		},
		{
			"alpha": 1,
			"beta": 0,
			"bottom": "embedding,embedding",
			"debug_info": "836",
			"fused_relu": 0,
			"name": "836",
			"operation": 1,
			"top": "836",
			"type": "elementwise",
			"weights": {}
		},
		{
			"axis_mode": 4,
			"bottom": "836",
			"debug_info": "838",
			"mode": 0,
			"name": "838",
			"nd_axis": 1,
			"nd_mode": true,
			"top": "838",
			"type": "reduce",
			"use_version": 1,
			"weights": {}
		},
		{
			"alpha": 1,
			"beta": 0,
			"bottom": "838",
			"debug_info": "839",
			"fused_relu": 0,
			"name": "839",
			"operation": 11,
			"top": "839",
			"type": "elementwise",
			"weights": {}
		},
		{
			"alpha": 9.999999960041972e-13,
			"beta": 0,
			"bottom": "839",
			"debug_info": "841",
			"fused_relu": 0,
			"name": "841",
			"operation": 0,
			"top": "841",
			"type": "elementwise",
			"weights": {}
		},
		{
			"alpha": 1,
			"beta": 0,
			"bottom": "embedding,841",
			"debug_info": "feature_norm.1",
			"fused_relu": 0,
			"name": "feature_norm.1",
			"nd_mode": true,
			"operation": 102,
			"top": "feature_norm.1",
			"type": "elementwise",
			"weights": {}
		},
		{
			"C": 2,
			"K": 128,
			"Nx": 1,
			"Ny": 1,
			"blob_biases": 213,
			"blob_weights_f16": 215,
			"bottom": "feature_norm.1",
			"debug_info": "856",
			"fused_relu": 0,
			"fused_tanh": 0,
			"has_batch_norm": 0,
			"has_biases": 1,
			"n_groups": 1,
			"n_parallel": 1,
			"name": "856",
			"pad_b": 0,
			"pad_fill_mode": 0,
			"pad_l": 0,
			"pad_mode": 0,
			"pad_r": 0,
			"pad_t": 0,
			"pad_value": 0,
			"top": "856",
			"type": "convolution",
			"weights": {}
		},
		{
			"C": 2,
			"attributes": {
				"is_output": 1
			},
			"bottom": "778",
			"debug_info": "857",
			"name": "857",
			"top": "dog",
			"type": "softmax",
			"weights": {}
		},
		{
			"C": 2,
			"attributes": {
				"is_output": 1
			},
			"bottom": "804",
			"debug_info": "858",
			"name": "858",
			"top": "cat",
			"type": "softmax",
			"weights": {}
		},
		{
			"C": 2,
			"attributes": {
				"is_output": 1
			},
			"bottom": "830",
			"debug_info": "859",
			"name": "859",
			"top": "coat_pattern",
			"type": "softmax",
			"weights": {}
		},
		{
			"C": 2,
			"attributes": {
				"is_output": 1
			},
			"bottom": "856",
			"debug_info": "860",
			"name": "860",
			"top": "hair",
			"type": "softmax",
			"weights": {}
		}
	],
	"metadata_in_weights": [],
	"properties": {
		"espresso.ane.transform_bcast": "1"
	},
	"storage": "model.espresso.weights",
	"transform_params": {
		"input": {
			"bias_a": 0,
			"bias_b": 0,
			"bias_g": 0,
			"bias_r": 0,
			"center_mean": 0,
			"is_network_bgr": 1,
			"scale": 0.003921568859368563
		}
	}
}