{
	"analyses": {},
	"format_version": 200,
	"layers": [
		{
			"C": 24,
			"K": 3,
			"Nx": 3,
			"Ny": 3,
			"blob_biases": 1,
			"bottom": "image",
			"debug_info": "stem/MobilenetV3/Conv2d_0/Conv2Dx",
			"fused_relu": 0,
			"fused_tanh": 0,
			"has_batch_norm": 0,
			"has_biases": 1,
			"n_groups": 1,
			"n_parallel": 1,
			"name": "stem/MobilenetV3/Conv2d_0/Conv2Dx",
			"pad_b": 0,
			"pad_fill_mode": 0,
			"pad_l": 0,
			"pad_mode": 1,
			"pad_r": 0,
			"pad_t": 0,
			"pad_value": 0,
			"stride_x": 2,
			"stride_y": 2,
			"top": "batch_norm_47",
			"type": "convolution",
			"weights": {
				"W_U8": 3,
				"per_ch_qbias": 5,
				"per_ch_qscale": 7
			}
		},
		{
			"alpha": 3,
			"beta": 0,
			"bottom": "batch_norm_47",
			"debug_info": "stem/MobilenetV3/Conv2d_0/add",
			"fused_relu": 0,
			"name": "stem/MobilenetV3/Conv2d_0/add",
			"operation": 0,
			"top": "stem/MobilenetV3/Conv2d_0/add",
			"type": "elementwise",
			"weights": {}
		},
		{
			"bottom": "stem/MobilenetV3/Conv2d_0/add",
			"debug_info": "stem/MobilenetV3/Conv2d_0/Relu6__relu6_relu__",
			"mode": 0,
			"name": "stem/MobilenetV3/Conv2d_0/Relu6__relu6_relu__",
			"top": "stem/MobilenetV3/Conv2d_0/Relu6__relu6_relu__",
			"type": "activation",
			"weights": {}
		},
		{
			"alpha": -1,
			"beta": 0,
			"bottom": "stem/MobilenetV3/Conv2d_0/Relu6__relu6_relu__",
			"debug_info": "stem/MobilenetV3/Conv2d_0/Relu6__relu6_neg__",
			"mode": 6,
			"name": "stem/MobilenetV3/Conv2d_0/Relu6__relu6_neg__",
			"top": "stem/MobilenetV3/Conv2d_0/Relu6__relu6_neg__",
			"type": "activation",
			"weights": {}
		},
		{
			"alpha": -6,
			"beta": 0,
			"bottom": "stem/MobilenetV3/Conv2d_0/Relu6__relu6_neg__",
			"debug_info": "stem/MobilenetV3/Conv2d_0/Relu6__relu6_threshold6__",
			"fused_relu": 0,
			"name": "stem/MobilenetV3/Conv2d_0/Relu6__relu6_threshold6__",
			"operation": 25,
			"top": "stem/MobilenetV3/Conv2d_0/Relu6__relu6_threshold6__",
			"type": "elementwise",
			"weights": {}
		},
		{
			"alpha": -1,
			"beta": 0,
			"bottom": "stem/MobilenetV3/Conv2d_0/Relu6__relu6_threshold6__",
			"debug_info": "stem/MobilenetV3/Conv2d_0/Relu6",
			"mode": 6,
			"name": "stem/MobilenetV3/Conv2d_0/Relu6",
			"top": "stem/MobilenetV3/Conv2d_0/Relu6",
			"type": "activation",
			"weights": {}
		},
		{
			"alpha": 0.1666666716337204,
			"beta": 0,
			"bottom": "stem/MobilenetV3/Conv2d_0/Relu6",
			"debug_info": "stem/MobilenetV3/Conv2d_0/mul",
			"fused_relu": 0,
			"name": "stem/MobilenetV3/Conv2d_0/mul",
			"operation": 1,
			"top": "stem/MobilenetV3/Conv2d_0/mul",
			"type": "elementwise",
			"weights": {}
		},
		{
			"alpha": 1,
			"beta": 0,
			"bottom": "batch_norm_47,stem/MobilenetV3/Conv2d_0/mul",
			"debug_info": "stem/MobilenetV3/Conv2d_0/mul_1",
			"fused_relu": 0,
			"name": "stem/MobilenetV3/Conv2d_0/mul_1",
			"operation": 1,
			"top": "stem/MobilenetV3/Conv2d_0/mul_1",
			"type": "elementwise",
			"weights": {}
		},
		{
			"C": 24,
			"K": 24,
			"Nx": 1,
			"Ny": 1,
			"blob_biases": 9,
			"bottom": "stem/MobilenetV3/Conv2d_0/mul_1",
			"debug_info": "stem/MobilenetV3/Bottleneck_1/expand/Conv2Dx",
			"fused_relu": 1,
			"fused_tanh": 0,
			"has_batch_norm": 0,
			"has_biases": 1,
			"n_groups": 1,
			"n_parallel": 1,
			"name": "stem/MobilenetV3/Bottleneck_1/expand/Conv2Dx",
			"pad_b": 0,
			"pad_fill_mode": 0,
			"pad_l": 0,
			"pad_mode": 1,
			"pad_r": 0,
			"pad_t": 0,
			"pad_value": 0,
			"top": "stem/MobilenetV3/Bottleneck_1/expand/Relu",
			"type": "convolution",
			"weights": {
				"W_U8": 11,
				"per_ch_qbias": 13,
				"per_ch_qscale": 15
			}
		},
		{
			"C": 24,
			"K": 24,
			"Nx": 3,
			"Ny": 3,
			"blob_biases": 17,
			"bottom": "stem/MobilenetV3/Bottleneck_1/expand/Relu",
			"debug_info": "stem/MobilenetV3/Bottleneck_1/depthwise/depthwisex",
			"fused_relu": 1,
			"fused_tanh": 0,
			"has_batch_norm": 0,
			"has_biases": 1,
			"n_groups": 24,
			"n_parallel": 1,
			"name": "stem/MobilenetV3/Bottleneck_1/depthwise/depthwisex",
			"pad_b": 0,
			"pad_fill_mode": 0,
			"pad_l": 0,
			"pad_mode": 1,
			"pad_r": 0,
			"pad_t": 0,
			"pad_value": 0,
			"top": "stem/MobilenetV3/Bottleneck_1/Relu",
			"type": "convolution",
			"weights": {
				"W_U8": 19,
				"per_ch_qbias": 21,
				"per_ch_qscale": 23
			}
		},
		{
			"C": 24,
			"K": 24,
			"Nx": 1,
			"Ny": 1,
			"blob_biases": 25,
			"bottom": "stem/MobilenetV3/Bottleneck_1/Relu",
			"debug_info": "stem/MobilenetV3/Bottleneck_1/compress/Conv2Dx",
			"fused_relu": 0,
			"fused_tanh": 0,
			"has_batch_norm": 0,
			"has_biases": 1,
			"n_groups": 1,
			"n_parallel": 1,
			"name": "stem/MobilenetV3/Bottleneck_1/compress/Conv2Dx",
			"pad_b": 0,
			"pad_fill_mode": 0,
			"pad_l": 0,
			"pad_mode": 1,
			"pad_r": 0,
			"pad_t": 0,
			"pad_value": 0,
			"top": "batch_norm_50",
			"type": "convolution",
			"weights": {
				"W_U8": 27,
				"per_ch_qbias": 29,
				"per_ch_qscale": 31
			}
		},
		{
			"alpha": 1,
			"beta": 0,
			"bottom": "stem/MobilenetV3/Conv2d_0/mul_1,batch_norm_50",
			"debug_info": "stem/MobilenetV3/Bottleneck_1/add",
			"fused_relu": 0,
			"name": "stem/MobilenetV3/Bottleneck_1/add",
			"operation": 0,
			"top": "stem/MobilenetV3/Bottleneck_1/add",
			"type": "elementwise",
			"weights": {}
		},
		{
			"C": 96,
			"K": 24,
			"Nx": 1,
			"Ny": 1,
			"blob_biases": 33,
			"bottom": "stem/MobilenetV3/Bottleneck_1/add",
			"debug_info": "stem/MobilenetV3/Bottleneck_2/expand/Conv2Dx",
			"fused_relu": 1,
			"fused_tanh": 0,
			"has_batch_norm": 0,
			"has_biases": 1,
			"n_groups": 1,
			"n_parallel": 1,
			"name": "stem/MobilenetV3/Bottleneck_2/expand/Conv2Dx",
			"pad_b": 0,
			"pad_fill_mode": 0,
			"pad_l": 0,
			"pad_mode": 1,
			"pad_r": 0,
			"pad_t": 0,
			"pad_value": 0,
			"top": "stem/MobilenetV3/Bottleneck_2/expand/Relu",
			"type": "convolution",
			"weights": {
				"W_U8": 35,
				"per_ch_qbias": 37,
				"per_ch_qscale": 39
			}
		},
		{
			"C": 96,
			"K": 96,
			"Nx": 3,
			"Ny": 3,
			"blob_biases": 41,
			"bottom": "stem/MobilenetV3/Bottleneck_2/expand/Relu",
			"debug_info": "stem/MobilenetV3/Bottleneck_2/depthwise/depthwisex",
			"fused_relu": 1,
			"fused_tanh": 0,
			"has_batch_norm": 0,
			"has_biases": 1,
			"n_groups": 96,
			"n_parallel": 1,
			"name": "stem/MobilenetV3/Bottleneck_2/depthwise/depthwisex",
			"pad_b": 0,
			"pad_fill_mode": 0,
			"pad_l": 0,
			"pad_mode": 1,
			"pad_r": 0,
			"pad_t": 0,
			"pad_value": 0,
			"stride_x": 2,
			"stride_y": 2,
			"top": "stem/MobilenetV3/Bottleneck_2/Relu",
			"type": "convolution",
			"weights": {
				"W_U8": 43,
				"per_ch_qbias": 45,
				"per_ch_qscale": 47
			}
		},
		{
			"C": 40,
			"K": 96,
			"Nx": 1,
			"Ny": 1,
			"blob_biases": 49,
			"bottom": "stem/MobilenetV3/Bottleneck_2/Relu",
			"debug_info": "stem/MobilenetV3/Bottleneck_2/compress/Conv2Dx",
			"fused_relu": 0,
			"fused_tanh": 0,
			"has_batch_norm": 0,
			"has_biases": 1,
			"n_groups": 1,
			"n_parallel": 1,
			"name": "stem/MobilenetV3/Bottleneck_2/compress/Conv2Dx",
			"pad_b": 0,
			"pad_fill_mode": 0,
			"pad_l": 0,
			"pad_mode": 1,
			"pad_r": 0,
			"pad_t": 0,
			"pad_value": 0,
			"top": "batch_norm_53",
			"type": "convolution",
			"weights": {
				"W_U8": 51,
				"per_ch_qbias": 53,
				"per_ch_qscale": 55
			}
		},
		{
			"C": 112,
			"K": 40,
			"Nx": 1,
			"Ny": 1,
			"blob_biases": 57,
			"bottom": "batch_norm_53",
			"debug_info": "stem/MobilenetV3/Bottleneck_3/expand/Conv2Dx",
			"fused_relu": 1,
			"fused_tanh": 0,
			"has_batch_norm": 0,
			"has_biases": 1,
			"n_groups": 1,
			"n_parallel": 1,
			"name": "stem/MobilenetV3/Bottleneck_3/expand/Conv2Dx",
			"pad_b": 0,
			"pad_fill_mode": 0,
			"pad_l": 0,
			"pad_mode": 1,
			"pad_r": 0,
			"pad_t": 0,
			"pad_value": 0,
			"top": "stem/MobilenetV3/Bottleneck_3/expand/Relu",
			"type": "convolution",
			"weights": {
				"W_U8": 59,
				"per_ch_qbias": 61,
				"per_ch_qscale": 63
			}
		},
		{
			"C": 112,
			"K": 112,
			"Nx": 3,
			"Ny": 3,
			"blob_biases": 65,
			"bottom": "stem/MobilenetV3/Bottleneck_3/expand/Relu",
			"debug_info": "stem/MobilenetV3/Bottleneck_3/depthwise/depthwisex",
			"fused_relu": 1,
			"fused_tanh": 0,
			"has_batch_norm": 0,
			"has_biases": 1,
			"n_groups": 112,
			"n_parallel": 1,
			"name": "stem/MobilenetV3/Bottleneck_3/depthwise/depthwisex",
			"pad_b": 0,
			"pad_fill_mode": 0,
			"pad_l": 0,
			"pad_mode": 1,
			"pad_r": 0,
			"pad_t": 0,
			"pad_value": 0,
			"top": "stem/MobilenetV3/Bottleneck_3/Relu",
			"type": "convolution",
			"weights": {
				"W_U8": 67,
				"per_ch_qbias": 69,
				"per_ch_qscale": 71
			}
		},
		{
			"C": 40,
			"K": 112,
			"Nx": 1,
			"Ny": 1,
			"blob_biases": 73,
			"bottom": "stem/MobilenetV3/Bottleneck_3/Relu",
			"debug_info": "stem/MobilenetV3/Bottleneck_3/compress/Conv2Dx",
			"fused_relu": 0,
			"fused_tanh": 0,
			"has_batch_norm": 0,
			"has_biases": 1,
			"n_groups": 1,
			"n_parallel": 1,
			"name": "stem/MobilenetV3/Bottleneck_3/compress/Conv2Dx",
			"pad_b": 0,
			"pad_fill_mode": 0,
			"pad_l": 0,
			"pad_mode": 1,
			"pad_r": 0,
			"pad_t": 0,
			"pad_value": 0,
			"top": "batch_norm_56",
			"type": "convolution",
			"weights": {
				"W_U8": 75,
				"per_ch_qbias": 77,
				"per_ch_qscale": 79
			}
		},
		{
			"alpha": 1,
			"beta": 0,
			"bottom": "batch_norm_53,batch_norm_56",
			"debug_info": "stem/MobilenetV3/Bottleneck_3/add",
			"fused_relu": 0,
			"name": "stem/MobilenetV3/Bottleneck_3/add",
			"operation": 0,
			"top": "stem/MobilenetV3/Bottleneck_3/add",
			"type": "elementwise",
			"weights": {}
		},
		{
			"C": 112,
			"K": 40,
			"Nx": 1,
			"Ny": 1,
			"blob_biases": 81,
			"bottom": "stem/MobilenetV3/Bottleneck_3/add",
			"debug_info": "stem/MobilenetV3/Bottleneck_4/expand/Conv2Dx",
			"fused_relu": 1,
			"fused_tanh": 0,
			"has_batch_norm": 0,
			"has_biases": 1,
			"n_groups": 1,
			"n_parallel": 1,
			"name": "stem/MobilenetV3/Bottleneck_4/expand/Conv2Dx",
			"pad_b": 0,
			"pad_fill_mode": 0,
			"pad_l": 0,
			"pad_mode": 1,
			"pad_r": 0,
			"pad_t": 0,
			"pad_value": 0,
			"top": "stem/MobilenetV3/Bottleneck_4/expand/Relu",
			"type": "convolution",
			"weights": {
				"W_U8": 83,
				"per_ch_qbias": 85,
				"per_ch_qscale": 87
			}
		},
		{
			"C": 112,
			"K": 112,
			"Nx": 5,
			"Ny": 5,
			"blob_biases": 89,
			"bottom": "stem/MobilenetV3/Bottleneck_4/expand/Relu",
			"debug_info": "stem/MobilenetV3/Bottleneck_4/depthwise/depthwisex",
			"fused_relu": 0,
			"fused_tanh": 0,
			"has_batch_norm": 0,
			"has_biases": 1,
			"n_groups": 112,
			"n_parallel": 1,
			"name": "stem/MobilenetV3/Bottleneck_4/depthwise/depthwisex",
			"pad_b": 0,
			"pad_fill_mode": 0,
			"pad_l": 0,
			"pad_mode": 1,
			"pad_r": 0,
			"pad_t": 0,
			"pad_value": 0,
			"stride_x": 2,
			"stride_y": 2,
			"top": "batch_norm_58",
			"type": "convolution",
			"weights": {
				"W_U8": 91,
				"per_ch_qbias": 93,
				"per_ch_qscale": 95
			}
		},
		{
			"bottom": "batch_norm_58",
			"debug_info": "stem/MobilenetV3/Bottleneck_4/gap/Mean/pad",
			"name": "stem/MobilenetV3/Bottleneck_4/gap/Mean/pad",
			"pad_b": 0,
			"pad_fill_mode": 0,
			"pad_l": 3,
			"pad_pad_mode": 0,
			"pad_r": 0,
			"pad_t": 3,
			"pad_value": 0,
			"top": "stem/MobilenetV3/Bottleneck_4/gap/Mean/pad",
			"type": "general_padding",
			"weights": {}
		},
		{
			"bottom": "",
			"constant_blob": 97,
			"debug_info": "stem/MobilenetV3/Bottleneck_4/gap/Mean/scale",
			"h": 1,
			"k": 1,
			"n": 1,
			"name": "stem/MobilenetV3/Bottleneck_4/gap/Mean/scale_constant_in_scale",
			"top": "stem/MobilenetV3/Bottleneck_4/gap/Mean/scale_constant_in_scale",
			"type": "load_constant",
			"w": 1,
			"weights": {}
		},
		{
			"alpha": 1,
			"beta": 0,
			"bottom": "stem/MobilenetV3/Bottleneck_4/gap/Mean/pad,stem/MobilenetV3/Bottleneck_4/gap/Mean/scale_constant_in_scale",
			"debug_info": "stem/MobilenetV3/Bottleneck_4/gap/Mean/scale",
			"fused_relu": 0,
			"name": "stem/MobilenetV3/Bottleneck_4/gap/Mean/scale",
			"operation": 1,
			"top": "stem/MobilenetV3/Bottleneck_4/gap/Mean/scale",
			"type": "elementwise",
			"weights": {}
		},
		{
			"average_count_exclude_padding": 1,
			"avg_or_max": 0,
			"bottom": "stem/MobilenetV3/Bottleneck_4/gap/Mean/scale",
			"debug_info": "stem/MobilenetV3/Bottleneck_4/gap/Mean",
			"is_global": 1,
			"name": "stem/MobilenetV3/Bottleneck_4/gap/Mean",
			"pad_b": 0,
			"pad_fill_mode": 0,
			"pad_l": 0,
			"pad_mode": 2,
			"pad_r": 0,
			"pad_t": 0,
			"pad_value": 0,
			"size_x": 48,
			"size_y": 48,
			"stride_x": 1,
			"stride_y": 1,
			"top": "stem/MobilenetV3/Bottleneck_4/gap/Mean",
			"top_shape_style": 0,
			"type": "pool",
			"weights": {}
		},
		{
			"C": 28,
			"K": 112,
			"Nx": 1,
			"Ny": 1,
			"blob_biases": 99,
			"bottom": "stem/MobilenetV3/Bottleneck_4/gap/Mean",
			"debug_info": "stem/MobilenetV3/Bottleneck_4/Bottleneck_4/Conv/BiasAdd",
			"fused_relu": 1,
			"fused_tanh": 0,
			"has_batch_norm": 0,
			"has_biases": 1,
			"n_groups": 1,
			"n_parallel": 1,
			"name": "stem/MobilenetV3/Bottleneck_4/Bottleneck_4/Conv/BiasAdd",
			"pad_b": 0,
			"pad_fill_mode": 0,
			"pad_l": 0,
			"pad_mode": 0,
			"pad_r": 0,
			"pad_t": 0,
			"pad_value": 0,
			"top": "stem/MobilenetV3/Bottleneck_4/Bottleneck_4/Conv/Relu",
			"type": "convolution",
			"weights": {
				"W_U8": 101,
				"per_ch_qbias": 103,
				"per_ch_qscale": 105
			}
		},
		{
			"C": 112,
			"K": 28,
			"Nx": 1,
			"Ny": 1,
			"blob_biases": 107,
			"bottom": "stem/MobilenetV3/Bottleneck_4/Bottleneck_4/Conv/Relu",
			"debug_info": "stem/MobilenetV3/Bottleneck_4/Bottleneck_4_1/Conv_1/add",
			"fused_relu": 1,
			"fused_tanh": 0,
			"has_batch_norm": 0,
			"has_biases": 1,
			"n_groups": 1,
			"n_parallel": 1,
			"name": "stem/MobilenetV3/Bottleneck_4/Bottleneck_4_1/Conv_1/add",
			"pad_b": 0,
			"pad_fill_mode": 0,
			"pad_l": 0,
			"pad_mode": 0,
			"pad_r": 0,
			"pad_t": 0,
			"pad_value": 0,
			"top": "stem/MobilenetV3/Bottleneck_4/Bottleneck_4_1/Conv_1/Relu6__relu6_relu__",
			"type": "convolution",
			"weights": {
				"W_U8": 109,
				"per_ch_qbias": 111,
				"per_ch_qscale": 113
			}
		},
		{
			"alpha": -1,
			"beta": 0,
			"bottom": "stem/MobilenetV3/Bottleneck_4/Bottleneck_4_1/Conv_1/Relu6__relu6_relu__",
			"debug_info": "stem/MobilenetV3/Bottleneck_4/Bottleneck_4_1/Conv_1/Relu6__relu6_neg__",
			"mode": 6,
			"name": "stem/MobilenetV3/Bottleneck_4/Bottleneck_4_1/Conv_1/Relu6__relu6_neg__",
			"top": "stem/MobilenetV3/Bottleneck_4/Bottleneck_4_1/Conv_1/Relu6__relu6_neg__",
			"type": "activation",
			"weights": {}
		},
		{
			"alpha": -6,
			"beta": 0,
			"bottom": "stem/MobilenetV3/Bottleneck_4/Bottleneck_4_1/Conv_1/Relu6__relu6_neg__",
			"debug_info": "stem/MobilenetV3/Bottleneck_4/Bottleneck_4_1/Conv_1/Relu6__relu6_threshold6__",
			"fused_relu": 0,
			"name": "stem/MobilenetV3/Bottleneck_4/Bottleneck_4_1/Conv_1/Relu6__relu6_threshold6__",
			"operation": 25,
			"top": "stem/MobilenetV3/Bottleneck_4/Bottleneck_4_1/Conv_1/Relu6__relu6_threshold6__",
			"type": "elementwise",
			"weights": {}
		},
		{
			"alpha": -1,
			"beta": 0,
			"bottom": "stem/MobilenetV3/Bottleneck_4/Bottleneck_4_1/Conv_1/Relu6__relu6_threshold6__",
			"debug_info": "stem/MobilenetV3/Bottleneck_4/Bottleneck_4_1/Conv_1/Relu6",
			"mode": 6,
			"name": "stem/MobilenetV3/Bottleneck_4/Bottleneck_4_1/Conv_1/Relu6",
			"top": "stem/MobilenetV3/Bottleneck_4/Bottleneck_4_1/Conv_1/Relu6",
			"type": "activation",
			"weights": {}
		},
		{
			"alpha": 0.1666666716337204,
			"beta": 0,
			"bottom": "stem/MobilenetV3/Bottleneck_4/Bottleneck_4_1/Conv_1/Relu6",
			"debug_info": "stem/MobilenetV3/Bottleneck_4/Bottleneck_4_1/Conv_1/mul",
			"fused_relu": 0,
			"name": "stem/MobilenetV3/Bottleneck_4/Bottleneck_4_1/Conv_1/mul",
			"operation": 1,
			"top": "stem/MobilenetV3/Bottleneck_4/Bottleneck_4_1/Conv_1/mul",
			"type": "elementwise",
			"weights": {}
		},
		{
			"alpha": 1,
			"beta": 0,
			"bottom": "batch_norm_58,stem/MobilenetV3/Bottleneck_4/Bottleneck_4_1/Conv_1/mul",
			"debug_info": "stem/MobilenetV3/Bottleneck_4/mul",
			"fused_relu": 0,
			"name": "stem/MobilenetV3/Bottleneck_4/mul",
			"nd_mode": true,
			"operation": 1,
			"top": "stem/MobilenetV3/Bottleneck_4/mul",
			"type": "elementwise",
			"weights": {}
		},
		{
			"bottom": "stem/MobilenetV3/Bottleneck_4/mul",
			"debug_info": "stem/MobilenetV3/Bottleneck_4/Relu",
			"mode": 0,
			"name": "stem/MobilenetV3/Bottleneck_4/Relu",
			"top": "stem/MobilenetV3/Bottleneck_4/Relu",
			"type": "activation",
			"weights": {}
		},
		{
			"C": 64,
			"K": 112,
			"Nx": 1,
			"Ny": 1,
			"blob_biases": 115,
			"bottom": "stem/MobilenetV3/Bottleneck_4/Relu",
			"debug_info": "stem/MobilenetV3/Bottleneck_4/compress/Conv2Dx",
			"fused_relu": 0,
			"fused_tanh": 0,
			"has_batch_norm": 0,
			"has_biases": 1,
			"n_groups": 1,
			"n_parallel": 1,
			"name": "stem/MobilenetV3/Bottleneck_4/compress/Conv2Dx",
			"pad_b": 0,
			"pad_fill_mode": 0,
			"pad_l": 0,
			"pad_mode": 1,
			"pad_r": 0,
			"pad_t": 0,
			"pad_value": 0,
			"top": "batch_norm_59",
			"type": "convolution",
			"weights": {
				"W_U8": 117,
				"per_ch_qbias": 119,
				"per_ch_qscale": 121
			}
		},
		{
			"C": 184,
			"K": 64,
			"Nx": 1,
			"Ny": 1,
			"blob_biases": 123,
			"bottom": "batch_norm_59",
			"debug_info": "stem/MobilenetV3/Bottleneck_5/expand/Conv2Dx",
			"fused_relu": 1,
			"fused_tanh": 0,
			"has_batch_norm": 0,
			"has_biases": 1,
			"n_groups": 1,
			"n_parallel": 1,
			"name": "stem/MobilenetV3/Bottleneck_5/expand/Conv2Dx",
			"pad_b": 0,
			"pad_fill_mode": 0,
			"pad_l": 0,
			"pad_mode": 1,
			"pad_r": 0,
			"pad_t": 0,
			"pad_value": 0,
			"top": "stem/MobilenetV3/Bottleneck_5/expand/Relu",
			"type": "convolution",
			"weights": {
				"W_U8": 125,
				"per_ch_qbias": 127,
				"per_ch_qscale": 129
			}
		},
		{
			"C": 184,
			"K": 184,
			"Nx": 5,
			"Ny": 5,
			"blob_biases": 131,
			"bottom": "stem/MobilenetV3/Bottleneck_5/expand/Relu",
			"debug_info": "stem/MobilenetV3/Bottleneck_5/depthwise/depthwisex",
			"fused_relu": 0,
			"fused_tanh": 0,
			"has_batch_norm": 0,
			"has_biases": 1,
			"n_groups": 184,
			"n_parallel": 1,
			"name": "stem/MobilenetV3/Bottleneck_5/depthwise/depthwisex",
			"pad_b": 0,
			"pad_fill_mode": 0,
			"pad_l": 0,
			"pad_mode": 1,
			"pad_r": 0,
			"pad_t": 0,
			"pad_value": 0,
			"top": "batch_norm_61",
			"type": "convolution",
			"weights": {
				"W_U8": 133,
				"per_ch_qbias": 135,
				"per_ch_qscale": 137
			}
		},
		{
			"bottom": "batch_norm_61",
			"debug_info": "stem/MobilenetV3/Bottleneck_5/gap/Mean/pad",
			"name": "stem/MobilenetV3/Bottleneck_5/gap/Mean/pad",
			"pad_b": 0,
			"pad_fill_mode": 0,
			"pad_l": 3,
			"pad_pad_mode": 0,
			"pad_r": 0,
			"pad_t": 3,
			"pad_value": 0,
			"top": "stem/MobilenetV3/Bottleneck_5/gap/Mean/pad",
			"type": "general_padding",
			"weights": {}
		},
		{
			"bottom": "",
			"constant_blob": 139,
			"debug_info": "stem/MobilenetV3/Bottleneck_5/gap/Mean/scale",
			"h": 1,
			"k": 1,
			"n": 1,
			"name": "stem/MobilenetV3/Bottleneck_5/gap/Mean/scale_constant_in_scale",
			"top": "stem/MobilenetV3/Bottleneck_5/gap/Mean/scale_constant_in_scale",
			"type": "load_constant",
			"w": 1,
			"weights": {}
		},
		{
			"alpha": 1,
			"beta": 0,
			"bottom": "stem/MobilenetV3/Bottleneck_5/gap/Mean/pad,stem/MobilenetV3/Bottleneck_5/gap/Mean/scale_constant_in_scale",
			"debug_info": "stem/MobilenetV3/Bottleneck_5/gap/Mean/scale",
			"fused_relu": 0,
			"name": "stem/MobilenetV3/Bottleneck_5/gap/Mean/scale",
			"operation": 1,
			"top": "stem/MobilenetV3/Bottleneck_5/gap/Mean/scale",
			"type": "elementwise",
			"weights": {}
		},
		{
			"average_count_exclude_padding": 1,
			"avg_or_max": 0,
			"bottom": "stem/MobilenetV3/Bottleneck_5/gap/Mean/scale",
			"debug_info": "stem/MobilenetV3/Bottleneck_5/gap/Mean",
			"is_global": 1,
			"name": "stem/MobilenetV3/Bottleneck_5/gap/Mean",
			"pad_b": 0,
			"pad_fill_mode": 0,
			"pad_l": 0,
			"pad_mode": 2,
			"pad_r": 0,
			"pad_t": 0,
			"pad_value": 0,
			"size_x": 48,
			"size_y": 48,
			"stride_x": 1,
			"stride_y": 1,
			"top": "stem/MobilenetV3/Bottleneck_5/gap/Mean",
			"top_shape_style": 0,
			"type": "pool",
			"weights": {}
		},
		{
			"C": 46,
			"K": 184,
			"Nx": 1,
			"Ny": 1,
			"blob_biases": 141,
			"bottom": "stem/MobilenetV3/Bottleneck_5/gap/Mean",
			"debug_info": "stem/MobilenetV3/Bottleneck_5/Bottleneck_5/Conv/BiasAdd",
			"fused_relu": 1,
			"fused_tanh": 0,
			"has_batch_norm": 0,
			"has_biases": 1,
			"n_groups": 1,
			"n_parallel": 1,
			"name": "stem/MobilenetV3/Bottleneck_5/Bottleneck_5/Conv/BiasAdd",
			"pad_b": 0,
			"pad_fill_mode": 0,
			"pad_l": 0,
			"pad_mode": 0,
			"pad_r": 0,
			"pad_t": 0,
			"pad_value": 0,
			"top": "stem/MobilenetV3/Bottleneck_5/Bottleneck_5/Conv/Relu",
			"type": "convolution",
			"weights": {
				"W_U8": 143,
				"per_ch_qbias": 145,
				"per_ch_qscale": 147
			}
		},
		{
			"C": 184,
			"K": 46,
			"Nx": 1,
			"Ny": 1,
			"blob_biases": 149,
			"bottom": "stem/MobilenetV3/Bottleneck_5/Bottleneck_5/Conv/Relu",
			"debug_info": "stem/MobilenetV3/Bottleneck_5/Bottleneck_5_1/Conv_1/add",
			"fused_relu": 1,
			"fused_tanh": 0,
			"has_batch_norm": 0,
			"has_biases": 1,
			"n_groups": 1,
			"n_parallel": 1,
			"name": "stem/MobilenetV3/Bottleneck_5/Bottleneck_5_1/Conv_1/add",
			"pad_b": 0,
			"pad_fill_mode": 0,
			"pad_l": 0,
			"pad_mode": 0,
			"pad_r": 0,
			"pad_t": 0,
			"pad_value": 0,
			"top": "stem/MobilenetV3/Bottleneck_5/Bottleneck_5_1/Conv_1/Relu6__relu6_relu__",
			"type": "convolution",
			"weights": {
				"W_U8": 151,
				"per_ch_qbias": 153,
				"per_ch_qscale": 155
			}
		},
		{
			"alpha": -1,
			"beta": 0,
			"bottom": "stem/MobilenetV3/Bottleneck_5/Bottleneck_5_1/Conv_1/Relu6__relu6_relu__",
			"debug_info": "stem/MobilenetV3/Bottleneck_5/Bottleneck_5_1/Conv_1/Relu6__relu6_neg__",
			"mode": 6,
			"name": "stem/MobilenetV3/Bottleneck_5/Bottleneck_5_1/Conv_1/Relu6__relu6_neg__",
			"top": "stem/MobilenetV3/Bottleneck_5/Bottleneck_5_1/Conv_1/Relu6__relu6_neg__",
			"type": "activation",
			"weights": {}
		},
		{
			"alpha": -6,
			"beta": 0,
			"bottom": "stem/MobilenetV3/Bottleneck_5/Bottleneck_5_1/Conv_1/Relu6__relu6_neg__",
			"debug_info": "stem/MobilenetV3/Bottleneck_5/Bottleneck_5_1/Conv_1/Relu6__relu6_threshold6__",
			"fused_relu": 0,
			"name": "stem/MobilenetV3/Bottleneck_5/Bottleneck_5_1/Conv_1/Relu6__relu6_threshold6__",
			"operation": 25,
			"top": "stem/MobilenetV3/Bottleneck_5/Bottleneck_5_1/Conv_1/Relu6__relu6_threshold6__",
			"type": "elementwise",
			"weights": {}
		},
		{
			"alpha": -1,
			"beta": 0,
			"bottom": "stem/MobilenetV3/Bottleneck_5/Bottleneck_5_1/Conv_1/Relu6__relu6_threshold6__",
			"debug_info": "stem/MobilenetV3/Bottleneck_5/Bottleneck_5_1/Conv_1/Relu6",
			"mode": 6,
			"name": "stem/MobilenetV3/Bottleneck_5/Bottleneck_5_1/Conv_1/Relu6",
			"top": "stem/MobilenetV3/Bottleneck_5/Bottleneck_5_1/Conv_1/Relu6",
			"type": "activation",
			"weights": {}
		},
		{
			"alpha": 0.1666666716337204,
			"beta": 0,
			"bottom": "stem/MobilenetV3/Bottleneck_5/Bottleneck_5_1/Conv_1/Relu6",
			"debug_info": "stem/MobilenetV3/Bottleneck_5/Bottleneck_5_1/Conv_1/mul",
			"fused_relu": 0,
			"name": "stem/MobilenetV3/Bottleneck_5/Bottleneck_5_1/Conv_1/mul",
			"operation": 1,
			"top": "stem/MobilenetV3/Bottleneck_5/Bottleneck_5_1/Conv_1/mul",
			"type": "elementwise",
			"weights": {}
		},
		{
			"alpha": 1,
			"beta": 0,
			"bottom": "batch_norm_61,stem/MobilenetV3/Bottleneck_5/Bottleneck_5_1/Conv_1/mul",
			"debug_info": "stem/MobilenetV3/Bottleneck_5/mul",
			"fused_relu": 0,
			"name": "stem/MobilenetV3/Bottleneck_5/mul",
			"nd_mode": true,
			"operation": 1,
			"top": "stem/MobilenetV3/Bottleneck_5/mul",
			"type": "elementwise",
			"weights": {}
		},
		{
			"bottom": "stem/MobilenetV3/Bottleneck_5/mul",
			"debug_info": "stem/MobilenetV3/Bottleneck_5/Relu",
			"mode": 0,
			"name": "stem/MobilenetV3/Bottleneck_5/Relu",
			"top": "stem/MobilenetV3/Bottleneck_5/Relu",
			"type": "activation",
			"weights": {}
		},
		{
			"C": 64,
			"K": 184,
			"Nx": 1,
			"Ny": 1,
			"blob_biases": 157,
			"bottom": "stem/MobilenetV3/Bottleneck_5/Relu",
			"debug_info": "stem/MobilenetV3/Bottleneck_5/compress/Conv2Dx",
			"fused_relu": 0,
			"fused_tanh": 0,
			"has_batch_norm": 0,
			"has_biases": 1,
			"n_groups": 1,
			"n_parallel": 1,
			"name": "stem/MobilenetV3/Bottleneck_5/compress/Conv2Dx",
			"pad_b": 0,
			"pad_fill_mode": 0,
			"pad_l": 0,
			"pad_mode": 1,
			"pad_r": 0,
			"pad_t": 0,
			"pad_value": 0,
			"top": "batch_norm_62",
			"type": "convolution",
			"weights": {
				"W_U8": 159,
				"per_ch_qbias": 161,
				"per_ch_qscale": 163
			}
		},
		{
			"alpha": 1,
			"beta": 0,
			"bottom": "batch_norm_62,batch_norm_59",
			"debug_info": "stem/MobilenetV3/Bottleneck_5/add",
			"fused_relu": 0,
			"name": "stem/MobilenetV3/Bottleneck_5/add",
			"nd_mode": true,
			"operation": 0,
			"top": "stem/MobilenetV3/Bottleneck_5/add",
			"type": "elementwise",
			"weights": {}
		},
		{
			"C": 184,
			"K": 64,
			"Nx": 1,
			"Ny": 1,
			"blob_biases": 165,
			"bottom": "stem/MobilenetV3/Bottleneck_5/add",
			"debug_info": "stem/MobilenetV3/Bottleneck_6/expand/Conv2Dx",
			"fused_relu": 1,
			"fused_tanh": 0,
			"has_batch_norm": 0,
			"has_biases": 1,
			"n_groups": 1,
			"n_parallel": 1,
			"name": "stem/MobilenetV3/Bottleneck_6/expand/Conv2Dx",
			"pad_b": 0,
			"pad_fill_mode": 0,
			"pad_l": 0,
			"pad_mode": 1,
			"pad_r": 0,
			"pad_t": 0,
			"pad_value": 0,
			"top": "stem/MobilenetV3/Bottleneck_6/expand/Relu",
			"type": "convolution",
			"weights": {
				"W_U8": 167,
				"per_ch_qbias": 169,
				"per_ch_qscale": 171
			}
		},
		{
			"C": 184,
			"K": 184,
			"Nx": 5,
			"Ny": 5,
			"blob_biases": 173,
			"bottom": "stem/MobilenetV3/Bottleneck_6/expand/Relu",
			"debug_info": "stem/MobilenetV3/Bottleneck_6/depthwise/depthwisex",
			"fused_relu": 0,
			"fused_tanh": 0,
			"has_batch_norm": 0,
			"has_biases": 1,
			"n_groups": 184,
			"n_parallel": 1,
			"name": "stem/MobilenetV3/Bottleneck_6/depthwise/depthwisex",
			"pad_b": 0,
			"pad_fill_mode": 0,
			"pad_l": 0,
			"pad_mode": 1,
			"pad_r": 0,
			"pad_t": 0,
			"pad_value": 0,
			"top": "batch_norm_64",
			"type": "convolution",
			"weights": {
				"W_U8": 175,
				"per_ch_qbias": 177,
				"per_ch_qscale": 179
			}
		},
		{
			"bottom": "batch_norm_64",
			"debug_info": "stem/MobilenetV3/Bottleneck_6/gap/Mean/pad",
			"name": "stem/MobilenetV3/Bottleneck_6/gap/Mean/pad",
			"pad_b": 0,
			"pad_fill_mode": 0,
			"pad_l": 3,
			"pad_pad_mode": 0,
			"pad_r": 0,
			"pad_t": 3,
			"pad_value": 0,
			"top": "stem/MobilenetV3/Bottleneck_6/gap/Mean/pad",
			"type": "general_padding",
			"weights": {}
		},
		{
			"bottom": "",
			"constant_blob": 181,
			"debug_info": "stem/MobilenetV3/Bottleneck_6/gap/Mean/scale",
			"h": 1,
			"k": 1,
			"n": 1,
			"name": "stem/MobilenetV3/Bottleneck_6/gap/Mean/scale_constant_in_scale",
			"top": "stem/MobilenetV3/Bottleneck_6/gap/Mean/scale_constant_in_scale",
			"type": "load_constant",
			"w": 1,
			"weights": {}
		},
		{
			"alpha": 1,
			"beta": 0,
			"bottom": "stem/MobilenetV3/Bottleneck_6/gap/Mean/pad,stem/MobilenetV3/Bottleneck_6/gap/Mean/scale_constant_in_scale",
			"debug_info": "stem/MobilenetV3/Bottleneck_6/gap/Mean/scale",
			"fused_relu": 0,
			"name": "stem/MobilenetV3/Bottleneck_6/gap/Mean/scale",
			"operation": 1,
			"top": "stem/MobilenetV3/Bottleneck_6/gap/Mean/scale",
			"type": "elementwise",
			"weights": {}
		},
		{
			"average_count_exclude_padding": 1,
			"avg_or_max": 0,
			"bottom": "stem/MobilenetV3/Bottleneck_6/gap/Mean/scale",
			"debug_info": "stem/MobilenetV3/Bottleneck_6/gap/Mean",
			"is_global": 1,
			"name": "stem/MobilenetV3/Bottleneck_6/gap/Mean",
			"pad_b": 0,
			"pad_fill_mode": 0,
			"pad_l": 0,
			"pad_mode": 2,
			"pad_r": 0,
			"pad_t": 0,
			"pad_value": 0,
			"size_x": 48,
			"size_y": 48,
			"stride_x": 1,
			"stride_y": 1,
			"top": "stem/MobilenetV3/Bottleneck_6/gap/Mean",
			"top_shape_style": 0,
			"type": "pool",
			"weights": {}
		},
		{
			"C": 46,
			"K": 184,
			"Nx": 1,
			"Ny": 1,
			"blob_biases": 183,
			"bottom": "stem/MobilenetV3/Bottleneck_6/gap/Mean",
			"debug_info": "stem/MobilenetV3/Bottleneck_6/Bottleneck_6/Conv/BiasAdd",
			"fused_relu": 1,
			"fused_tanh": 0,
			"has_batch_norm": 0,
			"has_biases": 1,
			"n_groups": 1,
			"n_parallel": 1,
			"name": "stem/MobilenetV3/Bottleneck_6/Bottleneck_6/Conv/BiasAdd",
			"pad_b": 0,
			"pad_fill_mode": 0,
			"pad_l": 0,
			"pad_mode": 0,
			"pad_r": 0,
			"pad_t": 0,
			"pad_value": 0,
			"top": "stem/MobilenetV3/Bottleneck_6/Bottleneck_6/Conv/Relu",
			"type": "convolution",
			"weights": {
				"W_U8": 185,
				"per_ch_qbias": 187,
				"per_ch_qscale": 189
			}
		},
		{
			"C": 184,
			"K": 46,
			"Nx": 1,
			"Ny": 1,
			"blob_biases": 191,
			"bottom": "stem/MobilenetV3/Bottleneck_6/Bottleneck_6/Conv/Relu",
			"debug_info": "stem/MobilenetV3/Bottleneck_6/Bottleneck_6_1/Conv_1/add",
			"fused_relu": 1,
			"fused_tanh": 0,
			"has_batch_norm": 0,
			"has_biases": 1,
			"n_groups": 1,
			"n_parallel": 1,
			"name": "stem/MobilenetV3/Bottleneck_6/Bottleneck_6_1/Conv_1/add",
			"pad_b": 0,
			"pad_fill_mode": 0,
			"pad_l": 0,
			"pad_mode": 0,
			"pad_r": 0,
			"pad_t": 0,
			"pad_value": 0,
			"top": "stem/MobilenetV3/Bottleneck_6/Bottleneck_6_1/Conv_1/Relu6__relu6_relu__",
			"type": "convolution",
			"weights": {
				"W_U8": 193,
				"per_ch_qbias": 195,
				"per_ch_qscale": 197
			}
		},
		{
			"alpha": -1,
			"beta": 0,
			"bottom": "stem/MobilenetV3/Bottleneck_6/Bottleneck_6_1/Conv_1/Relu6__relu6_relu__",
			"debug_info": "stem/MobilenetV3/Bottleneck_6/Bottleneck_6_1/Conv_1/Relu6__relu6_neg__",
			"mode": 6,
			"name": "stem/MobilenetV3/Bottleneck_6/Bottleneck_6_1/Conv_1/Relu6__relu6_neg__",
			"top": "stem/MobilenetV3/Bottleneck_6/Bottleneck_6_1/Conv_1/Relu6__relu6_neg__",
			"type": "activation",
			"weights": {}
		},
		{
			"alpha": -6,
			"beta": 0,
			"bottom": "stem/MobilenetV3/Bottleneck_6/Bottleneck_6_1/Conv_1/Relu6__relu6_neg__",
			"debug_info": "stem/MobilenetV3/Bottleneck_6/Bottleneck_6_1/Conv_1/Relu6__relu6_threshold6__",
			"fused_relu": 0,
			"name": "stem/MobilenetV3/Bottleneck_6/Bottleneck_6_1/Conv_1/Relu6__relu6_threshold6__",
			"operation": 25,
			"top": "stem/MobilenetV3/Bottleneck_6/Bottleneck_6_1/Conv_1/Relu6__relu6_threshold6__",
			"type": "elementwise",
			"weights": {}
		},
		{
			"alpha": -1,
			"beta": 0,
			"bottom": "stem/MobilenetV3/Bottleneck_6/Bottleneck_6_1/Conv_1/Relu6__relu6_threshold6__",
			"debug_info": "stem/MobilenetV3/Bottleneck_6/Bottleneck_6_1/Conv_1/Relu6",
			"mode": 6,
			"name": "stem/MobilenetV3/Bottleneck_6/Bottleneck_6_1/Conv_1/Relu6",
			"top": "stem/MobilenetV3/Bottleneck_6/Bottleneck_6_1/Conv_1/Relu6",
			"type": "activation",
			"weights": {}
		},
		{
			"alpha": 0.1666666716337204,
			"beta": 0,
			"bottom": "stem/MobilenetV3/Bottleneck_6/Bottleneck_6_1/Conv_1/Relu6",
			"debug_info": "stem/MobilenetV3/Bottleneck_6/Bottleneck_6_1/Conv_1/mul",
			"fused_relu": 0,
			"name": "stem/MobilenetV3/Bottleneck_6/Bottleneck_6_1/Conv_1/mul",
			"operation": 1,
			"top": "stem/MobilenetV3/Bottleneck_6/Bottleneck_6_1/Conv_1/mul",
			"type": "elementwise",
			"weights": {}
		},
		{
			"alpha": 1,
			"beta": 0,
			"bottom": "batch_norm_64,stem/MobilenetV3/Bottleneck_6/Bottleneck_6_1/Conv_1/mul",
			"debug_info": "stem/MobilenetV3/Bottleneck_6/mul",
			"fused_relu": 0,
			"name": "stem/MobilenetV3/Bottleneck_6/mul",
			"nd_mode": true,
			"operation": 1,
			"top": "stem/MobilenetV3/Bottleneck_6/mul",
			"type": "elementwise",
			"weights": {}
		},
		{
			"bottom": "stem/MobilenetV3/Bottleneck_6/mul",
			"debug_info": "stem/MobilenetV3/Bottleneck_6/Relu",
			"mode": 0,
			"name": "stem/MobilenetV3/Bottleneck_6/Relu",
			"top": "stem/MobilenetV3/Bottleneck_6/Relu",
			"type": "activation",
			"weights": {}
		},
		{
			"C": 64,
			"K": 184,
			"Nx": 1,
			"Ny": 1,
			"blob_biases": 199,
			"bottom": "stem/MobilenetV3/Bottleneck_6/Relu",
			"debug_info": "stem/MobilenetV3/Bottleneck_6/compress/Conv2Dx",
			"fused_relu": 0,
			"fused_tanh": 0,
			"has_batch_norm": 0,
			"has_biases": 1,
			"n_groups": 1,
			"n_parallel": 1,
			"name": "stem/MobilenetV3/Bottleneck_6/compress/Conv2Dx",
			"pad_b": 0,
			"pad_fill_mode": 0,
			"pad_l": 0,
			"pad_mode": 1,
			"pad_r": 0,
			"pad_t": 0,
			"pad_value": 0,
			"top": "batch_norm_65",
			"type": "convolution",
			"weights": {
				"W_U8": 201,
				"per_ch_qbias": 203,
				"per_ch_qscale": 205
			}
		},
		{
			"alpha": 1,
			"beta": 0,
			"bottom": "batch_norm_65,stem/MobilenetV3/Bottleneck_5/add",
			"debug_info": "stem/MobilenetV3/Bottleneck_6/add",
			"fused_relu": 0,
			"name": "stem/MobilenetV3/Bottleneck_6/add",
			"nd_mode": true,
			"operation": 0,
			"top": "stem/MobilenetV3/Bottleneck_6/add",
			"type": "elementwise",
			"weights": {}
		},
		{
			"C": 360,
			"K": 64,
			"Nx": 1,
			"Ny": 1,
			"blob_biases": 207,
			"bottom": "stem/MobilenetV3/Bottleneck_6/add",
			"debug_info": "stem/MobilenetV3/Bottleneck_7/expand/Conv2Dx",
			"fused_relu": 0,
			"fused_tanh": 0,
			"has_batch_norm": 0,
			"has_biases": 1,
			"n_groups": 1,
			"n_parallel": 1,
			"name": "stem/MobilenetV3/Bottleneck_7/expand/Conv2Dx",
			"pad_b": 0,
			"pad_fill_mode": 0,
			"pad_l": 0,
			"pad_mode": 1,
			"pad_r": 0,
			"pad_t": 0,
			"pad_value": 0,
			"top": "batch_norm_66",
			"type": "convolution",
			"weights": {
				"W_U8": 209,
				"per_ch_qbias": 211,
				"per_ch_qscale": 213
			}
		},
		{
			"alpha": 3,
			"beta": 0,
			"bottom": "batch_norm_66",
			"debug_info": "stem/MobilenetV3/Bottleneck_7/expand/add",
			"fused_relu": 0,
			"name": "stem/MobilenetV3/Bottleneck_7/expand/add",
			"operation": 0,
			"top": "stem/MobilenetV3/Bottleneck_7/expand/add",
			"type": "elementwise",
			"weights": {}
		},
		{
			"bottom": "stem/MobilenetV3/Bottleneck_7/expand/add",
			"debug_info": "stem/MobilenetV3/Bottleneck_7/expand/Relu6__relu6_relu__",
			"mode": 0,
			"name": "stem/MobilenetV3/Bottleneck_7/expand/Relu6__relu6_relu__",
			"top": "stem/MobilenetV3/Bottleneck_7/expand/Relu6__relu6_relu__",
			"type": "activation",
			"weights": {}
		},
		{
			"alpha": -1,
			"beta": 0,
			"bottom": "stem/MobilenetV3/Bottleneck_7/expand/Relu6__relu6_relu__",
			"debug_info": "stem/MobilenetV3/Bottleneck_7/expand/Relu6__relu6_neg__",
			"mode": 6,
			"name": "stem/MobilenetV3/Bottleneck_7/expand/Relu6__relu6_neg__",
			"top": "stem/MobilenetV3/Bottleneck_7/expand/Relu6__relu6_neg__",
			"type": "activation",
			"weights": {}
		},
		{
			"alpha": -6,
			"beta": 0,
			"bottom": "stem/MobilenetV3/Bottleneck_7/expand/Relu6__relu6_neg__",
			"debug_info": "stem/MobilenetV3/Bottleneck_7/expand/Relu6__relu6_threshold6__",
			"fused_relu": 0,
			"name": "stem/MobilenetV3/Bottleneck_7/expand/Relu6__relu6_threshold6__",
			"operation": 25,
			"top": "stem/MobilenetV3/Bottleneck_7/expand/Relu6__relu6_threshold6__",
			"type": "elementwise",
			"weights": {}
		},
		{
			"alpha": -1,
			"beta": 0,
			"bottom": "stem/MobilenetV3/Bottleneck_7/expand/Relu6__relu6_threshold6__",
			"debug_info": "stem/MobilenetV3/Bottleneck_7/expand/Relu6",
			"mode": 6,
			"name": "stem/MobilenetV3/Bottleneck_7/expand/Relu6",
			"top": "stem/MobilenetV3/Bottleneck_7/expand/Relu6",
			"type": "activation",
			"weights": {}
		},
		{
			"alpha": 0.1666666716337204,
			"beta": 0,
			"bottom": "stem/MobilenetV3/Bottleneck_7/expand/Relu6",
			"debug_info": "stem/MobilenetV3/Bottleneck_7/expand/mul",
			"fused_relu": 0,
			"name": "stem/MobilenetV3/Bottleneck_7/expand/mul",
			"operation": 1,
			"top": "stem/MobilenetV3/Bottleneck_7/expand/mul",
			"type": "elementwise",
			"weights": {}
		},
		{
			"alpha": 1,
			"beta": 0,
			"bottom": "batch_norm_66,stem/MobilenetV3/Bottleneck_7/expand/mul",
			"debug_info": "stem/MobilenetV3/Bottleneck_7/expand/mul_1",
			"fused_relu": 0,
			"name": "stem/MobilenetV3/Bottleneck_7/expand/mul_1",
			"operation": 1,
			"top": "stem/MobilenetV3/Bottleneck_7/expand/mul_1",
			"type": "elementwise",
			"weights": {}
		},
		{
			"C": 360,
			"K": 360,
			"Nx": 3,
			"Ny": 3,
			"blob_biases": 215,
			"bottom": "stem/MobilenetV3/Bottleneck_7/expand/mul_1",
			"debug_info": "stem/MobilenetV3/Bottleneck_7/depthwise/depthwisex",
			"fused_relu": 0,
			"fused_tanh": 0,
			"has_batch_norm": 0,
			"has_biases": 1,
			"n_groups": 360,
			"n_parallel": 1,
			"name": "stem/MobilenetV3/Bottleneck_7/depthwise/depthwisex",
			"pad_b": 0,
			"pad_fill_mode": 0,
			"pad_l": 0,
			"pad_mode": 1,
			"pad_r": 0,
			"pad_t": 0,
			"pad_value": 0,
			"stride_x": 2,
			"stride_y": 2,
			"top": "batch_norm_67",
			"type": "convolution",
			"weights": {
				"W_U8": 217,
				"per_ch_qbias": 219,
				"per_ch_qscale": 221
			}
		},
		{
			"alpha": 3,
			"beta": 0,
			"bottom": "batch_norm_67",
			"debug_info": "stem/MobilenetV3/Bottleneck_7/add",
			"fused_relu": 0,
			"name": "stem/MobilenetV3/Bottleneck_7/add",
			"operation": 0,
			"top": "stem/MobilenetV3/Bottleneck_7/add",
			"type": "elementwise",
			"weights": {}
		},
		{
			"bottom": "stem/MobilenetV3/Bottleneck_7/add",
			"debug_info": "stem/MobilenetV3/Bottleneck_7/Relu6__relu6_relu__",
			"mode": 0,
			"name": "stem/MobilenetV3/Bottleneck_7/Relu6__relu6_relu__",
			"top": "stem/MobilenetV3/Bottleneck_7/Relu6__relu6_relu__",
			"type": "activation",
			"weights": {}
		},
		{
			"alpha": -1,
			"beta": 0,
			"bottom": "stem/MobilenetV3/Bottleneck_7/Relu6__relu6_relu__",
			"debug_info": "stem/MobilenetV3/Bottleneck_7/Relu6__relu6_neg__",
			"mode": 6,
			"name": "stem/MobilenetV3/Bottleneck_7/Relu6__relu6_neg__",
			"top": "stem/MobilenetV3/Bottleneck_7/Relu6__relu6_neg__",
			"type": "activation",
			"weights": {}
		},
		{
			"alpha": -6,
			"beta": 0,
			"bottom": "stem/MobilenetV3/Bottleneck_7/Relu6__relu6_neg__",
			"debug_info": "stem/MobilenetV3/Bottleneck_7/Relu6__relu6_threshold6__",
			"fused_relu": 0,
			"name": "stem/MobilenetV3/Bottleneck_7/Relu6__relu6_threshold6__",
			"operation": 25,
			"top": "stem/MobilenetV3/Bottleneck_7/Relu6__relu6_threshold6__",
			"type": "elementwise",
			"weights": {}
		},
		{
			"alpha": -1,
			"beta": 0,
			"bottom": "stem/MobilenetV3/Bottleneck_7/Relu6__relu6_threshold6__",
			"debug_info": "stem/MobilenetV3/Bottleneck_7/Relu6",
			"mode": 6,
			"name": "stem/MobilenetV3/Bottleneck_7/Relu6",
			"top": "stem/MobilenetV3/Bottleneck_7/Relu6",
			"type": "activation",
			"weights": {}
		},
		{
			"alpha": 0.1666666716337204,
			"beta": 0,
			"bottom": "stem/MobilenetV3/Bottleneck_7/Relu6",
			"debug_info": "stem/MobilenetV3/Bottleneck_7/mul",
			"fused_relu": 0,
			"name": "stem/MobilenetV3/Bottleneck_7/mul",
			"operation": 1,
			"top": "stem/MobilenetV3/Bottleneck_7/mul",
			"type": "elementwise",
			"weights": {}
		},
		{
			"alpha": 1,
			"beta": 0,
			"bottom": "batch_norm_67,stem/MobilenetV3/Bottleneck_7/mul",
			"debug_info": "stem/MobilenetV3/Bottleneck_7/mul_1",
			"fused_relu": 0,
			"name": "stem/MobilenetV3/Bottleneck_7/mul_1",
			"operation": 1,
			"top": "stem/MobilenetV3/Bottleneck_7/mul_1",
			"type": "elementwise",
			"weights": {}
		},
		{
			"C": 120,
			"K": 360,
			"Nx": 1,
			"Ny": 1,
			"blob_biases": 223,
			"bottom": "stem/MobilenetV3/Bottleneck_7/mul_1",
			"debug_info": "stem/MobilenetV3/Bottleneck_7/compress/Conv2Dx",
			"fused_relu": 0,
			"fused_tanh": 0,
			"has_batch_norm": 0,
			"has_biases": 1,
			"n_groups": 1,
			"n_parallel": 1,
			"name": "stem/MobilenetV3/Bottleneck_7/compress/Conv2Dx",
			"pad_b": 0,
			"pad_fill_mode": 0,
			"pad_l": 0,
			"pad_mode": 1,
			"pad_r": 0,
			"pad_t": 0,
			"pad_value": 0,
			"top": "batch_norm_68",
			"type": "convolution",
			"weights": {
				"W_U8": 225,
				"per_ch_qbias": 227,
				"per_ch_qscale": 229
			}
		},
		{
			"C": 304,
			"K": 120,
			"Nx": 1,
			"Ny": 1,
			"blob_biases": 231,
			"bottom": "batch_norm_68",
			"debug_info": "stem/MobilenetV3/Bottleneck_8/expand/Conv2Dx",
			"fused_relu": 0,
			"fused_tanh": 0,
			"has_batch_norm": 0,
			"has_biases": 1,
			"n_groups": 1,
			"n_parallel": 1,
			"name": "stem/MobilenetV3/Bottleneck_8/expand/Conv2Dx",
			"pad_b": 0,
			"pad_fill_mode": 0,
			"pad_l": 0,
			"pad_mode": 1,
			"pad_r": 0,
			"pad_t": 0,
			"pad_value": 0,
			"top": "batch_norm_69",
			"type": "convolution",
			"weights": {
				"W_U8": 233,
				"per_ch_qbias": 235,
				"per_ch_qscale": 237
			}
		},
		{
			"alpha": 3,
			"beta": 0,
			"bottom": "batch_norm_69",
			"debug_info": "stem/MobilenetV3/Bottleneck_8/expand/add",
			"fused_relu": 0,
			"name": "stem/MobilenetV3/Bottleneck_8/expand/add",
			"operation": 0,
			"top": "stem/MobilenetV3/Bottleneck_8/expand/add",
			"type": "elementwise",
			"weights": {}
		},
		{
			"bottom": "stem/MobilenetV3/Bottleneck_8/expand/add",
			"debug_info": "stem/MobilenetV3/Bottleneck_8/expand/Relu6__relu6_relu__",
			"mode": 0,
			"name": "stem/MobilenetV3/Bottleneck_8/expand/Relu6__relu6_relu__",
			"top": "stem/MobilenetV3/Bottleneck_8/expand/Relu6__relu6_relu__",
			"type": "activation",
			"weights": {}
		},
		{
			"alpha": -1,
			"beta": 0,
			"bottom": "stem/MobilenetV3/Bottleneck_8/expand/Relu6__relu6_relu__",
			"debug_info": "stem/MobilenetV3/Bottleneck_8/expand/Relu6__relu6_neg__",
			"mode": 6,
			"name": "stem/MobilenetV3/Bottleneck_8/expand/Relu6__relu6_neg__",
			"top": "stem/MobilenetV3/Bottleneck_8/expand/Relu6__relu6_neg__",
			"type": "activation",
			"weights": {}
		},
		{
			"alpha": -6,
			"beta": 0,
			"bottom": "stem/MobilenetV3/Bottleneck_8/expand/Relu6__relu6_neg__",
			"debug_info": "stem/MobilenetV3/Bottleneck_8/expand/Relu6__relu6_threshold6__",
			"fused_relu": 0,
			"name": "stem/MobilenetV3/Bottleneck_8/expand/Relu6__relu6_threshold6__",
			"operation": 25,
			"top": "stem/MobilenetV3/Bottleneck_8/expand/Relu6__relu6_threshold6__",
			"type": "elementwise",
			"weights": {}
		},
		{
			"alpha": -1,
			"beta": 0,
			"bottom": "stem/MobilenetV3/Bottleneck_8/expand/Relu6__relu6_threshold6__",
			"debug_info": "stem/MobilenetV3/Bottleneck_8/expand/Relu6",
			"mode": 6,
			"name": "stem/MobilenetV3/Bottleneck_8/expand/Relu6",
			"top": "stem/MobilenetV3/Bottleneck_8/expand/Relu6",
			"type": "activation",
			"weights": {}
		},
		{
			"alpha": 0.1666666716337204,
			"beta": 0,
			"bottom": "stem/MobilenetV3/Bottleneck_8/expand/Relu6",
			"debug_info": "stem/MobilenetV3/Bottleneck_8/expand/mul",
			"fused_relu": 0,
			"name": "stem/MobilenetV3/Bottleneck_8/expand/mul",
			"operation": 1,
			"top": "stem/MobilenetV3/Bottleneck_8/expand/mul",
			"type": "elementwise",
			"weights": {}
		},
		{
			"alpha": 1,
			"beta": 0,
			"bottom": "batch_norm_69,stem/MobilenetV3/Bottleneck_8/expand/mul",
			"debug_info": "stem/MobilenetV3/Bottleneck_8/expand/mul_1",
			"fused_relu": 0,
			"name": "stem/MobilenetV3/Bottleneck_8/expand/mul_1",
			"operation": 1,
			"top": "stem/MobilenetV3/Bottleneck_8/expand/mul_1",
			"type": "elementwise",
			"weights": {}
		},
		{
			"C": 304,
			"K": 304,
			"Nx": 3,
			"Ny": 3,
			"blob_biases": 239,
			"bottom": "stem/MobilenetV3/Bottleneck_8/expand/mul_1",
			"debug_info": "stem/MobilenetV3/Bottleneck_8/depthwise/depthwisex",
			"fused_relu": 0,
			"fused_tanh": 0,
			"has_batch_norm": 0,
			"has_biases": 1,
			"n_groups": 304,
			"n_parallel": 1,
			"name": "stem/MobilenetV3/Bottleneck_8/depthwise/depthwisex",
			"pad_b": 0,
			"pad_fill_mode": 0,
			"pad_l": 0,
			"pad_mode": 1,
			"pad_r": 0,
			"pad_t": 0,
			"pad_value": 0,
			"top": "batch_norm_70",
			"type": "convolution",
			"weights": {
				"W_U8": 241,
				"per_ch_qbias": 243,
				"per_ch_qscale": 245
			}
		},
		{
			"alpha": 3,
			"beta": 0,
			"bottom": "batch_norm_70",
			"debug_info": "stem/MobilenetV3/Bottleneck_8/add",
			"fused_relu": 0,
			"name": "stem/MobilenetV3/Bottleneck_8/add",
			"operation": 0,
			"top": "stem/MobilenetV3/Bottleneck_8/add",
			"type": "elementwise",
			"weights": {}
		},
		{
			"bottom": "stem/MobilenetV3/Bottleneck_8/add",
			"debug_info": "stem/MobilenetV3/Bottleneck_8/Relu6__relu6_relu__",
			"mode": 0,
			"name": "stem/MobilenetV3/Bottleneck_8/Relu6__relu6_relu__",
			"top": "stem/MobilenetV3/Bottleneck_8/Relu6__relu6_relu__",
			"type": "activation",
			"weights": {}
		},
		{
			"alpha": -1,
			"beta": 0,
			"bottom": "stem/MobilenetV3/Bottleneck_8/Relu6__relu6_relu__",
			"debug_info": "stem/MobilenetV3/Bottleneck_8/Relu6__relu6_neg__",
			"mode": 6,
			"name": "stem/MobilenetV3/Bottleneck_8/Relu6__relu6_neg__",
			"top": "stem/MobilenetV3/Bottleneck_8/Relu6__relu6_neg__",
			"type": "activation",
			"weights": {}
		},
		{
			"alpha": -6,
			"beta": 0,
			"bottom": "stem/MobilenetV3/Bottleneck_8/Relu6__relu6_neg__",
			"debug_info": "stem/MobilenetV3/Bottleneck_8/Relu6__relu6_threshold6__",
			"fused_relu": 0,
			"name": "stem/MobilenetV3/Bottleneck_8/Relu6__relu6_threshold6__",
			"operation": 25,
			"top": "stem/MobilenetV3/Bottleneck_8/Relu6__relu6_threshold6__",
			"type": "elementwise",
			"weights": {}
		},
		{
			"alpha": -1,
			"beta": 0,
			"bottom": "stem/MobilenetV3/Bottleneck_8/Relu6__relu6_threshold6__",
			"debug_info": "stem/MobilenetV3/Bottleneck_8/Relu6",
			"mode": 6,
			"name": "stem/MobilenetV3/Bottleneck_8/Relu6",
			"top": "stem/MobilenetV3/Bottleneck_8/Relu6",
			"type": "activation",
			"weights": {}
		},
		{
			"alpha": 0.1666666716337204,
			"beta": 0,
			"bottom": "stem/MobilenetV3/Bottleneck_8/Relu6",
			"debug_info": "stem/MobilenetV3/Bottleneck_8/mul",
			"fused_relu": 0,
			"name": "stem/MobilenetV3/Bottleneck_8/mul",
			"operation": 1,
			"top": "stem/MobilenetV3/Bottleneck_8/mul",
			"type": "elementwise",
			"weights": {}
		},
		{
			"alpha": 1,
			"beta": 0,
			"bottom": "batch_norm_70,stem/MobilenetV3/Bottleneck_8/mul",
			"debug_info": "stem/MobilenetV3/Bottleneck_8/mul_1",
			"fused_relu": 0,
			"name": "stem/MobilenetV3/Bottleneck_8/mul_1",
			"operation": 1,
			"top": "stem/MobilenetV3/Bottleneck_8/mul_1",
			"type": "elementwise",
			"weights": {}
		},
		{
			"C": 120,
			"K": 304,
			"Nx": 1,
			"Ny": 1,
			"blob_biases": 247,
			"bottom": "stem/MobilenetV3/Bottleneck_8/mul_1",
			"debug_info": "stem/MobilenetV3/Bottleneck_8/compress/Conv2Dx",
			"fused_relu": 0,
			"fused_tanh": 0,
			"has_batch_norm": 0,
			"has_biases": 1,
			"n_groups": 1,
			"n_parallel": 1,
			"name": "stem/MobilenetV3/Bottleneck_8/compress/Conv2Dx",
			"pad_b": 0,
			"pad_fill_mode": 0,
			"pad_l": 0,
			"pad_mode": 1,
			"pad_r": 0,
			"pad_t": 0,
			"pad_value": 0,
			"top": "batch_norm_71",
			"type": "convolution",
			"weights": {
				"W_U8": 249,
				"per_ch_qbias": 251,
				"per_ch_qscale": 253
			}
		},
		{
			"alpha": 1,
			"beta": 0,
			"bottom": "batch_norm_71,batch_norm_68",
			"debug_info": "stem/MobilenetV3/Bottleneck_8/add_1",
			"fused_relu": 0,
			"name": "stem/MobilenetV3/Bottleneck_8/add_1",
			"nd_mode": true,
			"operation": 0,
			"top": "stem/MobilenetV3/Bottleneck_8/add_1",
			"type": "elementwise",
			"weights": {}
		},
		{
			"C": 280,
			"K": 120,
			"Nx": 1,
			"Ny": 1,
			"blob_biases": 255,
			"bottom": "stem/MobilenetV3/Bottleneck_8/add_1",
			"debug_info": "stem/MobilenetV3/Bottleneck_9/expand/Conv2Dx",
			"fused_relu": 0,
			"fused_tanh": 0,
			"has_batch_norm": 0,
			"has_biases": 1,
			"n_groups": 1,
			"n_parallel": 1,
			"name": "stem/MobilenetV3/Bottleneck_9/expand/Conv2Dx",
			"pad_b": 0,
			"pad_fill_mode": 0,
			"pad_l": 0,
			"pad_mode": 1,
			"pad_r": 0,
			"pad_t": 0,
			"pad_value": 0,
			"top": "batch_norm_72",
			"type": "convolution",
			"weights": {
				"W_U8": 257,
				"per_ch_qbias": 259,
				"per_ch_qscale": 261
			}
		},
		{
			"alpha": 3,
			"beta": 0,
			"bottom": "batch_norm_72",
			"debug_info": "stem/MobilenetV3/Bottleneck_9/expand/add",
			"fused_relu": 0,
			"name": "stem/MobilenetV3/Bottleneck_9/expand/add",
			"operation": 0,
			"top": "stem/MobilenetV3/Bottleneck_9/expand/add",
			"type": "elementwise",
			"weights": {}
		},
		{
			"bottom": "stem/MobilenetV3/Bottleneck_9/expand/add",
			"debug_info": "stem/MobilenetV3/Bottleneck_9/expand/Relu6__relu6_relu__",
			"mode": 0,
			"name": "stem/MobilenetV3/Bottleneck_9/expand/Relu6__relu6_relu__",
			"top": "stem/MobilenetV3/Bottleneck_9/expand/Relu6__relu6_relu__",
			"type": "activation",
			"weights": {}
		},
		{
			"alpha": -1,
			"beta": 0,
			"bottom": "stem/MobilenetV3/Bottleneck_9/expand/Relu6__relu6_relu__",
			"debug_info": "stem/MobilenetV3/Bottleneck_9/expand/Relu6__relu6_neg__",
			"mode": 6,
			"name": "stem/MobilenetV3/Bottleneck_9/expand/Relu6__relu6_neg__",
			"top": "stem/MobilenetV3/Bottleneck_9/expand/Relu6__relu6_neg__",
			"type": "activation",
			"weights": {}
		},
		{
			"alpha": -6,
			"beta": 0,
			"bottom": "stem/MobilenetV3/Bottleneck_9/expand/Relu6__relu6_neg__",
			"debug_info": "stem/MobilenetV3/Bottleneck_9/expand/Relu6__relu6_threshold6__",
			"fused_relu": 0,
			"name": "stem/MobilenetV3/Bottleneck_9/expand/Relu6__relu6_threshold6__",
			"operation": 25,
			"top": "stem/MobilenetV3/Bottleneck_9/expand/Relu6__relu6_threshold6__",
			"type": "elementwise",
			"weights": {}
		},
		{
			"alpha": -1,
			"beta": 0,
			"bottom": "stem/MobilenetV3/Bottleneck_9/expand/Relu6__relu6_threshold6__",
			"debug_info": "stem/MobilenetV3/Bottleneck_9/expand/Relu6",
			"mode": 6,
			"name": "stem/MobilenetV3/Bottleneck_9/expand/Relu6",
			"top": "stem/MobilenetV3/Bottleneck_9/expand/Relu6",
			"type": "activation",
			"weights": {}
		},
		{
			"alpha": 0.1666666716337204,
			"beta": 0,
			"bottom": "stem/MobilenetV3/Bottleneck_9/expand/Relu6",
			"debug_info": "stem/MobilenetV3/Bottleneck_9/expand/mul",
			"fused_relu": 0,
			"name": "stem/MobilenetV3/Bottleneck_9/expand/mul",
			"operation": 1,
			"top": "stem/MobilenetV3/Bottleneck_9/expand/mul",
			"type": "elementwise",
			"weights": {}
		},
		{
			"alpha": 1,
			"beta": 0,
			"bottom": "batch_norm_72,stem/MobilenetV3/Bottleneck_9/expand/mul",
			"debug_info": "stem/MobilenetV3/Bottleneck_9/expand/mul_1",
			"fused_relu": 0,
			"name": "stem/MobilenetV3/Bottleneck_9/expand/mul_1",
			"operation": 1,
			"top": "stem/MobilenetV3/Bottleneck_9/expand/mul_1",
			"type": "elementwise",
			"weights": {}
		},
		{
			"C": 280,
			"K": 280,
			"Nx": 3,
			"Ny": 3,
			"blob_biases": 263,
			"bottom": "stem/MobilenetV3/Bottleneck_9/expand/mul_1",
			"debug_info": "stem/MobilenetV3/Bottleneck_9/depthwise/depthwisex",
			"fused_relu": 0,
			"fused_tanh": 0,
			"has_batch_norm": 0,
			"has_biases": 1,
			"n_groups": 280,
			"n_parallel": 1,
			"name": "stem/MobilenetV3/Bottleneck_9/depthwise/depthwisex",
			"pad_b": 0,
			"pad_fill_mode": 0,
			"pad_l": 0,
			"pad_mode": 1,
			"pad_r": 0,
			"pad_t": 0,
			"pad_value": 0,
			"top": "batch_norm_73",
			"type": "convolution",
			"weights": {
				"W_U8": 265,
				"per_ch_qbias": 267,
				"per_ch_qscale": 269
			}
		},
		{
			"alpha": 3,
			"beta": 0,
			"bottom": "batch_norm_73",
			"debug_info": "stem/MobilenetV3/Bottleneck_9/add",
			"fused_relu": 0,
			"name": "stem/MobilenetV3/Bottleneck_9/add",
			"operation": 0,
			"top": "stem/MobilenetV3/Bottleneck_9/add",
			"type": "elementwise",
			"weights": {}
		},
		{
			"bottom": "stem/MobilenetV3/Bottleneck_9/add",
			"debug_info": "stem/MobilenetV3/Bottleneck_9/Relu6__relu6_relu__",
			"mode": 0,
			"name": "stem/MobilenetV3/Bottleneck_9/Relu6__relu6_relu__",
			"top": "stem/MobilenetV3/Bottleneck_9/Relu6__relu6_relu__",
			"type": "activation",
			"weights": {}
		},
		{
			"alpha": -1,
			"beta": 0,
			"bottom": "stem/MobilenetV3/Bottleneck_9/Relu6__relu6_relu__",
			"debug_info": "stem/MobilenetV3/Bottleneck_9/Relu6__relu6_neg__",
			"mode": 6,
			"name": "stem/MobilenetV3/Bottleneck_9/Relu6__relu6_neg__",
			"top": "stem/MobilenetV3/Bottleneck_9/Relu6__relu6_neg__",
			"type": "activation",
			"weights": {}
		},
		{
			"alpha": -6,
			"beta": 0,
			"bottom": "stem/MobilenetV3/Bottleneck_9/Relu6__relu6_neg__",
			"debug_info": "stem/MobilenetV3/Bottleneck_9/Relu6__relu6_threshold6__",
			"fused_relu": 0,
			"name": "stem/MobilenetV3/Bottleneck_9/Relu6__relu6_threshold6__",
			"operation": 25,
			"top": "stem/MobilenetV3/Bottleneck_9/Relu6__relu6_threshold6__",
			"type": "elementwise",
			"weights": {}
		},
		{
			"alpha": -1,
			"beta": 0,
			"bottom": "stem/MobilenetV3/Bottleneck_9/Relu6__relu6_threshold6__",
			"debug_info": "stem/MobilenetV3/Bottleneck_9/Relu6",
			"mode": 6,
			"name": "stem/MobilenetV3/Bottleneck_9/Relu6",
			"top": "stem/MobilenetV3/Bottleneck_9/Relu6",
			"type": "activation",
			"weights": {}
		},
		{
			"alpha": 0.1666666716337204,
			"beta": 0,
			"bottom": "stem/MobilenetV3/Bottleneck_9/Relu6",
			"debug_info": "stem/MobilenetV3/Bottleneck_9/mul",
			"fused_relu": 0,
			"name": "stem/MobilenetV3/Bottleneck_9/mul",
			"operation": 1,
			"top": "stem/MobilenetV3/Bottleneck_9/mul",
			"type": "elementwise",
			"weights": {}
		},
		{
			"alpha": 1,
			"beta": 0,
			"bottom": "batch_norm_73,stem/MobilenetV3/Bottleneck_9/mul",
			"debug_info": "stem/MobilenetV3/Bottleneck_9/mul_1",
			"fused_relu": 0,
			"name": "stem/MobilenetV3/Bottleneck_9/mul_1",
			"operation": 1,
			"top": "stem/MobilenetV3/Bottleneck_9/mul_1",
			"type": "elementwise",
			"weights": {}
		},
		{
			"C": 120,
			"K": 280,
			"Nx": 1,
			"Ny": 1,
			"blob_biases": 271,
			"bottom": "stem/MobilenetV3/Bottleneck_9/mul_1",
			"debug_info": "stem/MobilenetV3/Bottleneck_9/compress/Conv2Dx",
			"fused_relu": 0,
			"fused_tanh": 0,
			"has_batch_norm": 0,
			"has_biases": 1,
			"n_groups": 1,
			"n_parallel": 1,
			"name": "stem/MobilenetV3/Bottleneck_9/compress/Conv2Dx",
			"pad_b": 0,
			"pad_fill_mode": 0,
			"pad_l": 0,
			"pad_mode": 1,
			"pad_r": 0,
			"pad_t": 0,
			"pad_value": 0,
			"top": "batch_norm_74",
			"type": "convolution",
			"weights": {
				"W_U8": 273,
				"per_ch_qbias": 275,
				"per_ch_qscale": 277
			}
		},
		{
			"alpha": 1,
			"beta": 0,
			"bottom": "batch_norm_74,stem/MobilenetV3/Bottleneck_8/add_1",
			"debug_info": "stem/MobilenetV3/Bottleneck_9/add_1",
			"fused_relu": 0,
			"name": "stem/MobilenetV3/Bottleneck_9/add_1",
			"nd_mode": true,
			"operation": 0,
			"top": "stem/MobilenetV3/Bottleneck_9/add_1",
			"type": "elementwise",
			"weights": {}
		},
		{
			"C": 280,
			"K": 120,
			"Nx": 1,
			"Ny": 1,
			"blob_biases": 279,
			"bottom": "stem/MobilenetV3/Bottleneck_9/add_1",
			"debug_info": "stem/MobilenetV3/Bottleneck_10/expand/Conv2Dx",
			"fused_relu": 0,
			"fused_tanh": 0,
			"has_batch_norm": 0,
			"has_biases": 1,
			"n_groups": 1,
			"n_parallel": 1,
			"name": "stem/MobilenetV3/Bottleneck_10/expand/Conv2Dx",
			"pad_b": 0,
			"pad_fill_mode": 0,
			"pad_l": 0,
			"pad_mode": 1,
			"pad_r": 0,
			"pad_t": 0,
			"pad_value": 0,
			"top": "batch_norm_75",
			"type": "convolution",
			"weights": {
				"W_U8": 281,
				"per_ch_qbias": 283,
				"per_ch_qscale": 285
			}
		},
		{
			"alpha": 3,
			"beta": 0,
			"bottom": "batch_norm_75",
			"debug_info": "stem/MobilenetV3/Bottleneck_10/expand/add",
			"fused_relu": 0,
			"name": "stem/MobilenetV3/Bottleneck_10/expand/add",
			"operation": 0,
			"top": "stem/MobilenetV3/Bottleneck_10/expand/add",
			"type": "elementwise",
			"weights": {}
		},
		{
			"bottom": "stem/MobilenetV3/Bottleneck_10/expand/add",
			"debug_info": "stem/MobilenetV3/Bottleneck_10/expand/Relu6__relu6_relu__",
			"mode": 0,
			"name": "stem/MobilenetV3/Bottleneck_10/expand/Relu6__relu6_relu__",
			"top": "stem/MobilenetV3/Bottleneck_10/expand/Relu6__relu6_relu__",
			"type": "activation",
			"weights": {}
		},
		{
			"alpha": -1,
			"beta": 0,
			"bottom": "stem/MobilenetV3/Bottleneck_10/expand/Relu6__relu6_relu__",
			"debug_info": "stem/MobilenetV3/Bottleneck_10/expand/Relu6__relu6_neg__",
			"mode": 6,
			"name": "stem/MobilenetV3/Bottleneck_10/expand/Relu6__relu6_neg__",
			"top": "stem/MobilenetV3/Bottleneck_10/expand/Relu6__relu6_neg__",
			"type": "activation",
			"weights": {}
		},
		{
			"alpha": -6,
			"beta": 0,
			"bottom": "stem/MobilenetV3/Bottleneck_10/expand/Relu6__relu6_neg__",
			"debug_info": "stem/MobilenetV3/Bottleneck_10/expand/Relu6__relu6_threshold6__",
			"fused_relu": 0,
			"name": "stem/MobilenetV3/Bottleneck_10/expand/Relu6__relu6_threshold6__",
			"operation": 25,
			"top": "stem/MobilenetV3/Bottleneck_10/expand/Relu6__relu6_threshold6__",
			"type": "elementwise",
			"weights": {}
		},
		{
			"alpha": -1,
			"beta": 0,
			"bottom": "stem/MobilenetV3/Bottleneck_10/expand/Relu6__relu6_threshold6__",
			"debug_info": "stem/MobilenetV3/Bottleneck_10/expand/Relu6",
			"mode": 6,
			"name": "stem/MobilenetV3/Bottleneck_10/expand/Relu6",
			"top": "stem/MobilenetV3/Bottleneck_10/expand/Relu6",
			"type": "activation",
			"weights": {}
		},
		{
			"alpha": 0.1666666716337204,
			"beta": 0,
			"bottom": "stem/MobilenetV3/Bottleneck_10/expand/Relu6",
			"debug_info": "stem/MobilenetV3/Bottleneck_10/expand/mul",
			"fused_relu": 0,
			"name": "stem/MobilenetV3/Bottleneck_10/expand/mul",
			"operation": 1,
			"top": "stem/MobilenetV3/Bottleneck_10/expand/mul",
			"type": "elementwise",
			"weights": {}
		},
		{
			"alpha": 1,
			"beta": 0,
			"bottom": "batch_norm_75,stem/MobilenetV3/Bottleneck_10/expand/mul",
			"debug_info": "stem/MobilenetV3/Bottleneck_10/expand/mul_1",
			"fused_relu": 0,
			"name": "stem/MobilenetV3/Bottleneck_10/expand/mul_1",
			"operation": 1,
			"top": "stem/MobilenetV3/Bottleneck_10/expand/mul_1",
			"type": "elementwise",
			"weights": {}
		},
		{
			"C": 280,
			"K": 280,
			"Nx": 3,
			"Ny": 3,
			"blob_biases": 287,
			"bottom": "stem/MobilenetV3/Bottleneck_10/expand/mul_1",
			"debug_info": "stem/MobilenetV3/Bottleneck_10/depthwise/depthwisex",
			"fused_relu": 0,
			"fused_tanh": 0,
			"has_batch_norm": 0,
			"has_biases": 1,
			"n_groups": 280,
			"n_parallel": 1,
			"name": "stem/MobilenetV3/Bottleneck_10/depthwise/depthwisex",
			"pad_b": 0,
			"pad_fill_mode": 0,
			"pad_l": 0,
			"pad_mode": 1,
			"pad_r": 0,
			"pad_t": 0,
			"pad_value": 0,
			"top": "batch_norm_76",
			"type": "convolution",
			"weights": {
				"W_U8": 289,
				"per_ch_qbias": 291,
				"per_ch_qscale": 293
			}
		},
		{
			"alpha": 3,
			"beta": 0,
			"bottom": "batch_norm_76",
			"debug_info": "stem/MobilenetV3/Bottleneck_10/add",
			"fused_relu": 0,
			"name": "stem/MobilenetV3/Bottleneck_10/add",
			"operation": 0,
			"top": "stem/MobilenetV3/Bottleneck_10/add",
			"type": "elementwise",
			"weights": {}
		},
		{
			"bottom": "stem/MobilenetV3/Bottleneck_10/add",
			"debug_info": "stem/MobilenetV3/Bottleneck_10/Relu6__relu6_relu__",
			"mode": 0,
			"name": "stem/MobilenetV3/Bottleneck_10/Relu6__relu6_relu__",
			"top": "stem/MobilenetV3/Bottleneck_10/Relu6__relu6_relu__",
			"type": "activation",
			"weights": {}
		},
		{
			"alpha": -1,
			"beta": 0,
			"bottom": "stem/MobilenetV3/Bottleneck_10/Relu6__relu6_relu__",
			"debug_info": "stem/MobilenetV3/Bottleneck_10/Relu6__relu6_neg__",
			"mode": 6,
			"name": "stem/MobilenetV3/Bottleneck_10/Relu6__relu6_neg__",
			"top": "stem/MobilenetV3/Bottleneck_10/Relu6__relu6_neg__",
			"type": "activation",
			"weights": {}
		},
		{
			"alpha": -6,
			"beta": 0,
			"bottom": "stem/MobilenetV3/Bottleneck_10/Relu6__relu6_neg__",
			"debug_info": "stem/MobilenetV3/Bottleneck_10/Relu6__relu6_threshold6__",
			"fused_relu": 0,
			"name": "stem/MobilenetV3/Bottleneck_10/Relu6__relu6_threshold6__",
			"operation": 25,
			"top": "stem/MobilenetV3/Bottleneck_10/Relu6__relu6_threshold6__",
			"type": "elementwise",
			"weights": {}
		},
		{
			"alpha": -1,
			"beta": 0,
			"bottom": "stem/MobilenetV3/Bottleneck_10/Relu6__relu6_threshold6__",
			"debug_info": "stem/MobilenetV3/Bottleneck_10/Relu6",
			"mode": 6,
			"name": "stem/MobilenetV3/Bottleneck_10/Relu6",
			"top": "stem/MobilenetV3/Bottleneck_10/Relu6",
			"type": "activation",
			"weights": {}
		},
		{
			"alpha": 0.1666666716337204,
			"beta": 0,
			"bottom": "stem/MobilenetV3/Bottleneck_10/Relu6",
			"debug_info": "stem/MobilenetV3/Bottleneck_10/mul",
			"fused_relu": 0,
			"name": "stem/MobilenetV3/Bottleneck_10/mul",
			"operation": 1,
			"top": "stem/MobilenetV3/Bottleneck_10/mul",
			"type": "elementwise",
			"weights": {}
		},
		{
			"alpha": 1,
			"beta": 0,
			"bottom": "batch_norm_76,stem/MobilenetV3/Bottleneck_10/mul",
			"debug_info": "stem/MobilenetV3/Bottleneck_10/mul_1",
			"fused_relu": 0,
			"name": "stem/MobilenetV3/Bottleneck_10/mul_1",
			"operation": 1,
			"top": "stem/MobilenetV3/Bottleneck_10/mul_1",
			"type": "elementwise",
			"weights": {}
		},
		{
			"C": 120,
			"K": 280,
			"Nx": 1,
			"Ny": 1,
			"blob_biases": 295,
			"bottom": "stem/MobilenetV3/Bottleneck_10/mul_1",
			"debug_info": "stem/MobilenetV3/Bottleneck_10/compress/Conv2Dx",
			"fused_relu": 0,
			"fused_tanh": 0,
			"has_batch_norm": 0,
			"has_biases": 1,
			"n_groups": 1,
			"n_parallel": 1,
			"name": "stem/MobilenetV3/Bottleneck_10/compress/Conv2Dx",
			"pad_b": 0,
			"pad_fill_mode": 0,
			"pad_l": 0,
			"pad_mode": 1,
			"pad_r": 0,
			"pad_t": 0,
			"pad_value": 0,
			"top": "batch_norm_77",
			"type": "convolution",
			"weights": {
				"W_U8": 297,
				"per_ch_qbias": 299,
				"per_ch_qscale": 301
			}
		},
		{
			"alpha": 1,
			"beta": 0,
			"bottom": "batch_norm_77,stem/MobilenetV3/Bottleneck_9/add_1",
			"debug_info": "stem/MobilenetV3/Bottleneck_10/add_1",
			"fused_relu": 0,
			"name": "stem/MobilenetV3/Bottleneck_10/add_1",
			"nd_mode": true,
			"operation": 0,
			"top": "stem/MobilenetV3/Bottleneck_10/add_1",
			"type": "elementwise",
			"weights": {}
		},
		{
			"C": 720,
			"K": 120,
			"Nx": 1,
			"Ny": 1,
			"blob_biases": 303,
			"bottom": "stem/MobilenetV3/Bottleneck_10/add_1",
			"debug_info": "stem/MobilenetV3/Bottleneck_11/expand/Conv2Dx",
			"fused_relu": 0,
			"fused_tanh": 0,
			"has_batch_norm": 0,
			"has_biases": 1,
			"n_groups": 1,
			"n_parallel": 1,
			"name": "stem/MobilenetV3/Bottleneck_11/expand/Conv2Dx",
			"pad_b": 0,
			"pad_fill_mode": 0,
			"pad_l": 0,
			"pad_mode": 1,
			"pad_r": 0,
			"pad_t": 0,
			"pad_value": 0,
			"top": "batch_norm_78",
			"type": "convolution",
			"weights": {
				"W_U8": 305,
				"per_ch_qbias": 307,
				"per_ch_qscale": 309
			}
		},
		{
			"alpha": 3,
			"beta": 0,
			"bottom": "batch_norm_78",
			"debug_info": "stem/MobilenetV3/Bottleneck_11/expand/add",
			"fused_relu": 0,
			"name": "stem/MobilenetV3/Bottleneck_11/expand/add",
			"operation": 0,
			"top": "stem/MobilenetV3/Bottleneck_11/expand/add",
			"type": "elementwise",
			"weights": {}
		},
		{
			"bottom": "stem/MobilenetV3/Bottleneck_11/expand/add",
			"debug_info": "stem/MobilenetV3/Bottleneck_11/expand/Relu6__relu6_relu__",
			"mode": 0,
			"name": "stem/MobilenetV3/Bottleneck_11/expand/Relu6__relu6_relu__",
			"top": "stem/MobilenetV3/Bottleneck_11/expand/Relu6__relu6_relu__",
			"type": "activation",
			"weights": {}
		},
		{
			"alpha": -1,
			"beta": 0,
			"bottom": "stem/MobilenetV3/Bottleneck_11/expand/Relu6__relu6_relu__",
			"debug_info": "stem/MobilenetV3/Bottleneck_11/expand/Relu6__relu6_neg__",
			"mode": 6,
			"name": "stem/MobilenetV3/Bottleneck_11/expand/Relu6__relu6_neg__",
			"top": "stem/MobilenetV3/Bottleneck_11/expand/Relu6__relu6_neg__",
			"type": "activation",
			"weights": {}
		},
		{
			"alpha": -6,
			"beta": 0,
			"bottom": "stem/MobilenetV3/Bottleneck_11/expand/Relu6__relu6_neg__",
			"debug_info": "stem/MobilenetV3/Bottleneck_11/expand/Relu6__relu6_threshold6__",
			"fused_relu": 0,
			"name": "stem/MobilenetV3/Bottleneck_11/expand/Relu6__relu6_threshold6__",
			"operation": 25,
			"top": "stem/MobilenetV3/Bottleneck_11/expand/Relu6__relu6_threshold6__",
			"type": "elementwise",
			"weights": {}
		},
		{
			"alpha": -1,
			"beta": 0,
			"bottom": "stem/MobilenetV3/Bottleneck_11/expand/Relu6__relu6_threshold6__",
			"debug_info": "stem/MobilenetV3/Bottleneck_11/expand/Relu6",
			"mode": 6,
			"name": "stem/MobilenetV3/Bottleneck_11/expand/Relu6",
			"top": "stem/MobilenetV3/Bottleneck_11/expand/Relu6",
			"type": "activation",
			"weights": {}
		},
		{
			"alpha": 0.1666666716337204,
			"beta": 0,
			"bottom": "stem/MobilenetV3/Bottleneck_11/expand/Relu6",
			"debug_info": "stem/MobilenetV3/Bottleneck_11/expand/mul",
			"fused_relu": 0,
			"name": "stem/MobilenetV3/Bottleneck_11/expand/mul",
			"operation": 1,
			"top": "stem/MobilenetV3/Bottleneck_11/expand/mul",
			"type": "elementwise",
			"weights": {}
		},
		{
			"alpha": 1,
			"beta": 0,
			"bottom": "batch_norm_78,stem/MobilenetV3/Bottleneck_11/expand/mul",
			"debug_info": "stem/MobilenetV3/Bottleneck_11/expand/mul_1",
			"fused_relu": 0,
			"name": "stem/MobilenetV3/Bottleneck_11/expand/mul_1",
			"operation": 1,
			"top": "stem/MobilenetV3/Bottleneck_11/expand/mul_1",
			"type": "elementwise",
			"weights": {}
		},
		{
			"C": 720,
			"K": 720,
			"Nx": 3,
			"Ny": 3,
			"blob_biases": 311,
			"bottom": "stem/MobilenetV3/Bottleneck_11/expand/mul_1",
			"debug_info": "stem/MobilenetV3/Bottleneck_11/depthwise/depthwisex",
			"fused_relu": 0,
			"fused_tanh": 0,
			"has_batch_norm": 0,
			"has_biases": 1,
			"n_groups": 720,
			"n_parallel": 1,
			"name": "stem/MobilenetV3/Bottleneck_11/depthwise/depthwisex",
			"pad_b": 0,
			"pad_fill_mode": 0,
			"pad_l": 0,
			"pad_mode": 1,
			"pad_r": 0,
			"pad_t": 0,
			"pad_value": 0,
			"top": "batch_norm_79",
			"type": "convolution",
			"weights": {
				"W_U8": 313,
				"per_ch_qbias": 315,
				"per_ch_qscale": 317
			}
		},
		{
			"bottom": "batch_norm_79",
			"debug_info": "stem/MobilenetV3/Bottleneck_11/gap/Mean/pad",
			"name": "stem/MobilenetV3/Bottleneck_11/gap/Mean/pad",
			"pad_b": 0,
			"pad_fill_mode": 0,
			"pad_l": 1,
			"pad_pad_mode": 0,
			"pad_r": 0,
			"pad_t": 1,
			"pad_value": 0,
			"top": "stem/MobilenetV3/Bottleneck_11/gap/Mean/pad",
			"type": "general_padding",
			"weights": {}
		},
		{
			"bottom": "",
			"constant_blob": 319,
			"debug_info": "stem/MobilenetV3/Bottleneck_11/gap/Mean/scale",
			"h": 1,
			"k": 1,
			"n": 1,
			"name": "stem/MobilenetV3/Bottleneck_11/gap/Mean/scale_constant_in_scale",
			"top": "stem/MobilenetV3/Bottleneck_11/gap/Mean/scale_constant_in_scale",
			"type": "load_constant",
			"w": 1,
			"weights": {}
		},
		{
			"alpha": 1,
			"beta": 0,
			"bottom": "stem/MobilenetV3/Bottleneck_11/gap/Mean/pad,stem/MobilenetV3/Bottleneck_11/gap/Mean/scale_constant_in_scale",
			"debug_info": "stem/MobilenetV3/Bottleneck_11/gap/Mean/scale",
			"fused_relu": 0,
			"name": "stem/MobilenetV3/Bottleneck_11/gap/Mean/scale",
			"operation": 1,
			"top": "stem/MobilenetV3/Bottleneck_11/gap/Mean/scale",
			"type": "elementwise",
			"weights": {}
		},
		{
			"average_count_exclude_padding": 1,
			"avg_or_max": 0,
			"bottom": "stem/MobilenetV3/Bottleneck_11/gap/Mean/scale",
			"debug_info": "stem/MobilenetV3/Bottleneck_11/gap/Mean",
			"is_global": 1,
			"name": "stem/MobilenetV3/Bottleneck_11/gap/Mean",
			"pad_b": 0,
			"pad_fill_mode": 0,
			"pad_l": 0,
			"pad_mode": 2,
			"pad_r": 0,
			"pad_t": 0,
			"pad_value": 0,
			"size_x": 24,
			"size_y": 24,
			"stride_x": 1,
			"stride_y": 1,
			"top": "stem/MobilenetV3/Bottleneck_11/gap/Mean",
			"top_shape_style": 0,
			"type": "pool",
			"weights": {}
		},
		{
			"C": 180,
			"K": 720,
			"Nx": 1,
			"Ny": 1,
			"blob_biases": 321,
			"bottom": "stem/MobilenetV3/Bottleneck_11/gap/Mean",
			"debug_info": "stem/MobilenetV3/Bottleneck_11/Bottleneck_11/Conv/BiasAdd",
			"fused_relu": 1,
			"fused_tanh": 0,
			"has_batch_norm": 0,
			"has_biases": 1,
			"n_groups": 1,
			"n_parallel": 1,
			"name": "stem/MobilenetV3/Bottleneck_11/Bottleneck_11/Conv/BiasAdd",
			"pad_b": 0,
			"pad_fill_mode": 0,
			"pad_l": 0,
			"pad_mode": 0,
			"pad_r": 0,
			"pad_t": 0,
			"pad_value": 0,
			"top": "stem/MobilenetV3/Bottleneck_11/Bottleneck_11/Conv/Relu",
			"type": "convolution",
			"weights": {
				"W_U8": 323,
				"per_ch_qbias": 325,
				"per_ch_qscale": 327
			}
		},
		{
			"C": 720,
			"K": 180,
			"Nx": 1,
			"Ny": 1,
			"blob_biases": 329,
			"bottom": "stem/MobilenetV3/Bottleneck_11/Bottleneck_11/Conv/Relu",
			"debug_info": "stem/MobilenetV3/Bottleneck_11/Bottleneck_11_1/Conv_1/add",
			"fused_relu": 1,
			"fused_tanh": 0,
			"has_batch_norm": 0,
			"has_biases": 1,
			"n_groups": 1,
			"n_parallel": 1,
			"name": "stem/MobilenetV3/Bottleneck_11/Bottleneck_11_1/Conv_1/add",
			"pad_b": 0,
			"pad_fill_mode": 0,
			"pad_l": 0,
			"pad_mode": 0,
			"pad_r": 0,
			"pad_t": 0,
			"pad_value": 0,
			"top": "stem/MobilenetV3/Bottleneck_11/Bottleneck_11_1/Conv_1/Relu6__relu6_relu__",
			"type": "convolution",
			"weights": {
				"W_U8": 331,
				"per_ch_qbias": 333,
				"per_ch_qscale": 335
			}
		},
		{
			"alpha": -1,
			"beta": 0,
			"bottom": "stem/MobilenetV3/Bottleneck_11/Bottleneck_11_1/Conv_1/Relu6__relu6_relu__",
			"debug_info": "stem/MobilenetV3/Bottleneck_11/Bottleneck_11_1/Conv_1/Relu6__relu6_neg__",
			"mode": 6,
			"name": "stem/MobilenetV3/Bottleneck_11/Bottleneck_11_1/Conv_1/Relu6__relu6_neg__",
			"top": "stem/MobilenetV3/Bottleneck_11/Bottleneck_11_1/Conv_1/Relu6__relu6_neg__",
			"type": "activation",
			"weights": {}
		},
		{
			"alpha": -6,
			"beta": 0,
			"bottom": "stem/MobilenetV3/Bottleneck_11/Bottleneck_11_1/Conv_1/Relu6__relu6_neg__",
			"debug_info": "stem/MobilenetV3/Bottleneck_11/Bottleneck_11_1/Conv_1/Relu6__relu6_threshold6__",
			"fused_relu": 0,
			"name": "stem/MobilenetV3/Bottleneck_11/Bottleneck_11_1/Conv_1/Relu6__relu6_threshold6__",
			"operation": 25,
			"top": "stem/MobilenetV3/Bottleneck_11/Bottleneck_11_1/Conv_1/Relu6__relu6_threshold6__",
			"type": "elementwise",
			"weights": {}
		},
		{
			"alpha": -1,
			"beta": 0,
			"bottom": "stem/MobilenetV3/Bottleneck_11/Bottleneck_11_1/Conv_1/Relu6__relu6_threshold6__",
			"debug_info": "stem/MobilenetV3/Bottleneck_11/Bottleneck_11_1/Conv_1/Relu6",
			"mode": 6,
			"name": "stem/MobilenetV3/Bottleneck_11/Bottleneck_11_1/Conv_1/Relu6",
			"top": "stem/MobilenetV3/Bottleneck_11/Bottleneck_11_1/Conv_1/Relu6",
			"type": "activation",
			"weights": {}
		},
		{
			"alpha": 0.1666666716337204,
			"beta": 0,
			"bottom": "stem/MobilenetV3/Bottleneck_11/Bottleneck_11_1/Conv_1/Relu6",
			"debug_info": "stem/MobilenetV3/Bottleneck_11/Bottleneck_11_1/Conv_1/mul",
			"fused_relu": 0,
			"name": "stem/MobilenetV3/Bottleneck_11/Bottleneck_11_1/Conv_1/mul",
			"operation": 1,
			"top": "stem/MobilenetV3/Bottleneck_11/Bottleneck_11_1/Conv_1/mul",
			"type": "elementwise",
			"weights": {}
		},
		{
			"alpha": 1,
			"beta": 0,
			"bottom": "batch_norm_79,stem/MobilenetV3/Bottleneck_11/Bottleneck_11_1/Conv_1/mul",
			"debug_info": "stem/MobilenetV3/Bottleneck_11/mul",
			"fused_relu": 0,
			"name": "stem/MobilenetV3/Bottleneck_11/mul",
			"nd_mode": true,
			"operation": 1,
			"top": "stem/MobilenetV3/Bottleneck_11/mul",
			"type": "elementwise",
			"weights": {}
		},
		{
			"alpha": 3,
			"beta": 0,
			"bottom": "stem/MobilenetV3/Bottleneck_11/mul",
			"debug_info": "stem/MobilenetV3/Bottleneck_11/add",
			"fused_relu": 0,
			"name": "stem/MobilenetV3/Bottleneck_11/add",
			"operation": 0,
			"top": "stem/MobilenetV3/Bottleneck_11/add",
			"type": "elementwise",
			"weights": {}
		},
		{
			"bottom": "stem/MobilenetV3/Bottleneck_11/add",
			"debug_info": "stem/MobilenetV3/Bottleneck_11/Relu6__relu6_relu__",
			"mode": 0,
			"name": "stem/MobilenetV3/Bottleneck_11/Relu6__relu6_relu__",
			"top": "stem/MobilenetV3/Bottleneck_11/Relu6__relu6_relu__",
			"type": "activation",
			"weights": {}
		},
		{
			"alpha": -1,
			"beta": 0,
			"bottom": "stem/MobilenetV3/Bottleneck_11/Relu6__relu6_relu__",
			"debug_info": "stem/MobilenetV3/Bottleneck_11/Relu6__relu6_neg__",
			"mode": 6,
			"name": "stem/MobilenetV3/Bottleneck_11/Relu6__relu6_neg__",
			"top": "stem/MobilenetV3/Bottleneck_11/Relu6__relu6_neg__",
			"type": "activation",
			"weights": {}
		},
		{
			"alpha": -6,
			"beta": 0,
			"bottom": "stem/MobilenetV3/Bottleneck_11/Relu6__relu6_neg__",
			"debug_info": "stem/MobilenetV3/Bottleneck_11/Relu6__relu6_threshold6__",
			"fused_relu": 0,
			"name": "stem/MobilenetV3/Bottleneck_11/Relu6__relu6_threshold6__",
			"operation": 25,
			"top": "stem/MobilenetV3/Bottleneck_11/Relu6__relu6_threshold6__",
			"type": "elementwise",
			"weights": {}
		},
		{
			"alpha": -1,
			"beta": 0,
			"bottom": "stem/MobilenetV3/Bottleneck_11/Relu6__relu6_threshold6__",
			"debug_info": "stem/MobilenetV3/Bottleneck_11/Relu6",
			"mode": 6,
			"name": "stem/MobilenetV3/Bottleneck_11/Relu6",
			"top": "stem/MobilenetV3/Bottleneck_11/Relu6",
			"type": "activation",
			"weights": {}
		},
		{
			"alpha": 0.1666666716337204,
			"beta": 0,
			"bottom": "stem/MobilenetV3/Bottleneck_11/Relu6",
			"debug_info": "stem/MobilenetV3/Bottleneck_11/mul_1",
			"fused_relu": 0,
			"name": "stem/MobilenetV3/Bottleneck_11/mul_1",
			"operation": 1,
			"top": "stem/MobilenetV3/Bottleneck_11/mul_1",
			"type": "elementwise",
			"weights": {}
		},
		{
			"alpha": 1,
			"beta": 0,
			"bottom": "stem/MobilenetV3/Bottleneck_11/mul,stem/MobilenetV3/Bottleneck_11/mul_1",
			"debug_info": "stem/MobilenetV3/Bottleneck_11/mul_2",
			"fused_relu": 0,
			"name": "stem/MobilenetV3/Bottleneck_11/mul_2",
			"operation": 1,
			"top": "stem/MobilenetV3/Bottleneck_11/mul_2",
			"type": "elementwise",
			"weights": {}
		},
		{
			"C": 168,
			"K": 720,
			"Nx": 1,
			"Ny": 1,
			"blob_biases": 337,
			"bottom": "stem/MobilenetV3/Bottleneck_11/mul_2",
			"debug_info": "stem/MobilenetV3/Bottleneck_11/compress/Conv2Dx",
			"fused_relu": 0,
			"fused_tanh": 0,
			"has_batch_norm": 0,
			"has_biases": 1,
			"n_groups": 1,
			"n_parallel": 1,
			"name": "stem/MobilenetV3/Bottleneck_11/compress/Conv2Dx",
			"pad_b": 0,
			"pad_fill_mode": 0,
			"pad_l": 0,
			"pad_mode": 1,
			"pad_r": 0,
			"pad_t": 0,
			"pad_value": 0,
			"top": "batch_norm_80",
			"type": "convolution",
			"weights": {
				"W_U8": 339,
				"per_ch_qbias": 341,
				"per_ch_qscale": 343
			}
		},
		{
			"C": 1008,
			"K": 168,
			"Nx": 1,
			"Ny": 1,
			"blob_biases": 345,
			"bottom": "batch_norm_80",
			"debug_info": "stem/MobilenetV3/Bottleneck_12/expand/Conv2Dx",
			"fused_relu": 0,
			"fused_tanh": 0,
			"has_batch_norm": 0,
			"has_biases": 1,
			"n_groups": 1,
			"n_parallel": 1,
			"name": "stem/MobilenetV3/Bottleneck_12/expand/Conv2Dx",
			"pad_b": 0,
			"pad_fill_mode": 0,
			"pad_l": 0,
			"pad_mode": 1,
			"pad_r": 0,
			"pad_t": 0,
			"pad_value": 0,
			"top": "batch_norm_81",
			"type": "convolution",
			"weights": {
				"W_U8": 347,
				"per_ch_qbias": 349,
				"per_ch_qscale": 351
			}
		},
		{
			"alpha": 3,
			"beta": 0,
			"bottom": "batch_norm_81",
			"debug_info": "stem/MobilenetV3/Bottleneck_12/expand/add",
			"fused_relu": 0,
			"name": "stem/MobilenetV3/Bottleneck_12/expand/add",
			"operation": 0,
			"top": "stem/MobilenetV3/Bottleneck_12/expand/add",
			"type": "elementwise",
			"weights": {}
		},
		{
			"bottom": "stem/MobilenetV3/Bottleneck_12/expand/add",
			"debug_info": "stem/MobilenetV3/Bottleneck_12/expand/Relu6__relu6_relu__",
			"mode": 0,
			"name": "stem/MobilenetV3/Bottleneck_12/expand/Relu6__relu6_relu__",
			"top": "stem/MobilenetV3/Bottleneck_12/expand/Relu6__relu6_relu__",
			"type": "activation",
			"weights": {}
		},
		{
			"alpha": -1,
			"beta": 0,
			"bottom": "stem/MobilenetV3/Bottleneck_12/expand/Relu6__relu6_relu__",
			"debug_info": "stem/MobilenetV3/Bottleneck_12/expand/Relu6__relu6_neg__",
			"mode": 6,
			"name": "stem/MobilenetV3/Bottleneck_12/expand/Relu6__relu6_neg__",
			"top": "stem/MobilenetV3/Bottleneck_12/expand/Relu6__relu6_neg__",
			"type": "activation",
			"weights": {}
		},
		{
			"alpha": -6,
			"beta": 0,
			"bottom": "stem/MobilenetV3/Bottleneck_12/expand/Relu6__relu6_neg__",
			"debug_info": "stem/MobilenetV3/Bottleneck_12/expand/Relu6__relu6_threshold6__",
			"fused_relu": 0,
			"name": "stem/MobilenetV3/Bottleneck_12/expand/Relu6__relu6_threshold6__",
			"operation": 25,
			"top": "stem/MobilenetV3/Bottleneck_12/expand/Relu6__relu6_threshold6__",
			"type": "elementwise",
			"weights": {}
		},
		{
			"alpha": -1,
			"beta": 0,
			"bottom": "stem/MobilenetV3/Bottleneck_12/expand/Relu6__relu6_threshold6__",
			"debug_info": "stem/MobilenetV3/Bottleneck_12/expand/Relu6",
			"mode": 6,
			"name": "stem/MobilenetV3/Bottleneck_12/expand/Relu6",
			"top": "stem/MobilenetV3/Bottleneck_12/expand/Relu6",
			"type": "activation",
			"weights": {}
		},
		{
			"alpha": 0.1666666716337204,
			"beta": 0,
			"bottom": "stem/MobilenetV3/Bottleneck_12/expand/Relu6",
			"debug_info": "stem/MobilenetV3/Bottleneck_12/expand/mul",
			"fused_relu": 0,
			"name": "stem/MobilenetV3/Bottleneck_12/expand/mul",
			"operation": 1,
			"top": "stem/MobilenetV3/Bottleneck_12/expand/mul",
			"type": "elementwise",
			"weights": {}
		},
		{
			"alpha": 1,
			"beta": 0,
			"bottom": "batch_norm_81,stem/MobilenetV3/Bottleneck_12/expand/mul",
			"debug_info": "stem/MobilenetV3/Bottleneck_12/expand/mul_1",
			"fused_relu": 0,
			"name": "stem/MobilenetV3/Bottleneck_12/expand/mul_1",
			"operation": 1,
			"top": "stem/MobilenetV3/Bottleneck_12/expand/mul_1",
			"type": "elementwise",
			"weights": {}
		},
		{
			"C": 1008,
			"K": 1008,
			"Nx": 3,
			"Ny": 3,
			"blob_biases": 353,
			"bottom": "stem/MobilenetV3/Bottleneck_12/expand/mul_1",
			"debug_info": "stem/MobilenetV3/Bottleneck_12/depthwise/depthwisex",
			"fused_relu": 0,
			"fused_tanh": 0,
			"has_batch_norm": 0,
			"has_biases": 1,
			"n_groups": 1008,
			"n_parallel": 1,
			"name": "stem/MobilenetV3/Bottleneck_12/depthwise/depthwisex",
			"pad_b": 0,
			"pad_fill_mode": 0,
			"pad_l": 0,
			"pad_mode": 1,
			"pad_r": 0,
			"pad_t": 0,
			"pad_value": 0,
			"top": "batch_norm_82",
			"type": "convolution",
			"weights": {
				"W_U8": 355,
				"per_ch_qbias": 357,
				"per_ch_qscale": 359
			}
		},
		{
			"bottom": "batch_norm_82",
			"debug_info": "stem/MobilenetV3/Bottleneck_12/gap/Mean/pad",
			"name": "stem/MobilenetV3/Bottleneck_12/gap/Mean/pad",
			"pad_b": 0,
			"pad_fill_mode": 0,
			"pad_l": 1,
			"pad_pad_mode": 0,
			"pad_r": 0,
			"pad_t": 1,
			"pad_value": 0,
			"top": "stem/MobilenetV3/Bottleneck_12/gap/Mean/pad",
			"type": "general_padding",
			"weights": {}
		},
		{
			"bottom": "",
			"constant_blob": 361,
			"debug_info": "stem/MobilenetV3/Bottleneck_12/gap/Mean/scale",
			"h": 1,
			"k": 1,
			"n": 1,
			"name": "stem/MobilenetV3/Bottleneck_12/gap/Mean/scale_constant_in_scale",
			"top": "stem/MobilenetV3/Bottleneck_12/gap/Mean/scale_constant_in_scale",
			"type": "load_constant",
			"w": 1,
			"weights": {}
		},
		{
			"alpha": 1,
			"beta": 0,
			"bottom": "stem/MobilenetV3/Bottleneck_12/gap/Mean/pad,stem/MobilenetV3/Bottleneck_12/gap/Mean/scale_constant_in_scale",
			"debug_info": "stem/MobilenetV3/Bottleneck_12/gap/Mean/scale",
			"fused_relu": 0,
			"name": "stem/MobilenetV3/Bottleneck_12/gap/Mean/scale",
			"operation": 1,
			"top": "stem/MobilenetV3/Bottleneck_12/gap/Mean/scale",
			"type": "elementwise",
			"weights": {}
		},
		{
			"average_count_exclude_padding": 1,
			"avg_or_max": 0,
			"bottom": "stem/MobilenetV3/Bottleneck_12/gap/Mean/scale",
			"debug_info": "stem/MobilenetV3/Bottleneck_12/gap/Mean",
			"is_global": 1,
			"name": "stem/MobilenetV3/Bottleneck_12/gap/Mean",
			"pad_b": 0,
			"pad_fill_mode": 0,
			"pad_l": 0,
			"pad_mode": 2,
			"pad_r": 0,
			"pad_t": 0,
			"pad_value": 0,
			"size_x": 24,
			"size_y": 24,
			"stride_x": 1,
			"stride_y": 1,
			"top": "stem/MobilenetV3/Bottleneck_12/gap/Mean",
			"top_shape_style": 0,
			"type": "pool",
			"weights": {}
		},
		{
			"C": 252,
			"K": 1008,
			"Nx": 1,
			"Ny": 1,
			"blob_biases": 363,
			"bottom": "stem/MobilenetV3/Bottleneck_12/gap/Mean",
			"debug_info": "stem/MobilenetV3/Bottleneck_12/Bottleneck_12/Conv/BiasAdd",
			"fused_relu": 1,
			"fused_tanh": 0,
			"has_batch_norm": 0,
			"has_biases": 1,
			"n_groups": 1,
			"n_parallel": 1,
			"name": "stem/MobilenetV3/Bottleneck_12/Bottleneck_12/Conv/BiasAdd",
			"pad_b": 0,
			"pad_fill_mode": 0,
			"pad_l": 0,
			"pad_mode": 0,
			"pad_r": 0,
			"pad_t": 0,
			"pad_value": 0,
			"top": "stem/MobilenetV3/Bottleneck_12/Bottleneck_12/Conv/Relu",
			"type": "convolution",
			"weights": {
				"W_U8": 365,
				"per_ch_qbias": 367,
				"per_ch_qscale": 369
			}
		},
		{
			"C": 1008,
			"K": 252,
			"Nx": 1,
			"Ny": 1,
			"blob_biases": 371,
			"bottom": "stem/MobilenetV3/Bottleneck_12/Bottleneck_12/Conv/Relu",
			"debug_info": "stem/MobilenetV3/Bottleneck_12/Bottleneck_12_1/Conv_1/add",
			"fused_relu": 1,
			"fused_tanh": 0,
			"has_batch_norm": 0,
			"has_biases": 1,
			"n_groups": 1,
			"n_parallel": 1,
			"name": "stem/MobilenetV3/Bottleneck_12/Bottleneck_12_1/Conv_1/add",
			"pad_b": 0,
			"pad_fill_mode": 0,
			"pad_l": 0,
			"pad_mode": 0,
			"pad_r": 0,
			"pad_t": 0,
			"pad_value": 0,
			"top": "stem/MobilenetV3/Bottleneck_12/Bottleneck_12_1/Conv_1/Relu6__relu6_relu__",
			"type": "convolution",
			"weights": {
				"W_U8": 373,
				"per_ch_qbias": 375,
				"per_ch_qscale": 377
			}
		},
		{
			"alpha": -1,
			"beta": 0,
			"bottom": "stem/MobilenetV3/Bottleneck_12/Bottleneck_12_1/Conv_1/Relu6__relu6_relu__",
			"debug_info": "stem/MobilenetV3/Bottleneck_12/Bottleneck_12_1/Conv_1/Relu6__relu6_neg__",
			"mode": 6,
			"name": "stem/MobilenetV3/Bottleneck_12/Bottleneck_12_1/Conv_1/Relu6__relu6_neg__",
			"top": "stem/MobilenetV3/Bottleneck_12/Bottleneck_12_1/Conv_1/Relu6__relu6_neg__",
			"type": "activation",
			"weights": {}
		},
		{
			"alpha": -6,
			"beta": 0,
			"bottom": "stem/MobilenetV3/Bottleneck_12/Bottleneck_12_1/Conv_1/Relu6__relu6_neg__",
			"debug_info": "stem/MobilenetV3/Bottleneck_12/Bottleneck_12_1/Conv_1/Relu6__relu6_threshold6__",
			"fused_relu": 0,
			"name": "stem/MobilenetV3/Bottleneck_12/Bottleneck_12_1/Conv_1/Relu6__relu6_threshold6__",
			"operation": 25,
			"top": "stem/MobilenetV3/Bottleneck_12/Bottleneck_12_1/Conv_1/Relu6__relu6_threshold6__",
			"type": "elementwise",
			"weights": {}
		},
		{
			"alpha": -1,
			"beta": 0,
			"bottom": "stem/MobilenetV3/Bottleneck_12/Bottleneck_12_1/Conv_1/Relu6__relu6_threshold6__",
			"debug_info": "stem/MobilenetV3/Bottleneck_12/Bottleneck_12_1/Conv_1/Relu6",
			"mode": 6,
			"name": "stem/MobilenetV3/Bottleneck_12/Bottleneck_12_1/Conv_1/Relu6",
			"top": "stem/MobilenetV3/Bottleneck_12/Bottleneck_12_1/Conv_1/Relu6",
			"type": "activation",
			"weights": {}
		},
		{
			"alpha": 0.1666666716337204,
			"beta": 0,
			"bottom": "stem/MobilenetV3/Bottleneck_12/Bottleneck_12_1/Conv_1/Relu6",
			"debug_info": "stem/MobilenetV3/Bottleneck_12/Bottleneck_12_1/Conv_1/mul",
			"fused_relu": 0,
			"name": "stem/MobilenetV3/Bottleneck_12/Bottleneck_12_1/Conv_1/mul",
			"operation": 1,
			"top": "stem/MobilenetV3/Bottleneck_12/Bottleneck_12_1/Conv_1/mul",
			"type": "elementwise",
			"weights": {}
		},
		{
			"alpha": 1,
			"beta": 0,
			"bottom": "batch_norm_82,stem/MobilenetV3/Bottleneck_12/Bottleneck_12_1/Conv_1/mul",
			"debug_info": "stem/MobilenetV3/Bottleneck_12/mul",
			"fused_relu": 0,
			"name": "stem/MobilenetV3/Bottleneck_12/mul",
			"nd_mode": true,
			"operation": 1,
			"top": "stem/MobilenetV3/Bottleneck_12/mul",
			"type": "elementwise",
			"weights": {}
		},
		{
			"alpha": 3,
			"beta": 0,
			"bottom": "stem/MobilenetV3/Bottleneck_12/mul",
			"debug_info": "stem/MobilenetV3/Bottleneck_12/add",
			"fused_relu": 0,
			"name": "stem/MobilenetV3/Bottleneck_12/add",
			"operation": 0,
			"top": "stem/MobilenetV3/Bottleneck_12/add",
			"type": "elementwise",
			"weights": {}
		},
		{
			"bottom": "stem/MobilenetV3/Bottleneck_12/add",
			"debug_info": "stem/MobilenetV3/Bottleneck_12/Relu6__relu6_relu__",
			"mode": 0,
			"name": "stem/MobilenetV3/Bottleneck_12/Relu6__relu6_relu__",
			"top": "stem/MobilenetV3/Bottleneck_12/Relu6__relu6_relu__",
			"type": "activation",
			"weights": {}
		},
		{
			"alpha": -1,
			"beta": 0,
			"bottom": "stem/MobilenetV3/Bottleneck_12/Relu6__relu6_relu__",
			"debug_info": "stem/MobilenetV3/Bottleneck_12/Relu6__relu6_neg__",
			"mode": 6,
			"name": "stem/MobilenetV3/Bottleneck_12/Relu6__relu6_neg__",
			"top": "stem/MobilenetV3/Bottleneck_12/Relu6__relu6_neg__",
			"type": "activation",
			"weights": {}
		},
		{
			"alpha": -6,
			"beta": 0,
			"bottom": "stem/MobilenetV3/Bottleneck_12/Relu6__relu6_neg__",
			"debug_info": "stem/MobilenetV3/Bottleneck_12/Relu6__relu6_threshold6__",
			"fused_relu": 0,
			"name": "stem/MobilenetV3/Bottleneck_12/Relu6__relu6_threshold6__",
			"operation": 25,
			"top": "stem/MobilenetV3/Bottleneck_12/Relu6__relu6_threshold6__",
			"type": "elementwise",
			"weights": {}
		},
		{
			"alpha": -1,
			"beta": 0,
			"bottom": "stem/MobilenetV3/Bottleneck_12/Relu6__relu6_threshold6__",
			"debug_info": "stem/MobilenetV3/Bottleneck_12/Relu6",
			"mode": 6,
			"name": "stem/MobilenetV3/Bottleneck_12/Relu6",
			"top": "stem/MobilenetV3/Bottleneck_12/Relu6",
			"type": "activation",
			"weights": {}
		},
		{
			"alpha": 0.1666666716337204,
			"beta": 0,
			"bottom": "stem/MobilenetV3/Bottleneck_12/Relu6",
			"debug_info": "stem/MobilenetV3/Bottleneck_12/mul_1",
			"fused_relu": 0,
			"name": "stem/MobilenetV3/Bottleneck_12/mul_1",
			"operation": 1,
			"top": "stem/MobilenetV3/Bottleneck_12/mul_1",
			"type": "elementwise",
			"weights": {}
		},
		{
			"alpha": 1,
			"beta": 0,
			"bottom": "stem/MobilenetV3/Bottleneck_12/mul,stem/MobilenetV3/Bottleneck_12/mul_1",
			"debug_info": "stem/MobilenetV3/Bottleneck_12/mul_2",
			"fused_relu": 0,
			"name": "stem/MobilenetV3/Bottleneck_12/mul_2",
			"operation": 1,
			"top": "stem/MobilenetV3/Bottleneck_12/mul_2",
			"type": "elementwise",
			"weights": {}
		},
		{
			"C": 168,
			"K": 1008,
			"Nx": 1,
			"Ny": 1,
			"blob_biases": 379,
			"bottom": "stem/MobilenetV3/Bottleneck_12/mul_2",
			"debug_info": "stem/MobilenetV3/Bottleneck_12/compress/Conv2Dx",
			"fused_relu": 0,
			"fused_tanh": 0,
			"has_batch_norm": 0,
			"has_biases": 1,
			"n_groups": 1,
			"n_parallel": 1,
			"name": "stem/MobilenetV3/Bottleneck_12/compress/Conv2Dx",
			"pad_b": 0,
			"pad_fill_mode": 0,
			"pad_l": 0,
			"pad_mode": 1,
			"pad_r": 0,
			"pad_t": 0,
			"pad_value": 0,
			"top": "batch_norm_83",
			"type": "convolution",
			"weights": {
				"W_U8": 381,
				"per_ch_qbias": 383,
				"per_ch_qscale": 385
			}
		},
		{
			"alpha": 1,
			"beta": 0,
			"bottom": "batch_norm_83,batch_norm_80",
			"debug_info": "stem/MobilenetV3/Bottleneck_12/add_1",
			"fused_relu": 0,
			"name": "stem/MobilenetV3/Bottleneck_12/add_1",
			"nd_mode": true,
			"operation": 0,
			"top": "stem/MobilenetV3/Bottleneck_12/add_1",
			"type": "elementwise",
			"weights": {}
		},
		{
			"C": 1008,
			"K": 168,
			"Nx": 1,
			"Ny": 1,
			"blob_biases": 387,
			"bottom": "stem/MobilenetV3/Bottleneck_12/add_1",
			"debug_info": "stem/MobilenetV3/Bottleneck_13/expand/Conv2Dx",
			"fused_relu": 0,
			"fused_tanh": 0,
			"has_batch_norm": 0,
			"has_biases": 1,
			"n_groups": 1,
			"n_parallel": 1,
			"name": "stem/MobilenetV3/Bottleneck_13/expand/Conv2Dx",
			"pad_b": 0,
			"pad_fill_mode": 0,
			"pad_l": 0,
			"pad_mode": 1,
			"pad_r": 0,
			"pad_t": 0,
			"pad_value": 0,
			"top": "batch_norm_84",
			"type": "convolution",
			"weights": {
				"W_U8": 389,
				"per_ch_qbias": 391,
				"per_ch_qscale": 393
			}
		},
		{
			"alpha": 3,
			"beta": 0,
			"bottom": "batch_norm_84",
			"debug_info": "stem/MobilenetV3/Bottleneck_13/expand/add",
			"fused_relu": 0,
			"name": "stem/MobilenetV3/Bottleneck_13/expand/add",
			"operation": 0,
			"top": "stem/MobilenetV3/Bottleneck_13/expand/add",
			"type": "elementwise",
			"weights": {}
		},
		{
			"bottom": "stem/MobilenetV3/Bottleneck_13/expand/add",
			"debug_info": "stem/MobilenetV3/Bottleneck_13/expand/Relu6__relu6_relu__",
			"mode": 0,
			"name": "stem/MobilenetV3/Bottleneck_13/expand/Relu6__relu6_relu__",
			"top": "stem/MobilenetV3/Bottleneck_13/expand/Relu6__relu6_relu__",
			"type": "activation",
			"weights": {}
		},
		{
			"alpha": -1,
			"beta": 0,
			"bottom": "stem/MobilenetV3/Bottleneck_13/expand/Relu6__relu6_relu__",
			"debug_info": "stem/MobilenetV3/Bottleneck_13/expand/Relu6__relu6_neg__",
			"mode": 6,
			"name": "stem/MobilenetV3/Bottleneck_13/expand/Relu6__relu6_neg__",
			"top": "stem/MobilenetV3/Bottleneck_13/expand/Relu6__relu6_neg__",
			"type": "activation",
			"weights": {}
		},
		{
			"alpha": -6,
			"beta": 0,
			"bottom": "stem/MobilenetV3/Bottleneck_13/expand/Relu6__relu6_neg__",
			"debug_info": "stem/MobilenetV3/Bottleneck_13/expand/Relu6__relu6_threshold6__",
			"fused_relu": 0,
			"name": "stem/MobilenetV3/Bottleneck_13/expand/Relu6__relu6_threshold6__",
			"operation": 25,
			"top": "stem/MobilenetV3/Bottleneck_13/expand/Relu6__relu6_threshold6__",
			"type": "elementwise",
			"weights": {}
		},
		{
			"alpha": -1,
			"beta": 0,
			"bottom": "stem/MobilenetV3/Bottleneck_13/expand/Relu6__relu6_threshold6__",
			"debug_info": "stem/MobilenetV3/Bottleneck_13/expand/Relu6",
			"mode": 6,
			"name": "stem/MobilenetV3/Bottleneck_13/expand/Relu6",
			"top": "stem/MobilenetV3/Bottleneck_13/expand/Relu6",
			"type": "activation",
			"weights": {}
		},
		{
			"alpha": 0.1666666716337204,
			"beta": 0,
			"bottom": "stem/MobilenetV3/Bottleneck_13/expand/Relu6",
			"debug_info": "stem/MobilenetV3/Bottleneck_13/expand/mul",
			"fused_relu": 0,
			"name": "stem/MobilenetV3/Bottleneck_13/expand/mul",
			"operation": 1,
			"top": "stem/MobilenetV3/Bottleneck_13/expand/mul",
			"type": "elementwise",
			"weights": {}
		},
		{
			"alpha": 1,
			"beta": 0,
			"bottom": "batch_norm_84,stem/MobilenetV3/Bottleneck_13/expand/mul",
			"debug_info": "stem/MobilenetV3/Bottleneck_13/expand/mul_1",
			"fused_relu": 0,
			"name": "stem/MobilenetV3/Bottleneck_13/expand/mul_1",
			"operation": 1,
			"top": "stem/MobilenetV3/Bottleneck_13/expand/mul_1",
			"type": "elementwise",
			"weights": {}
		},
		{
			"C": 1008,
			"K": 1008,
			"Nx": 3,
			"Ny": 3,
			"blob_biases": 395,
			"bottom": "stem/MobilenetV3/Bottleneck_13/expand/mul_1",
			"debug_info": "stem/MobilenetV3/Bottleneck_13/depthwise/depthwisex",
			"fused_relu": 0,
			"fused_tanh": 0,
			"has_batch_norm": 0,
			"has_biases": 1,
			"n_groups": 1008,
			"n_parallel": 1,
			"name": "stem/MobilenetV3/Bottleneck_13/depthwise/depthwisex",
			"pad_b": 0,
			"pad_fill_mode": 0,
			"pad_l": 0,
			"pad_mode": 1,
			"pad_r": 0,
			"pad_t": 0,
			"pad_value": 0,
			"stride_x": 2,
			"stride_y": 2,
			"top": "batch_norm_85",
			"type": "convolution",
			"weights": {
				"W_U8": 397,
				"per_ch_qbias": 399,
				"per_ch_qscale": 401
			}
		},
		{
			"average_count_exclude_padding": 1,
			"avg_or_max": 0,
			"bottom": "batch_norm_85",
			"debug_info": "stem/MobilenetV3/Bottleneck_13/gap/Mean",
			"is_global": 1,
			"name": "stem/MobilenetV3/Bottleneck_13/gap/Mean",
			"pad_b": 0,
			"pad_fill_mode": 0,
			"pad_l": 0,
			"pad_mode": 2,
			"pad_r": 0,
			"pad_t": 0,
			"pad_value": 0,
			"size_x": 12,
			"size_y": 12,
			"stride_x": 1,
			"stride_y": 1,
			"top": "stem/MobilenetV3/Bottleneck_13/gap/Mean",
			"top_shape_style": 0,
			"type": "pool",
			"weights": {}
		},
		{
			"C": 252,
			"K": 1008,
			"Nx": 1,
			"Ny": 1,
			"blob_biases": 403,
			"bottom": "stem/MobilenetV3/Bottleneck_13/gap/Mean",
			"debug_info": "stem/MobilenetV3/Bottleneck_13/Bottleneck_13/Conv/BiasAdd",
			"fused_relu": 1,
			"fused_tanh": 0,
			"has_batch_norm": 0,
			"has_biases": 1,
			"n_groups": 1,
			"n_parallel": 1,
			"name": "stem/MobilenetV3/Bottleneck_13/Bottleneck_13/Conv/BiasAdd",
			"pad_b": 0,
			"pad_fill_mode": 0,
			"pad_l": 0,
			"pad_mode": 0,
			"pad_r": 0,
			"pad_t": 0,
			"pad_value": 0,
			"top": "stem/MobilenetV3/Bottleneck_13/Bottleneck_13/Conv/Relu",
			"type": "convolution",
			"weights": {
				"W_U8": 405,
				"per_ch_qbias": 407,
				"per_ch_qscale": 409
			}
		},
		{
			"C": 1008,
			"K": 252,
			"Nx": 1,
			"Ny": 1,
			"blob_biases": 411,
			"bottom": "stem/MobilenetV3/Bottleneck_13/Bottleneck_13/Conv/Relu",
			"debug_info": "stem/MobilenetV3/Bottleneck_13/Bottleneck_13_1/Conv_1/add",
			"fused_relu": 1,
			"fused_tanh": 0,
			"has_batch_norm": 0,
			"has_biases": 1,
			"n_groups": 1,
			"n_parallel": 1,
			"name": "stem/MobilenetV3/Bottleneck_13/Bottleneck_13_1/Conv_1/add",
			"pad_b": 0,
			"pad_fill_mode": 0,
			"pad_l": 0,
			"pad_mode": 0,
			"pad_r": 0,
			"pad_t": 0,
			"pad_value": 0,
			"top": "stem/MobilenetV3/Bottleneck_13/Bottleneck_13_1/Conv_1/Relu6__relu6_relu__",
			"type": "convolution",
			"weights": {
				"W_U8": 413,
				"per_ch_qbias": 415,
				"per_ch_qscale": 417
			}
		},
		{
			"alpha": -1,
			"beta": 0,
			"bottom": "stem/MobilenetV3/Bottleneck_13/Bottleneck_13_1/Conv_1/Relu6__relu6_relu__",
			"debug_info": "stem/MobilenetV3/Bottleneck_13/Bottleneck_13_1/Conv_1/Relu6__relu6_neg__",
			"mode": 6,
			"name": "stem/MobilenetV3/Bottleneck_13/Bottleneck_13_1/Conv_1/Relu6__relu6_neg__",
			"top": "stem/MobilenetV3/Bottleneck_13/Bottleneck_13_1/Conv_1/Relu6__relu6_neg__",
			"type": "activation",
			"weights": {}
		},
		{
			"alpha": -6,
			"beta": 0,
			"bottom": "stem/MobilenetV3/Bottleneck_13/Bottleneck_13_1/Conv_1/Relu6__relu6_neg__",
			"debug_info": "stem/MobilenetV3/Bottleneck_13/Bottleneck_13_1/Conv_1/Relu6__relu6_threshold6__",
			"fused_relu": 0,
			"name": "stem/MobilenetV3/Bottleneck_13/Bottleneck_13_1/Conv_1/Relu6__relu6_threshold6__",
			"operation": 25,
			"top": "stem/MobilenetV3/Bottleneck_13/Bottleneck_13_1/Conv_1/Relu6__relu6_threshold6__",
			"type": "elementwise",
			"weights": {}
		},
		{
			"alpha": -1,
			"beta": 0,
			"bottom": "stem/MobilenetV3/Bottleneck_13/Bottleneck_13_1/Conv_1/Relu6__relu6_threshold6__",
			"debug_info": "stem/MobilenetV3/Bottleneck_13/Bottleneck_13_1/Conv_1/Relu6",
			"mode": 6,
			"name": "stem/MobilenetV3/Bottleneck_13/Bottleneck_13_1/Conv_1/Relu6",
			"top": "stem/MobilenetV3/Bottleneck_13/Bottleneck_13_1/Conv_1/Relu6",
			"type": "activation",
			"weights": {}
		},
		{
			"alpha": 0.1666666716337204,
			"beta": 0,
			"bottom": "stem/MobilenetV3/Bottleneck_13/Bottleneck_13_1/Conv_1/Relu6",
			"debug_info": "stem/MobilenetV3/Bottleneck_13/Bottleneck_13_1/Conv_1/mul",
			"fused_relu": 0,
			"name": "stem/MobilenetV3/Bottleneck_13/Bottleneck_13_1/Conv_1/mul",
			"operation": 1,
			"top": "stem/MobilenetV3/Bottleneck_13/Bottleneck_13_1/Conv_1/mul",
			"type": "elementwise",
			"weights": {}
		},
		{
			"alpha": 1,
			"beta": 0,
			"bottom": "batch_norm_85,stem/MobilenetV3/Bottleneck_13/Bottleneck_13_1/Conv_1/mul",
			"debug_info": "stem/MobilenetV3/Bottleneck_13/mul",
			"fused_relu": 0,
			"name": "stem/MobilenetV3/Bottleneck_13/mul",
			"nd_mode": true,
			"operation": 1,
			"top": "stem/MobilenetV3/Bottleneck_13/mul",
			"type": "elementwise",
			"weights": {}
		},
		{
			"alpha": 3,
			"beta": 0,
			"bottom": "stem/MobilenetV3/Bottleneck_13/mul",
			"debug_info": "stem/MobilenetV3/Bottleneck_13/add",
			"fused_relu": 0,
			"name": "stem/MobilenetV3/Bottleneck_13/add",
			"operation": 0,
			"top": "stem/MobilenetV3/Bottleneck_13/add",
			"type": "elementwise",
			"weights": {}
		},
		{
			"bottom": "stem/MobilenetV3/Bottleneck_13/add",
			"debug_info": "stem/MobilenetV3/Bottleneck_13/Relu6__relu6_relu__",
			"mode": 0,
			"name": "stem/MobilenetV3/Bottleneck_13/Relu6__relu6_relu__",
			"top": "stem/MobilenetV3/Bottleneck_13/Relu6__relu6_relu__",
			"type": "activation",
			"weights": {}
		},
		{
			"alpha": -1,
			"beta": 0,
			"bottom": "stem/MobilenetV3/Bottleneck_13/Relu6__relu6_relu__",
			"debug_info": "stem/MobilenetV3/Bottleneck_13/Relu6__relu6_neg__",
			"mode": 6,
			"name": "stem/MobilenetV3/Bottleneck_13/Relu6__relu6_neg__",
			"top": "stem/MobilenetV3/Bottleneck_13/Relu6__relu6_neg__",
			"type": "activation",
			"weights": {}
		},
		{
			"alpha": -6,
			"beta": 0,
			"bottom": "stem/MobilenetV3/Bottleneck_13/Relu6__relu6_neg__",
			"debug_info": "stem/MobilenetV3/Bottleneck_13/Relu6__relu6_threshold6__",
			"fused_relu": 0,
			"name": "stem/MobilenetV3/Bottleneck_13/Relu6__relu6_threshold6__",
			"operation": 25,
			"top": "stem/MobilenetV3/Bottleneck_13/Relu6__relu6_threshold6__",
			"type": "elementwise",
			"weights": {}
		},
		{
			"alpha": -1,
			"beta": 0,
			"bottom": "stem/MobilenetV3/Bottleneck_13/Relu6__relu6_threshold6__",
			"debug_info": "stem/MobilenetV3/Bottleneck_13/Relu6",
			"mode": 6,
			"name": "stem/MobilenetV3/Bottleneck_13/Relu6",
			"top": "stem/MobilenetV3/Bottleneck_13/Relu6",
			"type": "activation",
			"weights": {}
		},
		{
			"alpha": 0.1666666716337204,
			"beta": 0,
			"bottom": "stem/MobilenetV3/Bottleneck_13/Relu6",
			"debug_info": "stem/MobilenetV3/Bottleneck_13/mul_1",
			"fused_relu": 0,
			"name": "stem/MobilenetV3/Bottleneck_13/mul_1",
			"operation": 1,
			"top": "stem/MobilenetV3/Bottleneck_13/mul_1",
			"type": "elementwise",
			"weights": {}
		},
		{
			"alpha": 1,
			"beta": 0,
			"bottom": "stem/MobilenetV3/Bottleneck_13/mul,stem/MobilenetV3/Bottleneck_13/mul_1",
			"debug_info": "stem/MobilenetV3/Bottleneck_13/mul_2",
			"fused_relu": 0,
			"name": "stem/MobilenetV3/Bottleneck_13/mul_2",
			"operation": 1,
			"top": "stem/MobilenetV3/Bottleneck_13/mul_2",
			"type": "elementwise",
			"weights": {}
		},
		{
			"C": 240,
			"K": 1008,
			"Nx": 1,
			"Ny": 1,
			"blob_biases": 419,
			"bottom": "stem/MobilenetV3/Bottleneck_13/mul_2",
			"debug_info": "stem/MobilenetV3/Bottleneck_13/compress/Conv2Dx",
			"fused_relu": 0,
			"fused_tanh": 0,
			"has_batch_norm": 0,
			"has_biases": 1,
			"n_groups": 1,
			"n_parallel": 1,
			"name": "stem/MobilenetV3/Bottleneck_13/compress/Conv2Dx",
			"pad_b": 0,
			"pad_fill_mode": 0,
			"pad_l": 0,
			"pad_mode": 1,
			"pad_r": 0,
			"pad_t": 0,
			"pad_value": 0,
			"top": "batch_norm_86",
			"type": "convolution",
			"weights": {
				"W_U8": 421,
				"per_ch_qbias": 423,
				"per_ch_qscale": 425
			}
		},
		{
			"C": 1440,
			"K": 240,
			"Nx": 1,
			"Ny": 1,
			"blob_biases": 427,
			"bottom": "batch_norm_86",
			"debug_info": "stem/MobilenetV3/Bottleneck_14/expand/Conv2Dx",
			"fused_relu": 0,
			"fused_tanh": 0,
			"has_batch_norm": 0,
			"has_biases": 1,
			"n_groups": 1,
			"n_parallel": 1,
			"name": "stem/MobilenetV3/Bottleneck_14/expand/Conv2Dx",
			"pad_b": 0,
			"pad_fill_mode": 0,
			"pad_l": 0,
			"pad_mode": 1,
			"pad_r": 0,
			"pad_t": 0,
			"pad_value": 0,
			"top": "batch_norm_87",
			"type": "convolution",
			"weights": {
				"W_U8": 429,
				"per_ch_qbias": 431,
				"per_ch_qscale": 433
			}
		},
		{
			"alpha": 3,
			"beta": 0,
			"bottom": "batch_norm_87",
			"debug_info": "stem/MobilenetV3/Bottleneck_14/expand/add",
			"fused_relu": 0,
			"name": "stem/MobilenetV3/Bottleneck_14/expand/add",
			"operation": 0,
			"top": "stem/MobilenetV3/Bottleneck_14/expand/add",
			"type": "elementwise",
			"weights": {}
		},
		{
			"bottom": "stem/MobilenetV3/Bottleneck_14/expand/add",
			"debug_info": "stem/MobilenetV3/Bottleneck_14/expand/Relu6__relu6_relu__",
			"mode": 0,
			"name": "stem/MobilenetV3/Bottleneck_14/expand/Relu6__relu6_relu__",
			"top": "stem/MobilenetV3/Bottleneck_14/expand/Relu6__relu6_relu__",
			"type": "activation",
			"weights": {}
		},
		{
			"alpha": -1,
			"beta": 0,
			"bottom": "stem/MobilenetV3/Bottleneck_14/expand/Relu6__relu6_relu__",
			"debug_info": "stem/MobilenetV3/Bottleneck_14/expand/Relu6__relu6_neg__",
			"mode": 6,
			"name": "stem/MobilenetV3/Bottleneck_14/expand/Relu6__relu6_neg__",
			"top": "stem/MobilenetV3/Bottleneck_14/expand/Relu6__relu6_neg__",
			"type": "activation",
			"weights": {}
		},
		{
			"alpha": -6,
			"beta": 0,
			"bottom": "stem/MobilenetV3/Bottleneck_14/expand/Relu6__relu6_neg__",
			"debug_info": "stem/MobilenetV3/Bottleneck_14/expand/Relu6__relu6_threshold6__",
			"fused_relu": 0,
			"name": "stem/MobilenetV3/Bottleneck_14/expand/Relu6__relu6_threshold6__",
			"operation": 25,
			"top": "stem/MobilenetV3/Bottleneck_14/expand/Relu6__relu6_threshold6__",
			"type": "elementwise",
			"weights": {}
		},
		{
			"alpha": -1,
			"beta": 0,
			"bottom": "stem/MobilenetV3/Bottleneck_14/expand/Relu6__relu6_threshold6__",
			"debug_info": "stem/MobilenetV3/Bottleneck_14/expand/Relu6",
			"mode": 6,
			"name": "stem/MobilenetV3/Bottleneck_14/expand/Relu6",
			"top": "stem/MobilenetV3/Bottleneck_14/expand/Relu6",
			"type": "activation",
			"weights": {}
		},
		{
			"alpha": 0.1666666716337204,
			"beta": 0,
			"bottom": "stem/MobilenetV3/Bottleneck_14/expand/Relu6",
			"debug_info": "stem/MobilenetV3/Bottleneck_14/expand/mul",
			"fused_relu": 0,
			"name": "stem/MobilenetV3/Bottleneck_14/expand/mul",
			"operation": 1,
			"top": "stem/MobilenetV3/Bottleneck_14/expand/mul",
			"type": "elementwise",
			"weights": {}
		},
		{
			"alpha": 1,
			"beta": 0,
			"bottom": "batch_norm_87,stem/MobilenetV3/Bottleneck_14/expand/mul",
			"debug_info": "stem/MobilenetV3/Bottleneck_14/expand/mul_1",
			"fused_relu": 0,
			"name": "stem/MobilenetV3/Bottleneck_14/expand/mul_1",
			"operation": 1,
			"top": "stem/MobilenetV3/Bottleneck_14/expand/mul_1",
			"type": "elementwise",
			"weights": {}
		},
		{
			"C": 1440,
			"K": 1440,
			"Nx": 3,
			"Ny": 3,
			"blob_biases": 435,
			"bottom": "stem/MobilenetV3/Bottleneck_14/expand/mul_1",
			"debug_info": "stem/MobilenetV3/Bottleneck_14/depthwise/depthwisex",
			"fused_relu": 0,
			"fused_tanh": 0,
			"has_batch_norm": 0,
			"has_biases": 1,
			"n_groups": 1440,
			"n_parallel": 1,
			"name": "stem/MobilenetV3/Bottleneck_14/depthwise/depthwisex",
			"pad_b": 0,
			"pad_fill_mode": 0,
			"pad_l": 0,
			"pad_mode": 1,
			"pad_r": 0,
			"pad_t": 0,
			"pad_value": 0,
			"top": "batch_norm_88",
			"type": "convolution",
			"weights": {
				"W_U8": 437,
				"per_ch_qbias": 439,
				"per_ch_qscale": 441
			}
		},
		{
			"average_count_exclude_padding": 1,
			"avg_or_max": 0,
			"bottom": "batch_norm_88",
			"debug_info": "stem/MobilenetV3/Bottleneck_14/gap/Mean",
			"is_global": 1,
			"name": "stem/MobilenetV3/Bottleneck_14/gap/Mean",
			"pad_b": 0,
			"pad_fill_mode": 0,
			"pad_l": 0,
			"pad_mode": 2,
			"pad_r": 0,
			"pad_t": 0,
			"pad_value": 0,
			"size_x": 12,
			"size_y": 12,
			"stride_x": 1,
			"stride_y": 1,
			"top": "stem/MobilenetV3/Bottleneck_14/gap/Mean",
			"top_shape_style": 0,
			"type": "pool",
			"weights": {}
		},
		{
			"C": 360,
			"K": 1440,
			"Nx": 1,
			"Ny": 1,
			"blob_biases": 443,
			"bottom": "stem/MobilenetV3/Bottleneck_14/gap/Mean",
			"debug_info": "stem/MobilenetV3/Bottleneck_14/Bottleneck_14/Conv/BiasAdd",
			"fused_relu": 1,
			"fused_tanh": 0,
			"has_batch_norm": 0,
			"has_biases": 1,
			"n_groups": 1,
			"n_parallel": 1,
			"name": "stem/MobilenetV3/Bottleneck_14/Bottleneck_14/Conv/BiasAdd",
			"pad_b": 0,
			"pad_fill_mode": 0,
			"pad_l": 0,
			"pad_mode": 0,
			"pad_r": 0,
			"pad_t": 0,
			"pad_value": 0,
			"top": "stem/MobilenetV3/Bottleneck_14/Bottleneck_14/Conv/Relu",
			"type": "convolution",
			"weights": {
				"W_U8": 445,
				"per_ch_qbias": 447,
				"per_ch_qscale": 449
			}
		},
		{
			"C": 1440,
			"K": 360,
			"Nx": 1,
			"Ny": 1,
			"blob_biases": 451,
			"bottom": "stem/MobilenetV3/Bottleneck_14/Bottleneck_14/Conv/Relu",
			"debug_info": "stem/MobilenetV3/Bottleneck_14/Bottleneck_14_1/Conv_1/add",
			"fused_relu": 1,
			"fused_tanh": 0,
			"has_batch_norm": 0,
			"has_biases": 1,
			"n_groups": 1,
			"n_parallel": 1,
			"name": "stem/MobilenetV3/Bottleneck_14/Bottleneck_14_1/Conv_1/add",
			"pad_b": 0,
			"pad_fill_mode": 0,
			"pad_l": 0,
			"pad_mode": 0,
			"pad_r": 0,
			"pad_t": 0,
			"pad_value": 0,
			"top": "stem/MobilenetV3/Bottleneck_14/Bottleneck_14_1/Conv_1/Relu6__relu6_relu__",
			"type": "convolution",
			"weights": {
				"W_U8": 453,
				"per_ch_qbias": 455,
				"per_ch_qscale": 457
			}
		},
		{
			"alpha": -1,
			"beta": 0,
			"bottom": "stem/MobilenetV3/Bottleneck_14/Bottleneck_14_1/Conv_1/Relu6__relu6_relu__",
			"debug_info": "stem/MobilenetV3/Bottleneck_14/Bottleneck_14_1/Conv_1/Relu6__relu6_neg__",
			"mode": 6,
			"name": "stem/MobilenetV3/Bottleneck_14/Bottleneck_14_1/Conv_1/Relu6__relu6_neg__",
			"top": "stem/MobilenetV3/Bottleneck_14/Bottleneck_14_1/Conv_1/Relu6__relu6_neg__",
			"type": "activation",
			"weights": {}
		},
		{
			"alpha": -6,
			"beta": 0,
			"bottom": "stem/MobilenetV3/Bottleneck_14/Bottleneck_14_1/Conv_1/Relu6__relu6_neg__",
			"debug_info": "stem/MobilenetV3/Bottleneck_14/Bottleneck_14_1/Conv_1/Relu6__relu6_threshold6__",
			"fused_relu": 0,
			"name": "stem/MobilenetV3/Bottleneck_14/Bottleneck_14_1/Conv_1/Relu6__relu6_threshold6__",
			"operation": 25,
			"top": "stem/MobilenetV3/Bottleneck_14/Bottleneck_14_1/Conv_1/Relu6__relu6_threshold6__",
			"type": "elementwise",
			"weights": {}
		},
		{
			"alpha": -1,
			"beta": 0,
			"bottom": "stem/MobilenetV3/Bottleneck_14/Bottleneck_14_1/Conv_1/Relu6__relu6_threshold6__",
			"debug_info": "stem/MobilenetV3/Bottleneck_14/Bottleneck_14_1/Conv_1/Relu6",
			"mode": 6,
			"name": "stem/MobilenetV3/Bottleneck_14/Bottleneck_14_1/Conv_1/Relu6",
			"top": "stem/MobilenetV3/Bottleneck_14/Bottleneck_14_1/Conv_1/Relu6",
			"type": "activation",
			"weights": {}
		},
		{
			"alpha": 0.1666666716337204,
			"beta": 0,
			"bottom": "stem/MobilenetV3/Bottleneck_14/Bottleneck_14_1/Conv_1/Relu6",
			"debug_info": "stem/MobilenetV3/Bottleneck_14/Bottleneck_14_1/Conv_1/mul",
			"fused_relu": 0,
			"name": "stem/MobilenetV3/Bottleneck_14/Bottleneck_14_1/Conv_1/mul",
			"operation": 1,
			"top": "stem/MobilenetV3/Bottleneck_14/Bottleneck_14_1/Conv_1/mul",
			"type": "elementwise",
			"weights": {}
		},
		{
			"alpha": 1,
			"beta": 0,
			"bottom": "batch_norm_88,stem/MobilenetV3/Bottleneck_14/Bottleneck_14_1/Conv_1/mul",
			"debug_info": "stem/MobilenetV3/Bottleneck_14/mul",
			"fused_relu": 0,
			"name": "stem/MobilenetV3/Bottleneck_14/mul",
			"nd_mode": true,
			"operation": 1,
			"top": "stem/MobilenetV3/Bottleneck_14/mul",
			"type": "elementwise",
			"weights": {}
		},
		{
			"alpha": 3,
			"beta": 0,
			"bottom": "stem/MobilenetV3/Bottleneck_14/mul",
			"debug_info": "stem/MobilenetV3/Bottleneck_14/add",
			"fused_relu": 0,
			"name": "stem/MobilenetV3/Bottleneck_14/add",
			"operation": 0,
			"top": "stem/MobilenetV3/Bottleneck_14/add",
			"type": "elementwise",
			"weights": {}
		},
		{
			"bottom": "stem/MobilenetV3/Bottleneck_14/add",
			"debug_info": "stem/MobilenetV3/Bottleneck_14/Relu6__relu6_relu__",
			"mode": 0,
			"name": "stem/MobilenetV3/Bottleneck_14/Relu6__relu6_relu__",
			"top": "stem/MobilenetV3/Bottleneck_14/Relu6__relu6_relu__",
			"type": "activation",
			"weights": {}
		},
		{
			"alpha": -1,
			"beta": 0,
			"bottom": "stem/MobilenetV3/Bottleneck_14/Relu6__relu6_relu__",
			"debug_info": "stem/MobilenetV3/Bottleneck_14/Relu6__relu6_neg__",
			"mode": 6,
			"name": "stem/MobilenetV3/Bottleneck_14/Relu6__relu6_neg__",
			"top": "stem/MobilenetV3/Bottleneck_14/Relu6__relu6_neg__",
			"type": "activation",
			"weights": {}
		},
		{
			"alpha": -6,
			"beta": 0,
			"bottom": "stem/MobilenetV3/Bottleneck_14/Relu6__relu6_neg__",
			"debug_info": "stem/MobilenetV3/Bottleneck_14/Relu6__relu6_threshold6__",
			"fused_relu": 0,
			"name": "stem/MobilenetV3/Bottleneck_14/Relu6__relu6_threshold6__",
			"operation": 25,
			"top": "stem/MobilenetV3/Bottleneck_14/Relu6__relu6_threshold6__",
			"type": "elementwise",
			"weights": {}
		},
		{
			"alpha": -1,
			"beta": 0,
			"bottom": "stem/MobilenetV3/Bottleneck_14/Relu6__relu6_threshold6__",
			"debug_info": "stem/MobilenetV3/Bottleneck_14/Relu6",
			"mode": 6,
			"name": "stem/MobilenetV3/Bottleneck_14/Relu6",
			"top": "stem/MobilenetV3/Bottleneck_14/Relu6",
			"type": "activation",
			"weights": {}
		},
		{
			"alpha": 0.1666666716337204,
			"beta": 0,
			"bottom": "stem/MobilenetV3/Bottleneck_14/Relu6",
			"debug_info": "stem/MobilenetV3/Bottleneck_14/mul_1",
			"fused_relu": 0,
			"name": "stem/MobilenetV3/Bottleneck_14/mul_1",
			"operation": 1,
			"top": "stem/MobilenetV3/Bottleneck_14/mul_1",
			"type": "elementwise",
			"weights": {}
		},
		{
			"alpha": 1,
			"beta": 0,
			"bottom": "stem/MobilenetV3/Bottleneck_14/mul,stem/MobilenetV3/Bottleneck_14/mul_1",
			"debug_info": "stem/MobilenetV3/Bottleneck_14/mul_2",
			"fused_relu": 0,
			"name": "stem/MobilenetV3/Bottleneck_14/mul_2",
			"operation": 1,
			"top": "stem/MobilenetV3/Bottleneck_14/mul_2",
			"type": "elementwise",
			"weights": {}
		},
		{
			"C": 240,
			"K": 1440,
			"Nx": 1,
			"Ny": 1,
			"blob_biases": 459,
			"bottom": "stem/MobilenetV3/Bottleneck_14/mul_2",
			"debug_info": "stem/MobilenetV3/Bottleneck_14/compress/Conv2Dx",
			"fused_relu": 0,
			"fused_tanh": 0,
			"has_batch_norm": 0,
			"has_biases": 1,
			"n_groups": 1,
			"n_parallel": 1,
			"name": "stem/MobilenetV3/Bottleneck_14/compress/Conv2Dx",
			"pad_b": 0,
			"pad_fill_mode": 0,
			"pad_l": 0,
			"pad_mode": 1,
			"pad_r": 0,
			"pad_t": 0,
			"pad_value": 0,
			"top": "batch_norm_89",
			"type": "convolution",
			"weights": {
				"W_U8": 461,
				"per_ch_qbias": 463,
				"per_ch_qscale": 465
			}
		},
		{
			"alpha": 1,
			"beta": 0,
			"bottom": "batch_norm_89,batch_norm_86",
			"debug_info": "stem/MobilenetV3/Bottleneck_14/add_1",
			"fused_relu": 0,
			"name": "stem/MobilenetV3/Bottleneck_14/add_1",
			"nd_mode": true,
			"operation": 0,
			"top": "stem/MobilenetV3/Bottleneck_14/add_1",
			"type": "elementwise",
			"weights": {}
		},
		{
			"C": 1440,
			"K": 240,
			"Nx": 1,
			"Ny": 1,
			"blob_biases": 467,
			"bottom": "stem/MobilenetV3/Bottleneck_14/add_1",
			"debug_info": "stem/MobilenetV3/Bottleneck_15/expand/Conv2Dx",
			"fused_relu": 0,
			"fused_tanh": 0,
			"has_batch_norm": 0,
			"has_biases": 1,
			"n_groups": 1,
			"n_parallel": 1,
			"name": "stem/MobilenetV3/Bottleneck_15/expand/Conv2Dx",
			"pad_b": 0,
			"pad_fill_mode": 0,
			"pad_l": 0,
			"pad_mode": 1,
			"pad_r": 0,
			"pad_t": 0,
			"pad_value": 0,
			"top": "batch_norm_90",
			"type": "convolution",
			"weights": {
				"W_U8": 469,
				"per_ch_qbias": 471,
				"per_ch_qscale": 473
			}
		},
		{
			"alpha": 3,
			"beta": 0,
			"bottom": "batch_norm_90",
			"debug_info": "stem/MobilenetV3/Bottleneck_15/expand/add",
			"fused_relu": 0,
			"name": "stem/MobilenetV3/Bottleneck_15/expand/add",
			"operation": 0,
			"top": "stem/MobilenetV3/Bottleneck_15/expand/add",
			"type": "elementwise",
			"weights": {}
		},
		{
			"bottom": "stem/MobilenetV3/Bottleneck_15/expand/add",
			"debug_info": "stem/MobilenetV3/Bottleneck_15/expand/Relu6__relu6_relu__",
			"mode": 0,
			"name": "stem/MobilenetV3/Bottleneck_15/expand/Relu6__relu6_relu__",
			"top": "stem/MobilenetV3/Bottleneck_15/expand/Relu6__relu6_relu__",
			"type": "activation",
			"weights": {}
		},
		{
			"alpha": -1,
			"beta": 0,
			"bottom": "stem/MobilenetV3/Bottleneck_15/expand/Relu6__relu6_relu__",
			"debug_info": "stem/MobilenetV3/Bottleneck_15/expand/Relu6__relu6_neg__",
			"mode": 6,
			"name": "stem/MobilenetV3/Bottleneck_15/expand/Relu6__relu6_neg__",
			"top": "stem/MobilenetV3/Bottleneck_15/expand/Relu6__relu6_neg__",
			"type": "activation",
			"weights": {}
		},
		{
			"alpha": -6,
			"beta": 0,
			"bottom": "stem/MobilenetV3/Bottleneck_15/expand/Relu6__relu6_neg__",
			"debug_info": "stem/MobilenetV3/Bottleneck_15/expand/Relu6__relu6_threshold6__",
			"fused_relu": 0,
			"name": "stem/MobilenetV3/Bottleneck_15/expand/Relu6__relu6_threshold6__",
			"operation": 25,
			"top": "stem/MobilenetV3/Bottleneck_15/expand/Relu6__relu6_threshold6__",
			"type": "elementwise",
			"weights": {}
		},
		{
			"alpha": -1,
			"beta": 0,
			"bottom": "stem/MobilenetV3/Bottleneck_15/expand/Relu6__relu6_threshold6__",
			"debug_info": "stem/MobilenetV3/Bottleneck_15/expand/Relu6",
			"mode": 6,
			"name": "stem/MobilenetV3/Bottleneck_15/expand/Relu6",
			"top": "stem/MobilenetV3/Bottleneck_15/expand/Relu6",
			"type": "activation",
			"weights": {}
		},
		{
			"alpha": 0.1666666716337204,
			"beta": 0,
			"bottom": "stem/MobilenetV3/Bottleneck_15/expand/Relu6",
			"debug_info": "stem/MobilenetV3/Bottleneck_15/expand/mul",
			"fused_relu": 0,
			"name": "stem/MobilenetV3/Bottleneck_15/expand/mul",
			"operation": 1,
			"top": "stem/MobilenetV3/Bottleneck_15/expand/mul",
			"type": "elementwise",
			"weights": {}
		},
		{
			"alpha": 1,
			"beta": 0,
			"bottom": "batch_norm_90,stem/MobilenetV3/Bottleneck_15/expand/mul",
			"debug_info": "stem/MobilenetV3/Bottleneck_15/expand/mul_1",
			"fused_relu": 0,
			"name": "stem/MobilenetV3/Bottleneck_15/expand/mul_1",
			"operation": 1,
			"top": "stem/MobilenetV3/Bottleneck_15/expand/mul_1",
			"type": "elementwise",
			"weights": {}
		},
		{
			"C": 1440,
			"K": 1440,
			"Nx": 3,
			"Ny": 3,
			"blob_biases": 475,
			"bottom": "stem/MobilenetV3/Bottleneck_15/expand/mul_1",
			"debug_info": "stem/MobilenetV3/Bottleneck_15/depthwise/depthwisex",
			"fused_relu": 0,
			"fused_tanh": 0,
			"has_batch_norm": 0,
			"has_biases": 1,
			"n_groups": 1440,
			"n_parallel": 1,
			"name": "stem/MobilenetV3/Bottleneck_15/depthwise/depthwisex",
			"pad_b": 0,
			"pad_fill_mode": 0,
			"pad_l": 0,
			"pad_mode": 1,
			"pad_r": 0,
			"pad_t": 0,
			"pad_value": 0,
			"top": "batch_norm_91",
			"type": "convolution",
			"weights": {
				"W_U8": 477,
				"per_ch_qbias": 479,
				"per_ch_qscale": 481
			}
		},
		{
			"average_count_exclude_padding": 1,
			"avg_or_max": 0,
			"bottom": "batch_norm_91",
			"debug_info": "stem/MobilenetV3/Bottleneck_15/gap/Mean",
			"is_global": 1,
			"name": "stem/MobilenetV3/Bottleneck_15/gap/Mean",
			"pad_b": 0,
			"pad_fill_mode": 0,
			"pad_l": 0,
			"pad_mode": 2,
			"pad_r": 0,
			"pad_t": 0,
			"pad_value": 0,
			"size_x": 12,
			"size_y": 12,
			"stride_x": 1,
			"stride_y": 1,
			"top": "stem/MobilenetV3/Bottleneck_15/gap/Mean",
			"top_shape_style": 0,
			"type": "pool",
			"weights": {}
		},
		{
			"C": 360,
			"K": 1440,
			"Nx": 1,
			"Ny": 1,
			"blob_biases": 483,
			"bottom": "stem/MobilenetV3/Bottleneck_15/gap/Mean",
			"debug_info": "stem/MobilenetV3/Bottleneck_15/Bottleneck_15/Conv/BiasAdd",
			"fused_relu": 1,
			"fused_tanh": 0,
			"has_batch_norm": 0,
			"has_biases": 1,
			"n_groups": 1,
			"n_parallel": 1,
			"name": "stem/MobilenetV3/Bottleneck_15/Bottleneck_15/Conv/BiasAdd",
			"pad_b": 0,
			"pad_fill_mode": 0,
			"pad_l": 0,
			"pad_mode": 0,
			"pad_r": 0,
			"pad_t": 0,
			"pad_value": 0,
			"top": "stem/MobilenetV3/Bottleneck_15/Bottleneck_15/Conv/Relu",
			"type": "convolution",
			"weights": {
				"W_U8": 485,
				"per_ch_qbias": 487,
				"per_ch_qscale": 489
			}
		},
		{
			"C": 1440,
			"K": 360,
			"Nx": 1,
			"Ny": 1,
			"blob_biases": 491,
			"bottom": "stem/MobilenetV3/Bottleneck_15/Bottleneck_15/Conv/Relu",
			"debug_info": "stem/MobilenetV3/Bottleneck_15/Bottleneck_15_1/Conv_1/add",
			"fused_relu": 1,
			"fused_tanh": 0,
			"has_batch_norm": 0,
			"has_biases": 1,
			"n_groups": 1,
			"n_parallel": 1,
			"name": "stem/MobilenetV3/Bottleneck_15/Bottleneck_15_1/Conv_1/add",
			"pad_b": 0,
			"pad_fill_mode": 0,
			"pad_l": 0,
			"pad_mode": 0,
			"pad_r": 0,
			"pad_t": 0,
			"pad_value": 0,
			"top": "stem/MobilenetV3/Bottleneck_15/Bottleneck_15_1/Conv_1/Relu6__relu6_relu__",
			"type": "convolution",
			"weights": {
				"W_U8": 493,
				"per_ch_qbias": 495,
				"per_ch_qscale": 497
			}
		},
		{
			"alpha": -1,
			"beta": 0,
			"bottom": "stem/MobilenetV3/Bottleneck_15/Bottleneck_15_1/Conv_1/Relu6__relu6_relu__",
			"debug_info": "stem/MobilenetV3/Bottleneck_15/Bottleneck_15_1/Conv_1/Relu6__relu6_neg__",
			"mode": 6,
			"name": "stem/MobilenetV3/Bottleneck_15/Bottleneck_15_1/Conv_1/Relu6__relu6_neg__",
			"top": "stem/MobilenetV3/Bottleneck_15/Bottleneck_15_1/Conv_1/Relu6__relu6_neg__",
			"type": "activation",
			"weights": {}
		},
		{
			"alpha": -6,
			"beta": 0,
			"bottom": "stem/MobilenetV3/Bottleneck_15/Bottleneck_15_1/Conv_1/Relu6__relu6_neg__",
			"debug_info": "stem/MobilenetV3/Bottleneck_15/Bottleneck_15_1/Conv_1/Relu6__relu6_threshold6__",
			"fused_relu": 0,
			"name": "stem/MobilenetV3/Bottleneck_15/Bottleneck_15_1/Conv_1/Relu6__relu6_threshold6__",
			"operation": 25,
			"top": "stem/MobilenetV3/Bottleneck_15/Bottleneck_15_1/Conv_1/Relu6__relu6_threshold6__",
			"type": "elementwise",
			"weights": {}
		},
		{
			"alpha": -1,
			"beta": 0,
			"bottom": "stem/MobilenetV3/Bottleneck_15/Bottleneck_15_1/Conv_1/Relu6__relu6_threshold6__",
			"debug_info": "stem/MobilenetV3/Bottleneck_15/Bottleneck_15_1/Conv_1/Relu6",
			"mode": 6,
			"name": "stem/MobilenetV3/Bottleneck_15/Bottleneck_15_1/Conv_1/Relu6",
			"top": "stem/MobilenetV3/Bottleneck_15/Bottleneck_15_1/Conv_1/Relu6",
			"type": "activation",
			"weights": {}
		},
		{
			"alpha": 0.1666666716337204,
			"beta": 0,
			"bottom": "stem/MobilenetV3/Bottleneck_15/Bottleneck_15_1/Conv_1/Relu6",
			"debug_info": "stem/MobilenetV3/Bottleneck_15/Bottleneck_15_1/Conv_1/mul",
			"fused_relu": 0,
			"name": "stem/MobilenetV3/Bottleneck_15/Bottleneck_15_1/Conv_1/mul",
			"operation": 1,
			"top": "stem/MobilenetV3/Bottleneck_15/Bottleneck_15_1/Conv_1/mul",
			"type": "elementwise",
			"weights": {}
		},
		{
			"alpha": 1,
			"beta": 0,
			"bottom": "batch_norm_91,stem/MobilenetV3/Bottleneck_15/Bottleneck_15_1/Conv_1/mul",
			"debug_info": "stem/MobilenetV3/Bottleneck_15/mul",
			"fused_relu": 0,
			"name": "stem/MobilenetV3/Bottleneck_15/mul",
			"nd_mode": true,
			"operation": 1,
			"top": "stem/MobilenetV3/Bottleneck_15/mul",
			"type": "elementwise",
			"weights": {}
		},
		{
			"alpha": 3,
			"beta": 0,
			"bottom": "stem/MobilenetV3/Bottleneck_15/mul",
			"debug_info": "stem/MobilenetV3/Bottleneck_15/add",
			"fused_relu": 0,
			"name": "stem/MobilenetV3/Bottleneck_15/add",
			"operation": 0,
			"top": "stem/MobilenetV3/Bottleneck_15/add",
			"type": "elementwise",
			"weights": {}
		},
		{
			"bottom": "stem/MobilenetV3/Bottleneck_15/add",
			"debug_info": "stem/MobilenetV3/Bottleneck_15/Relu6__relu6_relu__",
			"mode": 0,
			"name": "stem/MobilenetV3/Bottleneck_15/Relu6__relu6_relu__",
			"top": "stem/MobilenetV3/Bottleneck_15/Relu6__relu6_relu__",
			"type": "activation",
			"weights": {}
		},
		{
			"alpha": -1,
			"beta": 0,
			"bottom": "stem/MobilenetV3/Bottleneck_15/Relu6__relu6_relu__",
			"debug_info": "stem/MobilenetV3/Bottleneck_15/Relu6__relu6_neg__",
			"mode": 6,
			"name": "stem/MobilenetV3/Bottleneck_15/Relu6__relu6_neg__",
			"top": "stem/MobilenetV3/Bottleneck_15/Relu6__relu6_neg__",
			"type": "activation",
			"weights": {}
		},
		{
			"alpha": -6,
			"beta": 0,
			"bottom": "stem/MobilenetV3/Bottleneck_15/Relu6__relu6_neg__",
			"debug_info": "stem/MobilenetV3/Bottleneck_15/Relu6__relu6_threshold6__",
			"fused_relu": 0,
			"name": "stem/MobilenetV3/Bottleneck_15/Relu6__relu6_threshold6__",
			"operation": 25,
			"top": "stem/MobilenetV3/Bottleneck_15/Relu6__relu6_threshold6__",
			"type": "elementwise",
			"weights": {}
		},
		{
			"alpha": -1,
			"beta": 0,
			"bottom": "stem/MobilenetV3/Bottleneck_15/Relu6__relu6_threshold6__",
			"debug_info": "stem/MobilenetV3/Bottleneck_15/Relu6",
			"mode": 6,
			"name": "stem/MobilenetV3/Bottleneck_15/Relu6",
			"top": "stem/MobilenetV3/Bottleneck_15/Relu6",
			"type": "activation",
			"weights": {}
		},
		{
			"alpha": 0.1666666716337204,
			"beta": 0,
			"bottom": "stem/MobilenetV3/Bottleneck_15/Relu6",
			"debug_info": "stem/MobilenetV3/Bottleneck_15/mul_1",
			"fused_relu": 0,
			"name": "stem/MobilenetV3/Bottleneck_15/mul_1",
			"operation": 1,
			"top": "stem/MobilenetV3/Bottleneck_15/mul_1",
			"type": "elementwise",
			"weights": {}
		},
		{
			"alpha": 1,
			"beta": 0,
			"bottom": "stem/MobilenetV3/Bottleneck_15/mul,stem/MobilenetV3/Bottleneck_15/mul_1",
			"debug_info": "stem/MobilenetV3/Bottleneck_15/mul_2",
			"fused_relu": 0,
			"name": "stem/MobilenetV3/Bottleneck_15/mul_2",
			"operation": 1,
			"top": "stem/MobilenetV3/Bottleneck_15/mul_2",
			"type": "elementwise",
			"weights": {}
		},
		{
			"C": 240,
			"K": 1440,
			"Nx": 1,
			"Ny": 1,
			"blob_biases": 499,
			"bottom": "stem/MobilenetV3/Bottleneck_15/mul_2",
			"debug_info": "stem/MobilenetV3/Bottleneck_15/compress/Conv2Dx",
			"fused_relu": 0,
			"fused_tanh": 0,
			"has_batch_norm": 0,
			"has_biases": 1,
			"n_groups": 1,
			"n_parallel": 1,
			"name": "stem/MobilenetV3/Bottleneck_15/compress/Conv2Dx",
			"pad_b": 0,
			"pad_fill_mode": 0,
			"pad_l": 0,
			"pad_mode": 1,
			"pad_r": 0,
			"pad_t": 0,
			"pad_value": 0,
			"top": "batch_norm_92",
			"type": "convolution",
			"weights": {
				"W_U8": 501,
				"per_ch_qbias": 503,
				"per_ch_qscale": 505
			}
		},
		{
			"alpha": 1,
			"beta": 0,
			"bottom": "batch_norm_92,stem/MobilenetV3/Bottleneck_14/add_1",
			"debug_info": "stem/MobilenetV3/Bottleneck_15/add_1",
			"fused_relu": 0,
			"name": "stem/MobilenetV3/Bottleneck_15/add_1",
			"nd_mode": true,
			"operation": 0,
			"top": "stem/MobilenetV3/Bottleneck_15/add_1",
			"type": "elementwise",
			"weights": {}
		},
		{
			"C": 1440,
			"K": 240,
			"Nx": 1,
			"Ny": 1,
			"blob_biases": 507,
			"bottom": "stem/MobilenetV3/Bottleneck_15/add_1",
			"debug_info": "stem/MobilenetV3/Conv2d_16/Conv2Dx",
			"fused_relu": 0,
			"fused_tanh": 0,
			"has_batch_norm": 0,
			"has_biases": 1,
			"n_groups": 1,
			"n_parallel": 1,
			"name": "stem/MobilenetV3/Conv2d_16/Conv2Dx",
			"pad_b": 0,
			"pad_fill_mode": 0,
			"pad_l": 0,
			"pad_mode": 1,
			"pad_r": 0,
			"pad_t": 0,
			"pad_value": 0,
			"top": "batch_norm_93",
			"type": "convolution",
			"weights": {
				"W_U8": 509,
				"per_ch_qbias": 511,
				"per_ch_qscale": 513
			}
		},
		{
			"alpha": 3,
			"beta": 0,
			"bottom": "batch_norm_93",
			"debug_info": "stem/MobilenetV3/Conv2d_16/add",
			"fused_relu": 0,
			"name": "stem/MobilenetV3/Conv2d_16/add",
			"operation": 0,
			"top": "stem/MobilenetV3/Conv2d_16/add",
			"type": "elementwise",
			"weights": {}
		},
		{
			"bottom": "stem/MobilenetV3/Conv2d_16/add",
			"debug_info": "stem/MobilenetV3/Conv2d_16/Relu6__relu6_relu__",
			"mode": 0,
			"name": "stem/MobilenetV3/Conv2d_16/Relu6__relu6_relu__",
			"top": "stem/MobilenetV3/Conv2d_16/Relu6__relu6_relu__",
			"type": "activation",
			"weights": {}
		},
		{
			"alpha": -1,
			"beta": 0,
			"bottom": "stem/MobilenetV3/Conv2d_16/Relu6__relu6_relu__",
			"debug_info": "stem/MobilenetV3/Conv2d_16/Relu6__relu6_neg__",
			"mode": 6,
			"name": "stem/MobilenetV3/Conv2d_16/Relu6__relu6_neg__",
			"top": "stem/MobilenetV3/Conv2d_16/Relu6__relu6_neg__",
			"type": "activation",
			"weights": {}
		},
		{
			"alpha": -6,
			"beta": 0,
			"bottom": "stem/MobilenetV3/Conv2d_16/Relu6__relu6_neg__",
			"debug_info": "stem/MobilenetV3/Conv2d_16/Relu6__relu6_threshold6__",
			"fused_relu": 0,
			"name": "stem/MobilenetV3/Conv2d_16/Relu6__relu6_threshold6__",
			"operation": 25,
			"top": "stem/MobilenetV3/Conv2d_16/Relu6__relu6_threshold6__",
			"type": "elementwise",
			"weights": {}
		},
		{
			"alpha": -1,
			"beta": 0,
			"bottom": "stem/MobilenetV3/Conv2d_16/Relu6__relu6_threshold6__",
			"debug_info": "stem/MobilenetV3/Conv2d_16/Relu6",
			"mode": 6,
			"name": "stem/MobilenetV3/Conv2d_16/Relu6",
			"top": "stem/MobilenetV3/Conv2d_16/Relu6",
			"type": "activation",
			"weights": {}
		},
		{
			"alpha": 0.1666666716337204,
			"beta": 0,
			"bottom": "stem/MobilenetV3/Conv2d_16/Relu6",
			"debug_info": "stem/MobilenetV3/Conv2d_16/mul",
			"fused_relu": 0,
			"name": "stem/MobilenetV3/Conv2d_16/mul",
			"operation": 1,
			"top": "stem/MobilenetV3/Conv2d_16/mul",
			"type": "elementwise",
			"weights": {}
		},
		{
			"alpha": 1,
			"beta": 0,
			"bottom": "batch_norm_93,stem/MobilenetV3/Conv2d_16/mul",
			"debug_info": "stem/MobilenetV3/Conv2d_16/mul_1",
			"fused_relu": 0,
			"name": "stem/MobilenetV3/Conv2d_16/mul_1",
			"operation": 1,
			"top": "stem/MobilenetV3/Conv2d_16/mul_1",
			"type": "elementwise",
			"weights": {}
		},
		{
			"average_count_exclude_padding": 1,
			"avg_or_max": 0,
			"bottom": "stem/MobilenetV3/Conv2d_16/mul_1",
			"debug_info": "stem/MobilenetV3/Mean",
			"is_global": 1,
			"name": "stem/MobilenetV3/Mean",
			"pad_b": 0,
			"pad_fill_mode": 0,
			"pad_l": 0,
			"pad_mode": 2,
			"pad_r": 0,
			"pad_t": 0,
			"pad_value": 0,
			"size_x": 12,
			"size_y": 12,
			"stride_x": 1,
			"stride_y": 1,
			"top": "stem/MobilenetV3/Mean",
			"top_shape_style": 0,
			"type": "pool",
			"weights": {}
		},
		{
			"C": 128,
			"K": 1440,
			"Nx": 1,
			"Ny": 1,
			"bottom": "stem/MobilenetV3/Mean",
			"debug_info": "fully_connected/Conv2Dx",
			"fused_relu": 0,
			"fused_tanh": 0,
			"has_batch_norm": 0,
			"has_biases": 0,
			"n_groups": 1,
			"n_parallel": 1,
			"name": "fully_connected/Conv2Dx",
			"pad_b": 0,
			"pad_fill_mode": 0,
			"pad_l": 0,
			"pad_mode": 1,
			"pad_r": 0,
			"pad_t": 0,
			"pad_value": 0,
			"top": "fully_connected/Conv2Dx",
			"type": "convolution",
			"weights": {
				"W_U8": 515,
				"per_ch_qbias": 517,
				"per_ch_qscale": 519
			}
		},
		{
			"axis_h": 0,
			"axis_k": 1,
			"axis_n": 3,
			"axis_seq": 4,
			"axis_w": 2,
			"bottom": "fully_connected/Conv2Dx",
			"debug_info": "fully_connected/Conv2D",
			"name": "fully_connected/Conv2D",
			"top": "fully_connected/Conv2D",
			"type": "transpose",
			"weights": {}
		},
		{
			"bottom": "",
			"constant_blob": 521,
			"debug_info": "fully_connected/biases/read",
			"h": 1,
			"k": 1,
			"n": 1,
			"name": "fully_connected/biases/read",
			"nd_rank": 1,
			"top": "fully_connected/biases/read",
			"type": "load_constant",
			"w": 128,
			"weights": {}
		},
		{
			"alpha": 1,
			"beta": 0,
			"bottom": "fully_connected/Conv2D,fully_connected/biases/read",
			"debug_info": "fully_connected/BiasAdd",
			"fused_relu": 0,
			"name": "fully_connected/BiasAdd",
			"operation": 0,
			"top": "fully_connected/BiasAdd",
			"type": "elementwise",
			"weights": {}
		},
		{
			"alpha": 1,
			"beta": 0,
			"bottom": "fully_connected/BiasAdd,fully_connected/BiasAdd",
			"debug_info": "embedding/Square",
			"fused_relu": 0,
			"name": "embedding/Square",
			"operation": 1,
			"top": "embedding/Square",
			"type": "elementwise",
			"weights": {}
		},
		{
			"axis_mode": 1,
			"bottom": "embedding/Square",
			"debug_info": "embedding/Sum",
			"mode": 0,
			"name": "embedding/Sum",
			"nd_mode": true,
			"top": "embedding/Sum",
			"type": "reduce",
			"use_version": 1,
			"weights": {}
		},
		{
			"bottom": "",
			"constant_blob": 523,
			"debug_info": "embedding/Maximum/y",
			"h": 1,
			"k": 1,
			"n": 1,
			"name": "embedding/Maximum/y",
			"nd_rank": 1,
			"top": "embedding/Maximum/y",
			"type": "load_constant",
			"w": 1,
			"weights": {}
		},
		{
			"alpha": 1,
			"beta": 0,
			"bottom": "embedding/Sum,embedding/Maximum/y",
			"debug_info": "embedding/Maximum",
			"fused_relu": 0,
			"name": "embedding/Maximum",
			"nd_mode": true,
			"operation": 23,
			"top": "embedding/Maximum",
			"type": "elementwise",
			"weights": {}
		},
		{
			"alpha": 1,
			"beta": 0,
			"bottom": "embedding/Maximum",
			"debug_info": "embedding/Rsqrt",
			"eps": 9.999999960041972e-13,
			"fused_relu": 0,
			"name": "embedding/Rsqrt",
			"operation": 12,
			"top": "embedding/Rsqrt",
			"type": "elementwise",
			"weights": {}
		},
		{
			"alpha": 1,
			"attributes": {
				"is_output": 1
			},
			"beta": 0,
			"bottom": "fully_connected/BiasAdd,embedding/Rsqrt",
			"debug_info": "embedding",
			"fused_relu": 0,
			"name": "embedding",
			"nd_mode": true,
			"operation": 1,
			"top": "embedding",
			"type": "elementwise",
			"weights": {}
		}
	],
	"metadata_in_weights": [],
	"properties": {
		"espresso.ane.transform_bcast": "1"
	},
	"storage": "model.espresso.weights",
	"transform_params": {
		"image": {
			"bias_a": 0,
			"bias_b": -1,
			"bias_g": -1,
			"bias_r": -1,
			"center_mean": 0,
			"is_network_bgr": 0,
			"scale": 0.007874015718698502
		}
	}
}