{
	"analyses": {},
	"format_version": 200,
	"layers": [
		{
			"C": 8,
			"K": 3,
			"Nx": 3,
			"Ny": 3,
			"blob_biases": 1,
			"blob_weights_f16": 3,
			"bottom": "image/Placeholder",
			"debug_info": "",
			"fused_relu": 0,
			"fused_tanh": 0,
			"has_batch_norm": 0,
			"has_biases": 1,
			"n_groups": 1,
			"n_parallel": 1,
			"name": "stem/MobilenetV3/Conv2d_0/Conv2D",
			"pad_b": 0,
			"pad_fill_mode": 0,
			"pad_l": 0,
			"pad_mode": 1,
			"pad_r": 0,
			"pad_t": 0,
			"pad_value": 0,
			"stride_x": 2,
			"stride_y": 2,
			"top": "stem/MobilenetV3/Conv2d_0/Conv2D",
			"type": "convolution",
			"weights": {}
		},
		{
			"alpha": 3,
			"beta": 0,
			"bottom": "stem/MobilenetV3/Conv2d_0/Conv2D",
			"debug_info": "",
			"fused_relu": 0,
			"name": "stem/MobilenetV3/Conv2d_0/add",
			"operation": 2,
			"top": "stem/MobilenetV3/Conv2d_0/add",
			"type": "elementwise",
			"weights": {}
		},
		{
			"alpha": 0,
			"beta": 6,
			"bottom": "stem/MobilenetV3/Conv2d_0/add",
			"debug_info": "",
			"fused_relu": 0,
			"name": "stem/MobilenetV3/Conv2d_0/Relu6",
			"operation": 119,
			"top": "stem/MobilenetV3/Conv2d_0/Relu6",
			"type": "elementwise",
			"weights": {}
		},
		{
			"alpha": 0.1666666716337204,
			"beta": 0,
			"bottom": "stem/MobilenetV3/Conv2d_0/Relu6",
			"debug_info": "",
			"fused_relu": 0,
			"name": "stem/MobilenetV3/Conv2d_0/mul",
			"operation": 3,
			"top": "stem/MobilenetV3/Conv2d_0/mul",
			"type": "elementwise",
			"weights": {}
		},
		{
			"alpha": 1,
			"beta": 0,
			"bottom": "stem/MobilenetV3/Conv2d_0/Conv2D,stem/MobilenetV3/Conv2d_0/mul",
			"debug_info": "",
			"fused_relu": 0,
			"name": "stem/MobilenetV3/Conv2d_0/mul_1",
			"operation": 1,
			"top": "stem/MobilenetV3/Conv2d_0/mul_1",
			"type": "elementwise",
			"weights": {}
		},
		{
			"C": 8,
			"K": 8,
			"Nx": 1,
			"Ny": 1,
			"blob_biases": 5,
			"blob_weights_f16": 7,
			"bottom": "stem/MobilenetV3/Conv2d_0/mul_1",
			"debug_info": "",
			"fused_relu": 1,
			"fused_tanh": 0,
			"has_batch_norm": 0,
			"has_biases": 1,
			"n_groups": 1,
			"n_parallel": 1,
			"name": "stem/MobilenetV3/Bottleneck_1/expand/Conv2D",
			"pad_b": 0,
			"pad_fill_mode": 0,
			"pad_l": 0,
			"pad_mode": 1,
			"pad_r": 0,
			"pad_t": 0,
			"pad_value": 0,
			"top": "stem/MobilenetV3/Bottleneck_1/expand/Conv2D",
			"type": "convolution",
			"weights": {}
		},
		{
			"C": 8,
			"K": 8,
			"Nx": 3,
			"Ny": 3,
			"blob_biases": 9,
			"blob_weights_f16": 11,
			"bottom": "stem/MobilenetV3/Bottleneck_1/expand/Conv2D",
			"debug_info": "",
			"fused_relu": 0,
			"fused_tanh": 0,
			"has_batch_norm": 0,
			"has_biases": 1,
			"n_groups": 8,
			"n_parallel": 1,
			"name": "stem/MobilenetV3/Bottleneck_1/depthwise/depthwise",
			"pad_b": 0,
			"pad_fill_mode": 0,
			"pad_l": 0,
			"pad_mode": 1,
			"pad_r": 0,
			"pad_t": 0,
			"pad_value": 0,
			"stride_x": 2,
			"stride_y": 2,
			"top": "stem/MobilenetV3/Bottleneck_1/depthwise/depthwise",
			"type": "convolution",
			"weights": {}
		},
		{
			"average_count_exclude_padding": 1,
			"avg_or_max": 0,
			"bottom": "stem/MobilenetV3/Bottleneck_1/depthwise/depthwise",
			"debug_info": "",
			"is_global": 1,
			"name": "stem/MobilenetV3/Bottleneck_1/gap/Mean",
			"pad_b": 0,
			"pad_fill_mode": 0,
			"pad_l": 0,
			"pad_mode": 0,
			"pad_r": 0,
			"pad_t": 0,
			"pad_value": 0,
			"size_x": 64,
			"size_y": 64,
			"stride_x": 1,
			"stride_y": 1,
			"top": "stem/MobilenetV3/Bottleneck_1/gap/Mean",
			"top_shape_style": 0,
			"type": "pool",
			"weights": {}
		},
		{
			"C": 2,
			"K": 8,
			"Nx": 1,
			"Ny": 1,
			"blob_biases": 13,
			"blob_weights_f16": 15,
			"bottom": "stem/MobilenetV3/Bottleneck_1/gap/Mean",
			"debug_info": "",
			"fused_relu": 1,
			"fused_tanh": 0,
			"has_batch_norm": 0,
			"has_biases": 1,
			"n_groups": 1,
			"n_parallel": 1,
			"name": "stem/MobilenetV3/Bottleneck_1/Bottleneck_1/Conv/Conv2D",
			"pad_b": 0,
			"pad_fill_mode": 0,
			"pad_l": 0,
			"pad_mode": 2,
			"pad_r": 0,
			"pad_t": 0,
			"pad_value": 0,
			"top": "stem/MobilenetV3/Bottleneck_1/Bottleneck_1/Conv/Conv2D",
			"type": "convolution",
			"weights": {}
		},
		{
			"C": 8,
			"K": 2,
			"Nx": 1,
			"Ny": 1,
			"blob_biases": 17,
			"blob_weights_f16": 19,
			"bottom": "stem/MobilenetV3/Bottleneck_1/Bottleneck_1/Conv/Conv2D",
			"debug_info": "",
			"fused_relu": 0,
			"fused_tanh": 0,
			"has_batch_norm": 0,
			"has_biases": 1,
			"n_groups": 1,
			"n_parallel": 1,
			"name": "stem/MobilenetV3/Bottleneck_1/Bottleneck_1_1/Conv_1/Conv2D",
			"pad_b": 0,
			"pad_fill_mode": 0,
			"pad_l": 0,
			"pad_mode": 2,
			"pad_r": 0,
			"pad_t": 0,
			"pad_value": 0,
			"top": "stem/MobilenetV3/Bottleneck_1/Bottleneck_1_1/Conv_1/Conv2D",
			"type": "convolution",
			"weights": {}
		},
		{
			"alpha": 3,
			"beta": 0,
			"bottom": "stem/MobilenetV3/Bottleneck_1/Bottleneck_1_1/Conv_1/Conv2D",
			"debug_info": "",
			"fused_relu": 0,
			"name": "stem/MobilenetV3/Bottleneck_1/Bottleneck_1_1/Conv_1/add",
			"operation": 2,
			"top": "stem/MobilenetV3/Bottleneck_1/Bottleneck_1_1/Conv_1/add",
			"type": "elementwise",
			"weights": {}
		},
		{
			"alpha": 0,
			"beta": 6,
			"bottom": "stem/MobilenetV3/Bottleneck_1/Bottleneck_1_1/Conv_1/add",
			"debug_info": "",
			"fused_relu": 0,
			"name": "stem/MobilenetV3/Bottleneck_1/Bottleneck_1_1/Conv_1/Relu6",
			"operation": 119,
			"top": "stem/MobilenetV3/Bottleneck_1/Bottleneck_1_1/Conv_1/Relu6",
			"type": "elementwise",
			"weights": {}
		},
		{
			"alpha": 0.1666666716337204,
			"beta": 0,
			"bottom": "stem/MobilenetV3/Bottleneck_1/Bottleneck_1_1/Conv_1/Relu6",
			"debug_info": "",
			"fused_relu": 0,
			"name": "stem/MobilenetV3/Bottleneck_1/Bottleneck_1_1/Conv_1/mul",
			"operation": 3,
			"top": "stem/MobilenetV3/Bottleneck_1/Bottleneck_1_1/Conv_1/mul",
			"type": "elementwise",
			"weights": {}
		},
		{
			"alpha": 1,
			"beta": 0,
			"bottom": "stem/MobilenetV3/Bottleneck_1/depthwise/depthwise,stem/MobilenetV3/Bottleneck_1/Bottleneck_1_1/Conv_1/mul",
			"debug_info": "",
			"fused_relu": 0,
			"name": "stem/MobilenetV3/Bottleneck_1/mul",
			"nd_mode": true,
			"operation": 1,
			"top": "stem/MobilenetV3/Bottleneck_1/mul",
			"type": "elementwise",
			"weights": {}
		},
		{
			"beta": 0,
			"bottom": "stem/MobilenetV3/Bottleneck_1/mul",
			"debug_info": "",
			"mode": 0,
			"name": "stem/MobilenetV3/Bottleneck_1/Relu",
			"top": "stem/MobilenetV3/Bottleneck_1/Relu",
			"type": "activation",
			"weights": {}
		},
		{
			"C": 8,
			"K": 8,
			"Nx": 1,
			"Ny": 1,
			"blob_biases": 21,
			"blob_weights_f16": 23,
			"bottom": "stem/MobilenetV3/Bottleneck_1/Relu",
			"debug_info": "",
			"fused_relu": 0,
			"fused_tanh": 0,
			"has_batch_norm": 0,
			"has_biases": 1,
			"n_groups": 1,
			"n_parallel": 1,
			"name": "stem/MobilenetV3/Bottleneck_1/compress/Conv2D",
			"pad_b": 0,
			"pad_fill_mode": 0,
			"pad_l": 0,
			"pad_mode": 1,
			"pad_r": 0,
			"pad_t": 0,
			"pad_value": 0,
			"top": "stem/MobilenetV3/Bottleneck_1/compress/Conv2D",
			"type": "convolution",
			"weights": {}
		},
		{
			"C": 40,
			"K": 8,
			"Nx": 1,
			"Ny": 1,
			"blob_biases": 25,
			"blob_weights_f16": 27,
			"bottom": "stem/MobilenetV3/Bottleneck_1/compress/Conv2D",
			"debug_info": "",
			"fused_relu": 1,
			"fused_tanh": 0,
			"has_batch_norm": 0,
			"has_biases": 1,
			"n_groups": 1,
			"n_parallel": 1,
			"name": "stem/MobilenetV3/Bottleneck_2/expand/Conv2D",
			"pad_b": 0,
			"pad_fill_mode": 0,
			"pad_l": 0,
			"pad_mode": 1,
			"pad_r": 0,
			"pad_t": 0,
			"pad_value": 0,
			"top": "stem/MobilenetV3/Bottleneck_2/expand/Conv2D",
			"type": "convolution",
			"weights": {}
		},
		{
			"C": 40,
			"K": 40,
			"Nx": 3,
			"Ny": 3,
			"blob_biases": 29,
			"blob_weights_f16": 31,
			"bottom": "stem/MobilenetV3/Bottleneck_2/expand/Conv2D",
			"debug_info": "",
			"fused_relu": 1,
			"fused_tanh": 0,
			"has_batch_norm": 0,
			"has_biases": 1,
			"n_groups": 40,
			"n_parallel": 1,
			"name": "stem/MobilenetV3/Bottleneck_2/depthwise/depthwise",
			"pad_b": 0,
			"pad_fill_mode": 0,
			"pad_l": 0,
			"pad_mode": 1,
			"pad_r": 0,
			"pad_t": 0,
			"pad_value": 0,
			"stride_x": 2,
			"stride_y": 2,
			"top": "stem/MobilenetV3/Bottleneck_2/depthwise/depthwise",
			"type": "convolution",
			"weights": {}
		},
		{
			"C": 16,
			"K": 40,
			"Nx": 1,
			"Ny": 1,
			"blob_biases": 33,
			"blob_weights_f16": 35,
			"bottom": "stem/MobilenetV3/Bottleneck_2/depthwise/depthwise",
			"debug_info": "",
			"fused_relu": 0,
			"fused_tanh": 0,
			"has_batch_norm": 0,
			"has_biases": 1,
			"n_groups": 1,
			"n_parallel": 1,
			"name": "stem/MobilenetV3/Bottleneck_2/compress/Conv2D",
			"pad_b": 0,
			"pad_fill_mode": 0,
			"pad_l": 0,
			"pad_mode": 1,
			"pad_r": 0,
			"pad_t": 0,
			"pad_value": 0,
			"top": "stem/MobilenetV3/Bottleneck_2/compress/Conv2D",
			"type": "convolution",
			"weights": {}
		},
		{
			"C": 48,
			"K": 16,
			"Nx": 1,
			"Ny": 1,
			"blob_biases": 37,
			"blob_weights_f16": 39,
			"bottom": "stem/MobilenetV3/Bottleneck_2/compress/Conv2D",
			"debug_info": "",
			"fused_relu": 1,
			"fused_tanh": 0,
			"has_batch_norm": 0,
			"has_biases": 1,
			"n_groups": 1,
			"n_parallel": 1,
			"name": "stem/MobilenetV3/Bottleneck_3/expand/Conv2D",
			"pad_b": 0,
			"pad_fill_mode": 0,
			"pad_l": 0,
			"pad_mode": 1,
			"pad_r": 0,
			"pad_t": 0,
			"pad_value": 0,
			"top": "stem/MobilenetV3/Bottleneck_3/expand/Conv2D",
			"type": "convolution",
			"weights": {}
		},
		{
			"C": 48,
			"K": 48,
			"Nx": 3,
			"Ny": 3,
			"blob_biases": 41,
			"blob_weights_f16": 43,
			"bottom": "stem/MobilenetV3/Bottleneck_3/expand/Conv2D",
			"debug_info": "",
			"fused_relu": 1,
			"fused_tanh": 0,
			"has_batch_norm": 0,
			"has_biases": 1,
			"n_groups": 48,
			"n_parallel": 1,
			"name": "stem/MobilenetV3/Bottleneck_3/depthwise/depthwise",
			"pad_b": 0,
			"pad_fill_mode": 0,
			"pad_l": 0,
			"pad_mode": 1,
			"pad_r": 0,
			"pad_t": 0,
			"pad_value": 0,
			"top": "stem/MobilenetV3/Bottleneck_3/depthwise/depthwise",
			"type": "convolution",
			"weights": {}
		},
		{
			"C": 16,
			"K": 48,
			"Nx": 1,
			"Ny": 1,
			"blob_biases": 45,
			"blob_weights_f16": 47,
			"bottom": "stem/MobilenetV3/Bottleneck_3/depthwise/depthwise",
			"debug_info": "",
			"fused_relu": 0,
			"fused_tanh": 0,
			"has_batch_norm": 0,
			"has_biases": 1,
			"n_groups": 1,
			"n_parallel": 1,
			"name": "stem/MobilenetV3/Bottleneck_3/compress/Conv2D",
			"pad_b": 0,
			"pad_fill_mode": 0,
			"pad_l": 0,
			"pad_mode": 1,
			"pad_r": 0,
			"pad_t": 0,
			"pad_value": 0,
			"top": "stem/MobilenetV3/Bottleneck_3/compress/Conv2D",
			"type": "convolution",
			"weights": {}
		},
		{
			"alpha": 1,
			"beta": 0,
			"bottom": "stem/MobilenetV3/Bottleneck_3/compress/Conv2D,stem/MobilenetV3/Bottleneck_2/compress/Conv2D",
			"debug_info": "",
			"fused_relu": 0,
			"name": "stem/MobilenetV3/Bottleneck_3/add",
			"operation": 0,
			"top": "stem/MobilenetV3/Bottleneck_3/add",
			"type": "elementwise",
			"weights": {}
		},
		{
			"C": 48,
			"K": 16,
			"Nx": 1,
			"Ny": 1,
			"blob_biases": 49,
			"blob_weights_f16": 51,
			"bottom": "stem/MobilenetV3/Bottleneck_3/add",
			"debug_info": "",
			"fused_relu": 0,
			"fused_tanh": 0,
			"has_batch_norm": 0,
			"has_biases": 1,
			"n_groups": 1,
			"n_parallel": 1,
			"name": "stem/MobilenetV3/Bottleneck_4/expand/Conv2D",
			"pad_b": 0,
			"pad_fill_mode": 0,
			"pad_l": 0,
			"pad_mode": 1,
			"pad_r": 0,
			"pad_t": 0,
			"pad_value": 0,
			"top": "stem/MobilenetV3/Bottleneck_4/expand/Conv2D",
			"type": "convolution",
			"weights": {}
		},
		{
			"alpha": 3,
			"beta": 0,
			"bottom": "stem/MobilenetV3/Bottleneck_4/expand/Conv2D",
			"debug_info": "",
			"fused_relu": 0,
			"name": "stem/MobilenetV3/Bottleneck_4/expand/add",
			"operation": 2,
			"top": "stem/MobilenetV3/Bottleneck_4/expand/add",
			"type": "elementwise",
			"weights": {}
		},
		{
			"alpha": 0,
			"beta": 6,
			"bottom": "stem/MobilenetV3/Bottleneck_4/expand/add",
			"debug_info": "",
			"fused_relu": 0,
			"name": "stem/MobilenetV3/Bottleneck_4/expand/Relu6",
			"operation": 119,
			"top": "stem/MobilenetV3/Bottleneck_4/expand/Relu6",
			"type": "elementwise",
			"weights": {}
		},
		{
			"alpha": 0.1666666716337204,
			"beta": 0,
			"bottom": "stem/MobilenetV3/Bottleneck_4/expand/Relu6",
			"debug_info": "",
			"fused_relu": 0,
			"name": "stem/MobilenetV3/Bottleneck_4/expand/mul",
			"operation": 3,
			"top": "stem/MobilenetV3/Bottleneck_4/expand/mul",
			"type": "elementwise",
			"weights": {}
		},
		{
			"alpha": 1,
			"beta": 0,
			"bottom": "stem/MobilenetV3/Bottleneck_4/expand/Conv2D,stem/MobilenetV3/Bottleneck_4/expand/mul",
			"debug_info": "",
			"fused_relu": 0,
			"name": "stem/MobilenetV3/Bottleneck_4/expand/mul_1",
			"operation": 1,
			"top": "stem/MobilenetV3/Bottleneck_4/expand/mul_1",
			"type": "elementwise",
			"weights": {}
		},
		{
			"C": 48,
			"K": 48,
			"Nx": 5,
			"Ny": 5,
			"blob_biases": 53,
			"blob_weights_f16": 55,
			"bottom": "stem/MobilenetV3/Bottleneck_4/expand/mul_1",
			"debug_info": "",
			"fused_relu": 0,
			"fused_tanh": 0,
			"has_batch_norm": 0,
			"has_biases": 1,
			"n_groups": 48,
			"n_parallel": 1,
			"name": "stem/MobilenetV3/Bottleneck_4/depthwise/depthwise",
			"pad_b": 0,
			"pad_fill_mode": 0,
			"pad_l": 0,
			"pad_mode": 1,
			"pad_r": 0,
			"pad_t": 0,
			"pad_value": 0,
			"stride_x": 2,
			"stride_y": 2,
			"top": "stem/MobilenetV3/Bottleneck_4/depthwise/depthwise",
			"type": "convolution",
			"weights": {}
		},
		{
			"average_count_exclude_padding": 1,
			"avg_or_max": 0,
			"bottom": "stem/MobilenetV3/Bottleneck_4/depthwise/depthwise",
			"debug_info": "",
			"is_global": 1,
			"name": "stem/MobilenetV3/Bottleneck_4/gap/Mean",
			"pad_b": 0,
			"pad_fill_mode": 0,
			"pad_l": 0,
			"pad_mode": 0,
			"pad_r": 0,
			"pad_t": 0,
			"pad_value": 0,
			"size_x": 16,
			"size_y": 16,
			"stride_x": 1,
			"stride_y": 1,
			"top": "stem/MobilenetV3/Bottleneck_4/gap/Mean",
			"top_shape_style": 0,
			"type": "pool",
			"weights": {}
		},
		{
			"C": 12,
			"K": 48,
			"Nx": 1,
			"Ny": 1,
			"blob_biases": 57,
			"blob_weights_f16": 59,
			"bottom": "stem/MobilenetV3/Bottleneck_4/gap/Mean",
			"debug_info": "",
			"fused_relu": 1,
			"fused_tanh": 0,
			"has_batch_norm": 0,
			"has_biases": 1,
			"n_groups": 1,
			"n_parallel": 1,
			"name": "stem/MobilenetV3/Bottleneck_4/Bottleneck_4/Conv/Conv2D",
			"pad_b": 0,
			"pad_fill_mode": 0,
			"pad_l": 0,
			"pad_mode": 2,
			"pad_r": 0,
			"pad_t": 0,
			"pad_value": 0,
			"top": "stem/MobilenetV3/Bottleneck_4/Bottleneck_4/Conv/Conv2D",
			"type": "convolution",
			"weights": {}
		},
		{
			"C": 48,
			"K": 12,
			"Nx": 1,
			"Ny": 1,
			"blob_biases": 61,
			"blob_weights_f16": 63,
			"bottom": "stem/MobilenetV3/Bottleneck_4/Bottleneck_4/Conv/Conv2D",
			"debug_info": "",
			"fused_relu": 0,
			"fused_tanh": 0,
			"has_batch_norm": 0,
			"has_biases": 1,
			"n_groups": 1,
			"n_parallel": 1,
			"name": "stem/MobilenetV3/Bottleneck_4/Bottleneck_4_1/Conv_1/Conv2D",
			"pad_b": 0,
			"pad_fill_mode": 0,
			"pad_l": 0,
			"pad_mode": 2,
			"pad_r": 0,
			"pad_t": 0,
			"pad_value": 0,
			"top": "stem/MobilenetV3/Bottleneck_4/Bottleneck_4_1/Conv_1/Conv2D",
			"type": "convolution",
			"weights": {}
		},
		{
			"alpha": 3,
			"beta": 0,
			"bottom": "stem/MobilenetV3/Bottleneck_4/Bottleneck_4_1/Conv_1/Conv2D",
			"debug_info": "",
			"fused_relu": 0,
			"name": "stem/MobilenetV3/Bottleneck_4/Bottleneck_4_1/Conv_1/add",
			"operation": 2,
			"top": "stem/MobilenetV3/Bottleneck_4/Bottleneck_4_1/Conv_1/add",
			"type": "elementwise",
			"weights": {}
		},
		{
			"alpha": 0,
			"beta": 6,
			"bottom": "stem/MobilenetV3/Bottleneck_4/Bottleneck_4_1/Conv_1/add",
			"debug_info": "",
			"fused_relu": 0,
			"name": "stem/MobilenetV3/Bottleneck_4/Bottleneck_4_1/Conv_1/Relu6",
			"operation": 119,
			"top": "stem/MobilenetV3/Bottleneck_4/Bottleneck_4_1/Conv_1/Relu6",
			"type": "elementwise",
			"weights": {}
		},
		{
			"alpha": 0.1666666716337204,
			"beta": 0,
			"bottom": "stem/MobilenetV3/Bottleneck_4/Bottleneck_4_1/Conv_1/Relu6",
			"debug_info": "",
			"fused_relu": 0,
			"name": "stem/MobilenetV3/Bottleneck_4/Bottleneck_4_1/Conv_1/mul",
			"operation": 3,
			"top": "stem/MobilenetV3/Bottleneck_4/Bottleneck_4_1/Conv_1/mul",
			"type": "elementwise",
			"weights": {}
		},
		{
			"alpha": 1,
			"beta": 0,
			"bottom": "stem/MobilenetV3/Bottleneck_4/depthwise/depthwise,stem/MobilenetV3/Bottleneck_4/Bottleneck_4_1/Conv_1/mul",
			"debug_info": "",
			"fused_relu": 0,
			"name": "stem/MobilenetV3/Bottleneck_4/mul",
			"nd_mode": true,
			"operation": 1,
			"top": "stem/MobilenetV3/Bottleneck_4/mul",
			"type": "elementwise",
			"weights": {}
		},
		{
			"alpha": 3,
			"beta": 0,
			"bottom": "stem/MobilenetV3/Bottleneck_4/mul",
			"debug_info": "",
			"fused_relu": 0,
			"name": "stem/MobilenetV3/Bottleneck_4/add",
			"operation": 2,
			"top": "stem/MobilenetV3/Bottleneck_4/add",
			"type": "elementwise",
			"weights": {}
		},
		{
			"alpha": 0,
			"beta": 6,
			"bottom": "stem/MobilenetV3/Bottleneck_4/add",
			"debug_info": "",
			"fused_relu": 0,
			"name": "stem/MobilenetV3/Bottleneck_4/Relu6",
			"operation": 119,
			"top": "stem/MobilenetV3/Bottleneck_4/Relu6",
			"type": "elementwise",
			"weights": {}
		},
		{
			"alpha": 0.1666666716337204,
			"beta": 0,
			"bottom": "stem/MobilenetV3/Bottleneck_4/Relu6",
			"debug_info": "",
			"fused_relu": 0,
			"name": "stem/MobilenetV3/Bottleneck_4/mul_1",
			"operation": 3,
			"top": "stem/MobilenetV3/Bottleneck_4/mul_1",
			"type": "elementwise",
			"weights": {}
		},
		{
			"alpha": 1,
			"beta": 0,
			"bottom": "stem/MobilenetV3/Bottleneck_4/mul,stem/MobilenetV3/Bottleneck_4/mul_1",
			"debug_info": "",
			"fused_relu": 0,
			"name": "stem/MobilenetV3/Bottleneck_4/mul_2",
			"operation": 1,
			"top": "stem/MobilenetV3/Bottleneck_4/mul_2",
			"type": "elementwise",
			"weights": {}
		},
		{
			"C": 24,
			"K": 48,
			"Nx": 1,
			"Ny": 1,
			"blob_biases": 65,
			"blob_weights_f16": 67,
			"bottom": "stem/MobilenetV3/Bottleneck_4/mul_2",
			"debug_info": "",
			"fused_relu": 0,
			"fused_tanh": 0,
			"has_batch_norm": 0,
			"has_biases": 1,
			"n_groups": 1,
			"n_parallel": 1,
			"name": "stem/MobilenetV3/Bottleneck_4/compress/Conv2D",
			"pad_b": 0,
			"pad_fill_mode": 0,
			"pad_l": 0,
			"pad_mode": 1,
			"pad_r": 0,
			"pad_t": 0,
			"pad_value": 0,
			"top": "stem/MobilenetV3/Bottleneck_4/compress/Conv2D",
			"type": "convolution",
			"weights": {}
		},
		{
			"C": 120,
			"K": 24,
			"Nx": 1,
			"Ny": 1,
			"blob_biases": 69,
			"blob_weights_f16": 71,
			"bottom": "stem/MobilenetV3/Bottleneck_4/compress/Conv2D",
			"debug_info": "",
			"fused_relu": 0,
			"fused_tanh": 0,
			"has_batch_norm": 0,
			"has_biases": 1,
			"n_groups": 1,
			"n_parallel": 1,
			"name": "stem/MobilenetV3/Bottleneck_5/expand/Conv2D",
			"pad_b": 0,
			"pad_fill_mode": 0,
			"pad_l": 0,
			"pad_mode": 1,
			"pad_r": 0,
			"pad_t": 0,
			"pad_value": 0,
			"top": "stem/MobilenetV3/Bottleneck_5/expand/Conv2D",
			"type": "convolution",
			"weights": {}
		},
		{
			"alpha": 3,
			"beta": 0,
			"bottom": "stem/MobilenetV3/Bottleneck_5/expand/Conv2D",
			"debug_info": "",
			"fused_relu": 0,
			"name": "stem/MobilenetV3/Bottleneck_5/expand/add",
			"operation": 2,
			"top": "stem/MobilenetV3/Bottleneck_5/expand/add",
			"type": "elementwise",
			"weights": {}
		},
		{
			"alpha": 0,
			"beta": 6,
			"bottom": "stem/MobilenetV3/Bottleneck_5/expand/add",
			"debug_info": "",
			"fused_relu": 0,
			"name": "stem/MobilenetV3/Bottleneck_5/expand/Relu6",
			"operation": 119,
			"top": "stem/MobilenetV3/Bottleneck_5/expand/Relu6",
			"type": "elementwise",
			"weights": {}
		},
		{
			"alpha": 0.1666666716337204,
			"beta": 0,
			"bottom": "stem/MobilenetV3/Bottleneck_5/expand/Relu6",
			"debug_info": "",
			"fused_relu": 0,
			"name": "stem/MobilenetV3/Bottleneck_5/expand/mul",
			"operation": 3,
			"top": "stem/MobilenetV3/Bottleneck_5/expand/mul",
			"type": "elementwise",
			"weights": {}
		},
		{
			"alpha": 1,
			"beta": 0,
			"bottom": "stem/MobilenetV3/Bottleneck_5/expand/Conv2D,stem/MobilenetV3/Bottleneck_5/expand/mul",
			"debug_info": "",
			"fused_relu": 0,
			"name": "stem/MobilenetV3/Bottleneck_5/expand/mul_1",
			"operation": 1,
			"top": "stem/MobilenetV3/Bottleneck_5/expand/mul_1",
			"type": "elementwise",
			"weights": {}
		},
		{
			"C": 120,
			"K": 120,
			"Nx": 5,
			"Ny": 5,
			"blob_biases": 73,
			"blob_weights_f16": 75,
			"bottom": "stem/MobilenetV3/Bottleneck_5/expand/mul_1",
			"debug_info": "",
			"fused_relu": 0,
			"fused_tanh": 0,
			"has_batch_norm": 0,
			"has_biases": 1,
			"n_groups": 120,
			"n_parallel": 1,
			"name": "stem/MobilenetV3/Bottleneck_5/depthwise/depthwise",
			"pad_b": 0,
			"pad_fill_mode": 0,
			"pad_l": 0,
			"pad_mode": 1,
			"pad_r": 0,
			"pad_t": 0,
			"pad_value": 0,
			"top": "stem/MobilenetV3/Bottleneck_5/depthwise/depthwise",
			"type": "convolution",
			"weights": {}
		},
		{
			"average_count_exclude_padding": 1,
			"avg_or_max": 0,
			"bottom": "stem/MobilenetV3/Bottleneck_5/depthwise/depthwise",
			"debug_info": "",
			"is_global": 1,
			"name": "stem/MobilenetV3/Bottleneck_5/gap/Mean",
			"pad_b": 0,
			"pad_fill_mode": 0,
			"pad_l": 0,
			"pad_mode": 0,
			"pad_r": 0,
			"pad_t": 0,
			"pad_value": 0,
			"size_x": 16,
			"size_y": 16,
			"stride_x": 1,
			"stride_y": 1,
			"top": "stem/MobilenetV3/Bottleneck_5/gap/Mean",
			"top_shape_style": 0,
			"type": "pool",
			"weights": {}
		},
		{
			"C": 30,
			"K": 120,
			"Nx": 1,
			"Ny": 1,
			"blob_biases": 77,
			"blob_weights_f16": 79,
			"bottom": "stem/MobilenetV3/Bottleneck_5/gap/Mean",
			"debug_info": "",
			"fused_relu": 1,
			"fused_tanh": 0,
			"has_batch_norm": 0,
			"has_biases": 1,
			"n_groups": 1,
			"n_parallel": 1,
			"name": "stem/MobilenetV3/Bottleneck_5/Bottleneck_5/Conv/Conv2D",
			"pad_b": 0,
			"pad_fill_mode": 0,
			"pad_l": 0,
			"pad_mode": 2,
			"pad_r": 0,
			"pad_t": 0,
			"pad_value": 0,
			"top": "stem/MobilenetV3/Bottleneck_5/Bottleneck_5/Conv/Conv2D",
			"type": "convolution",
			"weights": {}
		},
		{
			"C": 120,
			"K": 30,
			"Nx": 1,
			"Ny": 1,
			"blob_biases": 81,
			"blob_weights_f16": 83,
			"bottom": "stem/MobilenetV3/Bottleneck_5/Bottleneck_5/Conv/Conv2D",
			"debug_info": "",
			"fused_relu": 0,
			"fused_tanh": 0,
			"has_batch_norm": 0,
			"has_biases": 1,
			"n_groups": 1,
			"n_parallel": 1,
			"name": "stem/MobilenetV3/Bottleneck_5/Bottleneck_5_1/Conv_1/Conv2D",
			"pad_b": 0,
			"pad_fill_mode": 0,
			"pad_l": 0,
			"pad_mode": 2,
			"pad_r": 0,
			"pad_t": 0,
			"pad_value": 0,
			"top": "stem/MobilenetV3/Bottleneck_5/Bottleneck_5_1/Conv_1/Conv2D",
			"type": "convolution",
			"weights": {}
		},
		{
			"alpha": 3,
			"beta": 0,
			"bottom": "stem/MobilenetV3/Bottleneck_5/Bottleneck_5_1/Conv_1/Conv2D",
			"debug_info": "",
			"fused_relu": 0,
			"name": "stem/MobilenetV3/Bottleneck_5/Bottleneck_5_1/Conv_1/add",
			"operation": 2,
			"top": "stem/MobilenetV3/Bottleneck_5/Bottleneck_5_1/Conv_1/add",
			"type": "elementwise",
			"weights": {}
		},
		{
			"alpha": 0,
			"beta": 6,
			"bottom": "stem/MobilenetV3/Bottleneck_5/Bottleneck_5_1/Conv_1/add",
			"debug_info": "",
			"fused_relu": 0,
			"name": "stem/MobilenetV3/Bottleneck_5/Bottleneck_5_1/Conv_1/Relu6",
			"operation": 119,
			"top": "stem/MobilenetV3/Bottleneck_5/Bottleneck_5_1/Conv_1/Relu6",
			"type": "elementwise",
			"weights": {}
		},
		{
			"alpha": 0.1666666716337204,
			"beta": 0,
			"bottom": "stem/MobilenetV3/Bottleneck_5/Bottleneck_5_1/Conv_1/Relu6",
			"debug_info": "",
			"fused_relu": 0,
			"name": "stem/MobilenetV3/Bottleneck_5/Bottleneck_5_1/Conv_1/mul",
			"operation": 3,
			"top": "stem/MobilenetV3/Bottleneck_5/Bottleneck_5_1/Conv_1/mul",
			"type": "elementwise",
			"weights": {}
		},
		{
			"alpha": 1,
			"beta": 0,
			"bottom": "stem/MobilenetV3/Bottleneck_5/depthwise/depthwise,stem/MobilenetV3/Bottleneck_5/Bottleneck_5_1/Conv_1/mul",
			"debug_info": "",
			"fused_relu": 0,
			"name": "stem/MobilenetV3/Bottleneck_5/mul",
			"nd_mode": true,
			"operation": 1,
			"top": "stem/MobilenetV3/Bottleneck_5/mul",
			"type": "elementwise",
			"weights": {}
		},
		{
			"alpha": 3,
			"beta": 0,
			"bottom": "stem/MobilenetV3/Bottleneck_5/mul",
			"debug_info": "",
			"fused_relu": 0,
			"name": "stem/MobilenetV3/Bottleneck_5/add",
			"operation": 2,
			"top": "stem/MobilenetV3/Bottleneck_5/add",
			"type": "elementwise",
			"weights": {}
		},
		{
			"alpha": 0,
			"beta": 6,
			"bottom": "stem/MobilenetV3/Bottleneck_5/add",
			"debug_info": "",
			"fused_relu": 0,
			"name": "stem/MobilenetV3/Bottleneck_5/Relu6",
			"operation": 119,
			"top": "stem/MobilenetV3/Bottleneck_5/Relu6",
			"type": "elementwise",
			"weights": {}
		},
		{
			"alpha": 0.1666666716337204,
			"beta": 0,
			"bottom": "stem/MobilenetV3/Bottleneck_5/Relu6",
			"debug_info": "",
			"fused_relu": 0,
			"name": "stem/MobilenetV3/Bottleneck_5/mul_1",
			"operation": 3,
			"top": "stem/MobilenetV3/Bottleneck_5/mul_1",
			"type": "elementwise",
			"weights": {}
		},
		{
			"alpha": 1,
			"beta": 0,
			"bottom": "stem/MobilenetV3/Bottleneck_5/mul,stem/MobilenetV3/Bottleneck_5/mul_1",
			"debug_info": "",
			"fused_relu": 0,
			"name": "stem/MobilenetV3/Bottleneck_5/mul_2",
			"operation": 1,
			"top": "stem/MobilenetV3/Bottleneck_5/mul_2",
			"type": "elementwise",
			"weights": {}
		},
		{
			"C": 24,
			"K": 120,
			"Nx": 1,
			"Ny": 1,
			"blob_biases": 85,
			"blob_weights_f16": 87,
			"bottom": "stem/MobilenetV3/Bottleneck_5/mul_2",
			"debug_info": "",
			"fused_relu": 0,
			"fused_tanh": 0,
			"has_batch_norm": 0,
			"has_biases": 1,
			"n_groups": 1,
			"n_parallel": 1,
			"name": "stem/MobilenetV3/Bottleneck_5/compress/Conv2D",
			"pad_b": 0,
			"pad_fill_mode": 0,
			"pad_l": 0,
			"pad_mode": 1,
			"pad_r": 0,
			"pad_t": 0,
			"pad_value": 0,
			"top": "stem/MobilenetV3/Bottleneck_5/compress/Conv2D",
			"type": "convolution",
			"weights": {}
		},
		{
			"alpha": 1,
			"beta": 0,
			"bottom": "stem/MobilenetV3/Bottleneck_5/compress/Conv2D,stem/MobilenetV3/Bottleneck_4/compress/Conv2D",
			"debug_info": "",
			"fused_relu": 0,
			"name": "stem/MobilenetV3/Bottleneck_5/add_1",
			"operation": 0,
			"top": "stem/MobilenetV3/Bottleneck_5/add_1",
			"type": "elementwise",
			"weights": {}
		},
		{
			"C": 120,
			"K": 24,
			"Nx": 1,
			"Ny": 1,
			"blob_biases": 89,
			"blob_weights_f16": 91,
			"bottom": "stem/MobilenetV3/Bottleneck_5/add_1",
			"debug_info": "",
			"fused_relu": 0,
			"fused_tanh": 0,
			"has_batch_norm": 0,
			"has_biases": 1,
			"n_groups": 1,
			"n_parallel": 1,
			"name": "stem/MobilenetV3/Bottleneck_6/expand/Conv2D",
			"pad_b": 0,
			"pad_fill_mode": 0,
			"pad_l": 0,
			"pad_mode": 1,
			"pad_r": 0,
			"pad_t": 0,
			"pad_value": 0,
			"top": "stem/MobilenetV3/Bottleneck_6/expand/Conv2D",
			"type": "convolution",
			"weights": {}
		},
		{
			"alpha": 3,
			"beta": 0,
			"bottom": "stem/MobilenetV3/Bottleneck_6/expand/Conv2D",
			"debug_info": "",
			"fused_relu": 0,
			"name": "stem/MobilenetV3/Bottleneck_6/expand/add",
			"operation": 2,
			"top": "stem/MobilenetV3/Bottleneck_6/expand/add",
			"type": "elementwise",
			"weights": {}
		},
		{
			"alpha": 0,
			"beta": 6,
			"bottom": "stem/MobilenetV3/Bottleneck_6/expand/add",
			"debug_info": "",
			"fused_relu": 0,
			"name": "stem/MobilenetV3/Bottleneck_6/expand/Relu6",
			"operation": 119,
			"top": "stem/MobilenetV3/Bottleneck_6/expand/Relu6",
			"type": "elementwise",
			"weights": {}
		},
		{
			"alpha": 0.1666666716337204,
			"beta": 0,
			"bottom": "stem/MobilenetV3/Bottleneck_6/expand/Relu6",
			"debug_info": "",
			"fused_relu": 0,
			"name": "stem/MobilenetV3/Bottleneck_6/expand/mul",
			"operation": 3,
			"top": "stem/MobilenetV3/Bottleneck_6/expand/mul",
			"type": "elementwise",
			"weights": {}
		},
		{
			"alpha": 1,
			"beta": 0,
			"bottom": "stem/MobilenetV3/Bottleneck_6/expand/Conv2D,stem/MobilenetV3/Bottleneck_6/expand/mul",
			"debug_info": "",
			"fused_relu": 0,
			"name": "stem/MobilenetV3/Bottleneck_6/expand/mul_1",
			"operation": 1,
			"top": "stem/MobilenetV3/Bottleneck_6/expand/mul_1",
			"type": "elementwise",
			"weights": {}
		},
		{
			"C": 120,
			"K": 120,
			"Nx": 5,
			"Ny": 5,
			"blob_biases": 93,
			"blob_weights_f16": 95,
			"bottom": "stem/MobilenetV3/Bottleneck_6/expand/mul_1",
			"debug_info": "",
			"fused_relu": 0,
			"fused_tanh": 0,
			"has_batch_norm": 0,
			"has_biases": 1,
			"n_groups": 120,
			"n_parallel": 1,
			"name": "stem/MobilenetV3/Bottleneck_6/depthwise/depthwise",
			"pad_b": 0,
			"pad_fill_mode": 0,
			"pad_l": 0,
			"pad_mode": 1,
			"pad_r": 0,
			"pad_t": 0,
			"pad_value": 0,
			"top": "stem/MobilenetV3/Bottleneck_6/depthwise/depthwise",
			"type": "convolution",
			"weights": {}
		},
		{
			"average_count_exclude_padding": 1,
			"avg_or_max": 0,
			"bottom": "stem/MobilenetV3/Bottleneck_6/depthwise/depthwise",
			"debug_info": "",
			"is_global": 1,
			"name": "stem/MobilenetV3/Bottleneck_6/gap/Mean",
			"pad_b": 0,
			"pad_fill_mode": 0,
			"pad_l": 0,
			"pad_mode": 0,
			"pad_r": 0,
			"pad_t": 0,
			"pad_value": 0,
			"size_x": 16,
			"size_y": 16,
			"stride_x": 1,
			"stride_y": 1,
			"top": "stem/MobilenetV3/Bottleneck_6/gap/Mean",
			"top_shape_style": 0,
			"type": "pool",
			"weights": {}
		},
		{
			"C": 30,
			"K": 120,
			"Nx": 1,
			"Ny": 1,
			"blob_biases": 97,
			"blob_weights_f16": 99,
			"bottom": "stem/MobilenetV3/Bottleneck_6/gap/Mean",
			"debug_info": "",
			"fused_relu": 1,
			"fused_tanh": 0,
			"has_batch_norm": 0,
			"has_biases": 1,
			"n_groups": 1,
			"n_parallel": 1,
			"name": "stem/MobilenetV3/Bottleneck_6/Bottleneck_6/Conv/Conv2D",
			"pad_b": 0,
			"pad_fill_mode": 0,
			"pad_l": 0,
			"pad_mode": 2,
			"pad_r": 0,
			"pad_t": 0,
			"pad_value": 0,
			"top": "stem/MobilenetV3/Bottleneck_6/Bottleneck_6/Conv/Conv2D",
			"type": "convolution",
			"weights": {}
		},
		{
			"C": 120,
			"K": 30,
			"Nx": 1,
			"Ny": 1,
			"blob_biases": 101,
			"blob_weights_f16": 103,
			"bottom": "stem/MobilenetV3/Bottleneck_6/Bottleneck_6/Conv/Conv2D",
			"debug_info": "",
			"fused_relu": 0,
			"fused_tanh": 0,
			"has_batch_norm": 0,
			"has_biases": 1,
			"n_groups": 1,
			"n_parallel": 1,
			"name": "stem/MobilenetV3/Bottleneck_6/Bottleneck_6_1/Conv_1/Conv2D",
			"pad_b": 0,
			"pad_fill_mode": 0,
			"pad_l": 0,
			"pad_mode": 2,
			"pad_r": 0,
			"pad_t": 0,
			"pad_value": 0,
			"top": "stem/MobilenetV3/Bottleneck_6/Bottleneck_6_1/Conv_1/Conv2D",
			"type": "convolution",
			"weights": {}
		},
		{
			"alpha": 3,
			"beta": 0,
			"bottom": "stem/MobilenetV3/Bottleneck_6/Bottleneck_6_1/Conv_1/Conv2D",
			"debug_info": "",
			"fused_relu": 0,
			"name": "stem/MobilenetV3/Bottleneck_6/Bottleneck_6_1/Conv_1/add",
			"operation": 2,
			"top": "stem/MobilenetV3/Bottleneck_6/Bottleneck_6_1/Conv_1/add",
			"type": "elementwise",
			"weights": {}
		},
		{
			"alpha": 0,
			"beta": 6,
			"bottom": "stem/MobilenetV3/Bottleneck_6/Bottleneck_6_1/Conv_1/add",
			"debug_info": "",
			"fused_relu": 0,
			"name": "stem/MobilenetV3/Bottleneck_6/Bottleneck_6_1/Conv_1/Relu6",
			"operation": 119,
			"top": "stem/MobilenetV3/Bottleneck_6/Bottleneck_6_1/Conv_1/Relu6",
			"type": "elementwise",
			"weights": {}
		},
		{
			"alpha": 0.1666666716337204,
			"beta": 0,
			"bottom": "stem/MobilenetV3/Bottleneck_6/Bottleneck_6_1/Conv_1/Relu6",
			"debug_info": "",
			"fused_relu": 0,
			"name": "stem/MobilenetV3/Bottleneck_6/Bottleneck_6_1/Conv_1/mul",
			"operation": 3,
			"top": "stem/MobilenetV3/Bottleneck_6/Bottleneck_6_1/Conv_1/mul",
			"type": "elementwise",
			"weights": {}
		},
		{
			"alpha": 1,
			"beta": 0,
			"bottom": "stem/MobilenetV3/Bottleneck_6/depthwise/depthwise,stem/MobilenetV3/Bottleneck_6/Bottleneck_6_1/Conv_1/mul",
			"debug_info": "",
			"fused_relu": 0,
			"name": "stem/MobilenetV3/Bottleneck_6/mul",
			"nd_mode": true,
			"operation": 1,
			"top": "stem/MobilenetV3/Bottleneck_6/mul",
			"type": "elementwise",
			"weights": {}
		},
		{
			"alpha": 3,
			"beta": 0,
			"bottom": "stem/MobilenetV3/Bottleneck_6/mul",
			"debug_info": "",
			"fused_relu": 0,
			"name": "stem/MobilenetV3/Bottleneck_6/add",
			"operation": 2,
			"top": "stem/MobilenetV3/Bottleneck_6/add",
			"type": "elementwise",
			"weights": {}
		},
		{
			"alpha": 0,
			"beta": 6,
			"bottom": "stem/MobilenetV3/Bottleneck_6/add",
			"debug_info": "",
			"fused_relu": 0,
			"name": "stem/MobilenetV3/Bottleneck_6/Relu6",
			"operation": 119,
			"top": "stem/MobilenetV3/Bottleneck_6/Relu6",
			"type": "elementwise",
			"weights": {}
		},
		{
			"alpha": 0.1666666716337204,
			"beta": 0,
			"bottom": "stem/MobilenetV3/Bottleneck_6/Relu6",
			"debug_info": "",
			"fused_relu": 0,
			"name": "stem/MobilenetV3/Bottleneck_6/mul_1",
			"operation": 3,
			"top": "stem/MobilenetV3/Bottleneck_6/mul_1",
			"type": "elementwise",
			"weights": {}
		},
		{
			"alpha": 1,
			"beta": 0,
			"bottom": "stem/MobilenetV3/Bottleneck_6/mul,stem/MobilenetV3/Bottleneck_6/mul_1",
			"debug_info": "",
			"fused_relu": 0,
			"name": "stem/MobilenetV3/Bottleneck_6/mul_2",
			"operation": 1,
			"top": "stem/MobilenetV3/Bottleneck_6/mul_2",
			"type": "elementwise",
			"weights": {}
		},
		{
			"C": 24,
			"K": 120,
			"Nx": 1,
			"Ny": 1,
			"blob_biases": 105,
			"blob_weights_f16": 107,
			"bottom": "stem/MobilenetV3/Bottleneck_6/mul_2",
			"debug_info": "",
			"fused_relu": 0,
			"fused_tanh": 0,
			"has_batch_norm": 0,
			"has_biases": 1,
			"n_groups": 1,
			"n_parallel": 1,
			"name": "stem/MobilenetV3/Bottleneck_6/compress/Conv2D",
			"pad_b": 0,
			"pad_fill_mode": 0,
			"pad_l": 0,
			"pad_mode": 1,
			"pad_r": 0,
			"pad_t": 0,
			"pad_value": 0,
			"top": "stem/MobilenetV3/Bottleneck_6/compress/Conv2D",
			"type": "convolution",
			"weights": {}
		},
		{
			"alpha": 1,
			"beta": 0,
			"bottom": "stem/MobilenetV3/Bottleneck_6/compress/Conv2D,stem/MobilenetV3/Bottleneck_5/add_1",
			"debug_info": "",
			"fused_relu": 0,
			"name": "stem/MobilenetV3/Bottleneck_6/add_1",
			"operation": 0,
			"top": "stem/MobilenetV3/Bottleneck_6/add_1",
			"type": "elementwise",
			"weights": {}
		},
		{
			"C": 64,
			"K": 24,
			"Nx": 1,
			"Ny": 1,
			"blob_biases": 109,
			"blob_weights_f16": 111,
			"bottom": "stem/MobilenetV3/Bottleneck_6/add_1",
			"debug_info": "",
			"fused_relu": 0,
			"fused_tanh": 0,
			"has_batch_norm": 0,
			"has_biases": 1,
			"n_groups": 1,
			"n_parallel": 1,
			"name": "stem/MobilenetV3/Bottleneck_7/expand/Conv2D",
			"pad_b": 0,
			"pad_fill_mode": 0,
			"pad_l": 0,
			"pad_mode": 1,
			"pad_r": 0,
			"pad_t": 0,
			"pad_value": 0,
			"top": "stem/MobilenetV3/Bottleneck_7/expand/Conv2D",
			"type": "convolution",
			"weights": {}
		},
		{
			"alpha": 3,
			"beta": 0,
			"bottom": "stem/MobilenetV3/Bottleneck_7/expand/Conv2D",
			"debug_info": "",
			"fused_relu": 0,
			"name": "stem/MobilenetV3/Bottleneck_7/expand/add",
			"operation": 2,
			"top": "stem/MobilenetV3/Bottleneck_7/expand/add",
			"type": "elementwise",
			"weights": {}
		},
		{
			"alpha": 0,
			"beta": 6,
			"bottom": "stem/MobilenetV3/Bottleneck_7/expand/add",
			"debug_info": "",
			"fused_relu": 0,
			"name": "stem/MobilenetV3/Bottleneck_7/expand/Relu6",
			"operation": 119,
			"top": "stem/MobilenetV3/Bottleneck_7/expand/Relu6",
			"type": "elementwise",
			"weights": {}
		},
		{
			"alpha": 0.1666666716337204,
			"beta": 0,
			"bottom": "stem/MobilenetV3/Bottleneck_7/expand/Relu6",
			"debug_info": "",
			"fused_relu": 0,
			"name": "stem/MobilenetV3/Bottleneck_7/expand/mul",
			"operation": 3,
			"top": "stem/MobilenetV3/Bottleneck_7/expand/mul",
			"type": "elementwise",
			"weights": {}
		},
		{
			"alpha": 1,
			"beta": 0,
			"bottom": "stem/MobilenetV3/Bottleneck_7/expand/Conv2D,stem/MobilenetV3/Bottleneck_7/expand/mul",
			"debug_info": "",
			"fused_relu": 0,
			"name": "stem/MobilenetV3/Bottleneck_7/expand/mul_1",
			"operation": 1,
			"top": "stem/MobilenetV3/Bottleneck_7/expand/mul_1",
			"type": "elementwise",
			"weights": {}
		},
		{
			"C": 64,
			"K": 64,
			"Nx": 5,
			"Ny": 5,
			"blob_biases": 113,
			"blob_weights_f16": 115,
			"bottom": "stem/MobilenetV3/Bottleneck_7/expand/mul_1",
			"debug_info": "",
			"fused_relu": 0,
			"fused_tanh": 0,
			"has_batch_norm": 0,
			"has_biases": 1,
			"n_groups": 64,
			"n_parallel": 1,
			"name": "stem/MobilenetV3/Bottleneck_7/depthwise/depthwise",
			"pad_b": 0,
			"pad_fill_mode": 0,
			"pad_l": 0,
			"pad_mode": 1,
			"pad_r": 0,
			"pad_t": 0,
			"pad_value": 0,
			"top": "stem/MobilenetV3/Bottleneck_7/depthwise/depthwise",
			"type": "convolution",
			"weights": {}
		},
		{
			"average_count_exclude_padding": 1,
			"avg_or_max": 0,
			"bottom": "stem/MobilenetV3/Bottleneck_7/depthwise/depthwise",
			"debug_info": "",
			"is_global": 1,
			"name": "stem/MobilenetV3/Bottleneck_7/gap/Mean",
			"pad_b": 0,
			"pad_fill_mode": 0,
			"pad_l": 0,
			"pad_mode": 0,
			"pad_r": 0,
			"pad_t": 0,
			"pad_value": 0,
			"size_x": 16,
			"size_y": 16,
			"stride_x": 1,
			"stride_y": 1,
			"top": "stem/MobilenetV3/Bottleneck_7/gap/Mean",
			"top_shape_style": 0,
			"type": "pool",
			"weights": {}
		},
		{
			"C": 16,
			"K": 64,
			"Nx": 1,
			"Ny": 1,
			"blob_biases": 117,
			"blob_weights_f16": 119,
			"bottom": "stem/MobilenetV3/Bottleneck_7/gap/Mean",
			"debug_info": "",
			"fused_relu": 1,
			"fused_tanh": 0,
			"has_batch_norm": 0,
			"has_biases": 1,
			"n_groups": 1,
			"n_parallel": 1,
			"name": "stem/MobilenetV3/Bottleneck_7/Bottleneck_7/Conv/Conv2D",
			"pad_b": 0,
			"pad_fill_mode": 0,
			"pad_l": 0,
			"pad_mode": 2,
			"pad_r": 0,
			"pad_t": 0,
			"pad_value": 0,
			"top": "stem/MobilenetV3/Bottleneck_7/Bottleneck_7/Conv/Conv2D",
			"type": "convolution",
			"weights": {}
		},
		{
			"C": 64,
			"K": 16,
			"Nx": 1,
			"Ny": 1,
			"blob_biases": 121,
			"blob_weights_f16": 123,
			"bottom": "stem/MobilenetV3/Bottleneck_7/Bottleneck_7/Conv/Conv2D",
			"debug_info": "",
			"fused_relu": 0,
			"fused_tanh": 0,
			"has_batch_norm": 0,
			"has_biases": 1,
			"n_groups": 1,
			"n_parallel": 1,
			"name": "stem/MobilenetV3/Bottleneck_7/Bottleneck_7_1/Conv_1/Conv2D",
			"pad_b": 0,
			"pad_fill_mode": 0,
			"pad_l": 0,
			"pad_mode": 2,
			"pad_r": 0,
			"pad_t": 0,
			"pad_value": 0,
			"top": "stem/MobilenetV3/Bottleneck_7/Bottleneck_7_1/Conv_1/Conv2D",
			"type": "convolution",
			"weights": {}
		},
		{
			"alpha": 3,
			"beta": 0,
			"bottom": "stem/MobilenetV3/Bottleneck_7/Bottleneck_7_1/Conv_1/Conv2D",
			"debug_info": "",
			"fused_relu": 0,
			"name": "stem/MobilenetV3/Bottleneck_7/Bottleneck_7_1/Conv_1/add",
			"operation": 2,
			"top": "stem/MobilenetV3/Bottleneck_7/Bottleneck_7_1/Conv_1/add",
			"type": "elementwise",
			"weights": {}
		},
		{
			"alpha": 0,
			"beta": 6,
			"bottom": "stem/MobilenetV3/Bottleneck_7/Bottleneck_7_1/Conv_1/add",
			"debug_info": "",
			"fused_relu": 0,
			"name": "stem/MobilenetV3/Bottleneck_7/Bottleneck_7_1/Conv_1/Relu6",
			"operation": 119,
			"top": "stem/MobilenetV3/Bottleneck_7/Bottleneck_7_1/Conv_1/Relu6",
			"type": "elementwise",
			"weights": {}
		},
		{
			"alpha": 0.1666666716337204,
			"beta": 0,
			"bottom": "stem/MobilenetV3/Bottleneck_7/Bottleneck_7_1/Conv_1/Relu6",
			"debug_info": "",
			"fused_relu": 0,
			"name": "stem/MobilenetV3/Bottleneck_7/Bottleneck_7_1/Conv_1/mul",
			"operation": 3,
			"top": "stem/MobilenetV3/Bottleneck_7/Bottleneck_7_1/Conv_1/mul",
			"type": "elementwise",
			"weights": {}
		},
		{
			"alpha": 1,
			"beta": 0,
			"bottom": "stem/MobilenetV3/Bottleneck_7/depthwise/depthwise,stem/MobilenetV3/Bottleneck_7/Bottleneck_7_1/Conv_1/mul",
			"debug_info": "",
			"fused_relu": 0,
			"name": "stem/MobilenetV3/Bottleneck_7/mul",
			"nd_mode": true,
			"operation": 1,
			"top": "stem/MobilenetV3/Bottleneck_7/mul",
			"type": "elementwise",
			"weights": {}
		},
		{
			"alpha": 3,
			"beta": 0,
			"bottom": "stem/MobilenetV3/Bottleneck_7/mul",
			"debug_info": "",
			"fused_relu": 0,
			"name": "stem/MobilenetV3/Bottleneck_7/add",
			"operation": 2,
			"top": "stem/MobilenetV3/Bottleneck_7/add",
			"type": "elementwise",
			"weights": {}
		},
		{
			"alpha": 0,
			"beta": 6,
			"bottom": "stem/MobilenetV3/Bottleneck_7/add",
			"debug_info": "",
			"fused_relu": 0,
			"name": "stem/MobilenetV3/Bottleneck_7/Relu6",
			"operation": 119,
			"top": "stem/MobilenetV3/Bottleneck_7/Relu6",
			"type": "elementwise",
			"weights": {}
		},
		{
			"alpha": 0.1666666716337204,
			"beta": 0,
			"bottom": "stem/MobilenetV3/Bottleneck_7/Relu6",
			"debug_info": "",
			"fused_relu": 0,
			"name": "stem/MobilenetV3/Bottleneck_7/mul_1",
			"operation": 3,
			"top": "stem/MobilenetV3/Bottleneck_7/mul_1",
			"type": "elementwise",
			"weights": {}
		},
		{
			"alpha": 1,
			"beta": 0,
			"bottom": "stem/MobilenetV3/Bottleneck_7/mul,stem/MobilenetV3/Bottleneck_7/mul_1",
			"debug_info": "",
			"fused_relu": 0,
			"name": "stem/MobilenetV3/Bottleneck_7/mul_2",
			"operation": 1,
			"top": "stem/MobilenetV3/Bottleneck_7/mul_2",
			"type": "elementwise",
			"weights": {}
		},
		{
			"C": 24,
			"K": 64,
			"Nx": 1,
			"Ny": 1,
			"blob_biases": 125,
			"blob_weights_f16": 127,
			"bottom": "stem/MobilenetV3/Bottleneck_7/mul_2",
			"debug_info": "",
			"fused_relu": 0,
			"fused_tanh": 0,
			"has_batch_norm": 0,
			"has_biases": 1,
			"n_groups": 1,
			"n_parallel": 1,
			"name": "stem/MobilenetV3/Bottleneck_7/compress/Conv2D",
			"pad_b": 0,
			"pad_fill_mode": 0,
			"pad_l": 0,
			"pad_mode": 1,
			"pad_r": 0,
			"pad_t": 0,
			"pad_value": 0,
			"top": "stem/MobilenetV3/Bottleneck_7/compress/Conv2D",
			"type": "convolution",
			"weights": {}
		},
		{
			"alpha": 1,
			"beta": 0,
			"bottom": "stem/MobilenetV3/Bottleneck_7/compress/Conv2D,stem/MobilenetV3/Bottleneck_6/add_1",
			"debug_info": "",
			"fused_relu": 0,
			"name": "stem/MobilenetV3/Bottleneck_7/add_1",
			"operation": 0,
			"top": "stem/MobilenetV3/Bottleneck_7/add_1",
			"type": "elementwise",
			"weights": {}
		},
		{
			"C": 72,
			"K": 24,
			"Nx": 1,
			"Ny": 1,
			"blob_biases": 129,
			"blob_weights_f16": 131,
			"bottom": "stem/MobilenetV3/Bottleneck_7/add_1",
			"debug_info": "",
			"fused_relu": 0,
			"fused_tanh": 0,
			"has_batch_norm": 0,
			"has_biases": 1,
			"n_groups": 1,
			"n_parallel": 1,
			"name": "stem/MobilenetV3/Bottleneck_8/expand/Conv2D",
			"pad_b": 0,
			"pad_fill_mode": 0,
			"pad_l": 0,
			"pad_mode": 1,
			"pad_r": 0,
			"pad_t": 0,
			"pad_value": 0,
			"top": "stem/MobilenetV3/Bottleneck_8/expand/Conv2D",
			"type": "convolution",
			"weights": {}
		},
		{
			"alpha": 3,
			"beta": 0,
			"bottom": "stem/MobilenetV3/Bottleneck_8/expand/Conv2D",
			"debug_info": "",
			"fused_relu": 0,
			"name": "stem/MobilenetV3/Bottleneck_8/expand/add",
			"operation": 2,
			"top": "stem/MobilenetV3/Bottleneck_8/expand/add",
			"type": "elementwise",
			"weights": {}
		},
		{
			"alpha": 0,
			"beta": 6,
			"bottom": "stem/MobilenetV3/Bottleneck_8/expand/add",
			"debug_info": "",
			"fused_relu": 0,
			"name": "stem/MobilenetV3/Bottleneck_8/expand/Relu6",
			"operation": 119,
			"top": "stem/MobilenetV3/Bottleneck_8/expand/Relu6",
			"type": "elementwise",
			"weights": {}
		},
		{
			"alpha": 0.1666666716337204,
			"beta": 0,
			"bottom": "stem/MobilenetV3/Bottleneck_8/expand/Relu6",
			"debug_info": "",
			"fused_relu": 0,
			"name": "stem/MobilenetV3/Bottleneck_8/expand/mul",
			"operation": 3,
			"top": "stem/MobilenetV3/Bottleneck_8/expand/mul",
			"type": "elementwise",
			"weights": {}
		},
		{
			"alpha": 1,
			"beta": 0,
			"bottom": "stem/MobilenetV3/Bottleneck_8/expand/Conv2D,stem/MobilenetV3/Bottleneck_8/expand/mul",
			"debug_info": "",
			"fused_relu": 0,
			"name": "stem/MobilenetV3/Bottleneck_8/expand/mul_1",
			"operation": 1,
			"top": "stem/MobilenetV3/Bottleneck_8/expand/mul_1",
			"type": "elementwise",
			"weights": {}
		},
		{
			"C": 72,
			"K": 72,
			"Nx": 5,
			"Ny": 5,
			"blob_biases": 133,
			"blob_weights_f16": 135,
			"bottom": "stem/MobilenetV3/Bottleneck_8/expand/mul_1",
			"debug_info": "",
			"fused_relu": 0,
			"fused_tanh": 0,
			"has_batch_norm": 0,
			"has_biases": 1,
			"n_groups": 72,
			"n_parallel": 1,
			"name": "stem/MobilenetV3/Bottleneck_8/depthwise/depthwise",
			"pad_b": 0,
			"pad_fill_mode": 0,
			"pad_l": 0,
			"pad_mode": 1,
			"pad_r": 0,
			"pad_t": 0,
			"pad_value": 0,
			"top": "stem/MobilenetV3/Bottleneck_8/depthwise/depthwise",
			"type": "convolution",
			"weights": {}
		},
		{
			"average_count_exclude_padding": 1,
			"avg_or_max": 0,
			"bottom": "stem/MobilenetV3/Bottleneck_8/depthwise/depthwise",
			"debug_info": "",
			"is_global": 1,
			"name": "stem/MobilenetV3/Bottleneck_8/gap/Mean",
			"pad_b": 0,
			"pad_fill_mode": 0,
			"pad_l": 0,
			"pad_mode": 0,
			"pad_r": 0,
			"pad_t": 0,
			"pad_value": 0,
			"size_x": 16,
			"size_y": 16,
			"stride_x": 1,
			"stride_y": 1,
			"top": "stem/MobilenetV3/Bottleneck_8/gap/Mean",
			"top_shape_style": 0,
			"type": "pool",
			"weights": {}
		},
		{
			"C": 18,
			"K": 72,
			"Nx": 1,
			"Ny": 1,
			"blob_biases": 137,
			"blob_weights_f16": 139,
			"bottom": "stem/MobilenetV3/Bottleneck_8/gap/Mean",
			"debug_info": "",
			"fused_relu": 1,
			"fused_tanh": 0,
			"has_batch_norm": 0,
			"has_biases": 1,
			"n_groups": 1,
			"n_parallel": 1,
			"name": "stem/MobilenetV3/Bottleneck_8/Bottleneck_8/Conv/Conv2D",
			"pad_b": 0,
			"pad_fill_mode": 0,
			"pad_l": 0,
			"pad_mode": 2,
			"pad_r": 0,
			"pad_t": 0,
			"pad_value": 0,
			"top": "stem/MobilenetV3/Bottleneck_8/Bottleneck_8/Conv/Conv2D",
			"type": "convolution",
			"weights": {}
		},
		{
			"C": 72,
			"K": 18,
			"Nx": 1,
			"Ny": 1,
			"blob_biases": 141,
			"blob_weights_f16": 143,
			"bottom": "stem/MobilenetV3/Bottleneck_8/Bottleneck_8/Conv/Conv2D",
			"debug_info": "",
			"fused_relu": 0,
			"fused_tanh": 0,
			"has_batch_norm": 0,
			"has_biases": 1,
			"n_groups": 1,
			"n_parallel": 1,
			"name": "stem/MobilenetV3/Bottleneck_8/Bottleneck_8_1/Conv_1/Conv2D",
			"pad_b": 0,
			"pad_fill_mode": 0,
			"pad_l": 0,
			"pad_mode": 2,
			"pad_r": 0,
			"pad_t": 0,
			"pad_value": 0,
			"top": "stem/MobilenetV3/Bottleneck_8/Bottleneck_8_1/Conv_1/Conv2D",
			"type": "convolution",
			"weights": {}
		},
		{
			"alpha": 3,
			"beta": 0,
			"bottom": "stem/MobilenetV3/Bottleneck_8/Bottleneck_8_1/Conv_1/Conv2D",
			"debug_info": "",
			"fused_relu": 0,
			"name": "stem/MobilenetV3/Bottleneck_8/Bottleneck_8_1/Conv_1/add",
			"operation": 2,
			"top": "stem/MobilenetV3/Bottleneck_8/Bottleneck_8_1/Conv_1/add",
			"type": "elementwise",
			"weights": {}
		},
		{
			"alpha": 0,
			"beta": 6,
			"bottom": "stem/MobilenetV3/Bottleneck_8/Bottleneck_8_1/Conv_1/add",
			"debug_info": "",
			"fused_relu": 0,
			"name": "stem/MobilenetV3/Bottleneck_8/Bottleneck_8_1/Conv_1/Relu6",
			"operation": 119,
			"top": "stem/MobilenetV3/Bottleneck_8/Bottleneck_8_1/Conv_1/Relu6",
			"type": "elementwise",
			"weights": {}
		},
		{
			"alpha": 0.1666666716337204,
			"beta": 0,
			"bottom": "stem/MobilenetV3/Bottleneck_8/Bottleneck_8_1/Conv_1/Relu6",
			"debug_info": "",
			"fused_relu": 0,
			"name": "stem/MobilenetV3/Bottleneck_8/Bottleneck_8_1/Conv_1/mul",
			"operation": 3,
			"top": "stem/MobilenetV3/Bottleneck_8/Bottleneck_8_1/Conv_1/mul",
			"type": "elementwise",
			"weights": {}
		},
		{
			"alpha": 1,
			"beta": 0,
			"bottom": "stem/MobilenetV3/Bottleneck_8/depthwise/depthwise,stem/MobilenetV3/Bottleneck_8/Bottleneck_8_1/Conv_1/mul",
			"debug_info": "",
			"fused_relu": 0,
			"name": "stem/MobilenetV3/Bottleneck_8/mul",
			"nd_mode": true,
			"operation": 1,
			"top": "stem/MobilenetV3/Bottleneck_8/mul",
			"type": "elementwise",
			"weights": {}
		},
		{
			"alpha": 3,
			"beta": 0,
			"bottom": "stem/MobilenetV3/Bottleneck_8/mul",
			"debug_info": "",
			"fused_relu": 0,
			"name": "stem/MobilenetV3/Bottleneck_8/add",
			"operation": 2,
			"top": "stem/MobilenetV3/Bottleneck_8/add",
			"type": "elementwise",
			"weights": {}
		},
		{
			"alpha": 0,
			"beta": 6,
			"bottom": "stem/MobilenetV3/Bottleneck_8/add",
			"debug_info": "",
			"fused_relu": 0,
			"name": "stem/MobilenetV3/Bottleneck_8/Relu6",
			"operation": 119,
			"top": "stem/MobilenetV3/Bottleneck_8/Relu6",
			"type": "elementwise",
			"weights": {}
		},
		{
			"alpha": 0.1666666716337204,
			"beta": 0,
			"bottom": "stem/MobilenetV3/Bottleneck_8/Relu6",
			"debug_info": "",
			"fused_relu": 0,
			"name": "stem/MobilenetV3/Bottleneck_8/mul_1",
			"operation": 3,
			"top": "stem/MobilenetV3/Bottleneck_8/mul_1",
			"type": "elementwise",
			"weights": {}
		},
		{
			"alpha": 1,
			"beta": 0,
			"bottom": "stem/MobilenetV3/Bottleneck_8/mul,stem/MobilenetV3/Bottleneck_8/mul_1",
			"debug_info": "",
			"fused_relu": 0,
			"name": "stem/MobilenetV3/Bottleneck_8/mul_2",
			"operation": 1,
			"top": "stem/MobilenetV3/Bottleneck_8/mul_2",
			"type": "elementwise",
			"weights": {}
		},
		{
			"C": 24,
			"K": 72,
			"Nx": 1,
			"Ny": 1,
			"blob_biases": 145,
			"blob_weights_f16": 147,
			"bottom": "stem/MobilenetV3/Bottleneck_8/mul_2",
			"debug_info": "",
			"fused_relu": 0,
			"fused_tanh": 0,
			"has_batch_norm": 0,
			"has_biases": 1,
			"n_groups": 1,
			"n_parallel": 1,
			"name": "stem/MobilenetV3/Bottleneck_8/compress/Conv2D",
			"pad_b": 0,
			"pad_fill_mode": 0,
			"pad_l": 0,
			"pad_mode": 1,
			"pad_r": 0,
			"pad_t": 0,
			"pad_value": 0,
			"top": "stem/MobilenetV3/Bottleneck_8/compress/Conv2D",
			"type": "convolution",
			"weights": {}
		},
		{
			"alpha": 1,
			"beta": 0,
			"bottom": "stem/MobilenetV3/Bottleneck_8/compress/Conv2D,stem/MobilenetV3/Bottleneck_7/add_1",
			"debug_info": "",
			"fused_relu": 0,
			"name": "stem/MobilenetV3/Bottleneck_8/add_1",
			"operation": 0,
			"top": "stem/MobilenetV3/Bottleneck_8/add_1",
			"type": "elementwise",
			"weights": {}
		},
		{
			"C": 144,
			"K": 24,
			"Nx": 1,
			"Ny": 1,
			"blob_biases": 149,
			"blob_weights_f16": 151,
			"bottom": "stem/MobilenetV3/Bottleneck_8/add_1",
			"debug_info": "",
			"fused_relu": 0,
			"fused_tanh": 0,
			"has_batch_norm": 0,
			"has_biases": 1,
			"n_groups": 1,
			"n_parallel": 1,
			"name": "stem/MobilenetV3/Bottleneck_9/expand/Conv2D",
			"pad_b": 0,
			"pad_fill_mode": 0,
			"pad_l": 0,
			"pad_mode": 1,
			"pad_r": 0,
			"pad_t": 0,
			"pad_value": 0,
			"top": "stem/MobilenetV3/Bottleneck_9/expand/Conv2D",
			"type": "convolution",
			"weights": {}
		},
		{
			"alpha": 3,
			"beta": 0,
			"bottom": "stem/MobilenetV3/Bottleneck_9/expand/Conv2D",
			"debug_info": "",
			"fused_relu": 0,
			"name": "stem/MobilenetV3/Bottleneck_9/expand/add",
			"operation": 2,
			"top": "stem/MobilenetV3/Bottleneck_9/expand/add",
			"type": "elementwise",
			"weights": {}
		},
		{
			"alpha": 0,
			"beta": 6,
			"bottom": "stem/MobilenetV3/Bottleneck_9/expand/add",
			"debug_info": "",
			"fused_relu": 0,
			"name": "stem/MobilenetV3/Bottleneck_9/expand/Relu6",
			"operation": 119,
			"top": "stem/MobilenetV3/Bottleneck_9/expand/Relu6",
			"type": "elementwise",
			"weights": {}
		},
		{
			"alpha": 0.1666666716337204,
			"beta": 0,
			"bottom": "stem/MobilenetV3/Bottleneck_9/expand/Relu6",
			"debug_info": "",
			"fused_relu": 0,
			"name": "stem/MobilenetV3/Bottleneck_9/expand/mul",
			"operation": 3,
			"top": "stem/MobilenetV3/Bottleneck_9/expand/mul",
			"type": "elementwise",
			"weights": {}
		},
		{
			"alpha": 1,
			"beta": 0,
			"bottom": "stem/MobilenetV3/Bottleneck_9/expand/Conv2D,stem/MobilenetV3/Bottleneck_9/expand/mul",
			"debug_info": "",
			"fused_relu": 0,
			"name": "stem/MobilenetV3/Bottleneck_9/expand/mul_1",
			"operation": 1,
			"top": "stem/MobilenetV3/Bottleneck_9/expand/mul_1",
			"type": "elementwise",
			"weights": {}
		},
		{
			"C": 144,
			"K": 144,
			"Nx": 5,
			"Ny": 5,
			"blob_biases": 153,
			"blob_weights_f16": 155,
			"bottom": "stem/MobilenetV3/Bottleneck_9/expand/mul_1",
			"debug_info": "",
			"fused_relu": 0,
			"fused_tanh": 0,
			"has_batch_norm": 0,
			"has_biases": 1,
			"n_groups": 144,
			"n_parallel": 1,
			"name": "stem/MobilenetV3/Bottleneck_9/depthwise/depthwise",
			"pad_b": 0,
			"pad_fill_mode": 0,
			"pad_l": 0,
			"pad_mode": 1,
			"pad_r": 0,
			"pad_t": 0,
			"pad_value": 0,
			"stride_x": 2,
			"stride_y": 2,
			"top": "stem/MobilenetV3/Bottleneck_9/depthwise/depthwise",
			"type": "convolution",
			"weights": {}
		},
		{
			"average_count_exclude_padding": 1,
			"avg_or_max": 0,
			"bottom": "stem/MobilenetV3/Bottleneck_9/depthwise/depthwise",
			"debug_info": "",
			"is_global": 1,
			"name": "stem/MobilenetV3/Bottleneck_9/gap/Mean",
			"pad_b": 0,
			"pad_fill_mode": 0,
			"pad_l": 0,
			"pad_mode": 0,
			"pad_r": 0,
			"pad_t": 0,
			"pad_value": 0,
			"size_x": 8,
			"size_y": 8,
			"stride_x": 1,
			"stride_y": 1,
			"top": "stem/MobilenetV3/Bottleneck_9/gap/Mean",
			"top_shape_style": 0,
			"type": "pool",
			"weights": {}
		},
		{
			"C": 36,
			"K": 144,
			"Nx": 1,
			"Ny": 1,
			"blob_biases": 157,
			"blob_weights_f16": 159,
			"bottom": "stem/MobilenetV3/Bottleneck_9/gap/Mean",
			"debug_info": "",
			"fused_relu": 1,
			"fused_tanh": 0,
			"has_batch_norm": 0,
			"has_biases": 1,
			"n_groups": 1,
			"n_parallel": 1,
			"name": "stem/MobilenetV3/Bottleneck_9/Bottleneck_9/Conv/Conv2D",
			"pad_b": 0,
			"pad_fill_mode": 0,
			"pad_l": 0,
			"pad_mode": 2,
			"pad_r": 0,
			"pad_t": 0,
			"pad_value": 0,
			"top": "stem/MobilenetV3/Bottleneck_9/Bottleneck_9/Conv/Conv2D",
			"type": "convolution",
			"weights": {}
		},
		{
			"C": 144,
			"K": 36,
			"Nx": 1,
			"Ny": 1,
			"blob_biases": 161,
			"blob_weights_f16": 163,
			"bottom": "stem/MobilenetV3/Bottleneck_9/Bottleneck_9/Conv/Conv2D",
			"debug_info": "",
			"fused_relu": 0,
			"fused_tanh": 0,
			"has_batch_norm": 0,
			"has_biases": 1,
			"n_groups": 1,
			"n_parallel": 1,
			"name": "stem/MobilenetV3/Bottleneck_9/Bottleneck_9_1/Conv_1/Conv2D",
			"pad_b": 0,
			"pad_fill_mode": 0,
			"pad_l": 0,
			"pad_mode": 2,
			"pad_r": 0,
			"pad_t": 0,
			"pad_value": 0,
			"top": "stem/MobilenetV3/Bottleneck_9/Bottleneck_9_1/Conv_1/Conv2D",
			"type": "convolution",
			"weights": {}
		},
		{
			"alpha": 3,
			"beta": 0,
			"bottom": "stem/MobilenetV3/Bottleneck_9/Bottleneck_9_1/Conv_1/Conv2D",
			"debug_info": "",
			"fused_relu": 0,
			"name": "stem/MobilenetV3/Bottleneck_9/Bottleneck_9_1/Conv_1/add",
			"operation": 2,
			"top": "stem/MobilenetV3/Bottleneck_9/Bottleneck_9_1/Conv_1/add",
			"type": "elementwise",
			"weights": {}
		},
		{
			"alpha": 0,
			"beta": 6,
			"bottom": "stem/MobilenetV3/Bottleneck_9/Bottleneck_9_1/Conv_1/add",
			"debug_info": "",
			"fused_relu": 0,
			"name": "stem/MobilenetV3/Bottleneck_9/Bottleneck_9_1/Conv_1/Relu6",
			"operation": 119,
			"top": "stem/MobilenetV3/Bottleneck_9/Bottleneck_9_1/Conv_1/Relu6",
			"type": "elementwise",
			"weights": {}
		},
		{
			"alpha": 0.1666666716337204,
			"beta": 0,
			"bottom": "stem/MobilenetV3/Bottleneck_9/Bottleneck_9_1/Conv_1/Relu6",
			"debug_info": "",
			"fused_relu": 0,
			"name": "stem/MobilenetV3/Bottleneck_9/Bottleneck_9_1/Conv_1/mul",
			"operation": 3,
			"top": "stem/MobilenetV3/Bottleneck_9/Bottleneck_9_1/Conv_1/mul",
			"type": "elementwise",
			"weights": {}
		},
		{
			"alpha": 1,
			"beta": 0,
			"bottom": "stem/MobilenetV3/Bottleneck_9/depthwise/depthwise,stem/MobilenetV3/Bottleneck_9/Bottleneck_9_1/Conv_1/mul",
			"debug_info": "",
			"fused_relu": 0,
			"name": "stem/MobilenetV3/Bottleneck_9/mul",
			"nd_mode": true,
			"operation": 1,
			"top": "stem/MobilenetV3/Bottleneck_9/mul",
			"type": "elementwise",
			"weights": {}
		},
		{
			"alpha": 3,
			"beta": 0,
			"bottom": "stem/MobilenetV3/Bottleneck_9/mul",
			"debug_info": "",
			"fused_relu": 0,
			"name": "stem/MobilenetV3/Bottleneck_9/add",
			"operation": 2,
			"top": "stem/MobilenetV3/Bottleneck_9/add",
			"type": "elementwise",
			"weights": {}
		},
		{
			"alpha": 0,
			"beta": 6,
			"bottom": "stem/MobilenetV3/Bottleneck_9/add",
			"debug_info": "",
			"fused_relu": 0,
			"name": "stem/MobilenetV3/Bottleneck_9/Relu6",
			"operation": 119,
			"top": "stem/MobilenetV3/Bottleneck_9/Relu6",
			"type": "elementwise",
			"weights": {}
		},
		{
			"alpha": 0.1666666716337204,
			"beta": 0,
			"bottom": "stem/MobilenetV3/Bottleneck_9/Relu6",
			"debug_info": "",
			"fused_relu": 0,
			"name": "stem/MobilenetV3/Bottleneck_9/mul_1",
			"operation": 3,
			"top": "stem/MobilenetV3/Bottleneck_9/mul_1",
			"type": "elementwise",
			"weights": {}
		},
		{
			"alpha": 1,
			"beta": 0,
			"bottom": "stem/MobilenetV3/Bottleneck_9/mul,stem/MobilenetV3/Bottleneck_9/mul_1",
			"debug_info": "",
			"fused_relu": 0,
			"name": "stem/MobilenetV3/Bottleneck_9/mul_2",
			"operation": 1,
			"top": "stem/MobilenetV3/Bottleneck_9/mul_2",
			"type": "elementwise",
			"weights": {}
		},
		{
			"C": 48,
			"K": 144,
			"Nx": 1,
			"Ny": 1,
			"blob_biases": 165,
			"blob_weights_f16": 167,
			"bottom": "stem/MobilenetV3/Bottleneck_9/mul_2",
			"debug_info": "",
			"fused_relu": 0,
			"fused_tanh": 0,
			"has_batch_norm": 0,
			"has_biases": 1,
			"n_groups": 1,
			"n_parallel": 1,
			"name": "stem/MobilenetV3/Bottleneck_9/compress/Conv2D",
			"pad_b": 0,
			"pad_fill_mode": 0,
			"pad_l": 0,
			"pad_mode": 1,
			"pad_r": 0,
			"pad_t": 0,
			"pad_value": 0,
			"top": "stem/MobilenetV3/Bottleneck_9/compress/Conv2D",
			"type": "convolution",
			"weights": {}
		},
		{
			"C": 288,
			"K": 48,
			"Nx": 1,
			"Ny": 1,
			"blob_biases": 169,
			"blob_weights_f16": 171,
			"bottom": "stem/MobilenetV3/Bottleneck_9/compress/Conv2D",
			"debug_info": "",
			"fused_relu": 0,
			"fused_tanh": 0,
			"has_batch_norm": 0,
			"has_biases": 1,
			"n_groups": 1,
			"n_parallel": 1,
			"name": "stem/MobilenetV3/Bottleneck_10/expand/Conv2D",
			"pad_b": 0,
			"pad_fill_mode": 0,
			"pad_l": 0,
			"pad_mode": 1,
			"pad_r": 0,
			"pad_t": 0,
			"pad_value": 0,
			"top": "stem/MobilenetV3/Bottleneck_10/expand/Conv2D",
			"type": "convolution",
			"weights": {}
		},
		{
			"alpha": 3,
			"beta": 0,
			"bottom": "stem/MobilenetV3/Bottleneck_10/expand/Conv2D",
			"debug_info": "",
			"fused_relu": 0,
			"name": "stem/MobilenetV3/Bottleneck_10/expand/add",
			"operation": 2,
			"top": "stem/MobilenetV3/Bottleneck_10/expand/add",
			"type": "elementwise",
			"weights": {}
		},
		{
			"alpha": 0,
			"beta": 6,
			"bottom": "stem/MobilenetV3/Bottleneck_10/expand/add",
			"debug_info": "",
			"fused_relu": 0,
			"name": "stem/MobilenetV3/Bottleneck_10/expand/Relu6",
			"operation": 119,
			"top": "stem/MobilenetV3/Bottleneck_10/expand/Relu6",
			"type": "elementwise",
			"weights": {}
		},
		{
			"alpha": 0.1666666716337204,
			"beta": 0,
			"bottom": "stem/MobilenetV3/Bottleneck_10/expand/Relu6",
			"debug_info": "",
			"fused_relu": 0,
			"name": "stem/MobilenetV3/Bottleneck_10/expand/mul",
			"operation": 3,
			"top": "stem/MobilenetV3/Bottleneck_10/expand/mul",
			"type": "elementwise",
			"weights": {}
		},
		{
			"alpha": 1,
			"beta": 0,
			"bottom": "stem/MobilenetV3/Bottleneck_10/expand/Conv2D,stem/MobilenetV3/Bottleneck_10/expand/mul",
			"debug_info": "",
			"fused_relu": 0,
			"name": "stem/MobilenetV3/Bottleneck_10/expand/mul_1",
			"operation": 1,
			"top": "stem/MobilenetV3/Bottleneck_10/expand/mul_1",
			"type": "elementwise",
			"weights": {}
		},
		{
			"C": 288,
			"K": 288,
			"Nx": 5,
			"Ny": 5,
			"blob_biases": 173,
			"blob_weights_f16": 175,
			"bottom": "stem/MobilenetV3/Bottleneck_10/expand/mul_1",
			"debug_info": "",
			"fused_relu": 0,
			"fused_tanh": 0,
			"has_batch_norm": 0,
			"has_biases": 1,
			"n_groups": 288,
			"n_parallel": 1,
			"name": "stem/MobilenetV3/Bottleneck_10/depthwise/depthwise",
			"pad_b": 0,
			"pad_fill_mode": 0,
			"pad_l": 0,
			"pad_mode": 1,
			"pad_r": 0,
			"pad_t": 0,
			"pad_value": 0,
			"top": "stem/MobilenetV3/Bottleneck_10/depthwise/depthwise",
			"type": "convolution",
			"weights": {}
		},
		{
			"average_count_exclude_padding": 1,
			"avg_or_max": 0,
			"bottom": "stem/MobilenetV3/Bottleneck_10/depthwise/depthwise",
			"debug_info": "",
			"is_global": 1,
			"name": "stem/MobilenetV3/Bottleneck_10/gap/Mean",
			"pad_b": 0,
			"pad_fill_mode": 0,
			"pad_l": 0,
			"pad_mode": 0,
			"pad_r": 0,
			"pad_t": 0,
			"pad_value": 0,
			"size_x": 8,
			"size_y": 8,
			"stride_x": 1,
			"stride_y": 1,
			"top": "stem/MobilenetV3/Bottleneck_10/gap/Mean",
			"top_shape_style": 0,
			"type": "pool",
			"weights": {}
		},
		{
			"C": 72,
			"K": 288,
			"Nx": 1,
			"Ny": 1,
			"blob_biases": 177,
			"blob_weights_f16": 179,
			"bottom": "stem/MobilenetV3/Bottleneck_10/gap/Mean",
			"debug_info": "",
			"fused_relu": 1,
			"fused_tanh": 0,
			"has_batch_norm": 0,
			"has_biases": 1,
			"n_groups": 1,
			"n_parallel": 1,
			"name": "stem/MobilenetV3/Bottleneck_10/Bottleneck_10/Conv/Conv2D",
			"pad_b": 0,
			"pad_fill_mode": 0,
			"pad_l": 0,
			"pad_mode": 2,
			"pad_r": 0,
			"pad_t": 0,
			"pad_value": 0,
			"top": "stem/MobilenetV3/Bottleneck_10/Bottleneck_10/Conv/Conv2D",
			"type": "convolution",
			"weights": {}
		},
		{
			"C": 288,
			"K": 72,
			"Nx": 1,
			"Ny": 1,
			"blob_biases": 181,
			"blob_weights_f16": 183,
			"bottom": "stem/MobilenetV3/Bottleneck_10/Bottleneck_10/Conv/Conv2D",
			"debug_info": "",
			"fused_relu": 0,
			"fused_tanh": 0,
			"has_batch_norm": 0,
			"has_biases": 1,
			"n_groups": 1,
			"n_parallel": 1,
			"name": "stem/MobilenetV3/Bottleneck_10/Bottleneck_10_1/Conv_1/Conv2D",
			"pad_b": 0,
			"pad_fill_mode": 0,
			"pad_l": 0,
			"pad_mode": 2,
			"pad_r": 0,
			"pad_t": 0,
			"pad_value": 0,
			"top": "stem/MobilenetV3/Bottleneck_10/Bottleneck_10_1/Conv_1/Conv2D",
			"type": "convolution",
			"weights": {}
		},
		{
			"alpha": 3,
			"beta": 0,
			"bottom": "stem/MobilenetV3/Bottleneck_10/Bottleneck_10_1/Conv_1/Conv2D",
			"debug_info": "",
			"fused_relu": 0,
			"name": "stem/MobilenetV3/Bottleneck_10/Bottleneck_10_1/Conv_1/add",
			"operation": 2,
			"top": "stem/MobilenetV3/Bottleneck_10/Bottleneck_10_1/Conv_1/add",
			"type": "elementwise",
			"weights": {}
		},
		{
			"alpha": 0,
			"beta": 6,
			"bottom": "stem/MobilenetV3/Bottleneck_10/Bottleneck_10_1/Conv_1/add",
			"debug_info": "",
			"fused_relu": 0,
			"name": "stem/MobilenetV3/Bottleneck_10/Bottleneck_10_1/Conv_1/Relu6",
			"operation": 119,
			"top": "stem/MobilenetV3/Bottleneck_10/Bottleneck_10_1/Conv_1/Relu6",
			"type": "elementwise",
			"weights": {}
		},
		{
			"alpha": 0.1666666716337204,
			"beta": 0,
			"bottom": "stem/MobilenetV3/Bottleneck_10/Bottleneck_10_1/Conv_1/Relu6",
			"debug_info": "",
			"fused_relu": 0,
			"name": "stem/MobilenetV3/Bottleneck_10/Bottleneck_10_1/Conv_1/mul",
			"operation": 3,
			"top": "stem/MobilenetV3/Bottleneck_10/Bottleneck_10_1/Conv_1/mul",
			"type": "elementwise",
			"weights": {}
		},
		{
			"alpha": 1,
			"beta": 0,
			"bottom": "stem/MobilenetV3/Bottleneck_10/depthwise/depthwise,stem/MobilenetV3/Bottleneck_10/Bottleneck_10_1/Conv_1/mul",
			"debug_info": "",
			"fused_relu": 0,
			"name": "stem/MobilenetV3/Bottleneck_10/mul",
			"nd_mode": true,
			"operation": 1,
			"top": "stem/MobilenetV3/Bottleneck_10/mul",
			"type": "elementwise",
			"weights": {}
		},
		{
			"alpha": 3,
			"beta": 0,
			"bottom": "stem/MobilenetV3/Bottleneck_10/mul",
			"debug_info": "",
			"fused_relu": 0,
			"name": "stem/MobilenetV3/Bottleneck_10/add",
			"operation": 2,
			"top": "stem/MobilenetV3/Bottleneck_10/add",
			"type": "elementwise",
			"weights": {}
		},
		{
			"alpha": 0,
			"beta": 6,
			"bottom": "stem/MobilenetV3/Bottleneck_10/add",
			"debug_info": "",
			"fused_relu": 0,
			"name": "stem/MobilenetV3/Bottleneck_10/Relu6",
			"operation": 119,
			"top": "stem/MobilenetV3/Bottleneck_10/Relu6",
			"type": "elementwise",
			"weights": {}
		},
		{
			"alpha": 0.1666666716337204,
			"beta": 0,
			"bottom": "stem/MobilenetV3/Bottleneck_10/Relu6",
			"debug_info": "",
			"fused_relu": 0,
			"name": "stem/MobilenetV3/Bottleneck_10/mul_1",
			"operation": 3,
			"top": "stem/MobilenetV3/Bottleneck_10/mul_1",
			"type": "elementwise",
			"weights": {}
		},
		{
			"alpha": 1,
			"beta": 0,
			"bottom": "stem/MobilenetV3/Bottleneck_10/mul,stem/MobilenetV3/Bottleneck_10/mul_1",
			"debug_info": "",
			"fused_relu": 0,
			"name": "stem/MobilenetV3/Bottleneck_10/mul_2",
			"operation": 1,
			"top": "stem/MobilenetV3/Bottleneck_10/mul_2",
			"type": "elementwise",
			"weights": {}
		},
		{
			"C": 48,
			"K": 288,
			"Nx": 1,
			"Ny": 1,
			"blob_biases": 185,
			"blob_weights_f16": 187,
			"bottom": "stem/MobilenetV3/Bottleneck_10/mul_2",
			"debug_info": "",
			"fused_relu": 0,
			"fused_tanh": 0,
			"has_batch_norm": 0,
			"has_biases": 1,
			"n_groups": 1,
			"n_parallel": 1,
			"name": "stem/MobilenetV3/Bottleneck_10/compress/Conv2D",
			"pad_b": 0,
			"pad_fill_mode": 0,
			"pad_l": 0,
			"pad_mode": 1,
			"pad_r": 0,
			"pad_t": 0,
			"pad_value": 0,
			"top": "stem/MobilenetV3/Bottleneck_10/compress/Conv2D",
			"type": "convolution",
			"weights": {}
		},
		{
			"alpha": 1,
			"beta": 0,
			"bottom": "stem/MobilenetV3/Bottleneck_10/compress/Conv2D,stem/MobilenetV3/Bottleneck_9/compress/Conv2D",
			"debug_info": "",
			"fused_relu": 0,
			"name": "stem/MobilenetV3/Bottleneck_10/add_1",
			"operation": 0,
			"top": "stem/MobilenetV3/Bottleneck_10/add_1",
			"type": "elementwise",
			"weights": {}
		},
		{
			"C": 288,
			"K": 48,
			"Nx": 1,
			"Ny": 1,
			"blob_biases": 189,
			"blob_weights_f16": 191,
			"bottom": "stem/MobilenetV3/Bottleneck_10/add_1",
			"debug_info": "",
			"fused_relu": 0,
			"fused_tanh": 0,
			"has_batch_norm": 0,
			"has_biases": 1,
			"n_groups": 1,
			"n_parallel": 1,
			"name": "stem/MobilenetV3/Bottleneck_11/expand/Conv2D",
			"pad_b": 0,
			"pad_fill_mode": 0,
			"pad_l": 0,
			"pad_mode": 1,
			"pad_r": 0,
			"pad_t": 0,
			"pad_value": 0,
			"top": "stem/MobilenetV3/Bottleneck_11/expand/Conv2D",
			"type": "convolution",
			"weights": {}
		},
		{
			"alpha": 3,
			"beta": 0,
			"bottom": "stem/MobilenetV3/Bottleneck_11/expand/Conv2D",
			"debug_info": "",
			"fused_relu": 0,
			"name": "stem/MobilenetV3/Bottleneck_11/expand/add",
			"operation": 2,
			"top": "stem/MobilenetV3/Bottleneck_11/expand/add",
			"type": "elementwise",
			"weights": {}
		},
		{
			"alpha": 0,
			"beta": 6,
			"bottom": "stem/MobilenetV3/Bottleneck_11/expand/add",
			"debug_info": "",
			"fused_relu": 0,
			"name": "stem/MobilenetV3/Bottleneck_11/expand/Relu6",
			"operation": 119,
			"top": "stem/MobilenetV3/Bottleneck_11/expand/Relu6",
			"type": "elementwise",
			"weights": {}
		},
		{
			"alpha": 0.1666666716337204,
			"beta": 0,
			"bottom": "stem/MobilenetV3/Bottleneck_11/expand/Relu6",
			"debug_info": "",
			"fused_relu": 0,
			"name": "stem/MobilenetV3/Bottleneck_11/expand/mul",
			"operation": 3,
			"top": "stem/MobilenetV3/Bottleneck_11/expand/mul",
			"type": "elementwise",
			"weights": {}
		},
		{
			"alpha": 1,
			"beta": 0,
			"bottom": "stem/MobilenetV3/Bottleneck_11/expand/Conv2D,stem/MobilenetV3/Bottleneck_11/expand/mul",
			"debug_info": "",
			"fused_relu": 0,
			"name": "stem/MobilenetV3/Bottleneck_11/expand/mul_1",
			"operation": 1,
			"top": "stem/MobilenetV3/Bottleneck_11/expand/mul_1",
			"type": "elementwise",
			"weights": {}
		},
		{
			"C": 288,
			"K": 288,
			"Nx": 5,
			"Ny": 5,
			"blob_biases": 193,
			"blob_weights_f16": 195,
			"bottom": "stem/MobilenetV3/Bottleneck_11/expand/mul_1",
			"debug_info": "",
			"fused_relu": 0,
			"fused_tanh": 0,
			"has_batch_norm": 0,
			"has_biases": 1,
			"n_groups": 288,
			"n_parallel": 1,
			"name": "stem/MobilenetV3/Bottleneck_11/depthwise/depthwise",
			"pad_b": 0,
			"pad_fill_mode": 0,
			"pad_l": 0,
			"pad_mode": 1,
			"pad_r": 0,
			"pad_t": 0,
			"pad_value": 0,
			"top": "stem/MobilenetV3/Bottleneck_11/depthwise/depthwise",
			"type": "convolution",
			"weights": {}
		},
		{
			"average_count_exclude_padding": 1,
			"avg_or_max": 0,
			"bottom": "stem/MobilenetV3/Bottleneck_11/depthwise/depthwise",
			"debug_info": "",
			"is_global": 1,
			"name": "stem/MobilenetV3/Bottleneck_11/gap/Mean",
			"pad_b": 0,
			"pad_fill_mode": 0,
			"pad_l": 0,
			"pad_mode": 0,
			"pad_r": 0,
			"pad_t": 0,
			"pad_value": 0,
			"size_x": 8,
			"size_y": 8,
			"stride_x": 1,
			"stride_y": 1,
			"top": "stem/MobilenetV3/Bottleneck_11/gap/Mean",
			"top_shape_style": 0,
			"type": "pool",
			"weights": {}
		},
		{
			"C": 72,
			"K": 288,
			"Nx": 1,
			"Ny": 1,
			"blob_biases": 197,
			"blob_weights_f16": 199,
			"bottom": "stem/MobilenetV3/Bottleneck_11/gap/Mean",
			"debug_info": "",
			"fused_relu": 1,
			"fused_tanh": 0,
			"has_batch_norm": 0,
			"has_biases": 1,
			"n_groups": 1,
			"n_parallel": 1,
			"name": "stem/MobilenetV3/Bottleneck_11/Bottleneck_11/Conv/Conv2D",
			"pad_b": 0,
			"pad_fill_mode": 0,
			"pad_l": 0,
			"pad_mode": 2,
			"pad_r": 0,
			"pad_t": 0,
			"pad_value": 0,
			"top": "stem/MobilenetV3/Bottleneck_11/Bottleneck_11/Conv/Conv2D",
			"type": "convolution",
			"weights": {}
		},
		{
			"C": 288,
			"K": 72,
			"Nx": 1,
			"Ny": 1,
			"blob_biases": 201,
			"blob_weights_f16": 203,
			"bottom": "stem/MobilenetV3/Bottleneck_11/Bottleneck_11/Conv/Conv2D",
			"debug_info": "",
			"fused_relu": 0,
			"fused_tanh": 0,
			"has_batch_norm": 0,
			"has_biases": 1,
			"n_groups": 1,
			"n_parallel": 1,
			"name": "stem/MobilenetV3/Bottleneck_11/Bottleneck_11_1/Conv_1/Conv2D",
			"pad_b": 0,
			"pad_fill_mode": 0,
			"pad_l": 0,
			"pad_mode": 2,
			"pad_r": 0,
			"pad_t": 0,
			"pad_value": 0,
			"top": "stem/MobilenetV3/Bottleneck_11/Bottleneck_11_1/Conv_1/Conv2D",
			"type": "convolution",
			"weights": {}
		},
		{
			"alpha": 3,
			"beta": 0,
			"bottom": "stem/MobilenetV3/Bottleneck_11/Bottleneck_11_1/Conv_1/Conv2D",
			"debug_info": "",
			"fused_relu": 0,
			"name": "stem/MobilenetV3/Bottleneck_11/Bottleneck_11_1/Conv_1/add",
			"operation": 2,
			"top": "stem/MobilenetV3/Bottleneck_11/Bottleneck_11_1/Conv_1/add",
			"type": "elementwise",
			"weights": {}
		},
		{
			"alpha": 0,
			"beta": 6,
			"bottom": "stem/MobilenetV3/Bottleneck_11/Bottleneck_11_1/Conv_1/add",
			"debug_info": "",
			"fused_relu": 0,
			"name": "stem/MobilenetV3/Bottleneck_11/Bottleneck_11_1/Conv_1/Relu6",
			"operation": 119,
			"top": "stem/MobilenetV3/Bottleneck_11/Bottleneck_11_1/Conv_1/Relu6",
			"type": "elementwise",
			"weights": {}
		},
		{
			"alpha": 0.1666666716337204,
			"beta": 0,
			"bottom": "stem/MobilenetV3/Bottleneck_11/Bottleneck_11_1/Conv_1/Relu6",
			"debug_info": "",
			"fused_relu": 0,
			"name": "stem/MobilenetV3/Bottleneck_11/Bottleneck_11_1/Conv_1/mul",
			"operation": 3,
			"top": "stem/MobilenetV3/Bottleneck_11/Bottleneck_11_1/Conv_1/mul",
			"type": "elementwise",
			"weights": {}
		},
		{
			"alpha": 1,
			"beta": 0,
			"bottom": "stem/MobilenetV3/Bottleneck_11/depthwise/depthwise,stem/MobilenetV3/Bottleneck_11/Bottleneck_11_1/Conv_1/mul",
			"debug_info": "",
			"fused_relu": 0,
			"name": "stem/MobilenetV3/Bottleneck_11/mul",
			"nd_mode": true,
			"operation": 1,
			"top": "stem/MobilenetV3/Bottleneck_11/mul",
			"type": "elementwise",
			"weights": {}
		},
		{
			"alpha": 3,
			"beta": 0,
			"bottom": "stem/MobilenetV3/Bottleneck_11/mul",
			"debug_info": "",
			"fused_relu": 0,
			"name": "stem/MobilenetV3/Bottleneck_11/add",
			"operation": 2,
			"top": "stem/MobilenetV3/Bottleneck_11/add",
			"type": "elementwise",
			"weights": {}
		},
		{
			"alpha": 0,
			"beta": 6,
			"bottom": "stem/MobilenetV3/Bottleneck_11/add",
			"debug_info": "",
			"fused_relu": 0,
			"name": "stem/MobilenetV3/Bottleneck_11/Relu6",
			"operation": 119,
			"top": "stem/MobilenetV3/Bottleneck_11/Relu6",
			"type": "elementwise",
			"weights": {}
		},
		{
			"alpha": 0.1666666716337204,
			"beta": 0,
			"bottom": "stem/MobilenetV3/Bottleneck_11/Relu6",
			"debug_info": "",
			"fused_relu": 0,
			"name": "stem/MobilenetV3/Bottleneck_11/mul_1",
			"operation": 3,
			"top": "stem/MobilenetV3/Bottleneck_11/mul_1",
			"type": "elementwise",
			"weights": {}
		},
		{
			"alpha": 1,
			"beta": 0,
			"bottom": "stem/MobilenetV3/Bottleneck_11/mul,stem/MobilenetV3/Bottleneck_11/mul_1",
			"debug_info": "",
			"fused_relu": 0,
			"name": "stem/MobilenetV3/Bottleneck_11/mul_2",
			"operation": 1,
			"top": "stem/MobilenetV3/Bottleneck_11/mul_2",
			"type": "elementwise",
			"weights": {}
		},
		{
			"C": 48,
			"K": 288,
			"Nx": 1,
			"Ny": 1,
			"blob_biases": 205,
			"blob_weights_f16": 207,
			"bottom": "stem/MobilenetV3/Bottleneck_11/mul_2",
			"debug_info": "",
			"fused_relu": 0,
			"fused_tanh": 0,
			"has_batch_norm": 0,
			"has_biases": 1,
			"n_groups": 1,
			"n_parallel": 1,
			"name": "stem/MobilenetV3/Bottleneck_11/compress/Conv2D",
			"pad_b": 0,
			"pad_fill_mode": 0,
			"pad_l": 0,
			"pad_mode": 1,
			"pad_r": 0,
			"pad_t": 0,
			"pad_value": 0,
			"top": "stem/MobilenetV3/Bottleneck_11/compress/Conv2D",
			"type": "convolution",
			"weights": {}
		},
		{
			"alpha": 1,
			"beta": 0,
			"bottom": "stem/MobilenetV3/Bottleneck_11/compress/Conv2D,stem/MobilenetV3/Bottleneck_10/add_1",
			"debug_info": "",
			"fused_relu": 0,
			"name": "stem/MobilenetV3/Bottleneck_11/add_1",
			"operation": 0,
			"top": "stem/MobilenetV3/Bottleneck_11/add_1",
			"type": "elementwise",
			"weights": {}
		},
		{
			"C": 288,
			"K": 48,
			"Nx": 1,
			"Ny": 1,
			"blob_biases": 209,
			"blob_weights_f16": 211,
			"bottom": "stem/MobilenetV3/Bottleneck_11/add_1",
			"debug_info": "",
			"fused_relu": 0,
			"fused_tanh": 0,
			"has_batch_norm": 0,
			"has_biases": 1,
			"n_groups": 1,
			"n_parallel": 1,
			"name": "stem/MobilenetV3/Conv2d_12/Conv2D",
			"pad_b": 0,
			"pad_fill_mode": 0,
			"pad_l": 0,
			"pad_mode": 1,
			"pad_r": 0,
			"pad_t": 0,
			"pad_value": 0,
			"top": "stem/MobilenetV3/Conv2d_12/Conv2D",
			"type": "convolution",
			"weights": {}
		},
		{
			"alpha": 3,
			"beta": 0,
			"bottom": "stem/MobilenetV3/Conv2d_12/Conv2D",
			"debug_info": "",
			"fused_relu": 0,
			"name": "stem/MobilenetV3/Conv2d_12/add",
			"operation": 2,
			"top": "stem/MobilenetV3/Conv2d_12/add",
			"type": "elementwise",
			"weights": {}
		},
		{
			"alpha": 0,
			"beta": 6,
			"bottom": "stem/MobilenetV3/Conv2d_12/add",
			"debug_info": "",
			"fused_relu": 0,
			"name": "stem/MobilenetV3/Conv2d_12/Relu6",
			"operation": 119,
			"top": "stem/MobilenetV3/Conv2d_12/Relu6",
			"type": "elementwise",
			"weights": {}
		},
		{
			"alpha": 0.1666666716337204,
			"beta": 0,
			"bottom": "stem/MobilenetV3/Conv2d_12/Relu6",
			"debug_info": "",
			"fused_relu": 0,
			"name": "stem/MobilenetV3/Conv2d_12/mul",
			"operation": 3,
			"top": "stem/MobilenetV3/Conv2d_12/mul",
			"type": "elementwise",
			"weights": {}
		},
		{
			"alpha": 1,
			"beta": 0,
			"bottom": "stem/MobilenetV3/Conv2d_12/Conv2D,stem/MobilenetV3/Conv2d_12/mul",
			"debug_info": "",
			"fused_relu": 0,
			"name": "stem/MobilenetV3/Conv2d_12/mul_1",
			"operation": 1,
			"top": "stem/MobilenetV3/Conv2d_12/mul_1",
			"type": "elementwise",
			"weights": {}
		},
		{
			"average_count_exclude_padding": 1,
			"avg_or_max": 0,
			"bottom": "stem/MobilenetV3/Conv2d_12/mul_1",
			"debug_info": "",
			"is_global": 1,
			"name": "stem/MobilenetV3/Mean",
			"pad_b": 0,
			"pad_fill_mode": 0,
			"pad_l": 0,
			"pad_mode": 0,
			"pad_r": 0,
			"pad_t": 0,
			"pad_value": 0,
			"size_x": 8,
			"size_y": 8,
			"stride_x": 1,
			"stride_y": 1,
			"top": "stem/MobilenetV3/Mean",
			"top_shape_style": 0,
			"type": "pool",
			"weights": {}
		},
		{
			"C": 1280,
			"K": 288,
			"Nx": 1,
			"Ny": 1,
			"blob_biases": 213,
			"blob_weights_f16": 215,
			"bottom": "stem/MobilenetV3/Mean",
			"debug_info": "",
			"fused_relu": 0,
			"fused_tanh": 0,
			"has_batch_norm": 0,
			"has_biases": 1,
			"n_groups": 1,
			"n_parallel": 1,
			"name": "stem/MobilenetV3/GAP_13/Conv2D",
			"pad_b": 0,
			"pad_fill_mode": 0,
			"pad_l": 0,
			"pad_mode": 1,
			"pad_r": 0,
			"pad_t": 0,
			"pad_value": 0,
			"top": "stem/MobilenetV3/GAP_13/Conv2D",
			"type": "convolution",
			"weights": {}
		},
		{
			"alpha": 3,
			"beta": 0,
			"bottom": "stem/MobilenetV3/GAP_13/Conv2D",
			"debug_info": "",
			"fused_relu": 0,
			"name": "stem/MobilenetV3/GAP_13/add",
			"operation": 2,
			"top": "stem/MobilenetV3/GAP_13/add",
			"type": "elementwise",
			"weights": {}
		},
		{
			"alpha": 0,
			"beta": 6,
			"bottom": "stem/MobilenetV3/GAP_13/add",
			"debug_info": "",
			"fused_relu": 0,
			"name": "stem/MobilenetV3/GAP_13/Relu6",
			"operation": 119,
			"top": "stem/MobilenetV3/GAP_13/Relu6",
			"type": "elementwise",
			"weights": {}
		},
		{
			"alpha": 0.1666666716337204,
			"beta": 0,
			"bottom": "stem/MobilenetV3/GAP_13/Relu6",
			"debug_info": "",
			"fused_relu": 0,
			"name": "stem/MobilenetV3/GAP_13/mul",
			"operation": 3,
			"top": "stem/MobilenetV3/GAP_13/mul",
			"type": "elementwise",
			"weights": {}
		},
		{
			"alpha": 1,
			"beta": 0,
			"bottom": "stem/MobilenetV3/GAP_13/Conv2D,stem/MobilenetV3/GAP_13/mul",
			"debug_info": "",
			"fused_relu": 0,
			"name": "stem/MobilenetV3/GAP_13/mul_1",
			"operation": 1,
			"top": "stem/MobilenetV3/GAP_13/mul_1",
			"type": "elementwise",
			"weights": {}
		},
		{
			"alpha": 1,
			"beta": 0,
			"bottom": "stem/MobilenetV3/GAP_13/mul_1",
			"debug_info": "",
			"fused_relu": 0,
			"name": "cell_leaf/mul",
			"operation": 3,
			"top": "cell_leaf/mul",
			"type": "elementwise",
			"weights": {}
		},
		{
			"blob_biases": 217,
			"blob_weights_f16": 219,
			"bottom": "cell_leaf/mul",
			"debug_info": "",
			"has_biases": 1,
			"has_prelu": 0,
			"has_relu": 0,
			"has_tanh": 0,
			"nB": 1280,
			"nC": 10,
			"name": "cell_leaf/fully_connected/MatMul",
			"top": "cell_leaf/fully_connected/MatMul",
			"type": "inner_product",
			"weights": {}
		},
		{
			"attributes": {
				"is_output": 1
			},
			"beta": 0,
			"bottom": "cell_leaf/fully_connected/MatMul",
			"debug_info": "",
			"mode": 3,
			"name": "leaf/leaf/predictions/probabilities",
			"top": "leaf/leaf/predictions/probabilities",
			"type": "activation",
			"weights": {}
		}
	],
	"metadata_in_weights": [],
	"properties": {
		"espresso.ane.transform_bcast": "1",
		"experimental.ane.enable_updated_global_pooling": "1"
	},
	"storage": "model.espresso.weights",
	"transform_params": {
		"image/Placeholder": {
			"bias_a": 0,
			"bias_b": -1,
			"bias_g": -1,
			"bias_r": -1,
			"center_mean": 0,
			"is_network_bgr": 0,
			"scale": 0.007843137718737125
		}
	}
}