{
  "storage" : "id_fitting_multiframe_rgb_only.espresso.weights",
  "properties" : {
    "ane_compiler_batch" : "1",
    "compress_sparse" : "1",
    "network_version" : "cara_chkp_id=501243"
  },
  "configurations" : {
    "1" : {
      "input_shapes" : {
        "network-inputs\/transpose_1:0_bridge" : {
          "k" : 51,
          "w" : 1,
          "n" : 1,
          "h" : 1
        },
        "network-inputs\/transpose:0_bridge" : {
          "k" : 3,
          "w" : 128,
          "n" : 1,
          "h" : 128
        },
        "network-inputs\/transpose_3:0_bridge" : {
          "k" : 64,
          "w" : 1,
          "n" : 1,
          "h" : 1
        },
        "network-inputs\/transpose_2:0_bridge" : {
          "k" : 9,
          "w" : 1,
          "n" : 1,
          "h" : 1
        }
      }
    }
  },
  "format_version" : 200,
  "analyses" : {

  },
  "layers" : [
    {
      "pad_r" : 1,
      "fused_relu" : 1,
      "fused_tanh" : 0,
      "debug_info" : "",
      "pad_fill_mode" : 0,
      "pad_b" : 1,
      "pad_l" : 0,
      "top" : "id_features_rgb\/0-conv-block\/relu",
      "K" : 3,
      "blob_biases" : 1,
      "stride_x" : 2,
      "name" : "id_features_rgb\/0-conv-block\/relu",
      "has_batch_norm" : 0,
      "type" : "convolution",
      "n_groups" : 1,
      "pad_t" : 0,
      "stride_y" : 2,
      "has_biases" : 1,
      "C" : 64,
      "bottom" : "network-inputs\/transpose:0_bridge",
      "weights" : {

      },
      "Nx" : 3,
      "pad_mode" : 0,
      "pad_value" : 0,
      "Ny" : 3,
      "n_parallel" : 1,
      "blob_weights_f16" : 3
    },
    {
      "pad_r" : 1,
      "fused_relu" : 1,
      "fused_tanh" : 0,
      "debug_info" : "",
      "pad_fill_mode" : 0,
      "pad_b" : 1,
      "pad_l" : 1,
      "top" : "id_features_rgb\/1-densenet\/0-conv-block\/conv-3x3-64-16-variables\/conv-3x3-64-16-variables\/relu",
      "K" : 64,
      "blob_biases" : 5,
      "name" : "id_features_rgb\/1-densenet\/0-conv-block\/conv-3x3-64-16-variables\/conv-3x3-64-16-variables\/relu",
      "has_batch_norm" : 0,
      "type" : "convolution",
      "n_groups" : 1,
      "pad_t" : 1,
      "has_biases" : 1,
      "C" : 16,
      "bottom" : "id_features_rgb\/0-conv-block\/relu",
      "weights" : {

      },
      "Nx" : 3,
      "pad_mode" : 0,
      "pad_value" : 0,
      "Ny" : 3,
      "n_parallel" : 1,
      "blob_weights_f16" : 7
    },
    {
      "weights" : {

      },
      "debug_info" : "",
      "top" : "id_features_rgb\/1-densenet\/1-concat",
      "type" : "concat",
      "name" : "id_features_rgb\/1-densenet\/1-concat",
      "bottom" : "id_features_rgb\/1-densenet\/0-conv-block\/conv-3x3-64-16-variables\/conv-3x3-64-16-variables\/relu,id_features_rgb\/0-conv-block\/relu"
    },
    {
      "pad_r" : 1,
      "fused_relu" : 1,
      "fused_tanh" : 0,
      "debug_info" : "",
      "pad_fill_mode" : 0,
      "pad_b" : 1,
      "pad_l" : 1,
      "top" : "id_features_rgb\/1-densenet\/2-conv-block\/conv-3x3-80-16-variables\/conv-3x3-80-16-variables\/relu",
      "K" : 80,
      "blob_biases" : 9,
      "name" : "id_features_rgb\/1-densenet\/2-conv-block\/conv-3x3-80-16-variables\/conv-3x3-80-16-variables\/relu",
      "has_batch_norm" : 0,
      "type" : "convolution",
      "n_groups" : 1,
      "pad_t" : 1,
      "has_biases" : 1,
      "C" : 16,
      "bottom" : "id_features_rgb\/1-densenet\/1-concat",
      "weights" : {

      },
      "Nx" : 3,
      "pad_mode" : 0,
      "pad_value" : 0,
      "Ny" : 3,
      "n_parallel" : 1,
      "blob_weights_f16" : 11
    },
    {
      "weights" : {

      },
      "debug_info" : "",
      "top" : "id_features_rgb\/1-densenet\/3-concat",
      "type" : "concat",
      "name" : "id_features_rgb\/1-densenet\/3-concat",
      "bottom" : "id_features_rgb\/1-densenet\/2-conv-block\/conv-3x3-80-16-variables\/conv-3x3-80-16-variables\/relu,id_features_rgb\/1-densenet\/1-concat"
    },
    {
      "pad_r" : 1,
      "fused_relu" : 1,
      "fused_tanh" : 0,
      "debug_info" : "",
      "pad_fill_mode" : 0,
      "pad_b" : 1,
      "pad_l" : 1,
      "top" : "id_features_rgb\/1-densenet\/4-conv-block\/conv-3x3-96-16-variables\/conv-3x3-96-16-variables\/relu",
      "K" : 96,
      "blob_biases" : 13,
      "name" : "id_features_rgb\/1-densenet\/4-conv-block\/conv-3x3-96-16-variables\/conv-3x3-96-16-variables\/relu",
      "has_batch_norm" : 0,
      "type" : "convolution",
      "n_groups" : 1,
      "pad_t" : 1,
      "has_biases" : 1,
      "C" : 16,
      "bottom" : "id_features_rgb\/1-densenet\/3-concat",
      "weights" : {

      },
      "Nx" : 3,
      "pad_mode" : 0,
      "pad_value" : 0,
      "Ny" : 3,
      "n_parallel" : 1,
      "blob_weights_f16" : 15
    },
    {
      "weights" : {

      },
      "debug_info" : "",
      "top" : "id_features_rgb\/1-densenet\/5-concat",
      "type" : "concat",
      "name" : "id_features_rgb\/1-densenet\/5-concat",
      "bottom" : "id_features_rgb\/1-densenet\/4-conv-block\/conv-3x3-96-16-variables\/conv-3x3-96-16-variables\/relu,id_features_rgb\/1-densenet\/3-concat"
    },
    {
      "pad_r" : 1,
      "fused_relu" : 1,
      "fused_tanh" : 0,
      "debug_info" : "",
      "pad_fill_mode" : 0,
      "pad_b" : 1,
      "pad_l" : 1,
      "top" : "id_features_rgb\/2-conv-block\/relu",
      "K" : 112,
      "blob_biases" : 17,
      "name" : "id_features_rgb\/2-conv-block\/relu",
      "has_batch_norm" : 0,
      "type" : "convolution",
      "n_groups" : 1,
      "pad_t" : 1,
      "has_biases" : 1,
      "C" : 64,
      "bottom" : "id_features_rgb\/1-densenet\/5-concat",
      "weights" : {

      },
      "Nx" : 3,
      "pad_mode" : 0,
      "pad_value" : 0,
      "Ny" : 3,
      "n_parallel" : 1,
      "blob_weights_f16" : 19
    },
    {
      "pad_r" : 1,
      "fused_relu" : 1,
      "fused_tanh" : 0,
      "debug_info" : "",
      "pad_fill_mode" : 0,
      "pad_b" : 1,
      "pad_l" : 0,
      "top" : "id_features_rgb\/3-conv-block\/relu",
      "K" : 64,
      "blob_biases" : 21,
      "stride_x" : 2,
      "name" : "id_features_rgb\/3-conv-block\/relu",
      "has_batch_norm" : 0,
      "type" : "convolution",
      "n_groups" : 1,
      "pad_t" : 0,
      "stride_y" : 2,
      "has_biases" : 1,
      "C" : 64,
      "bottom" : "id_features_rgb\/2-conv-block\/relu",
      "weights" : {

      },
      "Nx" : 3,
      "pad_mode" : 0,
      "pad_value" : 0,
      "Ny" : 3,
      "n_parallel" : 1,
      "blob_weights_f16" : 23
    },
    {
      "pad_r" : 1,
      "fused_relu" : 1,
      "fused_tanh" : 0,
      "debug_info" : "",
      "pad_fill_mode" : 0,
      "pad_b" : 1,
      "pad_l" : 1,
      "top" : "id_features_rgb\/4-densenet\/0-conv-block\/conv-3x3-64-16-variables\/conv-3x3-64-16-variables\/relu",
      "K" : 64,
      "blob_biases" : 25,
      "name" : "id_features_rgb\/4-densenet\/0-conv-block\/conv-3x3-64-16-variables\/conv-3x3-64-16-variables\/relu",
      "has_batch_norm" : 0,
      "type" : "convolution",
      "n_groups" : 1,
      "pad_t" : 1,
      "has_biases" : 1,
      "C" : 16,
      "bottom" : "id_features_rgb\/3-conv-block\/relu",
      "weights" : {

      },
      "Nx" : 3,
      "pad_mode" : 0,
      "pad_value" : 0,
      "Ny" : 3,
      "n_parallel" : 1,
      "blob_weights_f16" : 27
    },
    {
      "weights" : {

      },
      "debug_info" : "",
      "top" : "id_features_rgb\/4-densenet\/1-concat",
      "type" : "concat",
      "name" : "id_features_rgb\/4-densenet\/1-concat",
      "bottom" : "id_features_rgb\/4-densenet\/0-conv-block\/conv-3x3-64-16-variables\/conv-3x3-64-16-variables\/relu,id_features_rgb\/3-conv-block\/relu"
    },
    {
      "pad_r" : 1,
      "fused_relu" : 1,
      "fused_tanh" : 0,
      "debug_info" : "",
      "pad_fill_mode" : 0,
      "pad_b" : 1,
      "pad_l" : 1,
      "top" : "id_features_rgb\/4-densenet\/2-conv-block\/conv-3x3-80-16-variables\/conv-3x3-80-16-variables\/relu",
      "K" : 80,
      "blob_biases" : 29,
      "name" : "id_features_rgb\/4-densenet\/2-conv-block\/conv-3x3-80-16-variables\/conv-3x3-80-16-variables\/relu",
      "has_batch_norm" : 0,
      "type" : "convolution",
      "n_groups" : 1,
      "pad_t" : 1,
      "has_biases" : 1,
      "C" : 16,
      "bottom" : "id_features_rgb\/4-densenet\/1-concat",
      "weights" : {

      },
      "Nx" : 3,
      "pad_mode" : 0,
      "pad_value" : 0,
      "Ny" : 3,
      "n_parallel" : 1,
      "blob_weights_f16" : 31
    },
    {
      "weights" : {

      },
      "debug_info" : "",
      "top" : "id_features_rgb\/4-densenet\/3-concat",
      "type" : "concat",
      "name" : "id_features_rgb\/4-densenet\/3-concat",
      "bottom" : "id_features_rgb\/4-densenet\/2-conv-block\/conv-3x3-80-16-variables\/conv-3x3-80-16-variables\/relu,id_features_rgb\/4-densenet\/1-concat"
    },
    {
      "pad_r" : 1,
      "fused_relu" : 1,
      "fused_tanh" : 0,
      "debug_info" : "",
      "pad_fill_mode" : 0,
      "pad_b" : 1,
      "pad_l" : 1,
      "top" : "id_features_rgb\/4-densenet\/4-conv-block\/conv-3x3-96-16-variables\/conv-3x3-96-16-variables\/relu",
      "K" : 96,
      "blob_biases" : 33,
      "name" : "id_features_rgb\/4-densenet\/4-conv-block\/conv-3x3-96-16-variables\/conv-3x3-96-16-variables\/relu",
      "has_batch_norm" : 0,
      "type" : "convolution",
      "n_groups" : 1,
      "pad_t" : 1,
      "has_biases" : 1,
      "C" : 16,
      "bottom" : "id_features_rgb\/4-densenet\/3-concat",
      "weights" : {

      },
      "Nx" : 3,
      "pad_mode" : 0,
      "pad_value" : 0,
      "Ny" : 3,
      "n_parallel" : 1,
      "blob_weights_f16" : 35
    },
    {
      "weights" : {

      },
      "debug_info" : "",
      "top" : "id_features_rgb\/4-densenet\/5-concat",
      "type" : "concat",
      "name" : "id_features_rgb\/4-densenet\/5-concat",
      "bottom" : "id_features_rgb\/4-densenet\/4-conv-block\/conv-3x3-96-16-variables\/conv-3x3-96-16-variables\/relu,id_features_rgb\/4-densenet\/3-concat"
    },
    {
      "pad_r" : 1,
      "fused_relu" : 1,
      "fused_tanh" : 0,
      "debug_info" : "",
      "pad_fill_mode" : 0,
      "pad_b" : 1,
      "pad_l" : 1,
      "top" : "id_features_rgb\/5-conv-block\/relu",
      "K" : 112,
      "blob_biases" : 37,
      "name" : "id_features_rgb\/5-conv-block\/relu",
      "has_batch_norm" : 0,
      "type" : "convolution",
      "n_groups" : 1,
      "pad_t" : 1,
      "has_biases" : 1,
      "C" : 64,
      "bottom" : "id_features_rgb\/4-densenet\/5-concat",
      "weights" : {

      },
      "Nx" : 3,
      "pad_mode" : 0,
      "pad_value" : 0,
      "Ny" : 3,
      "n_parallel" : 1,
      "blob_weights_f16" : 39
    },
    {
      "pad_r" : 1,
      "fused_relu" : 1,
      "fused_tanh" : 0,
      "debug_info" : "",
      "pad_fill_mode" : 0,
      "pad_b" : 1,
      "pad_l" : 0,
      "top" : "id_features_rgb\/6-conv-block\/relu",
      "K" : 64,
      "blob_biases" : 41,
      "stride_x" : 2,
      "name" : "id_features_rgb\/6-conv-block\/relu",
      "has_batch_norm" : 0,
      "type" : "convolution",
      "n_groups" : 1,
      "pad_t" : 0,
      "stride_y" : 2,
      "has_biases" : 1,
      "C" : 64,
      "bottom" : "id_features_rgb\/5-conv-block\/relu",
      "weights" : {

      },
      "Nx" : 3,
      "pad_mode" : 0,
      "pad_value" : 0,
      "Ny" : 3,
      "n_parallel" : 1,
      "blob_weights_f16" : 43
    },
    {
      "pad_r" : 1,
      "fused_relu" : 1,
      "fused_tanh" : 0,
      "debug_info" : "",
      "pad_fill_mode" : 0,
      "pad_b" : 1,
      "pad_l" : 1,
      "top" : "id_features_rgb\/7-densenet\/0-conv-block\/conv-3x3-64-16-variables\/conv-3x3-64-16-variables\/relu",
      "K" : 64,
      "blob_biases" : 45,
      "name" : "id_features_rgb\/7-densenet\/0-conv-block\/conv-3x3-64-16-variables\/conv-3x3-64-16-variables\/relu",
      "has_batch_norm" : 0,
      "type" : "convolution",
      "n_groups" : 1,
      "pad_t" : 1,
      "has_biases" : 1,
      "C" : 16,
      "bottom" : "id_features_rgb\/6-conv-block\/relu",
      "weights" : {

      },
      "Nx" : 3,
      "pad_mode" : 0,
      "pad_value" : 0,
      "Ny" : 3,
      "n_parallel" : 1,
      "blob_weights_f16" : 47
    },
    {
      "weights" : {

      },
      "debug_info" : "",
      "top" : "id_features_rgb\/7-densenet\/1-concat",
      "type" : "concat",
      "name" : "id_features_rgb\/7-densenet\/1-concat",
      "bottom" : "id_features_rgb\/7-densenet\/0-conv-block\/conv-3x3-64-16-variables\/conv-3x3-64-16-variables\/relu,id_features_rgb\/6-conv-block\/relu"
    },
    {
      "pad_r" : 1,
      "fused_relu" : 1,
      "fused_tanh" : 0,
      "debug_info" : "",
      "pad_fill_mode" : 0,
      "pad_b" : 1,
      "pad_l" : 1,
      "top" : "id_features_rgb\/7-densenet\/2-conv-block\/conv-3x3-80-16-variables\/conv-3x3-80-16-variables\/relu",
      "K" : 80,
      "blob_biases" : 49,
      "name" : "id_features_rgb\/7-densenet\/2-conv-block\/conv-3x3-80-16-variables\/conv-3x3-80-16-variables\/relu",
      "has_batch_norm" : 0,
      "type" : "convolution",
      "n_groups" : 1,
      "pad_t" : 1,
      "has_biases" : 1,
      "C" : 16,
      "bottom" : "id_features_rgb\/7-densenet\/1-concat",
      "weights" : {

      },
      "Nx" : 3,
      "pad_mode" : 0,
      "pad_value" : 0,
      "Ny" : 3,
      "n_parallel" : 1,
      "blob_weights_f16" : 51
    },
    {
      "weights" : {

      },
      "debug_info" : "",
      "top" : "id_features_rgb\/7-densenet\/3-concat",
      "type" : "concat",
      "name" : "id_features_rgb\/7-densenet\/3-concat",
      "bottom" : "id_features_rgb\/7-densenet\/2-conv-block\/conv-3x3-80-16-variables\/conv-3x3-80-16-variables\/relu,id_features_rgb\/7-densenet\/1-concat"
    },
    {
      "pad_r" : 1,
      "fused_relu" : 1,
      "fused_tanh" : 0,
      "debug_info" : "",
      "pad_fill_mode" : 0,
      "pad_b" : 1,
      "pad_l" : 1,
      "top" : "id_features_rgb\/7-densenet\/4-conv-block\/conv-3x3-96-16-variables\/conv-3x3-96-16-variables\/relu",
      "K" : 96,
      "blob_biases" : 53,
      "name" : "id_features_rgb\/7-densenet\/4-conv-block\/conv-3x3-96-16-variables\/conv-3x3-96-16-variables\/relu",
      "has_batch_norm" : 0,
      "type" : "convolution",
      "n_groups" : 1,
      "pad_t" : 1,
      "has_biases" : 1,
      "C" : 16,
      "bottom" : "id_features_rgb\/7-densenet\/3-concat",
      "weights" : {

      },
      "Nx" : 3,
      "pad_mode" : 0,
      "pad_value" : 0,
      "Ny" : 3,
      "n_parallel" : 1,
      "blob_weights_f16" : 55
    },
    {
      "weights" : {

      },
      "debug_info" : "",
      "top" : "id_features_rgb\/7-densenet\/5-concat",
      "type" : "concat",
      "name" : "id_features_rgb\/7-densenet\/5-concat",
      "bottom" : "id_features_rgb\/7-densenet\/4-conv-block\/conv-3x3-96-16-variables\/conv-3x3-96-16-variables\/relu,id_features_rgb\/7-densenet\/3-concat"
    },
    {
      "pad_r" : 1,
      "fused_relu" : 1,
      "fused_tanh" : 0,
      "debug_info" : "",
      "pad_fill_mode" : 0,
      "pad_b" : 1,
      "pad_l" : 1,
      "top" : "id_features_rgb\/7-densenet\/6-conv-block\/conv-3x3-112-16-variables\/conv-3x3-112-16-variables\/relu",
      "K" : 112,
      "blob_biases" : 57,
      "name" : "id_features_rgb\/7-densenet\/6-conv-block\/conv-3x3-112-16-variables\/conv-3x3-112-16-variables\/relu",
      "has_batch_norm" : 0,
      "type" : "convolution",
      "n_groups" : 1,
      "pad_t" : 1,
      "has_biases" : 1,
      "C" : 16,
      "bottom" : "id_features_rgb\/7-densenet\/5-concat",
      "weights" : {

      },
      "Nx" : 3,
      "pad_mode" : 0,
      "pad_value" : 0,
      "Ny" : 3,
      "n_parallel" : 1,
      "blob_weights_f16" : 59
    },
    {
      "weights" : {

      },
      "debug_info" : "",
      "top" : "id_features_rgb\/7-densenet\/7-concat",
      "type" : "concat",
      "name" : "id_features_rgb\/7-densenet\/7-concat",
      "bottom" : "id_features_rgb\/7-densenet\/6-conv-block\/conv-3x3-112-16-variables\/conv-3x3-112-16-variables\/relu,id_features_rgb\/7-densenet\/5-concat"
    },
    {
      "pad_r" : 1,
      "fused_relu" : 1,
      "fused_tanh" : 0,
      "debug_info" : "",
      "pad_fill_mode" : 0,
      "pad_b" : 1,
      "pad_l" : 1,
      "top" : "id_features_rgb\/8-conv-block\/relu",
      "K" : 128,
      "blob_biases" : 61,
      "name" : "id_features_rgb\/8-conv-block\/relu",
      "has_batch_norm" : 0,
      "type" : "convolution",
      "n_groups" : 1,
      "pad_t" : 1,
      "has_biases" : 1,
      "C" : 64,
      "bottom" : "id_features_rgb\/7-densenet\/7-concat",
      "weights" : {

      },
      "Nx" : 3,
      "pad_mode" : 0,
      "pad_value" : 0,
      "Ny" : 3,
      "n_parallel" : 1,
      "blob_weights_f16" : 63
    },
    {
      "pad_r" : 1,
      "fused_relu" : 1,
      "fused_tanh" : 0,
      "debug_info" : "",
      "pad_fill_mode" : 0,
      "pad_b" : 1,
      "pad_l" : 0,
      "top" : "id_features_rgb\/9-conv-block\/relu",
      "K" : 64,
      "blob_biases" : 65,
      "stride_x" : 2,
      "name" : "id_features_rgb\/9-conv-block\/relu",
      "has_batch_norm" : 0,
      "type" : "convolution",
      "n_groups" : 1,
      "pad_t" : 0,
      "stride_y" : 2,
      "has_biases" : 1,
      "C" : 64,
      "bottom" : "id_features_rgb\/8-conv-block\/relu",
      "weights" : {

      },
      "Nx" : 3,
      "pad_mode" : 0,
      "pad_value" : 0,
      "Ny" : 3,
      "n_parallel" : 1,
      "blob_weights_f16" : 67
    },
    {
      "pad_r" : 1,
      "fused_relu" : 1,
      "fused_tanh" : 0,
      "debug_info" : "",
      "pad_fill_mode" : 0,
      "pad_b" : 1,
      "pad_l" : 1,
      "top" : "id_features_rgb\/10-densenet\/0-conv-block\/conv-3x3-64-16-variables\/conv-3x3-64-16-variables\/relu",
      "K" : 64,
      "blob_biases" : 69,
      "name" : "id_features_rgb\/10-densenet\/0-conv-block\/conv-3x3-64-16-variables\/conv-3x3-64-16-variables\/relu",
      "has_batch_norm" : 0,
      "type" : "convolution",
      "n_groups" : 1,
      "pad_t" : 1,
      "has_biases" : 1,
      "C" : 16,
      "bottom" : "id_features_rgb\/9-conv-block\/relu",
      "weights" : {

      },
      "Nx" : 3,
      "pad_mode" : 0,
      "pad_value" : 0,
      "Ny" : 3,
      "n_parallel" : 1,
      "blob_weights_f16" : 71
    },
    {
      "weights" : {

      },
      "debug_info" : "",
      "top" : "id_features_rgb\/10-densenet\/1-concat",
      "type" : "concat",
      "name" : "id_features_rgb\/10-densenet\/1-concat",
      "bottom" : "id_features_rgb\/10-densenet\/0-conv-block\/conv-3x3-64-16-variables\/conv-3x3-64-16-variables\/relu,id_features_rgb\/9-conv-block\/relu"
    },
    {
      "pad_r" : 1,
      "fused_relu" : 1,
      "fused_tanh" : 0,
      "debug_info" : "",
      "pad_fill_mode" : 0,
      "pad_b" : 1,
      "pad_l" : 1,
      "top" : "id_features_rgb\/10-densenet\/2-conv-block\/conv-3x3-80-16-variables\/conv-3x3-80-16-variables\/relu",
      "K" : 80,
      "blob_biases" : 73,
      "name" : "id_features_rgb\/10-densenet\/2-conv-block\/conv-3x3-80-16-variables\/conv-3x3-80-16-variables\/relu",
      "has_batch_norm" : 0,
      "type" : "convolution",
      "n_groups" : 1,
      "pad_t" : 1,
      "has_biases" : 1,
      "C" : 16,
      "bottom" : "id_features_rgb\/10-densenet\/1-concat",
      "weights" : {

      },
      "Nx" : 3,
      "pad_mode" : 0,
      "pad_value" : 0,
      "Ny" : 3,
      "n_parallel" : 1,
      "blob_weights_f16" : 75
    },
    {
      "weights" : {

      },
      "debug_info" : "",
      "top" : "id_features_rgb\/10-densenet\/3-concat",
      "type" : "concat",
      "name" : "id_features_rgb\/10-densenet\/3-concat",
      "bottom" : "id_features_rgb\/10-densenet\/2-conv-block\/conv-3x3-80-16-variables\/conv-3x3-80-16-variables\/relu,id_features_rgb\/10-densenet\/1-concat"
    },
    {
      "pad_r" : 1,
      "fused_relu" : 1,
      "fused_tanh" : 0,
      "debug_info" : "",
      "pad_fill_mode" : 0,
      "pad_b" : 1,
      "pad_l" : 1,
      "top" : "id_features_rgb\/10-densenet\/4-conv-block\/conv-3x3-96-16-variables\/conv-3x3-96-16-variables\/relu",
      "K" : 96,
      "blob_biases" : 77,
      "name" : "id_features_rgb\/10-densenet\/4-conv-block\/conv-3x3-96-16-variables\/conv-3x3-96-16-variables\/relu",
      "has_batch_norm" : 0,
      "type" : "convolution",
      "n_groups" : 1,
      "pad_t" : 1,
      "has_biases" : 1,
      "C" : 16,
      "bottom" : "id_features_rgb\/10-densenet\/3-concat",
      "weights" : {

      },
      "Nx" : 3,
      "pad_mode" : 0,
      "pad_value" : 0,
      "Ny" : 3,
      "n_parallel" : 1,
      "blob_weights_f16" : 79
    },
    {
      "weights" : {

      },
      "debug_info" : "",
      "top" : "id_features_rgb\/10-densenet\/5-concat",
      "type" : "concat",
      "name" : "id_features_rgb\/10-densenet\/5-concat",
      "bottom" : "id_features_rgb\/10-densenet\/4-conv-block\/conv-3x3-96-16-variables\/conv-3x3-96-16-variables\/relu,id_features_rgb\/10-densenet\/3-concat"
    },
    {
      "pad_r" : 1,
      "fused_relu" : 1,
      "fused_tanh" : 0,
      "debug_info" : "",
      "pad_fill_mode" : 0,
      "pad_b" : 1,
      "pad_l" : 1,
      "top" : "id_features_rgb\/10-densenet\/6-conv-block\/conv-3x3-112-16-variables\/conv-3x3-112-16-variables\/relu",
      "K" : 112,
      "blob_biases" : 81,
      "name" : "id_features_rgb\/10-densenet\/6-conv-block\/conv-3x3-112-16-variables\/conv-3x3-112-16-variables\/relu",
      "has_batch_norm" : 0,
      "type" : "convolution",
      "n_groups" : 1,
      "pad_t" : 1,
      "has_biases" : 1,
      "C" : 16,
      "bottom" : "id_features_rgb\/10-densenet\/5-concat",
      "weights" : {

      },
      "Nx" : 3,
      "pad_mode" : 0,
      "pad_value" : 0,
      "Ny" : 3,
      "n_parallel" : 1,
      "blob_weights_f16" : 83
    },
    {
      "weights" : {

      },
      "debug_info" : "",
      "top" : "id_features_rgb\/10-densenet\/7-concat",
      "type" : "concat",
      "name" : "id_features_rgb\/10-densenet\/7-concat",
      "bottom" : "id_features_rgb\/10-densenet\/6-conv-block\/conv-3x3-112-16-variables\/conv-3x3-112-16-variables\/relu,id_features_rgb\/10-densenet\/5-concat"
    },
    {
      "pad_r" : 1,
      "fused_relu" : 1,
      "fused_tanh" : 0,
      "debug_info" : "",
      "pad_fill_mode" : 0,
      "pad_b" : 1,
      "pad_l" : 1,
      "top" : "id_features_rgb\/11-conv-block\/relu",
      "K" : 128,
      "blob_biases" : 85,
      "name" : "id_features_rgb\/11-conv-block\/relu",
      "has_batch_norm" : 0,
      "type" : "convolution",
      "n_groups" : 1,
      "pad_t" : 1,
      "has_biases" : 1,
      "C" : 64,
      "bottom" : "id_features_rgb\/10-densenet\/7-concat",
      "weights" : {

      },
      "Nx" : 3,
      "pad_mode" : 0,
      "pad_value" : 0,
      "Ny" : 3,
      "n_parallel" : 1,
      "blob_weights_f16" : 87
    },
    {
      "pad_r" : 1,
      "fused_relu" : 1,
      "fused_tanh" : 0,
      "debug_info" : "",
      "pad_fill_mode" : 0,
      "pad_b" : 1,
      "pad_l" : 0,
      "top" : "id_features_rgb\/12-conv-block\/relu",
      "K" : 64,
      "blob_biases" : 89,
      "stride_x" : 2,
      "name" : "id_features_rgb\/12-conv-block\/relu",
      "has_batch_norm" : 0,
      "type" : "convolution",
      "n_groups" : 1,
      "pad_t" : 0,
      "stride_y" : 2,
      "has_biases" : 1,
      "C" : 64,
      "bottom" : "id_features_rgb\/11-conv-block\/relu",
      "weights" : {

      },
      "Nx" : 3,
      "pad_mode" : 0,
      "pad_value" : 0,
      "Ny" : 3,
      "n_parallel" : 1,
      "blob_weights_f16" : 91
    },
    {
      "pad_r" : 1,
      "fused_relu" : 1,
      "fused_tanh" : 0,
      "debug_info" : "",
      "pad_fill_mode" : 0,
      "pad_b" : 1,
      "pad_l" : 1,
      "top" : "id_features_rgb\/13-densenet\/0-conv-block\/conv-3x3-64-32-variables\/conv-3x3-64-32-variables\/relu",
      "K" : 64,
      "blob_biases" : 93,
      "name" : "id_features_rgb\/13-densenet\/0-conv-block\/conv-3x3-64-32-variables\/conv-3x3-64-32-variables\/relu",
      "has_batch_norm" : 0,
      "type" : "convolution",
      "n_groups" : 1,
      "pad_t" : 1,
      "has_biases" : 1,
      "C" : 32,
      "bottom" : "id_features_rgb\/12-conv-block\/relu",
      "weights" : {

      },
      "Nx" : 3,
      "pad_mode" : 0,
      "pad_value" : 0,
      "Ny" : 3,
      "n_parallel" : 1,
      "blob_weights_f16" : 95
    },
    {
      "weights" : {

      },
      "debug_info" : "",
      "top" : "id_features_rgb\/13-densenet\/1-concat",
      "type" : "concat",
      "name" : "id_features_rgb\/13-densenet\/1-concat",
      "bottom" : "id_features_rgb\/13-densenet\/0-conv-block\/conv-3x3-64-32-variables\/conv-3x3-64-32-variables\/relu,id_features_rgb\/12-conv-block\/relu"
    },
    {
      "pad_r" : 1,
      "fused_relu" : 1,
      "fused_tanh" : 0,
      "debug_info" : "",
      "pad_fill_mode" : 0,
      "pad_b" : 1,
      "pad_l" : 1,
      "top" : "id_features_rgb\/13-densenet\/2-conv-block\/conv-3x3-96-32-variables\/conv-3x3-96-32-variables\/relu",
      "K" : 96,
      "blob_biases" : 97,
      "name" : "id_features_rgb\/13-densenet\/2-conv-block\/conv-3x3-96-32-variables\/conv-3x3-96-32-variables\/relu",
      "has_batch_norm" : 0,
      "type" : "convolution",
      "n_groups" : 1,
      "pad_t" : 1,
      "has_biases" : 1,
      "C" : 32,
      "bottom" : "id_features_rgb\/13-densenet\/1-concat",
      "weights" : {

      },
      "Nx" : 3,
      "pad_mode" : 0,
      "pad_value" : 0,
      "Ny" : 3,
      "n_parallel" : 1,
      "blob_weights_f16" : 99
    },
    {
      "weights" : {

      },
      "debug_info" : "",
      "top" : "id_features_rgb\/13-densenet\/3-concat",
      "type" : "concat",
      "name" : "id_features_rgb\/13-densenet\/3-concat",
      "bottom" : "id_features_rgb\/13-densenet\/2-conv-block\/conv-3x3-96-32-variables\/conv-3x3-96-32-variables\/relu,id_features_rgb\/13-densenet\/1-concat"
    },
    {
      "pad_r" : 1,
      "fused_relu" : 1,
      "fused_tanh" : 0,
      "debug_info" : "",
      "pad_fill_mode" : 0,
      "pad_b" : 1,
      "pad_l" : 1,
      "top" : "id_features_rgb\/13-densenet\/4-conv-block\/conv-3x3-128-32-variables\/conv-3x3-128-32-variables\/relu",
      "K" : 128,
      "blob_biases" : 101,
      "name" : "id_features_rgb\/13-densenet\/4-conv-block\/conv-3x3-128-32-variables\/conv-3x3-128-32-variables\/relu",
      "has_batch_norm" : 0,
      "type" : "convolution",
      "n_groups" : 1,
      "pad_t" : 1,
      "has_biases" : 1,
      "C" : 32,
      "bottom" : "id_features_rgb\/13-densenet\/3-concat",
      "weights" : {

      },
      "Nx" : 3,
      "pad_mode" : 0,
      "pad_value" : 0,
      "Ny" : 3,
      "n_parallel" : 1,
      "blob_weights_f16" : 103
    },
    {
      "weights" : {

      },
      "debug_info" : "",
      "top" : "id_features_rgb\/13-densenet\/5-concat",
      "type" : "concat",
      "name" : "id_features_rgb\/13-densenet\/5-concat",
      "bottom" : "id_features_rgb\/13-densenet\/4-conv-block\/conv-3x3-128-32-variables\/conv-3x3-128-32-variables\/relu,id_features_rgb\/13-densenet\/3-concat"
    },
    {
      "pad_r" : 1,
      "fused_relu" : 1,
      "fused_tanh" : 0,
      "debug_info" : "",
      "pad_fill_mode" : 0,
      "pad_b" : 1,
      "pad_l" : 1,
      "top" : "id_features_rgb\/13-densenet\/6-conv-block\/conv-3x3-160-32-variables\/conv-3x3-160-32-variables\/relu",
      "K" : 160,
      "blob_biases" : 105,
      "name" : "id_features_rgb\/13-densenet\/6-conv-block\/conv-3x3-160-32-variables\/conv-3x3-160-32-variables\/relu",
      "has_batch_norm" : 0,
      "type" : "convolution",
      "n_groups" : 1,
      "pad_t" : 1,
      "has_biases" : 1,
      "C" : 32,
      "bottom" : "id_features_rgb\/13-densenet\/5-concat",
      "weights" : {

      },
      "Nx" : 3,
      "pad_mode" : 0,
      "pad_value" : 0,
      "Ny" : 3,
      "n_parallel" : 1,
      "blob_weights_f16" : 107
    },
    {
      "weights" : {

      },
      "debug_info" : "",
      "top" : "id_features_rgb\/13-densenet\/7-concat",
      "type" : "concat",
      "name" : "id_features_rgb\/13-densenet\/7-concat",
      "bottom" : "id_features_rgb\/13-densenet\/6-conv-block\/conv-3x3-160-32-variables\/conv-3x3-160-32-variables\/relu,id_features_rgb\/13-densenet\/5-concat"
    },
    {
      "pad_r" : 1,
      "fused_relu" : 1,
      "fused_tanh" : 0,
      "debug_info" : "",
      "pad_fill_mode" : 0,
      "pad_b" : 1,
      "pad_l" : 0,
      "top" : "id_features_rgb\/14-conv-block\/relu",
      "K" : 192,
      "blob_biases" : 109,
      "stride_x" : 2,
      "name" : "id_features_rgb\/14-conv-block\/relu",
      "has_batch_norm" : 0,
      "type" : "convolution",
      "n_groups" : 1,
      "pad_t" : 0,
      "stride_y" : 2,
      "has_biases" : 1,
      "C" : 128,
      "bottom" : "id_features_rgb\/13-densenet\/7-concat",
      "weights" : {

      },
      "Nx" : 3,
      "pad_mode" : 0,
      "pad_value" : 0,
      "Ny" : 3,
      "n_parallel" : 1,
      "blob_weights_f16" : 111
    },
    {
      "pad_r" : 1,
      "fused_relu" : 1,
      "fused_tanh" : 0,
      "debug_info" : "",
      "pad_fill_mode" : 0,
      "pad_b" : 1,
      "pad_l" : 0,
      "top" : "id_features_rgb\/15-conv-block\/relu",
      "K" : 128,
      "blob_biases" : 113,
      "stride_x" : 2,
      "name" : "id_features_rgb\/15-conv-block\/relu",
      "has_batch_norm" : 0,
      "type" : "convolution",
      "n_groups" : 1,
      "pad_t" : 0,
      "stride_y" : 2,
      "has_biases" : 1,
      "C" : 256,
      "bottom" : "id_features_rgb\/14-conv-block\/relu",
      "weights" : {

      },
      "Nx" : 3,
      "pad_mode" : 0,
      "pad_value" : 0,
      "Ny" : 3,
      "n_parallel" : 1,
      "blob_weights_f16" : 115
    },
    {
      "pad_r" : 0,
      "fused_relu" : 1,
      "fused_tanh" : 0,
      "debug_info" : "",
      "pad_fill_mode" : 0,
      "pad_b" : 0,
      "pad_l" : 0,
      "top" : "depth_drop_in_regressor\/0-fully-connected\/relu",
      "K" : 256,
      "blob_biases" : 117,
      "name" : "depth_drop_in_regressor\/0-fully-connected\/relu",
      "has_batch_norm" : 0,
      "type" : "convolution",
      "n_groups" : 1,
      "pad_t" : 0,
      "has_biases" : 1,
      "C" : 256,
      "bottom" : "id_features_rgb\/15-conv-block\/relu",
      "weights" : {

      },
      "Nx" : 1,
      "pad_mode" : 0,
      "pad_value" : 0,
      "Ny" : 1,
      "n_parallel" : 1,
      "blob_weights_f16" : 119
    },
    {
      "pad_r" : 0,
      "fused_relu" : 0,
      "fused_tanh" : 0,
      "debug_info" : "",
      "pad_fill_mode" : 0,
      "pad_b" : 0,
      "pad_l" : 0,
      "top" : "depth_drop_in_regressor\/1-fully-connected\/add",
      "K" : 256,
      "blob_biases" : 121,
      "name" : "depth_drop_in_regressor\/1-fully-connected\/add",
      "has_batch_norm" : 0,
      "type" : "convolution",
      "n_groups" : 1,
      "pad_t" : 0,
      "has_biases" : 1,
      "C" : 256,
      "bottom" : "depth_drop_in_regressor\/0-fully-connected\/relu",
      "weights" : {

      },
      "Nx" : 1,
      "pad_mode" : 0,
      "pad_value" : 0,
      "Ny" : 1,
      "n_parallel" : 1,
      "blob_weights_f16" : 123
    },
    {
      "top" : "repeat",
      "w" : 1,
      "h" : 1,
      "name" : "repeat",
      "nd_rank" : 4,
      "type" : "load_constant",
      "k" : 2,
      "bottom" : "",
      "debug_info" : "",
      "n" : 1,
      "weights" : {

      },
      "constant_blob" : 125
    },
    {
      "weights" : {

      },
      "debug_info" : "",
      "top" : "concatenate",
      "type" : "concat",
      "name" : "concatenate",
      "bottom" : "id_features_rgb\/15-conv-block\/relu,depth_drop_in_regressor\/1-fully-connected\/add,repeat"
    },
    {
      "pad_r" : 0,
      "fused_relu" : 1,
      "fused_tanh" : 0,
      "debug_info" : "",
      "pad_fill_mode" : 0,
      "pad_b" : 0,
      "pad_l" : 0,
      "top" : "pose-regression\/0-fully-connected\/relu",
      "K" : 514,
      "blob_biases" : 127,
      "name" : "pose-regression\/0-fully-connected\/relu",
      "has_batch_norm" : 0,
      "type" : "convolution",
      "n_groups" : 1,
      "pad_t" : 0,
      "has_biases" : 1,
      "C" : 128,
      "bottom" : "concatenate",
      "weights" : {

      },
      "Nx" : 1,
      "pad_mode" : 0,
      "pad_value" : 0,
      "Ny" : 1,
      "n_parallel" : 1,
      "blob_weights_f16" : 129
    },
    {
      "pad_r" : 0,
      "fused_relu" : 0,
      "fused_tanh" : 0,
      "debug_info" : "",
      "pad_fill_mode" : 0,
      "pad_b" : 0,
      "pad_l" : 0,
      "top" : "pose-regression\/1-fully-connected\/add",
      "K" : 128,
      "blob_biases" : 131,
      "name" : "pose-regression\/1-fully-connected\/add",
      "has_batch_norm" : 0,
      "type" : "convolution",
      "n_groups" : 1,
      "pad_t" : 0,
      "has_biases" : 1,
      "C" : 3,
      "bottom" : "pose-regression\/0-fully-connected\/relu",
      "weights" : {

      },
      "Nx" : 1,
      "pad_mode" : 0,
      "pad_value" : 0,
      "Ny" : 1,
      "n_parallel" : 1,
      "blob_weights_f16" : 133
    },
    {
      "alpha" : -1.5700000524520874,
      "bottom" : "pose-regression\/1-fully-connected\/add",
      "weights" : {

      },
      "mode" : 14,
      "debug_info" : "",
      "top" : "detach",
      "type" : "activation",
      "name" : "detach",
      "beta" : 1.5700000524520874
    },
    {
      "pad_r" : 0,
      "fused_relu" : 1,
      "fused_tanh" : 0,
      "debug_info" : "",
      "pad_fill_mode" : 0,
      "pad_b" : 0,
      "pad_l" : 0,
      "top" : "blendshape-regression\/0-fully-connected\/relu",
      "K" : 514,
      "blob_biases" : 135,
      "name" : "blendshape-regression\/0-fully-connected\/relu",
      "has_batch_norm" : 0,
      "type" : "convolution",
      "n_groups" : 1,
      "pad_t" : 0,
      "has_biases" : 1,
      "C" : 128,
      "bottom" : "concatenate",
      "weights" : {

      },
      "Nx" : 1,
      "pad_mode" : 0,
      "pad_value" : 0,
      "Ny" : 1,
      "n_parallel" : 1,
      "blob_weights_f16" : 137
    },
    {
      "pad_r" : 0,
      "fused_relu" : 0,
      "fused_tanh" : 0,
      "debug_info" : "",
      "pad_fill_mode" : 0,
      "pad_b" : 0,
      "pad_l" : 0,
      "top" : "blendshape-regression\/1-fully-connected\/add",
      "K" : 128,
      "blob_biases" : 139,
      "name" : "blendshape-regression\/1-fully-connected\/add",
      "has_batch_norm" : 0,
      "type" : "convolution",
      "n_groups" : 1,
      "pad_t" : 0,
      "has_biases" : 1,
      "C" : 51,
      "bottom" : "blendshape-regression\/0-fully-connected\/relu",
      "weights" : {

      },
      "Nx" : 1,
      "pad_mode" : 0,
      "pad_value" : 0,
      "Ny" : 1,
      "n_parallel" : 1,
      "blob_weights_f16" : 141
    },
    {
      "bottom" : "blendshape-regression\/1-fully-connected\/add",
      "weights" : {

      },
      "mode" : 3,
      "debug_info" : "",
      "top" : "detach_1",
      "type" : "activation",
      "name" : "detach_1"
    },
    {
      "bottom" : "network-inputs\/transpose_1:0_bridge",
      "end" : 51,
      "start" : 0,
      "weights" : {

      },
      "axis" : 2,
      "debug_info" : "",
      "top" : "slice",
      "type" : "slice",
      "name" : "slice"
    },
    {
      "name" : "multiply",
      "bottom" : "slice",
      "weights" : {

      },
      "debug_info" : "",
      "top" : "multiply",
      "C" : 51,
      "blob_batchnorm_params" : 143,
      "type" : "batchnorm"
    },
    {
      "bottom" : "detach_1,multiply",
      "alpha" : 1,
      "operation" : 0,
      "weights" : {

      },
      "fused_relu" : 0,
      "debug_info" : "",
      "top" : "add",
      "type" : "elementwise",
      "name" : "add",
      "beta" : 0
    },
    {
      "bottom" : "network-inputs\/transpose_2:0_bridge",
      "end" : 3,
      "start" : 0,
      "weights" : {

      },
      "axis" : 2,
      "debug_info" : "",
      "top" : "slice_1",
      "type" : "slice",
      "name" : "slice_1"
    },
    {
      "name" : "multiply_1",
      "bottom" : "slice_1",
      "weights" : {

      },
      "debug_info" : "",
      "top" : "multiply_1",
      "C" : 3,
      "blob_batchnorm_params" : 145,
      "type" : "batchnorm"
    },
    {
      "bottom" : "detach,multiply_1",
      "alpha" : 1,
      "operation" : 0,
      "weights" : {

      },
      "fused_relu" : 0,
      "debug_info" : "",
      "top" : "add_1",
      "type" : "elementwise",
      "name" : "add_1",
      "beta" : 0
    },
    {
      "weights" : {

      },
      "debug_info" : "",
      "top" : "concatenate_1",
      "type" : "concat",
      "name" : "concatenate_1",
      "bottom" : "add,add_1,concatenate"
    },
    {
      "pad_r" : 0,
      "fused_relu" : 1,
      "fused_tanh" : 0,
      "debug_info" : "",
      "pad_fill_mode" : 0,
      "pad_b" : 0,
      "pad_l" : 0,
      "top" : "identity_latents_regression_neutral\/0-fully-connected\/relu",
      "K" : 568,
      "blob_biases" : 147,
      "name" : "identity_latents_regression_neutral\/0-fully-connected\/relu",
      "has_batch_norm" : 0,
      "type" : "convolution",
      "n_groups" : 1,
      "pad_t" : 0,
      "has_biases" : 1,
      "C" : 128,
      "bottom" : "concatenate_1",
      "weights" : {

      },
      "Nx" : 1,
      "pad_mode" : 0,
      "pad_value" : 0,
      "Ny" : 1,
      "n_parallel" : 1,
      "blob_weights_f16" : 149
    },
    {
      "pad_r" : 0,
      "fused_relu" : 0,
      "fused_tanh" : 0,
      "debug_info" : "",
      "pad_fill_mode" : 0,
      "pad_b" : 0,
      "pad_l" : 0,
      "top" : "identity_latents_regression_neutral\/1-fully-connected\/add",
      "K" : 128,
      "blob_biases" : 151,
      "name" : "identity_latents_regression_neutral\/1-fully-connected\/add",
      "has_batch_norm" : 0,
      "type" : "convolution",
      "n_groups" : 1,
      "pad_t" : 0,
      "has_biases" : 1,
      "C" : 64,
      "bottom" : "identity_latents_regression_neutral\/0-fully-connected\/relu",
      "weights" : {

      },
      "Nx" : 1,
      "pad_mode" : 0,
      "pad_value" : 0,
      "Ny" : 1,
      "n_parallel" : 1,
      "blob_weights_f16" : 153
    },
    {
      "bottom" : "identity_latents_regression_neutral\/1-fully-connected\/add,network-inputs\/transpose_3:0_bridge",
      "weights" : {

      },
      "nd_mode" : true,
      "axis" : 2,
      "debug_info" : "",
      "top" : "concatenate_2",
      "type" : "general_concat",
      "name" : "concatenate_2"
    },
    {
      "pad_r" : 0,
      "debug_info" : "",
      "pad_fill_mode" : 0,
      "pad_b" : 0,
      "pad_l" : 0,
      "size_x" : 1,
      "top" : "latents_output",
      "top_shape_style" : 0,
      "stride_x" : 1,
      "avg_or_max" : 1,
      "average_count_exclude_padding" : 1,
      "type" : "pool",
      "name" : "latents_output",
      "pad_t" : 0,
      "stride_y" : 1,
      "bottom" : "concatenate_2",
      "weights" : {

      },
      "pad_mode" : 0,
      "size_y" : 2,
      "pad_value" : 0,
      "attributes" : {
        "is_output" : 1
      }
    },
    {
      "pad_r" : 0,
      "fused_relu" : 1,
      "fused_tanh" : 0,
      "debug_info" : "",
      "pad_fill_mode" : 0,
      "pad_b" : 0,
      "pad_l" : 0,
      "top" : "identity_mf_fusion_neutral\/0-fully-connected\/relu",
      "K" : 64,
      "blob_biases" : 155,
      "name" : "identity_mf_fusion_neutral\/0-fully-connected\/relu",
      "has_batch_norm" : 0,
      "type" : "convolution",
      "n_groups" : 1,
      "pad_t" : 0,
      "has_biases" : 1,
      "C" : 64,
      "bottom" : "latents_output",
      "weights" : {

      },
      "Nx" : 1,
      "pad_mode" : 0,
      "pad_value" : 0,
      "Ny" : 1,
      "n_parallel" : 1,
      "blob_weights_f16" : 157
    },
    {
      "pad_r" : 0,
      "fused_relu" : 0,
      "fused_tanh" : 0,
      "debug_info" : "",
      "pad_fill_mode" : 0,
      "pad_b" : 0,
      "pad_l" : 0,
      "top" : "neutral_pca_subset_coeffs_output",
      "K" : 64,
      "blob_biases" : 159,
      "name" : "neutral_pca_subset_coeffs_output",
      "has_batch_norm" : 0,
      "type" : "convolution",
      "n_groups" : 1,
      "pad_t" : 0,
      "has_biases" : 1,
      "C" : 30,
      "bottom" : "identity_mf_fusion_neutral\/0-fully-connected\/relu",
      "weights" : {

      },
      "Nx" : 1,
      "pad_mode" : 0,
      "pad_value" : 0,
      "Ny" : 1,
      "n_parallel" : 1,
      "attributes" : {
        "is_output" : 1
      },
      "blob_weights_f16" : 161
    }
  ]
}