{
	"analyses": {},
	"format_version": 200,
	"layers": [
		{
			"C": 24,
			"K": 3,
			"Nx": 3,
			"Ny": 3,
			"blob_biases": 1,
			"bottom": "input_image",
			"debug_info": "input.2",
			"fused_relu": 0,
			"fused_tanh": 0,
			"has_batch_norm": 0,
			"has_biases": 1,
			"n_groups": 1,
			"n_parallel": 1,
			"name": "input.2",
			"pad_b": 1,
			"pad_fill_mode": 0,
			"pad_l": 1,
			"pad_mode": 0,
			"pad_r": 1,
			"pad_t": 1,
			"pad_value": 0,
			"stride_x": 2,
			"stride_y": 2,
			"top": "x.1",
			"type": "convolution",
			"weights": {
				"W_U8": 3,
				"per_ch_qbias": 5,
				"per_ch_qscale": 7
			}
		},
		{
			"alpha": 3,
			"beta": 0,
			"bottom": "x.1",
			"debug_info": "input.3",
			"fused_relu": 0,
			"name": "input.3",
			"operation": 0,
			"top": "input.3",
			"type": "elementwise",
			"weights": {}
		},
		{
			"alpha": 0,
			"beta": 6,
			"bottom": "input.3",
			"debug_info": "274",
			"fused_relu": 0,
			"name": "274",
			"operation": 119,
			"top": "274",
			"type": "elementwise",
			"weights": {}
		},
		{
			"alpha": 0.1666666716337204,
			"beta": 0,
			"bottom": "274",
			"debug_info": "_inversed_276",
			"fused_relu": 0,
			"name": "_inversed_276",
			"operation": 1,
			"top": "_inversed_276",
			"type": "elementwise",
			"weights": {}
		},
		{
			"alpha": 1,
			"beta": 0,
			"bottom": "_inversed_276,x.1",
			"debug_info": "input.4",
			"fused_relu": 0,
			"name": "input.4",
			"operation": 1,
			"top": "input.4",
			"type": "elementwise",
			"weights": {}
		},
		{
			"C": 24,
			"K": 24,
			"Nx": 1,
			"Ny": 1,
			"blob_biases": 9,
			"bottom": "input.4",
			"debug_info": "input.5",
			"fused_relu": 1,
			"fused_tanh": 0,
			"has_batch_norm": 0,
			"has_biases": 1,
			"n_groups": 1,
			"n_parallel": 1,
			"name": "input.5",
			"pad_b": 0,
			"pad_fill_mode": 0,
			"pad_l": 0,
			"pad_mode": 0,
			"pad_r": 0,
			"pad_t": 0,
			"pad_value": 0,
			"top": "input.7",
			"type": "convolution",
			"weights": {
				"W_U8": 11,
				"per_ch_qbias": 13,
				"per_ch_qscale": 15
			}
		},
		{
			"C": 24,
			"K": 24,
			"Nx": 3,
			"Ny": 3,
			"blob_biases": 17,
			"bottom": "input.7",
			"debug_info": "input.8",
			"fused_relu": 1,
			"fused_tanh": 0,
			"has_batch_norm": 0,
			"has_biases": 1,
			"n_groups": 24,
			"n_parallel": 1,
			"name": "input.8",
			"pad_b": 1,
			"pad_fill_mode": 0,
			"pad_l": 1,
			"pad_mode": 0,
			"pad_r": 1,
			"pad_t": 1,
			"pad_value": 0,
			"top": "input.10",
			"type": "convolution",
			"weights": {
				"W_U8": 19,
				"per_ch_qbias": 21,
				"per_ch_qscale": 23
			}
		},
		{
			"C": 24,
			"K": 24,
			"Nx": 1,
			"Ny": 1,
			"blob_biases": 25,
			"bottom": "input.10",
			"debug_info": "input.11",
			"fused_relu": 0,
			"fused_tanh": 0,
			"has_batch_norm": 0,
			"has_biases": 1,
			"n_groups": 1,
			"n_parallel": 1,
			"name": "input.11",
			"pad_b": 0,
			"pad_fill_mode": 0,
			"pad_l": 0,
			"pad_mode": 0,
			"pad_r": 0,
			"pad_t": 0,
			"pad_value": 0,
			"top": "output.1",
			"type": "convolution",
			"weights": {
				"W_U8": 27,
				"per_ch_qbias": 29,
				"per_ch_qscale": 31
			}
		},
		{
			"alpha": 1,
			"beta": 0,
			"bottom": "output.1,input.4",
			"debug_info": "input.12",
			"fused_relu": 0,
			"name": "input.12",
			"operation": 0,
			"top": "input.12",
			"type": "elementwise",
			"weights": {}
		},
		{
			"C": 96,
			"K": 24,
			"Nx": 1,
			"Ny": 1,
			"blob_biases": 33,
			"bottom": "input.12",
			"debug_info": "input.13",
			"fused_relu": 1,
			"fused_tanh": 0,
			"has_batch_norm": 0,
			"has_biases": 1,
			"n_groups": 1,
			"n_parallel": 1,
			"name": "input.13",
			"pad_b": 0,
			"pad_fill_mode": 0,
			"pad_l": 0,
			"pad_mode": 0,
			"pad_r": 0,
			"pad_t": 0,
			"pad_value": 0,
			"top": "input.15",
			"type": "convolution",
			"weights": {
				"W_U8": 35,
				"per_ch_qbias": 37,
				"per_ch_qscale": 39
			}
		},
		{
			"C": 96,
			"K": 96,
			"Nx": 3,
			"Ny": 3,
			"blob_biases": 41,
			"bottom": "input.15",
			"debug_info": "input.16",
			"fused_relu": 1,
			"fused_tanh": 0,
			"has_batch_norm": 0,
			"has_biases": 1,
			"n_groups": 96,
			"n_parallel": 1,
			"name": "input.16",
			"pad_b": 1,
			"pad_fill_mode": 0,
			"pad_l": 1,
			"pad_mode": 0,
			"pad_r": 1,
			"pad_t": 1,
			"pad_value": 0,
			"stride_x": 2,
			"stride_y": 2,
			"top": "input.18",
			"type": "convolution",
			"weights": {
				"W_U8": 43,
				"per_ch_qbias": 45,
				"per_ch_qscale": 47
			}
		},
		{
			"C": 40,
			"K": 96,
			"Nx": 1,
			"Ny": 1,
			"blob_biases": 49,
			"bottom": "input.18",
			"debug_info": "input.19",
			"fused_relu": 0,
			"fused_tanh": 0,
			"has_batch_norm": 0,
			"has_biases": 1,
			"n_groups": 1,
			"n_parallel": 1,
			"name": "input.19",
			"pad_b": 0,
			"pad_fill_mode": 0,
			"pad_l": 0,
			"pad_mode": 0,
			"pad_r": 0,
			"pad_t": 0,
			"pad_value": 0,
			"top": "input.20",
			"type": "convolution",
			"weights": {
				"W_U8": 51,
				"per_ch_qbias": 53,
				"per_ch_qscale": 55
			}
		},
		{
			"C": 112,
			"K": 40,
			"Nx": 1,
			"Ny": 1,
			"blob_biases": 57,
			"bottom": "input.20",
			"debug_info": "input.21",
			"fused_relu": 1,
			"fused_tanh": 0,
			"has_batch_norm": 0,
			"has_biases": 1,
			"n_groups": 1,
			"n_parallel": 1,
			"name": "input.21",
			"pad_b": 0,
			"pad_fill_mode": 0,
			"pad_l": 0,
			"pad_mode": 0,
			"pad_r": 0,
			"pad_t": 0,
			"pad_value": 0,
			"top": "input.23",
			"type": "convolution",
			"weights": {
				"W_U8": 59,
				"per_ch_qbias": 61,
				"per_ch_qscale": 63
			}
		},
		{
			"C": 112,
			"K": 112,
			"Nx": 3,
			"Ny": 3,
			"blob_biases": 65,
			"bottom": "input.23",
			"debug_info": "input.24",
			"fused_relu": 1,
			"fused_tanh": 0,
			"has_batch_norm": 0,
			"has_biases": 1,
			"n_groups": 112,
			"n_parallel": 1,
			"name": "input.24",
			"pad_b": 1,
			"pad_fill_mode": 0,
			"pad_l": 1,
			"pad_mode": 0,
			"pad_r": 1,
			"pad_t": 1,
			"pad_value": 0,
			"top": "input.26",
			"type": "convolution",
			"weights": {
				"W_U8": 67,
				"per_ch_qbias": 69,
				"per_ch_qscale": 71
			}
		},
		{
			"C": 40,
			"K": 112,
			"Nx": 1,
			"Ny": 1,
			"blob_biases": 73,
			"bottom": "input.26",
			"debug_info": "input.27",
			"fused_relu": 0,
			"fused_tanh": 0,
			"has_batch_norm": 0,
			"has_biases": 1,
			"n_groups": 1,
			"n_parallel": 1,
			"name": "input.27",
			"pad_b": 0,
			"pad_fill_mode": 0,
			"pad_l": 0,
			"pad_mode": 0,
			"pad_r": 0,
			"pad_t": 0,
			"pad_value": 0,
			"top": "output.2",
			"type": "convolution",
			"weights": {
				"W_U8": 75,
				"per_ch_qbias": 77,
				"per_ch_qscale": 79
			}
		},
		{
			"alpha": 1,
			"beta": 0,
			"bottom": "output.2,input.20",
			"debug_info": "input.28",
			"fused_relu": 0,
			"name": "input.28",
			"operation": 0,
			"top": "input.28",
			"type": "elementwise",
			"weights": {}
		},
		{
			"C": 112,
			"K": 40,
			"Nx": 1,
			"Ny": 1,
			"blob_biases": 81,
			"bottom": "input.28",
			"debug_info": "input.29",
			"fused_relu": 1,
			"fused_tanh": 0,
			"has_batch_norm": 0,
			"has_biases": 1,
			"n_groups": 1,
			"n_parallel": 1,
			"name": "input.29",
			"pad_b": 0,
			"pad_fill_mode": 0,
			"pad_l": 0,
			"pad_mode": 0,
			"pad_r": 0,
			"pad_t": 0,
			"pad_value": 0,
			"top": "input.31",
			"type": "convolution",
			"weights": {
				"W_U8": 83,
				"per_ch_qbias": 85,
				"per_ch_qscale": 87
			}
		},
		{
			"C": 112,
			"K": 112,
			"Nx": 5,
			"Ny": 5,
			"blob_biases": 89,
			"bottom": "input.31",
			"debug_info": "input.32",
			"fused_relu": 0,
			"fused_tanh": 0,
			"has_batch_norm": 0,
			"has_biases": 1,
			"n_groups": 112,
			"n_parallel": 1,
			"name": "input.32",
			"pad_b": 2,
			"pad_fill_mode": 0,
			"pad_l": 2,
			"pad_mode": 0,
			"pad_r": 2,
			"pad_t": 2,
			"pad_value": 0,
			"stride_x": 2,
			"stride_y": 2,
			"top": "x.2",
			"type": "convolution",
			"weights": {
				"W_U8": 91,
				"per_ch_qbias": 93,
				"per_ch_qscale": 95
			}
		},
		{
			"average_count_exclude_padding": 0,
			"avg_or_max": 0,
			"bottom": "x.2",
			"debug_info": "x.3",
			"name": "x.3",
			"pad_b": 1,
			"pad_fill_mode": 0,
			"pad_l": 1,
			"pad_mode": 0,
			"pad_r": 1,
			"pad_t": 1,
			"pad_value": 0,
			"size_x": 2,
			"size_y": 2,
			"stride_x": 2,
			"stride_y": 2,
			"top": "x.3",
			"top_shape_style": 0,
			"type": "pool",
			"weights": {}
		},
		{
			"average_count_exclude_padding": 0,
			"avg_or_max": 0,
			"bottom": "x.3",
			"debug_info": "x.4",
			"name": "x.4",
			"pad_b": 1,
			"pad_fill_mode": 0,
			"pad_l": 1,
			"pad_mode": 0,
			"pad_r": 1,
			"pad_t": 1,
			"pad_value": 0,
			"size_x": 2,
			"size_y": 2,
			"stride_x": 2,
			"stride_y": 2,
			"top": "x.4",
			"top_shape_style": 0,
			"type": "pool",
			"weights": {}
		},
		{
			"average_count_exclude_padding": 0,
			"avg_or_max": 0,
			"bottom": "x.4",
			"debug_info": "x.5",
			"name": "x.5",
			"pad_b": 0,
			"pad_fill_mode": 0,
			"pad_l": 0,
			"pad_mode": 2,
			"pad_r": 0,
			"pad_t": 0,
			"pad_value": 0,
			"size_x": 2,
			"size_y": 2,
			"stride_x": 2,
			"stride_y": 2,
			"top": "x.5",
			"top_shape_style": 0,
			"type": "pool",
			"weights": {}
		},
		{
			"average_count_exclude_padding": 1,
			"avg_or_max": 0,
			"bottom": "x.5",
			"debug_info": "403",
			"is_global": 1,
			"name": "403",
			"pad_b": 0,
			"pad_fill_mode": 0,
			"pad_l": 0,
			"pad_mode": 2,
			"pad_r": 0,
			"pad_t": 0,
			"pad_value": 0,
			"size_x": 6,
			"size_y": 6,
			"stride_x": 1,
			"stride_y": 1,
			"top": "403",
			"top_shape_style": 0,
			"type": "pool",
			"weights": {}
		},
		{
			"alpha": 1.1377778053283691,
			"beta": 0,
			"bottom": "403",
			"debug_info": "input.33",
			"fused_relu": 0,
			"name": "input.33",
			"operation": 1,
			"top": "input.33",
			"type": "elementwise",
			"weights": {}
		},
		{
			"C": 28,
			"K": 112,
			"Nx": 1,
			"Ny": 1,
			"bottom": "input.33",
			"debug_info": "input.34",
			"fused_relu": 1,
			"fused_tanh": 0,
			"has_batch_norm": 0,
			"has_biases": 0,
			"n_groups": 1,
			"n_parallel": 1,
			"name": "input.34",
			"pad_b": 0,
			"pad_fill_mode": 0,
			"pad_l": 0,
			"pad_mode": 0,
			"pad_r": 0,
			"pad_t": 0,
			"pad_value": 0,
			"top": "input.35",
			"type": "convolution",
			"weights": {
				"W_U8": 97,
				"per_ch_qbias": 99,
				"per_ch_qscale": 101
			}
		},
		{
			"C": 112,
			"K": 28,
			"Nx": 1,
			"Ny": 1,
			"blob_biases": 103,
			"bottom": "input.35",
			"debug_info": "input.36",
			"fused_relu": 0,
			"fused_tanh": 0,
			"has_batch_norm": 0,
			"has_biases": 1,
			"n_groups": 1,
			"n_parallel": 1,
			"name": "input.36",
			"pad_b": 0,
			"pad_fill_mode": 0,
			"pad_l": 0,
			"pad_mode": 0,
			"pad_r": 0,
			"pad_t": 0,
			"pad_value": 0,
			"top": "input.36",
			"type": "convolution",
			"weights": {
				"W_U8": 105,
				"per_ch_qbias": 107,
				"per_ch_qscale": 109
			}
		},
		{
			"alpha": 0,
			"beta": 6,
			"bottom": "input.36",
			"debug_info": "419",
			"fused_relu": 0,
			"name": "419",
			"operation": 119,
			"top": "419",
			"type": "elementwise",
			"weights": {}
		},
		{
			"alpha": 0.1666666716337204,
			"beta": 0,
			"bottom": "419",
			"debug_info": "_inversed_421",
			"fused_relu": 0,
			"name": "_inversed_421",
			"operation": 1,
			"top": "_inversed_421",
			"type": "elementwise",
			"weights": {}
		},
		{
			"alpha": 1,
			"beta": 0,
			"bottom": "x.2,_inversed_421",
			"debug_info": "input.37",
			"fused_relu": 0,
			"name": "input.37",
			"operation": 1,
			"top": "input.37",
			"type": "elementwise",
			"weights": {}
		},
		{
			"bottom": "input.37",
			"debug_info": "input.38",
			"mode": 0,
			"name": "input.38",
			"top": "input.38",
			"type": "activation",
			"weights": {}
		},
		{
			"C": 64,
			"K": 112,
			"Nx": 1,
			"Ny": 1,
			"blob_biases": 111,
			"bottom": "input.38",
			"debug_info": "input.39",
			"fused_relu": 0,
			"fused_tanh": 0,
			"has_batch_norm": 0,
			"has_biases": 1,
			"n_groups": 1,
			"n_parallel": 1,
			"name": "input.39",
			"pad_b": 0,
			"pad_fill_mode": 0,
			"pad_l": 0,
			"pad_mode": 0,
			"pad_r": 0,
			"pad_t": 0,
			"pad_value": 0,
			"top": "input.40",
			"type": "convolution",
			"weights": {
				"W_U8": 113,
				"per_ch_qbias": 115,
				"per_ch_qscale": 117
			}
		},
		{
			"C": 184,
			"K": 64,
			"Nx": 1,
			"Ny": 1,
			"blob_biases": 119,
			"bottom": "input.40",
			"debug_info": "input.41",
			"fused_relu": 1,
			"fused_tanh": 0,
			"has_batch_norm": 0,
			"has_biases": 1,
			"n_groups": 1,
			"n_parallel": 1,
			"name": "input.41",
			"pad_b": 0,
			"pad_fill_mode": 0,
			"pad_l": 0,
			"pad_mode": 0,
			"pad_r": 0,
			"pad_t": 0,
			"pad_value": 0,
			"top": "input.43",
			"type": "convolution",
			"weights": {
				"W_U8": 121,
				"per_ch_qbias": 123,
				"per_ch_qscale": 125
			}
		},
		{
			"C": 184,
			"K": 184,
			"Nx": 5,
			"Ny": 5,
			"blob_biases": 127,
			"bottom": "input.43",
			"debug_info": "input.44",
			"fused_relu": 0,
			"fused_tanh": 0,
			"has_batch_norm": 0,
			"has_biases": 1,
			"n_groups": 184,
			"n_parallel": 1,
			"name": "input.44",
			"pad_b": 2,
			"pad_fill_mode": 0,
			"pad_l": 2,
			"pad_mode": 0,
			"pad_r": 2,
			"pad_t": 2,
			"pad_value": 0,
			"top": "x.7",
			"type": "convolution",
			"weights": {
				"W_U8": 129,
				"per_ch_qbias": 131,
				"per_ch_qscale": 133
			}
		},
		{
			"average_count_exclude_padding": 0,
			"avg_or_max": 0,
			"bottom": "x.7",
			"debug_info": "x.8",
			"name": "x.8",
			"pad_b": 1,
			"pad_fill_mode": 0,
			"pad_l": 1,
			"pad_mode": 0,
			"pad_r": 1,
			"pad_t": 1,
			"pad_value": 0,
			"size_x": 2,
			"size_y": 2,
			"stride_x": 2,
			"stride_y": 2,
			"top": "x.8",
			"top_shape_style": 0,
			"type": "pool",
			"weights": {}
		},
		{
			"average_count_exclude_padding": 0,
			"avg_or_max": 0,
			"bottom": "x.8",
			"debug_info": "x.9",
			"name": "x.9",
			"pad_b": 1,
			"pad_fill_mode": 0,
			"pad_l": 1,
			"pad_mode": 0,
			"pad_r": 1,
			"pad_t": 1,
			"pad_value": 0,
			"size_x": 2,
			"size_y": 2,
			"stride_x": 2,
			"stride_y": 2,
			"top": "x.9",
			"top_shape_style": 0,
			"type": "pool",
			"weights": {}
		},
		{
			"average_count_exclude_padding": 0,
			"avg_or_max": 0,
			"bottom": "x.9",
			"debug_info": "x.10",
			"name": "x.10",
			"pad_b": 0,
			"pad_fill_mode": 0,
			"pad_l": 0,
			"pad_mode": 2,
			"pad_r": 0,
			"pad_t": 0,
			"pad_value": 0,
			"size_x": 2,
			"size_y": 2,
			"stride_x": 2,
			"stride_y": 2,
			"top": "x.10",
			"top_shape_style": 0,
			"type": "pool",
			"weights": {}
		},
		{
			"average_count_exclude_padding": 1,
			"avg_or_max": 0,
			"bottom": "x.10",
			"debug_info": "468",
			"is_global": 1,
			"name": "468",
			"pad_b": 0,
			"pad_fill_mode": 0,
			"pad_l": 0,
			"pad_mode": 2,
			"pad_r": 0,
			"pad_t": 0,
			"pad_value": 0,
			"size_x": 6,
			"size_y": 6,
			"stride_x": 1,
			"stride_y": 1,
			"top": "468",
			"top_shape_style": 0,
			"type": "pool",
			"weights": {}
		},
		{
			"alpha": 1.1377778053283691,
			"beta": 0,
			"bottom": "468",
			"debug_info": "input.45",
			"fused_relu": 0,
			"name": "input.45",
			"operation": 1,
			"top": "input.45",
			"type": "elementwise",
			"weights": {}
		},
		{
			"C": 46,
			"K": 184,
			"Nx": 1,
			"Ny": 1,
			"bottom": "input.45",
			"debug_info": "input.46",
			"fused_relu": 1,
			"fused_tanh": 0,
			"has_batch_norm": 0,
			"has_biases": 0,
			"n_groups": 1,
			"n_parallel": 1,
			"name": "input.46",
			"pad_b": 0,
			"pad_fill_mode": 0,
			"pad_l": 0,
			"pad_mode": 0,
			"pad_r": 0,
			"pad_t": 0,
			"pad_value": 0,
			"top": "input.47",
			"type": "convolution",
			"weights": {
				"W_U8": 135,
				"per_ch_qbias": 137,
				"per_ch_qscale": 139
			}
		},
		{
			"C": 184,
			"K": 46,
			"Nx": 1,
			"Ny": 1,
			"blob_biases": 141,
			"bottom": "input.47",
			"debug_info": "input.48",
			"fused_relu": 0,
			"fused_tanh": 0,
			"has_batch_norm": 0,
			"has_biases": 1,
			"n_groups": 1,
			"n_parallel": 1,
			"name": "input.48",
			"pad_b": 0,
			"pad_fill_mode": 0,
			"pad_l": 0,
			"pad_mode": 0,
			"pad_r": 0,
			"pad_t": 0,
			"pad_value": 0,
			"top": "input.48",
			"type": "convolution",
			"weights": {
				"W_U8": 143,
				"per_ch_qbias": 145,
				"per_ch_qscale": 147
			}
		},
		{
			"alpha": 0,
			"beta": 6,
			"bottom": "input.48",
			"debug_info": "484",
			"fused_relu": 0,
			"name": "484",
			"operation": 119,
			"top": "484",
			"type": "elementwise",
			"weights": {}
		},
		{
			"alpha": 0.1666666716337204,
			"beta": 0,
			"bottom": "484",
			"debug_info": "_inversed_486",
			"fused_relu": 0,
			"name": "_inversed_486",
			"operation": 1,
			"top": "_inversed_486",
			"type": "elementwise",
			"weights": {}
		},
		{
			"alpha": 1,
			"beta": 0,
			"bottom": "x.7,_inversed_486",
			"debug_info": "input.49",
			"fused_relu": 0,
			"name": "input.49",
			"operation": 1,
			"top": "input.49",
			"type": "elementwise",
			"weights": {}
		},
		{
			"bottom": "input.49",
			"debug_info": "input.50",
			"mode": 0,
			"name": "input.50",
			"top": "input.50",
			"type": "activation",
			"weights": {}
		},
		{
			"C": 64,
			"K": 184,
			"Nx": 1,
			"Ny": 1,
			"blob_biases": 149,
			"bottom": "input.50",
			"debug_info": "input.51",
			"fused_relu": 0,
			"fused_tanh": 0,
			"has_batch_norm": 0,
			"has_biases": 1,
			"n_groups": 1,
			"n_parallel": 1,
			"name": "input.51",
			"pad_b": 0,
			"pad_fill_mode": 0,
			"pad_l": 0,
			"pad_mode": 0,
			"pad_r": 0,
			"pad_t": 0,
			"pad_value": 0,
			"top": "output.3",
			"type": "convolution",
			"weights": {
				"W_U8": 151,
				"per_ch_qbias": 153,
				"per_ch_qscale": 155
			}
		},
		{
			"alpha": 1,
			"beta": 0,
			"bottom": "output.3,input.40",
			"debug_info": "input.52",
			"fused_relu": 0,
			"name": "input.52",
			"operation": 0,
			"top": "input.52",
			"type": "elementwise",
			"weights": {}
		},
		{
			"C": 184,
			"K": 64,
			"Nx": 1,
			"Ny": 1,
			"blob_biases": 157,
			"bottom": "input.52",
			"debug_info": "input.53",
			"fused_relu": 1,
			"fused_tanh": 0,
			"has_batch_norm": 0,
			"has_biases": 1,
			"n_groups": 1,
			"n_parallel": 1,
			"name": "input.53",
			"pad_b": 0,
			"pad_fill_mode": 0,
			"pad_l": 0,
			"pad_mode": 0,
			"pad_r": 0,
			"pad_t": 0,
			"pad_value": 0,
			"top": "input.55",
			"type": "convolution",
			"weights": {
				"W_U8": 159,
				"per_ch_qbias": 161,
				"per_ch_qscale": 163
			}
		},
		{
			"C": 184,
			"K": 184,
			"Nx": 5,
			"Ny": 5,
			"blob_biases": 165,
			"bottom": "input.55",
			"debug_info": "input.56",
			"fused_relu": 0,
			"fused_tanh": 0,
			"has_batch_norm": 0,
			"has_biases": 1,
			"n_groups": 184,
			"n_parallel": 1,
			"name": "input.56",
			"pad_b": 2,
			"pad_fill_mode": 0,
			"pad_l": 2,
			"pad_mode": 0,
			"pad_r": 2,
			"pad_t": 2,
			"pad_value": 0,
			"top": "x.12",
			"type": "convolution",
			"weights": {
				"W_U8": 167,
				"per_ch_qbias": 169,
				"per_ch_qscale": 171
			}
		},
		{
			"average_count_exclude_padding": 0,
			"avg_or_max": 0,
			"bottom": "x.12",
			"debug_info": "x.13",
			"name": "x.13",
			"pad_b": 1,
			"pad_fill_mode": 0,
			"pad_l": 1,
			"pad_mode": 0,
			"pad_r": 1,
			"pad_t": 1,
			"pad_value": 0,
			"size_x": 2,
			"size_y": 2,
			"stride_x": 2,
			"stride_y": 2,
			"top": "x.13",
			"top_shape_style": 0,
			"type": "pool",
			"weights": {}
		},
		{
			"average_count_exclude_padding": 0,
			"avg_or_max": 0,
			"bottom": "x.13",
			"debug_info": "x.14",
			"name": "x.14",
			"pad_b": 1,
			"pad_fill_mode": 0,
			"pad_l": 1,
			"pad_mode": 0,
			"pad_r": 1,
			"pad_t": 1,
			"pad_value": 0,
			"size_x": 2,
			"size_y": 2,
			"stride_x": 2,
			"stride_y": 2,
			"top": "x.14",
			"top_shape_style": 0,
			"type": "pool",
			"weights": {}
		},
		{
			"average_count_exclude_padding": 0,
			"avg_or_max": 0,
			"bottom": "x.14",
			"debug_info": "x.15",
			"name": "x.15",
			"pad_b": 0,
			"pad_fill_mode": 0,
			"pad_l": 0,
			"pad_mode": 2,
			"pad_r": 0,
			"pad_t": 0,
			"pad_value": 0,
			"size_x": 2,
			"size_y": 2,
			"stride_x": 2,
			"stride_y": 2,
			"top": "x.15",
			"top_shape_style": 0,
			"type": "pool",
			"weights": {}
		},
		{
			"average_count_exclude_padding": 1,
			"avg_or_max": 0,
			"bottom": "x.15",
			"debug_info": "534",
			"is_global": 1,
			"name": "534",
			"pad_b": 0,
			"pad_fill_mode": 0,
			"pad_l": 0,
			"pad_mode": 2,
			"pad_r": 0,
			"pad_t": 0,
			"pad_value": 0,
			"size_x": 6,
			"size_y": 6,
			"stride_x": 1,
			"stride_y": 1,
			"top": "534",
			"top_shape_style": 0,
			"type": "pool",
			"weights": {}
		},
		{
			"alpha": 1.1377778053283691,
			"beta": 0,
			"bottom": "534",
			"debug_info": "input.57",
			"fused_relu": 0,
			"name": "input.57",
			"operation": 1,
			"top": "input.57",
			"type": "elementwise",
			"weights": {}
		},
		{
			"C": 46,
			"K": 184,
			"Nx": 1,
			"Ny": 1,
			"bottom": "input.57",
			"debug_info": "input.58",
			"fused_relu": 1,
			"fused_tanh": 0,
			"has_batch_norm": 0,
			"has_biases": 0,
			"n_groups": 1,
			"n_parallel": 1,
			"name": "input.58",
			"pad_b": 0,
			"pad_fill_mode": 0,
			"pad_l": 0,
			"pad_mode": 0,
			"pad_r": 0,
			"pad_t": 0,
			"pad_value": 0,
			"top": "input.59",
			"type": "convolution",
			"weights": {
				"W_U8": 173,
				"per_ch_qbias": 175,
				"per_ch_qscale": 177
			}
		},
		{
			"C": 184,
			"K": 46,
			"Nx": 1,
			"Ny": 1,
			"blob_biases": 179,
			"bottom": "input.59",
			"debug_info": "input.60",
			"fused_relu": 0,
			"fused_tanh": 0,
			"has_batch_norm": 0,
			"has_biases": 1,
			"n_groups": 1,
			"n_parallel": 1,
			"name": "input.60",
			"pad_b": 0,
			"pad_fill_mode": 0,
			"pad_l": 0,
			"pad_mode": 0,
			"pad_r": 0,
			"pad_t": 0,
			"pad_value": 0,
			"top": "input.60",
			"type": "convolution",
			"weights": {
				"W_U8": 181,
				"per_ch_qbias": 183,
				"per_ch_qscale": 185
			}
		},
		{
			"alpha": 0,
			"beta": 6,
			"bottom": "input.60",
			"debug_info": "550",
			"fused_relu": 0,
			"name": "550",
			"operation": 119,
			"top": "550",
			"type": "elementwise",
			"weights": {}
		},
		{
			"alpha": 0.1666666716337204,
			"beta": 0,
			"bottom": "550",
			"debug_info": "_inversed_552",
			"fused_relu": 0,
			"name": "_inversed_552",
			"operation": 1,
			"top": "_inversed_552",
			"type": "elementwise",
			"weights": {}
		},
		{
			"alpha": 1,
			"beta": 0,
			"bottom": "x.12,_inversed_552",
			"debug_info": "input.61",
			"fused_relu": 0,
			"name": "input.61",
			"operation": 1,
			"top": "input.61",
			"type": "elementwise",
			"weights": {}
		},
		{
			"bottom": "input.61",
			"debug_info": "input.62",
			"mode": 0,
			"name": "input.62",
			"top": "input.62",
			"type": "activation",
			"weights": {}
		},
		{
			"C": 64,
			"K": 184,
			"Nx": 1,
			"Ny": 1,
			"blob_biases": 187,
			"bottom": "input.62",
			"debug_info": "input.63",
			"fused_relu": 0,
			"fused_tanh": 0,
			"has_batch_norm": 0,
			"has_biases": 1,
			"n_groups": 1,
			"n_parallel": 1,
			"name": "input.63",
			"pad_b": 0,
			"pad_fill_mode": 0,
			"pad_l": 0,
			"pad_mode": 0,
			"pad_r": 0,
			"pad_t": 0,
			"pad_value": 0,
			"top": "output.4",
			"type": "convolution",
			"weights": {
				"W_U8": 189,
				"per_ch_qbias": 191,
				"per_ch_qscale": 193
			}
		},
		{
			"alpha": 1,
			"beta": 0,
			"bottom": "output.4,input.52",
			"debug_info": "input.64",
			"fused_relu": 0,
			"name": "input.64",
			"operation": 0,
			"top": "input.64",
			"type": "elementwise",
			"weights": {}
		},
		{
			"C": 360,
			"K": 64,
			"Nx": 1,
			"Ny": 1,
			"blob_biases": 195,
			"bottom": "input.64",
			"debug_info": "input.65",
			"fused_relu": 0,
			"fused_tanh": 0,
			"has_batch_norm": 0,
			"has_biases": 1,
			"n_groups": 1,
			"n_parallel": 1,
			"name": "input.65",
			"pad_b": 0,
			"pad_fill_mode": 0,
			"pad_l": 0,
			"pad_mode": 0,
			"pad_r": 0,
			"pad_t": 0,
			"pad_value": 0,
			"top": "x.17",
			"type": "convolution",
			"weights": {
				"W_U8": 197,
				"per_ch_qbias": 199,
				"per_ch_qscale": 201
			}
		},
		{
			"alpha": 3,
			"beta": 0,
			"bottom": "x.17",
			"debug_info": "input.66",
			"fused_relu": 0,
			"name": "input.66",
			"operation": 0,
			"top": "input.66",
			"type": "elementwise",
			"weights": {}
		},
		{
			"alpha": 0,
			"beta": 6,
			"bottom": "input.66",
			"debug_info": "581",
			"fused_relu": 0,
			"name": "581",
			"operation": 119,
			"top": "581",
			"type": "elementwise",
			"weights": {}
		},
		{
			"alpha": 0.1666666716337204,
			"beta": 0,
			"bottom": "581",
			"debug_info": "_inversed_583",
			"fused_relu": 0,
			"name": "_inversed_583",
			"operation": 1,
			"top": "_inversed_583",
			"type": "elementwise",
			"weights": {}
		},
		{
			"alpha": 1,
			"beta": 0,
			"bottom": "_inversed_583,x.17",
			"debug_info": "input.67",
			"fused_relu": 0,
			"name": "input.67",
			"operation": 1,
			"top": "input.67",
			"type": "elementwise",
			"weights": {}
		},
		{
			"C": 360,
			"K": 360,
			"Nx": 3,
			"Ny": 3,
			"blob_biases": 203,
			"bottom": "input.67",
			"debug_info": "input.68",
			"fused_relu": 0,
			"fused_tanh": 0,
			"has_batch_norm": 0,
			"has_biases": 1,
			"n_groups": 360,
			"n_parallel": 1,
			"name": "input.68",
			"pad_b": 1,
			"pad_fill_mode": 0,
			"pad_l": 1,
			"pad_mode": 0,
			"pad_r": 1,
			"pad_t": 1,
			"pad_value": 0,
			"stride_x": 2,
			"stride_y": 2,
			"top": "x.18",
			"type": "convolution",
			"weights": {
				"W_U8": 205,
				"per_ch_qbias": 207,
				"per_ch_qscale": 209
			}
		},
		{
			"alpha": 3,
			"beta": 0,
			"bottom": "x.18",
			"debug_info": "input.69",
			"fused_relu": 0,
			"name": "input.69",
			"operation": 0,
			"top": "input.69",
			"type": "elementwise",
			"weights": {}
		},
		{
			"alpha": 0,
			"beta": 6,
			"bottom": "input.69",
			"debug_info": "593",
			"fused_relu": 0,
			"name": "593",
			"operation": 119,
			"top": "593",
			"type": "elementwise",
			"weights": {}
		},
		{
			"alpha": 0.1666666716337204,
			"beta": 0,
			"bottom": "593",
			"debug_info": "_inversed_595",
			"fused_relu": 0,
			"name": "_inversed_595",
			"operation": 1,
			"top": "_inversed_595",
			"type": "elementwise",
			"weights": {}
		},
		{
			"alpha": 1,
			"beta": 0,
			"bottom": "_inversed_595,x.18",
			"debug_info": "input.70",
			"fused_relu": 0,
			"name": "input.70",
			"operation": 1,
			"top": "input.70",
			"type": "elementwise",
			"weights": {}
		},
		{
			"C": 120,
			"K": 360,
			"Nx": 1,
			"Ny": 1,
			"blob_biases": 211,
			"bottom": "input.70",
			"debug_info": "input.71",
			"fused_relu": 0,
			"fused_tanh": 0,
			"has_batch_norm": 0,
			"has_biases": 1,
			"n_groups": 1,
			"n_parallel": 1,
			"name": "input.71",
			"pad_b": 0,
			"pad_fill_mode": 0,
			"pad_l": 0,
			"pad_mode": 0,
			"pad_r": 0,
			"pad_t": 0,
			"pad_value": 0,
			"top": "input.72",
			"type": "convolution",
			"weights": {
				"W_U8": 213,
				"per_ch_qbias": 215,
				"per_ch_qscale": 217
			}
		},
		{
			"C": 304,
			"K": 120,
			"Nx": 1,
			"Ny": 1,
			"blob_biases": 219,
			"bottom": "input.72",
			"debug_info": "input.73",
			"fused_relu": 0,
			"fused_tanh": 0,
			"has_batch_norm": 0,
			"has_biases": 1,
			"n_groups": 1,
			"n_parallel": 1,
			"name": "input.73",
			"pad_b": 0,
			"pad_fill_mode": 0,
			"pad_l": 0,
			"pad_mode": 0,
			"pad_r": 0,
			"pad_t": 0,
			"pad_value": 0,
			"top": "x.19",
			"type": "convolution",
			"weights": {
				"W_U8": 221,
				"per_ch_qbias": 223,
				"per_ch_qscale": 225
			}
		},
		{
			"alpha": 3,
			"beta": 0,
			"bottom": "x.19",
			"debug_info": "input.74",
			"fused_relu": 0,
			"name": "input.74",
			"operation": 0,
			"top": "input.74",
			"type": "elementwise",
			"weights": {}
		},
		{
			"alpha": 0,
			"beta": 6,
			"bottom": "input.74",
			"debug_info": "621",
			"fused_relu": 0,
			"name": "621",
			"operation": 119,
			"top": "621",
			"type": "elementwise",
			"weights": {}
		},
		{
			"alpha": 0.1666666716337204,
			"beta": 0,
			"bottom": "621",
			"debug_info": "_inversed_623",
			"fused_relu": 0,
			"name": "_inversed_623",
			"operation": 1,
			"top": "_inversed_623",
			"type": "elementwise",
			"weights": {}
		},
		{
			"alpha": 1,
			"beta": 0,
			"bottom": "_inversed_623,x.19",
			"debug_info": "input.75",
			"fused_relu": 0,
			"name": "input.75",
			"operation": 1,
			"top": "input.75",
			"type": "elementwise",
			"weights": {}
		},
		{
			"C": 304,
			"K": 304,
			"Nx": 3,
			"Ny": 3,
			"blob_biases": 227,
			"bottom": "input.75",
			"debug_info": "input.76",
			"fused_relu": 0,
			"fused_tanh": 0,
			"has_batch_norm": 0,
			"has_biases": 1,
			"n_groups": 304,
			"n_parallel": 1,
			"name": "input.76",
			"pad_b": 1,
			"pad_fill_mode": 0,
			"pad_l": 1,
			"pad_mode": 0,
			"pad_r": 1,
			"pad_t": 1,
			"pad_value": 0,
			"top": "x.20",
			"type": "convolution",
			"weights": {
				"W_U8": 229,
				"per_ch_qbias": 231,
				"per_ch_qscale": 233
			}
		},
		{
			"alpha": 3,
			"beta": 0,
			"bottom": "x.20",
			"debug_info": "input.77",
			"fused_relu": 0,
			"name": "input.77",
			"operation": 0,
			"top": "input.77",
			"type": "elementwise",
			"weights": {}
		},
		{
			"alpha": 0,
			"beta": 6,
			"bottom": "input.77",
			"debug_info": "633",
			"fused_relu": 0,
			"name": "633",
			"operation": 119,
			"top": "633",
			"type": "elementwise",
			"weights": {}
		},
		{
			"alpha": 0.1666666716337204,
			"beta": 0,
			"bottom": "633",
			"debug_info": "_inversed_635",
			"fused_relu": 0,
			"name": "_inversed_635",
			"operation": 1,
			"top": "_inversed_635",
			"type": "elementwise",
			"weights": {}
		},
		{
			"alpha": 1,
			"beta": 0,
			"bottom": "_inversed_635,x.20",
			"debug_info": "input.78",
			"fused_relu": 0,
			"name": "input.78",
			"operation": 1,
			"top": "input.78",
			"type": "elementwise",
			"weights": {}
		},
		{
			"C": 120,
			"K": 304,
			"Nx": 1,
			"Ny": 1,
			"blob_biases": 235,
			"bottom": "input.78",
			"debug_info": "input.79",
			"fused_relu": 0,
			"fused_tanh": 0,
			"has_batch_norm": 0,
			"has_biases": 1,
			"n_groups": 1,
			"n_parallel": 1,
			"name": "input.79",
			"pad_b": 0,
			"pad_fill_mode": 0,
			"pad_l": 0,
			"pad_mode": 0,
			"pad_r": 0,
			"pad_t": 0,
			"pad_value": 0,
			"top": "output.5",
			"type": "convolution",
			"weights": {
				"W_U8": 237,
				"per_ch_qbias": 239,
				"per_ch_qscale": 241
			}
		},
		{
			"alpha": 1,
			"beta": 0,
			"bottom": "output.5,input.72",
			"debug_info": "input.80",
			"fused_relu": 0,
			"name": "input.80",
			"operation": 0,
			"top": "input.80",
			"type": "elementwise",
			"weights": {}
		},
		{
			"C": 280,
			"K": 120,
			"Nx": 1,
			"Ny": 1,
			"blob_biases": 243,
			"bottom": "input.80",
			"debug_info": "input.81",
			"fused_relu": 0,
			"fused_tanh": 0,
			"has_batch_norm": 0,
			"has_biases": 1,
			"n_groups": 1,
			"n_parallel": 1,
			"name": "input.81",
			"pad_b": 0,
			"pad_fill_mode": 0,
			"pad_l": 0,
			"pad_mode": 0,
			"pad_r": 0,
			"pad_t": 0,
			"pad_value": 0,
			"top": "x.21",
			"type": "convolution",
			"weights": {
				"W_U8": 245,
				"per_ch_qbias": 247,
				"per_ch_qscale": 249
			}
		},
		{
			"alpha": 3,
			"beta": 0,
			"bottom": "x.21",
			"debug_info": "input.82",
			"fused_relu": 0,
			"name": "input.82",
			"operation": 0,
			"top": "input.82",
			"type": "elementwise",
			"weights": {}
		},
		{
			"alpha": 0,
			"beta": 6,
			"bottom": "input.82",
			"debug_info": "662",
			"fused_relu": 0,
			"name": "662",
			"operation": 119,
			"top": "662",
			"type": "elementwise",
			"weights": {}
		},
		{
			"alpha": 0.1666666716337204,
			"beta": 0,
			"bottom": "662",
			"debug_info": "_inversed_664",
			"fused_relu": 0,
			"name": "_inversed_664",
			"operation": 1,
			"top": "_inversed_664",
			"type": "elementwise",
			"weights": {}
		},
		{
			"alpha": 1,
			"beta": 0,
			"bottom": "_inversed_664,x.21",
			"debug_info": "input.83",
			"fused_relu": 0,
			"name": "input.83",
			"operation": 1,
			"top": "input.83",
			"type": "elementwise",
			"weights": {}
		},
		{
			"C": 280,
			"K": 280,
			"Nx": 3,
			"Ny": 3,
			"blob_biases": 251,
			"bottom": "input.83",
			"debug_info": "input.84",
			"fused_relu": 0,
			"fused_tanh": 0,
			"has_batch_norm": 0,
			"has_biases": 1,
			"n_groups": 280,
			"n_parallel": 1,
			"name": "input.84",
			"pad_b": 1,
			"pad_fill_mode": 0,
			"pad_l": 1,
			"pad_mode": 0,
			"pad_r": 1,
			"pad_t": 1,
			"pad_value": 0,
			"top": "x.22",
			"type": "convolution",
			"weights": {
				"W_U8": 253,
				"per_ch_qbias": 255,
				"per_ch_qscale": 257
			}
		},
		{
			"alpha": 3,
			"beta": 0,
			"bottom": "x.22",
			"debug_info": "input.85",
			"fused_relu": 0,
			"name": "input.85",
			"operation": 0,
			"top": "input.85",
			"type": "elementwise",
			"weights": {}
		},
		{
			"alpha": 0,
			"beta": 6,
			"bottom": "input.85",
			"debug_info": "674",
			"fused_relu": 0,
			"name": "674",
			"operation": 119,
			"top": "674",
			"type": "elementwise",
			"weights": {}
		},
		{
			"alpha": 0.1666666716337204,
			"beta": 0,
			"bottom": "674",
			"debug_info": "_inversed_676",
			"fused_relu": 0,
			"name": "_inversed_676",
			"operation": 1,
			"top": "_inversed_676",
			"type": "elementwise",
			"weights": {}
		},
		{
			"alpha": 1,
			"beta": 0,
			"bottom": "_inversed_676,x.22",
			"debug_info": "input.86",
			"fused_relu": 0,
			"name": "input.86",
			"operation": 1,
			"top": "input.86",
			"type": "elementwise",
			"weights": {}
		},
		{
			"C": 120,
			"K": 280,
			"Nx": 1,
			"Ny": 1,
			"blob_biases": 259,
			"bottom": "input.86",
			"debug_info": "input.87",
			"fused_relu": 0,
			"fused_tanh": 0,
			"has_batch_norm": 0,
			"has_biases": 1,
			"n_groups": 1,
			"n_parallel": 1,
			"name": "input.87",
			"pad_b": 0,
			"pad_fill_mode": 0,
			"pad_l": 0,
			"pad_mode": 0,
			"pad_r": 0,
			"pad_t": 0,
			"pad_value": 0,
			"top": "output.6",
			"type": "convolution",
			"weights": {
				"W_U8": 261,
				"per_ch_qbias": 263,
				"per_ch_qscale": 265
			}
		},
		{
			"alpha": 1,
			"beta": 0,
			"bottom": "output.6,input.80",
			"debug_info": "input.88",
			"fused_relu": 0,
			"name": "input.88",
			"operation": 0,
			"top": "input.88",
			"type": "elementwise",
			"weights": {}
		},
		{
			"C": 280,
			"K": 120,
			"Nx": 1,
			"Ny": 1,
			"blob_biases": 267,
			"bottom": "input.88",
			"debug_info": "input.89",
			"fused_relu": 0,
			"fused_tanh": 0,
			"has_batch_norm": 0,
			"has_biases": 1,
			"n_groups": 1,
			"n_parallel": 1,
			"name": "input.89",
			"pad_b": 0,
			"pad_fill_mode": 0,
			"pad_l": 0,
			"pad_mode": 0,
			"pad_r": 0,
			"pad_t": 0,
			"pad_value": 0,
			"top": "x.23",
			"type": "convolution",
			"weights": {
				"W_U8": 269,
				"per_ch_qbias": 271,
				"per_ch_qscale": 273
			}
		},
		{
			"alpha": 3,
			"beta": 0,
			"bottom": "x.23",
			"debug_info": "input.90",
			"fused_relu": 0,
			"name": "input.90",
			"operation": 0,
			"top": "input.90",
			"type": "elementwise",
			"weights": {}
		},
		{
			"alpha": 0,
			"beta": 6,
			"bottom": "input.90",
			"debug_info": "703",
			"fused_relu": 0,
			"name": "703",
			"operation": 119,
			"top": "703",
			"type": "elementwise",
			"weights": {}
		},
		{
			"alpha": 0.1666666716337204,
			"beta": 0,
			"bottom": "703",
			"debug_info": "_inversed_705",
			"fused_relu": 0,
			"name": "_inversed_705",
			"operation": 1,
			"top": "_inversed_705",
			"type": "elementwise",
			"weights": {}
		},
		{
			"alpha": 1,
			"beta": 0,
			"bottom": "_inversed_705,x.23",
			"debug_info": "input.91",
			"fused_relu": 0,
			"name": "input.91",
			"operation": 1,
			"top": "input.91",
			"type": "elementwise",
			"weights": {}
		},
		{
			"C": 280,
			"K": 280,
			"Nx": 3,
			"Ny": 3,
			"blob_biases": 275,
			"bottom": "input.91",
			"debug_info": "input.92",
			"fused_relu": 0,
			"fused_tanh": 0,
			"has_batch_norm": 0,
			"has_biases": 1,
			"n_groups": 280,
			"n_parallel": 1,
			"name": "input.92",
			"pad_b": 1,
			"pad_fill_mode": 0,
			"pad_l": 1,
			"pad_mode": 0,
			"pad_r": 1,
			"pad_t": 1,
			"pad_value": 0,
			"top": "x.24",
			"type": "convolution",
			"weights": {
				"W_U8": 277,
				"per_ch_qbias": 279,
				"per_ch_qscale": 281
			}
		},
		{
			"alpha": 3,
			"beta": 0,
			"bottom": "x.24",
			"debug_info": "input.93",
			"fused_relu": 0,
			"name": "input.93",
			"operation": 0,
			"top": "input.93",
			"type": "elementwise",
			"weights": {}
		},
		{
			"alpha": 0,
			"beta": 6,
			"bottom": "input.93",
			"debug_info": "715",
			"fused_relu": 0,
			"name": "715",
			"operation": 119,
			"top": "715",
			"type": "elementwise",
			"weights": {}
		},
		{
			"alpha": 0.1666666716337204,
			"beta": 0,
			"bottom": "715",
			"debug_info": "_inversed_717",
			"fused_relu": 0,
			"name": "_inversed_717",
			"operation": 1,
			"top": "_inversed_717",
			"type": "elementwise",
			"weights": {}
		},
		{
			"alpha": 1,
			"beta": 0,
			"bottom": "_inversed_717,x.24",
			"debug_info": "input.94",
			"fused_relu": 0,
			"name": "input.94",
			"operation": 1,
			"top": "input.94",
			"type": "elementwise",
			"weights": {}
		},
		{
			"C": 120,
			"K": 280,
			"Nx": 1,
			"Ny": 1,
			"blob_biases": 283,
			"bottom": "input.94",
			"debug_info": "input.95",
			"fused_relu": 0,
			"fused_tanh": 0,
			"has_batch_norm": 0,
			"has_biases": 1,
			"n_groups": 1,
			"n_parallel": 1,
			"name": "input.95",
			"pad_b": 0,
			"pad_fill_mode": 0,
			"pad_l": 0,
			"pad_mode": 0,
			"pad_r": 0,
			"pad_t": 0,
			"pad_value": 0,
			"top": "output.7",
			"type": "convolution",
			"weights": {
				"W_U8": 285,
				"per_ch_qbias": 287,
				"per_ch_qscale": 289
			}
		},
		{
			"alpha": 1,
			"beta": 0,
			"bottom": "output.7,input.88",
			"debug_info": "input.96",
			"fused_relu": 0,
			"name": "input.96",
			"operation": 0,
			"top": "input.96",
			"type": "elementwise",
			"weights": {}
		},
		{
			"C": 720,
			"K": 120,
			"Nx": 1,
			"Ny": 1,
			"blob_biases": 291,
			"bottom": "input.96",
			"debug_info": "input.97",
			"fused_relu": 0,
			"fused_tanh": 0,
			"has_batch_norm": 0,
			"has_biases": 1,
			"n_groups": 1,
			"n_parallel": 1,
			"name": "input.97",
			"pad_b": 0,
			"pad_fill_mode": 0,
			"pad_l": 0,
			"pad_mode": 0,
			"pad_r": 0,
			"pad_t": 0,
			"pad_value": 0,
			"top": "x.25",
			"type": "convolution",
			"weights": {
				"W_U8": 293,
				"per_ch_qbias": 295,
				"per_ch_qscale": 297
			}
		},
		{
			"alpha": 3,
			"beta": 0,
			"bottom": "x.25",
			"debug_info": "input.98",
			"fused_relu": 0,
			"name": "input.98",
			"operation": 0,
			"top": "input.98",
			"type": "elementwise",
			"weights": {}
		},
		{
			"alpha": 0,
			"beta": 6,
			"bottom": "input.98",
			"debug_info": "746",
			"fused_relu": 0,
			"name": "746",
			"operation": 119,
			"top": "746",
			"type": "elementwise",
			"weights": {}
		},
		{
			"alpha": 0.1666666716337204,
			"beta": 0,
			"bottom": "746",
			"debug_info": "_inversed_748",
			"fused_relu": 0,
			"name": "_inversed_748",
			"operation": 1,
			"top": "_inversed_748",
			"type": "elementwise",
			"weights": {}
		},
		{
			"alpha": 1,
			"beta": 0,
			"bottom": "_inversed_748,x.25",
			"debug_info": "input.99",
			"fused_relu": 0,
			"name": "input.99",
			"operation": 1,
			"top": "input.99",
			"type": "elementwise",
			"weights": {}
		},
		{
			"C": 720,
			"K": 720,
			"Nx": 3,
			"Ny": 3,
			"blob_biases": 299,
			"bottom": "input.99",
			"debug_info": "input.100",
			"fused_relu": 0,
			"fused_tanh": 0,
			"has_batch_norm": 0,
			"has_biases": 1,
			"n_groups": 720,
			"n_parallel": 1,
			"name": "input.100",
			"pad_b": 1,
			"pad_fill_mode": 0,
			"pad_l": 1,
			"pad_mode": 0,
			"pad_r": 1,
			"pad_t": 1,
			"pad_value": 0,
			"top": "x.26",
			"type": "convolution",
			"weights": {
				"W_U8": 301,
				"per_ch_qbias": 303,
				"per_ch_qscale": 305
			}
		},
		{
			"average_count_exclude_padding": 0,
			"avg_or_max": 0,
			"bottom": "x.26",
			"debug_info": "x.27",
			"name": "x.27",
			"pad_b": 1,
			"pad_fill_mode": 0,
			"pad_l": 1,
			"pad_mode": 0,
			"pad_r": 1,
			"pad_t": 1,
			"pad_value": 0,
			"size_x": 2,
			"size_y": 2,
			"stride_x": 2,
			"stride_y": 2,
			"top": "x.27",
			"top_shape_style": 0,
			"type": "pool",
			"weights": {}
		},
		{
			"average_count_exclude_padding": 0,
			"avg_or_max": 0,
			"bottom": "x.27",
			"debug_info": "x.28",
			"name": "x.28",
			"pad_b": 0,
			"pad_fill_mode": 0,
			"pad_l": 0,
			"pad_mode": 2,
			"pad_r": 0,
			"pad_t": 0,
			"pad_value": 0,
			"size_x": 2,
			"size_y": 2,
			"stride_x": 2,
			"stride_y": 2,
			"top": "x.28",
			"top_shape_style": 0,
			"type": "pool",
			"weights": {}
		},
		{
			"average_count_exclude_padding": 1,
			"avg_or_max": 0,
			"bottom": "x.28",
			"debug_info": "765",
			"is_global": 1,
			"name": "765",
			"pad_b": 0,
			"pad_fill_mode": 0,
			"pad_l": 0,
			"pad_mode": 2,
			"pad_r": 0,
			"pad_t": 0,
			"pad_value": 0,
			"size_x": 6,
			"size_y": 6,
			"stride_x": 1,
			"stride_y": 1,
			"top": "765",
			"top_shape_style": 0,
			"type": "pool",
			"weights": {}
		},
		{
			"alpha": 1.0888469219207764,
			"beta": 0,
			"bottom": "765",
			"debug_info": "input.101",
			"fused_relu": 0,
			"name": "input.101",
			"operation": 1,
			"top": "input.101",
			"type": "elementwise",
			"weights": {}
		},
		{
			"C": 180,
			"K": 720,
			"Nx": 1,
			"Ny": 1,
			"bottom": "input.101",
			"debug_info": "input.102",
			"fused_relu": 1,
			"fused_tanh": 0,
			"has_batch_norm": 0,
			"has_biases": 0,
			"n_groups": 1,
			"n_parallel": 1,
			"name": "input.102",
			"pad_b": 0,
			"pad_fill_mode": 0,
			"pad_l": 0,
			"pad_mode": 0,
			"pad_r": 0,
			"pad_t": 0,
			"pad_value": 0,
			"top": "input.103",
			"type": "convolution",
			"weights": {
				"W_U8": 307,
				"per_ch_qbias": 309,
				"per_ch_qscale": 311
			}
		},
		{
			"C": 720,
			"K": 180,
			"Nx": 1,
			"Ny": 1,
			"blob_biases": 313,
			"bottom": "input.103",
			"debug_info": "input.104",
			"fused_relu": 0,
			"fused_tanh": 0,
			"has_batch_norm": 0,
			"has_biases": 1,
			"n_groups": 1,
			"n_parallel": 1,
			"name": "input.104",
			"pad_b": 0,
			"pad_fill_mode": 0,
			"pad_l": 0,
			"pad_mode": 0,
			"pad_r": 0,
			"pad_t": 0,
			"pad_value": 0,
			"top": "input.104",
			"type": "convolution",
			"weights": {
				"W_U8": 315,
				"per_ch_qbias": 317,
				"per_ch_qscale": 319
			}
		},
		{
			"alpha": 0,
			"beta": 6,
			"bottom": "input.104",
			"debug_info": "781",
			"fused_relu": 0,
			"name": "781",
			"operation": 119,
			"top": "781",
			"type": "elementwise",
			"weights": {}
		},
		{
			"alpha": 0.1666666716337204,
			"beta": 0,
			"bottom": "781",
			"debug_info": "_inversed_783",
			"fused_relu": 0,
			"name": "_inversed_783",
			"operation": 1,
			"top": "_inversed_783",
			"type": "elementwise",
			"weights": {}
		},
		{
			"alpha": 1,
			"beta": 0,
			"bottom": "x.26,_inversed_783",
			"debug_info": "x.30",
			"fused_relu": 0,
			"name": "x.30",
			"operation": 1,
			"top": "x.30",
			"type": "elementwise",
			"weights": {}
		},
		{
			"alpha": 3,
			"beta": 0,
			"bottom": "x.30",
			"debug_info": "input.105",
			"fused_relu": 0,
			"name": "input.105",
			"operation": 0,
			"top": "input.105",
			"type": "elementwise",
			"weights": {}
		},
		{
			"alpha": 0,
			"beta": 6,
			"bottom": "input.105",
			"debug_info": "787",
			"fused_relu": 0,
			"name": "787",
			"operation": 119,
			"top": "787",
			"type": "elementwise",
			"weights": {}
		},
		{
			"alpha": 0.1666666716337204,
			"beta": 0,
			"bottom": "787",
			"debug_info": "_inversed_789",
			"fused_relu": 0,
			"name": "_inversed_789",
			"operation": 1,
			"top": "_inversed_789",
			"type": "elementwise",
			"weights": {}
		},
		{
			"alpha": 1,
			"beta": 0,
			"bottom": "_inversed_789,x.30",
			"debug_info": "input.106",
			"fused_relu": 0,
			"name": "input.106",
			"operation": 1,
			"top": "input.106",
			"type": "elementwise",
			"weights": {}
		},
		{
			"C": 168,
			"K": 720,
			"Nx": 1,
			"Ny": 1,
			"blob_biases": 321,
			"bottom": "input.106",
			"debug_info": "input.107",
			"fused_relu": 0,
			"fused_tanh": 0,
			"has_batch_norm": 0,
			"has_biases": 1,
			"n_groups": 1,
			"n_parallel": 1,
			"name": "input.107",
			"pad_b": 0,
			"pad_fill_mode": 0,
			"pad_l": 0,
			"pad_mode": 0,
			"pad_r": 0,
			"pad_t": 0,
			"pad_value": 0,
			"top": "input.108",
			"type": "convolution",
			"weights": {
				"W_U8": 323,
				"per_ch_qbias": 325,
				"per_ch_qscale": 327
			}
		},
		{
			"C": 1008,
			"K": 168,
			"Nx": 1,
			"Ny": 1,
			"blob_biases": 329,
			"bottom": "input.108",
			"debug_info": "input.109",
			"fused_relu": 0,
			"fused_tanh": 0,
			"has_batch_norm": 0,
			"has_biases": 1,
			"n_groups": 1,
			"n_parallel": 1,
			"name": "input.109",
			"pad_b": 0,
			"pad_fill_mode": 0,
			"pad_l": 0,
			"pad_mode": 0,
			"pad_r": 0,
			"pad_t": 0,
			"pad_value": 0,
			"top": "x.31",
			"type": "convolution",
			"weights": {
				"W_U8": 331,
				"per_ch_qbias": 333,
				"per_ch_qscale": 335
			}
		},
		{
			"alpha": 3,
			"beta": 0,
			"bottom": "x.31",
			"debug_info": "input.110",
			"fused_relu": 0,
			"name": "input.110",
			"operation": 0,
			"top": "input.110",
			"type": "elementwise",
			"weights": {}
		},
		{
			"alpha": 0,
			"beta": 6,
			"bottom": "input.110",
			"debug_info": "817",
			"fused_relu": 0,
			"name": "817",
			"operation": 119,
			"top": "817",
			"type": "elementwise",
			"weights": {}
		},
		{
			"alpha": 0.1666666716337204,
			"beta": 0,
			"bottom": "817",
			"debug_info": "_inversed_819",
			"fused_relu": 0,
			"name": "_inversed_819",
			"operation": 1,
			"top": "_inversed_819",
			"type": "elementwise",
			"weights": {}
		},
		{
			"alpha": 1,
			"beta": 0,
			"bottom": "_inversed_819,x.31",
			"debug_info": "input.111",
			"fused_relu": 0,
			"name": "input.111",
			"operation": 1,
			"top": "input.111",
			"type": "elementwise",
			"weights": {}
		},
		{
			"C": 1008,
			"K": 1008,
			"Nx": 3,
			"Ny": 3,
			"blob_biases": 337,
			"bottom": "input.111",
			"debug_info": "input.112",
			"fused_relu": 0,
			"fused_tanh": 0,
			"has_batch_norm": 0,
			"has_biases": 1,
			"n_groups": 1008,
			"n_parallel": 1,
			"name": "input.112",
			"pad_b": 1,
			"pad_fill_mode": 0,
			"pad_l": 1,
			"pad_mode": 0,
			"pad_r": 1,
			"pad_t": 1,
			"pad_value": 0,
			"top": "x.32",
			"type": "convolution",
			"weights": {
				"W_U8": 339,
				"per_ch_qbias": 341,
				"per_ch_qscale": 343
			}
		},
		{
			"average_count_exclude_padding": 0,
			"avg_or_max": 0,
			"bottom": "x.32",
			"debug_info": "x.33",
			"name": "x.33",
			"pad_b": 1,
			"pad_fill_mode": 0,
			"pad_l": 1,
			"pad_mode": 0,
			"pad_r": 1,
			"pad_t": 1,
			"pad_value": 0,
			"size_x": 2,
			"size_y": 2,
			"stride_x": 2,
			"stride_y": 2,
			"top": "x.33",
			"top_shape_style": 0,
			"type": "pool",
			"weights": {}
		},
		{
			"average_count_exclude_padding": 0,
			"avg_or_max": 0,
			"bottom": "x.33",
			"debug_info": "x.34",
			"name": "x.34",
			"pad_b": 0,
			"pad_fill_mode": 0,
			"pad_l": 0,
			"pad_mode": 2,
			"pad_r": 0,
			"pad_t": 0,
			"pad_value": 0,
			"size_x": 2,
			"size_y": 2,
			"stride_x": 2,
			"stride_y": 2,
			"top": "x.34",
			"top_shape_style": 0,
			"type": "pool",
			"weights": {}
		},
		{
			"average_count_exclude_padding": 1,
			"avg_or_max": 0,
			"bottom": "x.34",
			"debug_info": "836",
			"is_global": 1,
			"name": "836",
			"pad_b": 0,
			"pad_fill_mode": 0,
			"pad_l": 0,
			"pad_mode": 2,
			"pad_r": 0,
			"pad_t": 0,
			"pad_value": 0,
			"size_x": 6,
			"size_y": 6,
			"stride_x": 1,
			"stride_y": 1,
			"top": "836",
			"top_shape_style": 0,
			"type": "pool",
			"weights": {}
		},
		{
			"alpha": 1.0888469219207764,
			"beta": 0,
			"bottom": "836",
			"debug_info": "input.113",
			"fused_relu": 0,
			"name": "input.113",
			"operation": 1,
			"top": "input.113",
			"type": "elementwise",
			"weights": {}
		},
		{
			"C": 252,
			"K": 1008,
			"Nx": 1,
			"Ny": 1,
			"bottom": "input.113",
			"debug_info": "input.114",
			"fused_relu": 1,
			"fused_tanh": 0,
			"has_batch_norm": 0,
			"has_biases": 0,
			"n_groups": 1,
			"n_parallel": 1,
			"name": "input.114",
			"pad_b": 0,
			"pad_fill_mode": 0,
			"pad_l": 0,
			"pad_mode": 0,
			"pad_r": 0,
			"pad_t": 0,
			"pad_value": 0,
			"top": "input.115",
			"type": "convolution",
			"weights": {
				"W_U8": 345,
				"per_ch_qbias": 347,
				"per_ch_qscale": 349
			}
		},
		{
			"C": 1008,
			"K": 252,
			"Nx": 1,
			"Ny": 1,
			"blob_biases": 351,
			"bottom": "input.115",
			"debug_info": "input.116",
			"fused_relu": 0,
			"fused_tanh": 0,
			"has_batch_norm": 0,
			"has_biases": 1,
			"n_groups": 1,
			"n_parallel": 1,
			"name": "input.116",
			"pad_b": 0,
			"pad_fill_mode": 0,
			"pad_l": 0,
			"pad_mode": 0,
			"pad_r": 0,
			"pad_t": 0,
			"pad_value": 0,
			"top": "input.116",
			"type": "convolution",
			"weights": {
				"W_U8": 353,
				"per_ch_qbias": 355,
				"per_ch_qscale": 357
			}
		},
		{
			"alpha": 0,
			"beta": 6,
			"bottom": "input.116",
			"debug_info": "852",
			"fused_relu": 0,
			"name": "852",
			"operation": 119,
			"top": "852",
			"type": "elementwise",
			"weights": {}
		},
		{
			"alpha": 0.1666666716337204,
			"beta": 0,
			"bottom": "852",
			"debug_info": "_inversed_854",
			"fused_relu": 0,
			"name": "_inversed_854",
			"operation": 1,
			"top": "_inversed_854",
			"type": "elementwise",
			"weights": {}
		},
		{
			"alpha": 1,
			"beta": 0,
			"bottom": "x.32,_inversed_854",
			"debug_info": "x.36",
			"fused_relu": 0,
			"name": "x.36",
			"operation": 1,
			"top": "x.36",
			"type": "elementwise",
			"weights": {}
		},
		{
			"alpha": 3,
			"beta": 0,
			"bottom": "x.36",
			"debug_info": "input.117",
			"fused_relu": 0,
			"name": "input.117",
			"operation": 0,
			"top": "input.117",
			"type": "elementwise",
			"weights": {}
		},
		{
			"alpha": 0,
			"beta": 6,
			"bottom": "input.117",
			"debug_info": "858",
			"fused_relu": 0,
			"name": "858",
			"operation": 119,
			"top": "858",
			"type": "elementwise",
			"weights": {}
		},
		{
			"alpha": 0.1666666716337204,
			"beta": 0,
			"bottom": "858",
			"debug_info": "_inversed_860",
			"fused_relu": 0,
			"name": "_inversed_860",
			"operation": 1,
			"top": "_inversed_860",
			"type": "elementwise",
			"weights": {}
		},
		{
			"alpha": 1,
			"beta": 0,
			"bottom": "_inversed_860,x.36",
			"debug_info": "input.118",
			"fused_relu": 0,
			"name": "input.118",
			"operation": 1,
			"top": "input.118",
			"type": "elementwise",
			"weights": {}
		},
		{
			"C": 168,
			"K": 1008,
			"Nx": 1,
			"Ny": 1,
			"blob_biases": 359,
			"bottom": "input.118",
			"debug_info": "input.119",
			"fused_relu": 0,
			"fused_tanh": 0,
			"has_batch_norm": 0,
			"has_biases": 1,
			"n_groups": 1,
			"n_parallel": 1,
			"name": "input.119",
			"pad_b": 0,
			"pad_fill_mode": 0,
			"pad_l": 0,
			"pad_mode": 0,
			"pad_r": 0,
			"pad_t": 0,
			"pad_value": 0,
			"top": "output.8",
			"type": "convolution",
			"weights": {
				"W_U8": 361,
				"per_ch_qbias": 363,
				"per_ch_qscale": 365
			}
		},
		{
			"alpha": 1,
			"beta": 0,
			"bottom": "output.8,input.108",
			"debug_info": "input.120",
			"fused_relu": 0,
			"name": "input.120",
			"operation": 0,
			"top": "input.120",
			"type": "elementwise",
			"weights": {}
		},
		{
			"C": 1008,
			"K": 168,
			"Nx": 1,
			"Ny": 1,
			"blob_biases": 367,
			"bottom": "input.120",
			"debug_info": "input.121",
			"fused_relu": 0,
			"fused_tanh": 0,
			"has_batch_norm": 0,
			"has_biases": 1,
			"n_groups": 1,
			"n_parallel": 1,
			"name": "input.121",
			"pad_b": 0,
			"pad_fill_mode": 0,
			"pad_l": 0,
			"pad_mode": 0,
			"pad_r": 0,
			"pad_t": 0,
			"pad_value": 0,
			"top": "x.37",
			"type": "convolution",
			"weights": {
				"W_U8": 369,
				"per_ch_qbias": 371,
				"per_ch_qscale": 373
			}
		},
		{
			"alpha": 3,
			"beta": 0,
			"bottom": "x.37",
			"debug_info": "input.122",
			"fused_relu": 0,
			"name": "input.122",
			"operation": 0,
			"top": "input.122",
			"type": "elementwise",
			"weights": {}
		},
		{
			"alpha": 0,
			"beta": 6,
			"bottom": "input.122",
			"debug_info": "889",
			"fused_relu": 0,
			"name": "889",
			"operation": 119,
			"top": "889",
			"type": "elementwise",
			"weights": {}
		},
		{
			"alpha": 0.1666666716337204,
			"beta": 0,
			"bottom": "889",
			"debug_info": "_inversed_891",
			"fused_relu": 0,
			"name": "_inversed_891",
			"operation": 1,
			"top": "_inversed_891",
			"type": "elementwise",
			"weights": {}
		},
		{
			"alpha": 1,
			"beta": 0,
			"bottom": "_inversed_891,x.37",
			"debug_info": "input.123",
			"fused_relu": 0,
			"name": "input.123",
			"operation": 1,
			"top": "input.123",
			"type": "elementwise",
			"weights": {}
		},
		{
			"C": 1008,
			"K": 1008,
			"Nx": 3,
			"Ny": 3,
			"blob_biases": 375,
			"bottom": "input.123",
			"debug_info": "input.124",
			"fused_relu": 0,
			"fused_tanh": 0,
			"has_batch_norm": 0,
			"has_biases": 1,
			"n_groups": 1008,
			"n_parallel": 1,
			"name": "input.124",
			"pad_b": 1,
			"pad_fill_mode": 0,
			"pad_l": 1,
			"pad_mode": 0,
			"pad_r": 1,
			"pad_t": 1,
			"pad_value": 0,
			"stride_x": 2,
			"stride_y": 2,
			"top": "x.38",
			"type": "convolution",
			"weights": {
				"W_U8": 377,
				"per_ch_qbias": 379,
				"per_ch_qscale": 381
			}
		},
		{
			"average_count_exclude_padding": 0,
			"avg_or_max": 0,
			"bottom": "x.38",
			"debug_info": "x.39",
			"name": "x.39",
			"pad_b": 0,
			"pad_fill_mode": 0,
			"pad_l": 0,
			"pad_mode": 2,
			"pad_r": 0,
			"pad_t": 0,
			"pad_value": 0,
			"size_x": 2,
			"size_y": 2,
			"stride_x": 2,
			"stride_y": 2,
			"top": "x.39",
			"top_shape_style": 0,
			"type": "pool",
			"weights": {}
		},
		{
			"average_count_exclude_padding": 1,
			"avg_or_max": 0,
			"bottom": "x.39",
			"debug_info": "904",
			"is_global": 1,
			"name": "904",
			"pad_b": 0,
			"pad_fill_mode": 0,
			"pad_l": 0,
			"pad_mode": 2,
			"pad_r": 0,
			"pad_t": 0,
			"pad_value": 0,
			"size_x": 6,
			"size_y": 6,
			"stride_x": 1,
			"stride_y": 1,
			"top": "904",
			"top_shape_style": 0,
			"type": "pool",
			"weights": {}
		},
		{
			"C": 252,
			"K": 1008,
			"Nx": 1,
			"Ny": 1,
			"bottom": "904",
			"debug_info": "input.126",
			"fused_relu": 1,
			"fused_tanh": 0,
			"has_batch_norm": 0,
			"has_biases": 0,
			"n_groups": 1,
			"n_parallel": 1,
			"name": "input.126",
			"pad_b": 0,
			"pad_fill_mode": 0,
			"pad_l": 0,
			"pad_mode": 0,
			"pad_r": 0,
			"pad_t": 0,
			"pad_value": 0,
			"top": "input.127",
			"type": "convolution",
			"weights": {
				"W_U8": 383,
				"per_ch_qbias": 385,
				"per_ch_qscale": 387
			}
		},
		{
			"C": 1008,
			"K": 252,
			"Nx": 1,
			"Ny": 1,
			"blob_biases": 389,
			"bottom": "input.127",
			"debug_info": "input.128",
			"fused_relu": 0,
			"fused_tanh": 0,
			"has_batch_norm": 0,
			"has_biases": 1,
			"n_groups": 1,
			"n_parallel": 1,
			"name": "input.128",
			"pad_b": 0,
			"pad_fill_mode": 0,
			"pad_l": 0,
			"pad_mode": 0,
			"pad_r": 0,
			"pad_t": 0,
			"pad_value": 0,
			"top": "input.128",
			"type": "convolution",
			"weights": {
				"W_U8": 391,
				"per_ch_qbias": 393,
				"per_ch_qscale": 395
			}
		},
		{
			"alpha": 0,
			"beta": 6,
			"bottom": "input.128",
			"debug_info": "920",
			"fused_relu": 0,
			"name": "920",
			"operation": 119,
			"top": "920",
			"type": "elementwise",
			"weights": {}
		},
		{
			"alpha": 0.1666666716337204,
			"beta": 0,
			"bottom": "920",
			"debug_info": "_inversed_922",
			"fused_relu": 0,
			"name": "_inversed_922",
			"operation": 1,
			"top": "_inversed_922",
			"type": "elementwise",
			"weights": {}
		},
		{
			"alpha": 1,
			"beta": 0,
			"bottom": "x.38,_inversed_922",
			"debug_info": "x.41",
			"fused_relu": 0,
			"name": "x.41",
			"operation": 1,
			"top": "x.41",
			"type": "elementwise",
			"weights": {}
		},
		{
			"alpha": 3,
			"beta": 0,
			"bottom": "x.41",
			"debug_info": "input.129",
			"fused_relu": 0,
			"name": "input.129",
			"operation": 0,
			"top": "input.129",
			"type": "elementwise",
			"weights": {}
		},
		{
			"alpha": 0,
			"beta": 6,
			"bottom": "input.129",
			"debug_info": "926",
			"fused_relu": 0,
			"name": "926",
			"operation": 119,
			"top": "926",
			"type": "elementwise",
			"weights": {}
		},
		{
			"alpha": 0.1666666716337204,
			"beta": 0,
			"bottom": "926",
			"debug_info": "_inversed_928",
			"fused_relu": 0,
			"name": "_inversed_928",
			"operation": 1,
			"top": "_inversed_928",
			"type": "elementwise",
			"weights": {}
		},
		{
			"alpha": 1,
			"beta": 0,
			"bottom": "_inversed_928,x.41",
			"debug_info": "input.130",
			"fused_relu": 0,
			"name": "input.130",
			"operation": 1,
			"top": "input.130",
			"type": "elementwise",
			"weights": {}
		},
		{
			"C": 240,
			"K": 1008,
			"Nx": 1,
			"Ny": 1,
			"blob_biases": 397,
			"bottom": "input.130",
			"debug_info": "input.131",
			"fused_relu": 0,
			"fused_tanh": 0,
			"has_batch_norm": 0,
			"has_biases": 1,
			"n_groups": 1,
			"n_parallel": 1,
			"name": "input.131",
			"pad_b": 0,
			"pad_fill_mode": 0,
			"pad_l": 0,
			"pad_mode": 0,
			"pad_r": 0,
			"pad_t": 0,
			"pad_value": 0,
			"top": "input.132",
			"type": "convolution",
			"weights": {
				"W_U8": 399,
				"per_ch_qbias": 401,
				"per_ch_qscale": 403
			}
		},
		{
			"C": 1440,
			"K": 240,
			"Nx": 1,
			"Ny": 1,
			"blob_biases": 405,
			"bottom": "input.132",
			"debug_info": "input.133",
			"fused_relu": 0,
			"fused_tanh": 0,
			"has_batch_norm": 0,
			"has_biases": 1,
			"n_groups": 1,
			"n_parallel": 1,
			"name": "input.133",
			"pad_b": 0,
			"pad_fill_mode": 0,
			"pad_l": 0,
			"pad_mode": 0,
			"pad_r": 0,
			"pad_t": 0,
			"pad_value": 0,
			"top": "x.42",
			"type": "convolution",
			"weights": {
				"W_U8": 407,
				"per_ch_qbias": 409,
				"per_ch_qscale": 411
			}
		},
		{
			"alpha": 3,
			"beta": 0,
			"bottom": "x.42",
			"debug_info": "input.134",
			"fused_relu": 0,
			"name": "input.134",
			"operation": 0,
			"top": "input.134",
			"type": "elementwise",
			"weights": {}
		},
		{
			"alpha": 0,
			"beta": 6,
			"bottom": "input.134",
			"debug_info": "956",
			"fused_relu": 0,
			"name": "956",
			"operation": 119,
			"top": "956",
			"type": "elementwise",
			"weights": {}
		},
		{
			"alpha": 0.1666666716337204,
			"beta": 0,
			"bottom": "956",
			"debug_info": "_inversed_958",
			"fused_relu": 0,
			"name": "_inversed_958",
			"operation": 1,
			"top": "_inversed_958",
			"type": "elementwise",
			"weights": {}
		},
		{
			"alpha": 1,
			"beta": 0,
			"bottom": "_inversed_958,x.42",
			"debug_info": "input.135",
			"fused_relu": 0,
			"name": "input.135",
			"operation": 1,
			"top": "input.135",
			"type": "elementwise",
			"weights": {}
		},
		{
			"C": 1440,
			"K": 1440,
			"Nx": 3,
			"Ny": 3,
			"blob_biases": 413,
			"bottom": "input.135",
			"debug_info": "input.136",
			"fused_relu": 0,
			"fused_tanh": 0,
			"has_batch_norm": 0,
			"has_biases": 1,
			"n_groups": 1440,
			"n_parallel": 1,
			"name": "input.136",
			"pad_b": 1,
			"pad_fill_mode": 0,
			"pad_l": 1,
			"pad_mode": 0,
			"pad_r": 1,
			"pad_t": 1,
			"pad_value": 0,
			"top": "x.43",
			"type": "convolution",
			"weights": {
				"W_U8": 415,
				"per_ch_qbias": 417,
				"per_ch_qscale": 419
			}
		},
		{
			"average_count_exclude_padding": 0,
			"avg_or_max": 0,
			"bottom": "x.43",
			"debug_info": "x.44",
			"name": "x.44",
			"pad_b": 0,
			"pad_fill_mode": 0,
			"pad_l": 0,
			"pad_mode": 2,
			"pad_r": 0,
			"pad_t": 0,
			"pad_value": 0,
			"size_x": 2,
			"size_y": 2,
			"stride_x": 2,
			"stride_y": 2,
			"top": "x.44",
			"top_shape_style": 0,
			"type": "pool",
			"weights": {}
		},
		{
			"average_count_exclude_padding": 1,
			"avg_or_max": 0,
			"bottom": "x.44",
			"debug_info": "971",
			"is_global": 1,
			"name": "971",
			"pad_b": 0,
			"pad_fill_mode": 0,
			"pad_l": 0,
			"pad_mode": 2,
			"pad_r": 0,
			"pad_t": 0,
			"pad_value": 0,
			"size_x": 6,
			"size_y": 6,
			"stride_x": 1,
			"stride_y": 1,
			"top": "971",
			"top_shape_style": 0,
			"type": "pool",
			"weights": {}
		},
		{
			"C": 360,
			"K": 1440,
			"Nx": 1,
			"Ny": 1,
			"bottom": "971",
			"debug_info": "input.138",
			"fused_relu": 1,
			"fused_tanh": 0,
			"has_batch_norm": 0,
			"has_biases": 0,
			"n_groups": 1,
			"n_parallel": 1,
			"name": "input.138",
			"pad_b": 0,
			"pad_fill_mode": 0,
			"pad_l": 0,
			"pad_mode": 0,
			"pad_r": 0,
			"pad_t": 0,
			"pad_value": 0,
			"top": "input.139",
			"type": "convolution",
			"weights": {
				"W_U8": 421,
				"per_ch_qbias": 423,
				"per_ch_qscale": 425
			}
		},
		{
			"C": 1440,
			"K": 360,
			"Nx": 1,
			"Ny": 1,
			"blob_biases": 427,
			"bottom": "input.139",
			"debug_info": "input.140",
			"fused_relu": 0,
			"fused_tanh": 0,
			"has_batch_norm": 0,
			"has_biases": 1,
			"n_groups": 1,
			"n_parallel": 1,
			"name": "input.140",
			"pad_b": 0,
			"pad_fill_mode": 0,
			"pad_l": 0,
			"pad_mode": 0,
			"pad_r": 0,
			"pad_t": 0,
			"pad_value": 0,
			"top": "input.140",
			"type": "convolution",
			"weights": {
				"W_U8": 429,
				"per_ch_qbias": 431,
				"per_ch_qscale": 433
			}
		},
		{
			"alpha": 0,
			"beta": 6,
			"bottom": "input.140",
			"debug_info": "987",
			"fused_relu": 0,
			"name": "987",
			"operation": 119,
			"top": "987",
			"type": "elementwise",
			"weights": {}
		},
		{
			"alpha": 0.1666666716337204,
			"beta": 0,
			"bottom": "987",
			"debug_info": "_inversed_989",
			"fused_relu": 0,
			"name": "_inversed_989",
			"operation": 1,
			"top": "_inversed_989",
			"type": "elementwise",
			"weights": {}
		},
		{
			"alpha": 1,
			"beta": 0,
			"bottom": "x.43,_inversed_989",
			"debug_info": "x.46",
			"fused_relu": 0,
			"name": "x.46",
			"operation": 1,
			"top": "x.46",
			"type": "elementwise",
			"weights": {}
		},
		{
			"alpha": 3,
			"beta": 0,
			"bottom": "x.46",
			"debug_info": "input.141",
			"fused_relu": 0,
			"name": "input.141",
			"operation": 0,
			"top": "input.141",
			"type": "elementwise",
			"weights": {}
		},
		{
			"alpha": 0,
			"beta": 6,
			"bottom": "input.141",
			"debug_info": "993",
			"fused_relu": 0,
			"name": "993",
			"operation": 119,
			"top": "993",
			"type": "elementwise",
			"weights": {}
		},
		{
			"alpha": 0.1666666716337204,
			"beta": 0,
			"bottom": "993",
			"debug_info": "_inversed_995",
			"fused_relu": 0,
			"name": "_inversed_995",
			"operation": 1,
			"top": "_inversed_995",
			"type": "elementwise",
			"weights": {}
		},
		{
			"alpha": 1,
			"beta": 0,
			"bottom": "_inversed_995,x.46",
			"debug_info": "input.142",
			"fused_relu": 0,
			"name": "input.142",
			"operation": 1,
			"top": "input.142",
			"type": "elementwise",
			"weights": {}
		},
		{
			"C": 240,
			"K": 1440,
			"Nx": 1,
			"Ny": 1,
			"blob_biases": 435,
			"bottom": "input.142",
			"debug_info": "input.143",
			"fused_relu": 0,
			"fused_tanh": 0,
			"has_batch_norm": 0,
			"has_biases": 1,
			"n_groups": 1,
			"n_parallel": 1,
			"name": "input.143",
			"pad_b": 0,
			"pad_fill_mode": 0,
			"pad_l": 0,
			"pad_mode": 0,
			"pad_r": 0,
			"pad_t": 0,
			"pad_value": 0,
			"top": "output.9",
			"type": "convolution",
			"weights": {
				"W_U8": 437,
				"per_ch_qbias": 439,
				"per_ch_qscale": 441
			}
		},
		{
			"alpha": 1,
			"beta": 0,
			"bottom": "output.9,input.132",
			"debug_info": "input.144",
			"fused_relu": 0,
			"name": "input.144",
			"operation": 0,
			"top": "input.144",
			"type": "elementwise",
			"weights": {}
		},
		{
			"C": 1440,
			"K": 240,
			"Nx": 1,
			"Ny": 1,
			"blob_biases": 443,
			"bottom": "input.144",
			"debug_info": "input.145",
			"fused_relu": 0,
			"fused_tanh": 0,
			"has_batch_norm": 0,
			"has_biases": 1,
			"n_groups": 1,
			"n_parallel": 1,
			"name": "input.145",
			"pad_b": 0,
			"pad_fill_mode": 0,
			"pad_l": 0,
			"pad_mode": 0,
			"pad_r": 0,
			"pad_t": 0,
			"pad_value": 0,
			"top": "x.47",
			"type": "convolution",
			"weights": {
				"W_U8": 445,
				"per_ch_qbias": 447,
				"per_ch_qscale": 449
			}
		},
		{
			"alpha": 3,
			"beta": 0,
			"bottom": "x.47",
			"debug_info": "input.146",
			"fused_relu": 0,
			"name": "input.146",
			"operation": 0,
			"top": "input.146",
			"type": "elementwise",
			"weights": {}
		},
		{
			"alpha": 0,
			"beta": 6,
			"bottom": "input.146",
			"debug_info": "1024",
			"fused_relu": 0,
			"name": "1024",
			"operation": 119,
			"top": "1024",
			"type": "elementwise",
			"weights": {}
		},
		{
			"alpha": 0.1666666716337204,
			"beta": 0,
			"bottom": "1024",
			"debug_info": "_inversed_1026",
			"fused_relu": 0,
			"name": "_inversed_1026",
			"operation": 1,
			"top": "_inversed_1026",
			"type": "elementwise",
			"weights": {}
		},
		{
			"alpha": 1,
			"beta": 0,
			"bottom": "_inversed_1026,x.47",
			"debug_info": "input.147",
			"fused_relu": 0,
			"name": "input.147",
			"operation": 1,
			"top": "input.147",
			"type": "elementwise",
			"weights": {}
		},
		{
			"C": 1440,
			"K": 1440,
			"Nx": 3,
			"Ny": 3,
			"blob_biases": 451,
			"bottom": "input.147",
			"debug_info": "input.148",
			"fused_relu": 0,
			"fused_tanh": 0,
			"has_batch_norm": 0,
			"has_biases": 1,
			"n_groups": 1440,
			"n_parallel": 1,
			"name": "input.148",
			"pad_b": 1,
			"pad_fill_mode": 0,
			"pad_l": 1,
			"pad_mode": 0,
			"pad_r": 1,
			"pad_t": 1,
			"pad_value": 0,
			"top": "x.48",
			"type": "convolution",
			"weights": {
				"W_U8": 453,
				"per_ch_qbias": 455,
				"per_ch_qscale": 457
			}
		},
		{
			"average_count_exclude_padding": 0,
			"avg_or_max": 0,
			"bottom": "x.48",
			"debug_info": "x.49",
			"name": "x.49",
			"pad_b": 0,
			"pad_fill_mode": 0,
			"pad_l": 0,
			"pad_mode": 2,
			"pad_r": 0,
			"pad_t": 0,
			"pad_value": 0,
			"size_x": 2,
			"size_y": 2,
			"stride_x": 2,
			"stride_y": 2,
			"top": "x.49",
			"top_shape_style": 0,
			"type": "pool",
			"weights": {}
		},
		{
			"average_count_exclude_padding": 1,
			"avg_or_max": 0,
			"bottom": "x.49",
			"debug_info": "1039",
			"is_global": 1,
			"name": "1039",
			"pad_b": 0,
			"pad_fill_mode": 0,
			"pad_l": 0,
			"pad_mode": 2,
			"pad_r": 0,
			"pad_t": 0,
			"pad_value": 0,
			"size_x": 6,
			"size_y": 6,
			"stride_x": 1,
			"stride_y": 1,
			"top": "1039",
			"top_shape_style": 0,
			"type": "pool",
			"weights": {}
		},
		{
			"C": 360,
			"K": 1440,
			"Nx": 1,
			"Ny": 1,
			"bottom": "1039",
			"debug_info": "input.150",
			"fused_relu": 1,
			"fused_tanh": 0,
			"has_batch_norm": 0,
			"has_biases": 0,
			"n_groups": 1,
			"n_parallel": 1,
			"name": "input.150",
			"pad_b": 0,
			"pad_fill_mode": 0,
			"pad_l": 0,
			"pad_mode": 0,
			"pad_r": 0,
			"pad_t": 0,
			"pad_value": 0,
			"top": "input.151",
			"type": "convolution",
			"weights": {
				"W_U8": 459,
				"per_ch_qbias": 461,
				"per_ch_qscale": 463
			}
		},
		{
			"C": 1440,
			"K": 360,
			"Nx": 1,
			"Ny": 1,
			"blob_biases": 465,
			"bottom": "input.151",
			"debug_info": "input.152",
			"fused_relu": 0,
			"fused_tanh": 0,
			"has_batch_norm": 0,
			"has_biases": 1,
			"n_groups": 1,
			"n_parallel": 1,
			"name": "input.152",
			"pad_b": 0,
			"pad_fill_mode": 0,
			"pad_l": 0,
			"pad_mode": 0,
			"pad_r": 0,
			"pad_t": 0,
			"pad_value": 0,
			"top": "input.152",
			"type": "convolution",
			"weights": {
				"W_U8": 467,
				"per_ch_qbias": 469,
				"per_ch_qscale": 471
			}
		},
		{
			"alpha": 0,
			"beta": 6,
			"bottom": "input.152",
			"debug_info": "1055",
			"fused_relu": 0,
			"name": "1055",
			"operation": 119,
			"top": "1055",
			"type": "elementwise",
			"weights": {}
		},
		{
			"alpha": 0.1666666716337204,
			"beta": 0,
			"bottom": "1055",
			"debug_info": "_inversed_1057",
			"fused_relu": 0,
			"name": "_inversed_1057",
			"operation": 1,
			"top": "_inversed_1057",
			"type": "elementwise",
			"weights": {}
		},
		{
			"alpha": 1,
			"beta": 0,
			"bottom": "x.48,_inversed_1057",
			"debug_info": "x.51",
			"fused_relu": 0,
			"name": "x.51",
			"operation": 1,
			"top": "x.51",
			"type": "elementwise",
			"weights": {}
		},
		{
			"alpha": 3,
			"beta": 0,
			"bottom": "x.51",
			"debug_info": "input.153",
			"fused_relu": 0,
			"name": "input.153",
			"operation": 0,
			"top": "input.153",
			"type": "elementwise",
			"weights": {}
		},
		{
			"alpha": 0,
			"beta": 6,
			"bottom": "input.153",
			"debug_info": "1061",
			"fused_relu": 0,
			"name": "1061",
			"operation": 119,
			"top": "1061",
			"type": "elementwise",
			"weights": {}
		},
		{
			"alpha": 0.1666666716337204,
			"beta": 0,
			"bottom": "1061",
			"debug_info": "_inversed_1063",
			"fused_relu": 0,
			"name": "_inversed_1063",
			"operation": 1,
			"top": "_inversed_1063",
			"type": "elementwise",
			"weights": {}
		},
		{
			"alpha": 1,
			"beta": 0,
			"bottom": "_inversed_1063,x.51",
			"debug_info": "input.154",
			"fused_relu": 0,
			"name": "input.154",
			"operation": 1,
			"top": "input.154",
			"type": "elementwise",
			"weights": {}
		},
		{
			"C": 240,
			"K": 1440,
			"Nx": 1,
			"Ny": 1,
			"blob_biases": 473,
			"bottom": "input.154",
			"debug_info": "input.155",
			"fused_relu": 0,
			"fused_tanh": 0,
			"has_batch_norm": 0,
			"has_biases": 1,
			"n_groups": 1,
			"n_parallel": 1,
			"name": "input.155",
			"pad_b": 0,
			"pad_fill_mode": 0,
			"pad_l": 0,
			"pad_mode": 0,
			"pad_r": 0,
			"pad_t": 0,
			"pad_value": 0,
			"top": "output",
			"type": "convolution",
			"weights": {
				"W_U8": 475,
				"per_ch_qbias": 477,
				"per_ch_qscale": 479
			}
		},
		{
			"alpha": 1,
			"beta": 0,
			"bottom": "output,input.144",
			"debug_info": "input.156",
			"fused_relu": 0,
			"name": "input.156",
			"operation": 0,
			"top": "input.156",
			"type": "elementwise",
			"weights": {}
		},
		{
			"C": 1440,
			"K": 240,
			"Nx": 1,
			"Ny": 1,
			"blob_biases": 481,
			"bottom": "input.156",
			"debug_info": "input.157",
			"fused_relu": 0,
			"fused_tanh": 0,
			"has_batch_norm": 0,
			"has_biases": 1,
			"n_groups": 1,
			"n_parallel": 1,
			"name": "input.157",
			"pad_b": 0,
			"pad_fill_mode": 0,
			"pad_l": 0,
			"pad_mode": 0,
			"pad_r": 0,
			"pad_t": 0,
			"pad_value": 0,
			"top": "x.52",
			"type": "convolution",
			"weights": {
				"W_U8": 483,
				"per_ch_qbias": 485,
				"per_ch_qscale": 487
			}
		},
		{
			"alpha": 3,
			"beta": 0,
			"bottom": "x.52",
			"debug_info": "input.158",
			"fused_relu": 0,
			"name": "input.158",
			"operation": 0,
			"top": "input.158",
			"type": "elementwise",
			"weights": {}
		},
		{
			"alpha": 0,
			"beta": 6,
			"bottom": "input.158",
			"debug_info": "1092",
			"fused_relu": 0,
			"name": "1092",
			"operation": 119,
			"top": "1092",
			"type": "elementwise",
			"weights": {}
		},
		{
			"alpha": 0.1666666716337204,
			"beta": 0,
			"bottom": "1092",
			"debug_info": "_inversed_1094",
			"fused_relu": 0,
			"name": "_inversed_1094",
			"operation": 1,
			"top": "_inversed_1094",
			"type": "elementwise",
			"weights": {}
		},
		{
			"alpha": 1,
			"beta": 0,
			"bottom": "_inversed_1094,x.52",
			"debug_info": "x.53",
			"fused_relu": 0,
			"name": "x.53",
			"operation": 1,
			"top": "x.53",
			"type": "elementwise",
			"weights": {}
		},
		{
			"average_count_exclude_padding": 0,
			"avg_or_max": 0,
			"bottom": "x.53",
			"debug_info": "x.54",
			"name": "x.54",
			"pad_b": 0,
			"pad_fill_mode": 0,
			"pad_l": 0,
			"pad_mode": 2,
			"pad_r": 0,
			"pad_t": 0,
			"pad_value": 0,
			"size_x": 2,
			"size_y": 2,
			"stride_x": 2,
			"stride_y": 2,
			"top": "x.54",
			"top_shape_style": 0,
			"type": "pool",
			"weights": {}
		},
		{
			"average_count_exclude_padding": 1,
			"avg_or_max": 0,
			"bottom": "x.54",
			"debug_info": "1101",
			"is_global": 1,
			"name": "1101",
			"pad_b": 0,
			"pad_fill_mode": 0,
			"pad_l": 0,
			"pad_mode": 2,
			"pad_r": 0,
			"pad_t": 0,
			"pad_value": 0,
			"size_x": 6,
			"size_y": 6,
			"stride_x": 1,
			"stride_y": 1,
			"top": "1101",
			"top_shape_style": 0,
			"type": "pool",
			"weights": {}
		},
		{
			"C": 1280,
			"K": 1440,
			"Nx": 1,
			"Ny": 1,
			"blob_biases": 489,
			"bottom": "1101",
			"debug_info": "x.55",
			"fused_relu": 0,
			"fused_tanh": 0,
			"has_batch_norm": 0,
			"has_biases": 1,
			"n_groups": 1,
			"n_parallel": 1,
			"name": "x.55",
			"pad_b": 0,
			"pad_fill_mode": 0,
			"pad_l": 0,
			"pad_mode": 0,
			"pad_r": 0,
			"pad_t": 0,
			"pad_value": 0,
			"top": "x.55",
			"type": "convolution",
			"weights": {
				"W_U8": 491,
				"per_ch_qbias": 493,
				"per_ch_qscale": 495
			}
		},
		{
			"alpha": 3,
			"beta": 0,
			"bottom": "x.55",
			"debug_info": "input.160",
			"fused_relu": 0,
			"name": "input.160",
			"operation": 0,
			"top": "input.160",
			"type": "elementwise",
			"weights": {}
		},
		{
			"alpha": 0,
			"beta": 6,
			"bottom": "input.160",
			"debug_info": "1111",
			"fused_relu": 0,
			"name": "1111",
			"operation": 119,
			"top": "1111",
			"type": "elementwise",
			"weights": {}
		},
		{
			"alpha": 0.1666666716337204,
			"beta": 0,
			"bottom": "1111",
			"debug_info": "_inversed_1113",
			"fused_relu": 0,
			"name": "_inversed_1113",
			"operation": 1,
			"top": "_inversed_1113",
			"type": "elementwise",
			"weights": {}
		},
		{
			"alpha": 1,
			"beta": 0,
			"bottom": "_inversed_1113,x.55",
			"debug_info": "input",
			"fused_relu": 0,
			"name": "input",
			"operation": 1,
			"top": "input",
			"type": "elementwise",
			"weights": {}
		},
		{
			"C": 128,
			"K": 1280,
			"Nx": 1,
			"Ny": 1,
			"blob_biases": 497,
			"bottom": "input",
			"debug_info": "x.56",
			"fused_relu": 0,
			"fused_tanh": 0,
			"has_batch_norm": 0,
			"has_biases": 1,
			"n_groups": 1,
			"n_parallel": 1,
			"name": "x.56",
			"pad_b": 0,
			"pad_fill_mode": 0,
			"pad_l": 0,
			"pad_mode": 0,
			"pad_r": 0,
			"pad_t": 0,
			"pad_value": 0,
			"top": "x.56",
			"type": "convolution",
			"weights": {
				"W_U8": 499,
				"per_ch_qbias": 501,
				"per_ch_qscale": 503
			}
		},
		{
			"axes_0": 2,
			"bottom": "x.56",
			"debug_info": "1122_squeeze",
			"name": "1122_squeeze",
			"nd_axis": 0,
			"size_of_axes": 1,
			"top": "1122_squeeze",
			"type": "squeeze",
			"version": 1,
			"weights": {}
		},
		{
			"axes_0": 2,
			"bottom": "1122_squeeze",
			"debug_info": "x_squeeze",
			"name": "x_squeeze",
			"nd_axis": 0,
			"size_of_axes": 1,
			"top": "x_squeeze",
			"type": "squeeze",
			"version": 1,
			"weights": {}
		},
		{
			"alpha": 1,
			"beta": 0,
			"bottom": "x_squeeze,x_squeeze",
			"debug_info": "1129",
			"fused_relu": 0,
			"name": "1129",
			"operation": 1,
			"top": "1129",
			"type": "elementwise",
			"weights": {}
		},
		{
			"axis_mode": 1,
			"bottom": "1129",
			"debug_info": "1131",
			"mode": 0,
			"name": "1131",
			"nd_axis": 1,
			"nd_mode": true,
			"top": "1131_presqueeze",
			"type": "reduce",
			"use_version": 1,
			"weights": {}
		},
		{
			"axes_0": 1,
			"bottom": "1131_presqueeze",
			"debug_info": "1131",
			"name": "1131",
			"nd_axis": 0,
			"size_of_axes": 1,
			"top": "1131",
			"type": "squeeze",
			"version": 1,
			"weights": {}
		},
		{
			"alpha": 1,
			"beta": 0,
			"bottom": "1131",
			"debug_info": "1132",
			"fused_relu": 0,
			"name": "1132",
			"operation": 11,
			"top": "1132",
			"type": "elementwise",
			"weights": {}
		},
		{
			"axes_0": 1,
			"bottom": "1132",
			"debug_info": "1134",
			"name": "1134",
			"nd_axis": 0,
			"size_of_axes": 1,
			"top": "1134",
			"type": "expand_dims",
			"weights": {}
		},
		{
			"alpha": 1,
			"attributes": {
				"is_output": 1
			},
			"beta": 0,
			"bottom": "x_squeeze,1134",
			"debug_info": "1135",
			"fused_relu": 0,
			"name": "1135",
			"nd_mode": true,
			"operation": 102,
			"top": "1135",
			"type": "elementwise",
			"weights": {}
		}
	],
	"properties": {
		"espresso.ane.transform_bcast": "1"
	},
	"storage": "model.espresso.weights",
	"transform_params": {
		"input_image": {
			"bias_a": 0,
			"bias_b": -1,
			"bias_g": -1,
			"bias_r": -1,
			"center_mean": 0,
			"is_network_bgr": 0,
			"scale": 0.007843137718737125
		}
	}
}