{
	"analyses": {},
	"format_version": 200,
	"layers": [
		{
			"C": 3,
			"K": 3,
			"Nx": 1,
			"Ny": 1,
			"blob_biases": 1,
			"blob_weights_f16": 3,
			"bottom": "image",
			"debug_info": "Conv_2",
			"fused_relu": 0,
			"fused_tanh": 0,
			"has_batch_norm": 0,
			"has_biases": 1,
			"n_groups": 3,
			"n_parallel": 1,
			"name": "Conv_2",
			"pad_b": 0,
			"pad_fill_mode": 0,
			"pad_l": 0,
			"pad_mode": 0,
			"pad_r": 0,
			"pad_t": 0,
			"pad_value": 0,
			"top": "536",
			"type": "convolution",
			"weights": {}
		},
		{
			"C": 32,
			"K": 3,
			"Nx": 3,
			"Ny": 3,
			"blob_biases": 5,
			"blob_weights_f16": 7,
			"bottom": "536",
			"debug_info": "Conv_4",
			"fused_relu": 0,
			"fused_tanh": 0,
			"has_batch_norm": 0,
			"has_biases": 1,
			"n_groups": 1,
			"n_parallel": 1,
			"name": "Conv_4",
			"pad_b": 1,
			"pad_fill_mode": 0,
			"pad_l": 0,
			"pad_mode": 0,
			"pad_r": 1,
			"pad_t": 0,
			"pad_value": 0,
			"stride_x": 2,
			"stride_y": 2,
			"top": "1353",
			"type": "convolution",
			"weights": {}
		},
		{
			"alpha": 0,
			"beta": 6,
			"bottom": "1353",
			"debug_info": "Clip_5",
			"fused_relu": 0,
			"name": "Clip_5",
			"operation": 119,
			"top": "540",
			"type": "elementwise",
			"weights": {}
		},
		{
			"C": 32,
			"K": 32,
			"Nx": 3,
			"Ny": 3,
			"blob_biases": 9,
			"blob_weights_f16": 11,
			"bottom": "540",
			"debug_info": "Conv_6",
			"fused_relu": 0,
			"fused_tanh": 0,
			"has_batch_norm": 0,
			"has_biases": 1,
			"n_groups": 32,
			"n_parallel": 1,
			"name": "Conv_6",
			"pad_b": 1,
			"pad_fill_mode": 0,
			"pad_l": 1,
			"pad_mode": 0,
			"pad_r": 1,
			"pad_t": 1,
			"pad_value": 0,
			"top": "1356",
			"type": "convolution",
			"weights": {}
		},
		{
			"alpha": 0,
			"beta": 6,
			"bottom": "1356",
			"debug_info": "Clip_7",
			"fused_relu": 0,
			"name": "Clip_7",
			"operation": 119,
			"top": "543",
			"type": "elementwise",
			"weights": {}
		},
		{
			"C": 16,
			"K": 32,
			"Nx": 1,
			"Ny": 1,
			"blob_biases": 13,
			"blob_weights_f16": 15,
			"bottom": "543",
			"debug_info": "Conv_8",
			"fused_relu": 0,
			"fused_tanh": 0,
			"has_batch_norm": 0,
			"has_biases": 1,
			"n_groups": 1,
			"n_parallel": 1,
			"name": "Conv_8",
			"pad_b": 0,
			"pad_fill_mode": 0,
			"pad_l": 0,
			"pad_mode": 0,
			"pad_r": 0,
			"pad_t": 0,
			"pad_value": 0,
			"top": "1359",
			"type": "convolution",
			"weights": {}
		},
		{
			"C": 96,
			"K": 16,
			"Nx": 1,
			"Ny": 1,
			"blob_biases": 17,
			"blob_weights_f16": 19,
			"bottom": "1359",
			"debug_info": "Conv_9",
			"fused_relu": 0,
			"fused_tanh": 0,
			"has_batch_norm": 0,
			"has_biases": 1,
			"n_groups": 1,
			"n_parallel": 1,
			"name": "Conv_9",
			"pad_b": 0,
			"pad_fill_mode": 0,
			"pad_l": 0,
			"pad_mode": 0,
			"pad_r": 0,
			"pad_t": 0,
			"pad_value": 0,
			"top": "1362",
			"type": "convolution",
			"weights": {}
		},
		{
			"alpha": 0,
			"beta": 6,
			"bottom": "1362",
			"debug_info": "Clip_10",
			"fused_relu": 0,
			"name": "Clip_10",
			"operation": 119,
			"top": "548",
			"type": "elementwise",
			"weights": {}
		},
		{
			"C": 96,
			"K": 96,
			"Nx": 3,
			"Ny": 3,
			"blob_biases": 21,
			"blob_weights_f16": 23,
			"bottom": "548",
			"debug_info": "Conv_12",
			"fused_relu": 0,
			"fused_tanh": 0,
			"has_batch_norm": 0,
			"has_biases": 1,
			"n_groups": 96,
			"n_parallel": 1,
			"name": "Conv_12",
			"pad_b": 1,
			"pad_fill_mode": 0,
			"pad_l": 0,
			"pad_mode": 0,
			"pad_r": 1,
			"pad_t": 0,
			"pad_value": 0,
			"stride_x": 2,
			"stride_y": 2,
			"top": "1365",
			"type": "convolution",
			"weights": {}
		},
		{
			"alpha": 0,
			"beta": 6,
			"bottom": "1365",
			"debug_info": "Clip_13",
			"fused_relu": 0,
			"name": "Clip_13",
			"operation": 119,
			"top": "552",
			"type": "elementwise",
			"weights": {}
		},
		{
			"C": 24,
			"K": 96,
			"Nx": 1,
			"Ny": 1,
			"blob_biases": 25,
			"blob_weights_f16": 27,
			"bottom": "552",
			"debug_info": "Conv_14",
			"fused_relu": 0,
			"fused_tanh": 0,
			"has_batch_norm": 0,
			"has_biases": 1,
			"n_groups": 1,
			"n_parallel": 1,
			"name": "Conv_14",
			"pad_b": 0,
			"pad_fill_mode": 0,
			"pad_l": 0,
			"pad_mode": 0,
			"pad_r": 0,
			"pad_t": 0,
			"pad_value": 0,
			"top": "1368",
			"type": "convolution",
			"weights": {}
		},
		{
			"C": 144,
			"K": 24,
			"Nx": 1,
			"Ny": 1,
			"blob_biases": 29,
			"blob_weights_f16": 31,
			"bottom": "1368",
			"debug_info": "Conv_15",
			"fused_relu": 0,
			"fused_tanh": 0,
			"has_batch_norm": 0,
			"has_biases": 1,
			"n_groups": 1,
			"n_parallel": 1,
			"name": "Conv_15",
			"pad_b": 0,
			"pad_fill_mode": 0,
			"pad_l": 0,
			"pad_mode": 0,
			"pad_r": 0,
			"pad_t": 0,
			"pad_value": 0,
			"top": "1371",
			"type": "convolution",
			"weights": {}
		},
		{
			"alpha": 0,
			"beta": 6,
			"bottom": "1371",
			"debug_info": "Clip_16",
			"fused_relu": 0,
			"name": "Clip_16",
			"operation": 119,
			"top": "557",
			"type": "elementwise",
			"weights": {}
		},
		{
			"C": 144,
			"K": 144,
			"Nx": 3,
			"Ny": 3,
			"blob_biases": 33,
			"blob_weights_f16": 35,
			"bottom": "557",
			"debug_info": "Conv_17",
			"fused_relu": 0,
			"fused_tanh": 0,
			"has_batch_norm": 0,
			"has_biases": 1,
			"n_groups": 144,
			"n_parallel": 1,
			"name": "Conv_17",
			"pad_b": 1,
			"pad_fill_mode": 0,
			"pad_l": 1,
			"pad_mode": 0,
			"pad_r": 1,
			"pad_t": 1,
			"pad_value": 0,
			"top": "1374",
			"type": "convolution",
			"weights": {}
		},
		{
			"alpha": 0,
			"beta": 6,
			"bottom": "1374",
			"debug_info": "Clip_18",
			"fused_relu": 0,
			"name": "Clip_18",
			"operation": 119,
			"top": "560",
			"type": "elementwise",
			"weights": {}
		},
		{
			"C": 24,
			"K": 144,
			"Nx": 1,
			"Ny": 1,
			"blob_biases": 37,
			"blob_weights_f16": 39,
			"bottom": "560",
			"debug_info": "Conv_19",
			"fused_relu": 0,
			"fused_tanh": 0,
			"has_batch_norm": 0,
			"has_biases": 1,
			"n_groups": 1,
			"n_parallel": 1,
			"name": "Conv_19",
			"pad_b": 0,
			"pad_fill_mode": 0,
			"pad_l": 0,
			"pad_mode": 0,
			"pad_r": 0,
			"pad_t": 0,
			"pad_value": 0,
			"top": "1377",
			"type": "convolution",
			"weights": {}
		},
		{
			"alpha": 1,
			"beta": 0,
			"bottom": "1377,1368",
			"debug_info": "Add_20",
			"fused_relu": 0,
			"name": "Add_20",
			"nd_mode": true,
			"operation": 0,
			"top": "563",
			"type": "elementwise",
			"weights": {}
		},
		{
			"C": 144,
			"K": 24,
			"Nx": 1,
			"Ny": 1,
			"blob_biases": 41,
			"blob_weights_f16": 43,
			"bottom": "563",
			"debug_info": "Conv_21",
			"fused_relu": 0,
			"fused_tanh": 0,
			"has_batch_norm": 0,
			"has_biases": 1,
			"n_groups": 1,
			"n_parallel": 1,
			"name": "Conv_21",
			"pad_b": 0,
			"pad_fill_mode": 0,
			"pad_l": 0,
			"pad_mode": 0,
			"pad_r": 0,
			"pad_t": 0,
			"pad_value": 0,
			"top": "1380",
			"type": "convolution",
			"weights": {}
		},
		{
			"alpha": 0,
			"beta": 6,
			"bottom": "1380",
			"debug_info": "Clip_22",
			"fused_relu": 0,
			"name": "Clip_22",
			"operation": 119,
			"top": "566",
			"type": "elementwise",
			"weights": {}
		},
		{
			"C": 144,
			"K": 144,
			"Nx": 5,
			"Ny": 5,
			"blob_biases": 45,
			"blob_weights_f16": 47,
			"bottom": "566",
			"debug_info": "Conv_24",
			"fused_relu": 0,
			"fused_tanh": 0,
			"has_batch_norm": 0,
			"has_biases": 1,
			"n_groups": 144,
			"n_parallel": 1,
			"name": "Conv_24",
			"pad_b": 2,
			"pad_fill_mode": 0,
			"pad_l": 1,
			"pad_mode": 0,
			"pad_r": 2,
			"pad_t": 1,
			"pad_value": 0,
			"stride_x": 2,
			"stride_y": 2,
			"top": "1383",
			"type": "convolution",
			"weights": {}
		},
		{
			"alpha": 0,
			"beta": 6,
			"bottom": "1383",
			"debug_info": "Clip_25",
			"fused_relu": 0,
			"name": "Clip_25",
			"operation": 119,
			"top": "570",
			"type": "elementwise",
			"weights": {}
		},
		{
			"C": 40,
			"K": 144,
			"Nx": 1,
			"Ny": 1,
			"blob_biases": 49,
			"blob_weights_f16": 51,
			"bottom": "570",
			"debug_info": "Conv_26",
			"fused_relu": 0,
			"fused_tanh": 0,
			"has_batch_norm": 0,
			"has_biases": 1,
			"n_groups": 1,
			"n_parallel": 1,
			"name": "Conv_26",
			"pad_b": 0,
			"pad_fill_mode": 0,
			"pad_l": 0,
			"pad_mode": 0,
			"pad_r": 0,
			"pad_t": 0,
			"pad_value": 0,
			"top": "1386",
			"type": "convolution",
			"weights": {}
		},
		{
			"C": 240,
			"K": 40,
			"Nx": 1,
			"Ny": 1,
			"blob_biases": 53,
			"blob_weights_f16": 55,
			"bottom": "1386",
			"debug_info": "Conv_27",
			"fused_relu": 0,
			"fused_tanh": 0,
			"has_batch_norm": 0,
			"has_biases": 1,
			"n_groups": 1,
			"n_parallel": 1,
			"name": "Conv_27",
			"pad_b": 0,
			"pad_fill_mode": 0,
			"pad_l": 0,
			"pad_mode": 0,
			"pad_r": 0,
			"pad_t": 0,
			"pad_value": 0,
			"top": "1389",
			"type": "convolution",
			"weights": {}
		},
		{
			"alpha": 0,
			"beta": 6,
			"bottom": "1389",
			"debug_info": "Clip_28",
			"fused_relu": 0,
			"name": "Clip_28",
			"operation": 119,
			"top": "575",
			"type": "elementwise",
			"weights": {}
		},
		{
			"C": 240,
			"K": 240,
			"Nx": 5,
			"Ny": 5,
			"blob_biases": 57,
			"blob_weights_f16": 59,
			"bottom": "575",
			"debug_info": "Conv_29",
			"fused_relu": 0,
			"fused_tanh": 0,
			"has_batch_norm": 0,
			"has_biases": 1,
			"n_groups": 240,
			"n_parallel": 1,
			"name": "Conv_29",
			"pad_b": 2,
			"pad_fill_mode": 0,
			"pad_l": 2,
			"pad_mode": 0,
			"pad_r": 2,
			"pad_t": 2,
			"pad_value": 0,
			"top": "1392",
			"type": "convolution",
			"weights": {}
		},
		{
			"alpha": 0,
			"beta": 6,
			"bottom": "1392",
			"debug_info": "Clip_30",
			"fused_relu": 0,
			"name": "Clip_30",
			"operation": 119,
			"top": "578",
			"type": "elementwise",
			"weights": {}
		},
		{
			"C": 40,
			"K": 240,
			"Nx": 1,
			"Ny": 1,
			"blob_biases": 61,
			"blob_weights_f16": 63,
			"bottom": "578",
			"debug_info": "Conv_31",
			"fused_relu": 0,
			"fused_tanh": 0,
			"has_batch_norm": 0,
			"has_biases": 1,
			"n_groups": 1,
			"n_parallel": 1,
			"name": "Conv_31",
			"pad_b": 0,
			"pad_fill_mode": 0,
			"pad_l": 0,
			"pad_mode": 0,
			"pad_r": 0,
			"pad_t": 0,
			"pad_value": 0,
			"top": "1395",
			"type": "convolution",
			"weights": {}
		},
		{
			"alpha": 1,
			"beta": 0,
			"bottom": "1395,1386",
			"debug_info": "Add_32",
			"fused_relu": 0,
			"name": "Add_32",
			"nd_mode": true,
			"operation": 0,
			"top": "581",
			"type": "elementwise",
			"weights": {}
		},
		{
			"C": 240,
			"K": 40,
			"Nx": 1,
			"Ny": 1,
			"blob_biases": 65,
			"blob_weights_f16": 67,
			"bottom": "581",
			"debug_info": "Conv_33",
			"fused_relu": 0,
			"fused_tanh": 0,
			"has_batch_norm": 0,
			"has_biases": 1,
			"n_groups": 1,
			"n_parallel": 1,
			"name": "Conv_33",
			"pad_b": 0,
			"pad_fill_mode": 0,
			"pad_l": 0,
			"pad_mode": 0,
			"pad_r": 0,
			"pad_t": 0,
			"pad_value": 0,
			"top": "1398",
			"type": "convolution",
			"weights": {}
		},
		{
			"alpha": 0,
			"beta": 6,
			"bottom": "1398",
			"debug_info": "Clip_34",
			"fused_relu": 0,
			"name": "Clip_34",
			"operation": 119,
			"top": "584",
			"type": "elementwise",
			"weights": {}
		},
		{
			"C": 240,
			"K": 240,
			"Nx": 3,
			"Ny": 3,
			"blob_biases": 69,
			"blob_weights_f16": 71,
			"bottom": "584",
			"debug_info": "Conv_36",
			"fused_relu": 0,
			"fused_tanh": 0,
			"has_batch_norm": 0,
			"has_biases": 1,
			"n_groups": 240,
			"n_parallel": 1,
			"name": "Conv_36",
			"pad_b": 1,
			"pad_fill_mode": 0,
			"pad_l": 0,
			"pad_mode": 0,
			"pad_r": 1,
			"pad_t": 0,
			"pad_value": 0,
			"stride_x": 2,
			"stride_y": 2,
			"top": "1401",
			"type": "convolution",
			"weights": {}
		},
		{
			"alpha": 0,
			"beta": 6,
			"bottom": "1401",
			"debug_info": "Clip_37",
			"fused_relu": 0,
			"name": "Clip_37",
			"operation": 119,
			"top": "588",
			"type": "elementwise",
			"weights": {}
		},
		{
			"C": 80,
			"K": 240,
			"Nx": 1,
			"Ny": 1,
			"blob_biases": 73,
			"blob_weights_f16": 75,
			"bottom": "588",
			"debug_info": "Conv_38",
			"fused_relu": 0,
			"fused_tanh": 0,
			"has_batch_norm": 0,
			"has_biases": 1,
			"n_groups": 1,
			"n_parallel": 1,
			"name": "Conv_38",
			"pad_b": 0,
			"pad_fill_mode": 0,
			"pad_l": 0,
			"pad_mode": 0,
			"pad_r": 0,
			"pad_t": 0,
			"pad_value": 0,
			"top": "1404",
			"type": "convolution",
			"weights": {}
		},
		{
			"C": 480,
			"K": 80,
			"Nx": 1,
			"Ny": 1,
			"blob_biases": 77,
			"blob_weights_f16": 79,
			"bottom": "1404",
			"debug_info": "Conv_39",
			"fused_relu": 0,
			"fused_tanh": 0,
			"has_batch_norm": 0,
			"has_biases": 1,
			"n_groups": 1,
			"n_parallel": 1,
			"name": "Conv_39",
			"pad_b": 0,
			"pad_fill_mode": 0,
			"pad_l": 0,
			"pad_mode": 0,
			"pad_r": 0,
			"pad_t": 0,
			"pad_value": 0,
			"top": "1407",
			"type": "convolution",
			"weights": {}
		},
		{
			"alpha": 0,
			"beta": 6,
			"bottom": "1407",
			"debug_info": "Clip_40",
			"fused_relu": 0,
			"name": "Clip_40",
			"operation": 119,
			"top": "593",
			"type": "elementwise",
			"weights": {}
		},
		{
			"C": 480,
			"K": 480,
			"Nx": 3,
			"Ny": 3,
			"blob_biases": 81,
			"blob_weights_f16": 83,
			"bottom": "593",
			"debug_info": "Conv_41",
			"fused_relu": 0,
			"fused_tanh": 0,
			"has_batch_norm": 0,
			"has_biases": 1,
			"n_groups": 480,
			"n_parallel": 1,
			"name": "Conv_41",
			"pad_b": 1,
			"pad_fill_mode": 0,
			"pad_l": 1,
			"pad_mode": 0,
			"pad_r": 1,
			"pad_t": 1,
			"pad_value": 0,
			"top": "1410",
			"type": "convolution",
			"weights": {}
		},
		{
			"alpha": 0,
			"beta": 6,
			"bottom": "1410",
			"debug_info": "Clip_42",
			"fused_relu": 0,
			"name": "Clip_42",
			"operation": 119,
			"top": "596",
			"type": "elementwise",
			"weights": {}
		},
		{
			"C": 80,
			"K": 480,
			"Nx": 1,
			"Ny": 1,
			"blob_biases": 85,
			"blob_weights_f16": 87,
			"bottom": "596",
			"debug_info": "Conv_43",
			"fused_relu": 0,
			"fused_tanh": 0,
			"has_batch_norm": 0,
			"has_biases": 1,
			"n_groups": 1,
			"n_parallel": 1,
			"name": "Conv_43",
			"pad_b": 0,
			"pad_fill_mode": 0,
			"pad_l": 0,
			"pad_mode": 0,
			"pad_r": 0,
			"pad_t": 0,
			"pad_value": 0,
			"top": "1413",
			"type": "convolution",
			"weights": {}
		},
		{
			"alpha": 1,
			"beta": 0,
			"bottom": "1413,1404",
			"debug_info": "Add_44",
			"fused_relu": 0,
			"name": "Add_44",
			"nd_mode": true,
			"operation": 0,
			"top": "599",
			"type": "elementwise",
			"weights": {}
		},
		{
			"C": 480,
			"K": 80,
			"Nx": 1,
			"Ny": 1,
			"blob_biases": 89,
			"blob_weights_f16": 91,
			"bottom": "599",
			"debug_info": "Conv_45",
			"fused_relu": 0,
			"fused_tanh": 0,
			"has_batch_norm": 0,
			"has_biases": 1,
			"n_groups": 1,
			"n_parallel": 1,
			"name": "Conv_45",
			"pad_b": 0,
			"pad_fill_mode": 0,
			"pad_l": 0,
			"pad_mode": 0,
			"pad_r": 0,
			"pad_t": 0,
			"pad_value": 0,
			"top": "1416",
			"type": "convolution",
			"weights": {}
		},
		{
			"alpha": 0,
			"beta": 6,
			"bottom": "1416",
			"debug_info": "Clip_46",
			"fused_relu": 0,
			"name": "Clip_46",
			"operation": 119,
			"top": "602",
			"type": "elementwise",
			"weights": {}
		},
		{
			"C": 480,
			"K": 480,
			"Nx": 3,
			"Ny": 3,
			"blob_biases": 93,
			"blob_weights_f16": 95,
			"bottom": "602",
			"debug_info": "Conv_47",
			"fused_relu": 0,
			"fused_tanh": 0,
			"has_batch_norm": 0,
			"has_biases": 1,
			"n_groups": 480,
			"n_parallel": 1,
			"name": "Conv_47",
			"pad_b": 1,
			"pad_fill_mode": 0,
			"pad_l": 1,
			"pad_mode": 0,
			"pad_r": 1,
			"pad_t": 1,
			"pad_value": 0,
			"top": "1419",
			"type": "convolution",
			"weights": {}
		},
		{
			"alpha": 0,
			"beta": 6,
			"bottom": "1419",
			"debug_info": "Clip_48",
			"fused_relu": 0,
			"name": "Clip_48",
			"operation": 119,
			"top": "605",
			"type": "elementwise",
			"weights": {}
		},
		{
			"C": 80,
			"K": 480,
			"Nx": 1,
			"Ny": 1,
			"blob_biases": 97,
			"blob_weights_f16": 99,
			"bottom": "605",
			"debug_info": "Conv_49",
			"fused_relu": 0,
			"fused_tanh": 0,
			"has_batch_norm": 0,
			"has_biases": 1,
			"n_groups": 1,
			"n_parallel": 1,
			"name": "Conv_49",
			"pad_b": 0,
			"pad_fill_mode": 0,
			"pad_l": 0,
			"pad_mode": 0,
			"pad_r": 0,
			"pad_t": 0,
			"pad_value": 0,
			"top": "1422",
			"type": "convolution",
			"weights": {}
		},
		{
			"alpha": 1,
			"beta": 0,
			"bottom": "1422,599",
			"debug_info": "Add_50",
			"fused_relu": 0,
			"name": "Add_50",
			"nd_mode": true,
			"operation": 0,
			"top": "608",
			"type": "elementwise",
			"weights": {}
		},
		{
			"C": 480,
			"K": 80,
			"Nx": 1,
			"Ny": 1,
			"blob_biases": 101,
			"blob_weights_f16": 103,
			"bottom": "608",
			"debug_info": "Conv_51",
			"fused_relu": 0,
			"fused_tanh": 0,
			"has_batch_norm": 0,
			"has_biases": 1,
			"n_groups": 1,
			"n_parallel": 1,
			"name": "Conv_51",
			"pad_b": 0,
			"pad_fill_mode": 0,
			"pad_l": 0,
			"pad_mode": 0,
			"pad_r": 0,
			"pad_t": 0,
			"pad_value": 0,
			"top": "1425",
			"type": "convolution",
			"weights": {}
		},
		{
			"alpha": 0,
			"beta": 6,
			"bottom": "1425",
			"debug_info": "Clip_52",
			"fused_relu": 0,
			"name": "Clip_52",
			"operation": 119,
			"top": "611",
			"type": "elementwise",
			"weights": {}
		},
		{
			"C": 480,
			"K": 480,
			"Nx": 5,
			"Ny": 5,
			"blob_biases": 105,
			"blob_weights_f16": 107,
			"bottom": "611",
			"debug_info": "Conv_53",
			"fused_relu": 0,
			"fused_tanh": 0,
			"has_batch_norm": 0,
			"has_biases": 1,
			"n_groups": 480,
			"n_parallel": 1,
			"name": "Conv_53",
			"pad_b": 2,
			"pad_fill_mode": 0,
			"pad_l": 2,
			"pad_mode": 0,
			"pad_r": 2,
			"pad_t": 2,
			"pad_value": 0,
			"top": "1428",
			"type": "convolution",
			"weights": {}
		},
		{
			"alpha": 0,
			"beta": 6,
			"bottom": "1428",
			"debug_info": "Clip_54",
			"fused_relu": 0,
			"name": "Clip_54",
			"operation": 119,
			"top": "614",
			"type": "elementwise",
			"weights": {}
		},
		{
			"C": 112,
			"K": 480,
			"Nx": 1,
			"Ny": 1,
			"blob_biases": 109,
			"blob_weights_f16": 111,
			"bottom": "614",
			"debug_info": "Conv_55",
			"fused_relu": 0,
			"fused_tanh": 0,
			"has_batch_norm": 0,
			"has_biases": 1,
			"n_groups": 1,
			"n_parallel": 1,
			"name": "Conv_55",
			"pad_b": 0,
			"pad_fill_mode": 0,
			"pad_l": 0,
			"pad_mode": 0,
			"pad_r": 0,
			"pad_t": 0,
			"pad_value": 0,
			"top": "1431",
			"type": "convolution",
			"weights": {}
		},
		{
			"C": 672,
			"K": 112,
			"Nx": 1,
			"Ny": 1,
			"blob_biases": 113,
			"blob_weights_f16": 115,
			"bottom": "1431",
			"debug_info": "Conv_56",
			"fused_relu": 0,
			"fused_tanh": 0,
			"has_batch_norm": 0,
			"has_biases": 1,
			"n_groups": 1,
			"n_parallel": 1,
			"name": "Conv_56",
			"pad_b": 0,
			"pad_fill_mode": 0,
			"pad_l": 0,
			"pad_mode": 0,
			"pad_r": 0,
			"pad_t": 0,
			"pad_value": 0,
			"top": "1434",
			"type": "convolution",
			"weights": {}
		},
		{
			"alpha": 0,
			"beta": 6,
			"bottom": "1434",
			"debug_info": "Clip_57",
			"fused_relu": 0,
			"name": "Clip_57",
			"operation": 119,
			"top": "619",
			"type": "elementwise",
			"weights": {}
		},
		{
			"C": 672,
			"K": 672,
			"Nx": 5,
			"Ny": 5,
			"blob_biases": 117,
			"blob_weights_f16": 119,
			"bottom": "619",
			"debug_info": "Conv_58",
			"fused_relu": 0,
			"fused_tanh": 0,
			"has_batch_norm": 0,
			"has_biases": 1,
			"n_groups": 672,
			"n_parallel": 1,
			"name": "Conv_58",
			"pad_b": 2,
			"pad_fill_mode": 0,
			"pad_l": 2,
			"pad_mode": 0,
			"pad_r": 2,
			"pad_t": 2,
			"pad_value": 0,
			"top": "1437",
			"type": "convolution",
			"weights": {}
		},
		{
			"alpha": 0,
			"beta": 6,
			"bottom": "1437",
			"debug_info": "Clip_59",
			"fused_relu": 0,
			"name": "Clip_59",
			"operation": 119,
			"top": "622",
			"type": "elementwise",
			"weights": {}
		},
		{
			"C": 112,
			"K": 672,
			"Nx": 1,
			"Ny": 1,
			"blob_biases": 121,
			"blob_weights_f16": 123,
			"bottom": "622",
			"debug_info": "Conv_60",
			"fused_relu": 0,
			"fused_tanh": 0,
			"has_batch_norm": 0,
			"has_biases": 1,
			"n_groups": 1,
			"n_parallel": 1,
			"name": "Conv_60",
			"pad_b": 0,
			"pad_fill_mode": 0,
			"pad_l": 0,
			"pad_mode": 0,
			"pad_r": 0,
			"pad_t": 0,
			"pad_value": 0,
			"top": "1440",
			"type": "convolution",
			"weights": {}
		},
		{
			"alpha": 1,
			"beta": 0,
			"bottom": "1440,1431",
			"debug_info": "Add_61",
			"fused_relu": 0,
			"name": "Add_61",
			"nd_mode": true,
			"operation": 0,
			"top": "625",
			"type": "elementwise",
			"weights": {}
		},
		{
			"C": 672,
			"K": 112,
			"Nx": 1,
			"Ny": 1,
			"blob_biases": 125,
			"blob_weights_f16": 127,
			"bottom": "625",
			"debug_info": "Conv_62",
			"fused_relu": 0,
			"fused_tanh": 0,
			"has_batch_norm": 0,
			"has_biases": 1,
			"n_groups": 1,
			"n_parallel": 1,
			"name": "Conv_62",
			"pad_b": 0,
			"pad_fill_mode": 0,
			"pad_l": 0,
			"pad_mode": 0,
			"pad_r": 0,
			"pad_t": 0,
			"pad_value": 0,
			"top": "1443",
			"type": "convolution",
			"weights": {}
		},
		{
			"alpha": 0,
			"beta": 6,
			"bottom": "1443",
			"debug_info": "Clip_63",
			"fused_relu": 0,
			"name": "Clip_63",
			"operation": 119,
			"top": "628",
			"type": "elementwise",
			"weights": {}
		},
		{
			"C": 672,
			"K": 672,
			"Nx": 5,
			"Ny": 5,
			"blob_biases": 129,
			"blob_weights_f16": 131,
			"bottom": "628",
			"debug_info": "Conv_64",
			"fused_relu": 0,
			"fused_tanh": 0,
			"has_batch_norm": 0,
			"has_biases": 1,
			"n_groups": 672,
			"n_parallel": 1,
			"name": "Conv_64",
			"pad_b": 2,
			"pad_fill_mode": 0,
			"pad_l": 2,
			"pad_mode": 0,
			"pad_r": 2,
			"pad_t": 2,
			"pad_value": 0,
			"top": "1446",
			"type": "convolution",
			"weights": {}
		},
		{
			"alpha": 0,
			"beta": 6,
			"bottom": "1446",
			"debug_info": "Clip_65",
			"fused_relu": 0,
			"name": "Clip_65",
			"operation": 119,
			"top": "631",
			"type": "elementwise",
			"weights": {}
		},
		{
			"C": 112,
			"K": 672,
			"Nx": 1,
			"Ny": 1,
			"blob_biases": 133,
			"blob_weights_f16": 135,
			"bottom": "631",
			"debug_info": "Conv_66",
			"fused_relu": 0,
			"fused_tanh": 0,
			"has_batch_norm": 0,
			"has_biases": 1,
			"n_groups": 1,
			"n_parallel": 1,
			"name": "Conv_66",
			"pad_b": 0,
			"pad_fill_mode": 0,
			"pad_l": 0,
			"pad_mode": 0,
			"pad_r": 0,
			"pad_t": 0,
			"pad_value": 0,
			"top": "1449",
			"type": "convolution",
			"weights": {}
		},
		{
			"alpha": 1,
			"beta": 0,
			"bottom": "1449,625",
			"debug_info": "Add_67",
			"fused_relu": 0,
			"name": "Add_67",
			"nd_mode": true,
			"operation": 0,
			"top": "634",
			"type": "elementwise",
			"weights": {}
		},
		{
			"C": 672,
			"K": 112,
			"Nx": 1,
			"Ny": 1,
			"blob_biases": 137,
			"blob_weights_f16": 139,
			"bottom": "634",
			"debug_info": "Conv_68",
			"fused_relu": 0,
			"fused_tanh": 0,
			"has_batch_norm": 0,
			"has_biases": 1,
			"n_groups": 1,
			"n_parallel": 1,
			"name": "Conv_68",
			"pad_b": 0,
			"pad_fill_mode": 0,
			"pad_l": 0,
			"pad_mode": 0,
			"pad_r": 0,
			"pad_t": 0,
			"pad_value": 0,
			"top": "1452",
			"type": "convolution",
			"weights": {}
		},
		{
			"alpha": 0,
			"beta": 6,
			"bottom": "1452",
			"debug_info": "Clip_69",
			"fused_relu": 0,
			"name": "Clip_69",
			"operation": 119,
			"top": "637",
			"type": "elementwise",
			"weights": {}
		},
		{
			"C": 672,
			"K": 672,
			"Nx": 5,
			"Ny": 5,
			"blob_biases": 141,
			"blob_weights_f16": 143,
			"bottom": "637",
			"debug_info": "Conv_71",
			"fused_relu": 0,
			"fused_tanh": 0,
			"has_batch_norm": 0,
			"has_biases": 1,
			"n_groups": 672,
			"n_parallel": 1,
			"name": "Conv_71",
			"pad_b": 2,
			"pad_fill_mode": 0,
			"pad_l": 1,
			"pad_mode": 0,
			"pad_r": 2,
			"pad_t": 1,
			"pad_value": 0,
			"stride_x": 2,
			"stride_y": 2,
			"top": "1455",
			"type": "convolution",
			"weights": {}
		},
		{
			"alpha": 0,
			"beta": 6,
			"bottom": "1455",
			"debug_info": "Clip_72",
			"fused_relu": 0,
			"name": "Clip_72",
			"operation": 119,
			"top": "641",
			"type": "elementwise",
			"weights": {}
		},
		{
			"C": 192,
			"K": 672,
			"Nx": 1,
			"Ny": 1,
			"blob_biases": 145,
			"blob_weights_f16": 147,
			"bottom": "641",
			"debug_info": "Conv_73",
			"fused_relu": 0,
			"fused_tanh": 0,
			"has_batch_norm": 0,
			"has_biases": 1,
			"n_groups": 1,
			"n_parallel": 1,
			"name": "Conv_73",
			"pad_b": 0,
			"pad_fill_mode": 0,
			"pad_l": 0,
			"pad_mode": 0,
			"pad_r": 0,
			"pad_t": 0,
			"pad_value": 0,
			"top": "1458",
			"type": "convolution",
			"weights": {}
		},
		{
			"C": 1152,
			"K": 192,
			"Nx": 1,
			"Ny": 1,
			"blob_biases": 149,
			"blob_weights_f16": 151,
			"bottom": "1458",
			"debug_info": "Conv_74",
			"fused_relu": 0,
			"fused_tanh": 0,
			"has_batch_norm": 0,
			"has_biases": 1,
			"n_groups": 1,
			"n_parallel": 1,
			"name": "Conv_74",
			"pad_b": 0,
			"pad_fill_mode": 0,
			"pad_l": 0,
			"pad_mode": 0,
			"pad_r": 0,
			"pad_t": 0,
			"pad_value": 0,
			"top": "1461",
			"type": "convolution",
			"weights": {}
		},
		{
			"alpha": 0,
			"beta": 6,
			"bottom": "1461",
			"debug_info": "Clip_75",
			"fused_relu": 0,
			"name": "Clip_75",
			"operation": 119,
			"top": "646",
			"type": "elementwise",
			"weights": {}
		},
		{
			"C": 1152,
			"K": 1152,
			"Nx": 5,
			"Ny": 5,
			"blob_biases": 153,
			"blob_weights_f16": 155,
			"bottom": "646",
			"debug_info": "Conv_76",
			"fused_relu": 0,
			"fused_tanh": 0,
			"has_batch_norm": 0,
			"has_biases": 1,
			"n_groups": 1152,
			"n_parallel": 1,
			"name": "Conv_76",
			"pad_b": 2,
			"pad_fill_mode": 0,
			"pad_l": 2,
			"pad_mode": 0,
			"pad_r": 2,
			"pad_t": 2,
			"pad_value": 0,
			"top": "1464",
			"type": "convolution",
			"weights": {}
		},
		{
			"alpha": 0,
			"beta": 6,
			"bottom": "1464",
			"debug_info": "Clip_77",
			"fused_relu": 0,
			"name": "Clip_77",
			"operation": 119,
			"top": "649",
			"type": "elementwise",
			"weights": {}
		},
		{
			"C": 192,
			"K": 1152,
			"Nx": 1,
			"Ny": 1,
			"blob_biases": 157,
			"blob_weights_f16": 159,
			"bottom": "649",
			"debug_info": "Conv_78",
			"fused_relu": 0,
			"fused_tanh": 0,
			"has_batch_norm": 0,
			"has_biases": 1,
			"n_groups": 1,
			"n_parallel": 1,
			"name": "Conv_78",
			"pad_b": 0,
			"pad_fill_mode": 0,
			"pad_l": 0,
			"pad_mode": 0,
			"pad_r": 0,
			"pad_t": 0,
			"pad_value": 0,
			"top": "1467",
			"type": "convolution",
			"weights": {}
		},
		{
			"alpha": 1,
			"beta": 0,
			"bottom": "1467,1458",
			"debug_info": "Add_79",
			"fused_relu": 0,
			"name": "Add_79",
			"nd_mode": true,
			"operation": 0,
			"top": "652",
			"type": "elementwise",
			"weights": {}
		},
		{
			"C": 1152,
			"K": 192,
			"Nx": 1,
			"Ny": 1,
			"blob_biases": 161,
			"blob_weights_f16": 163,
			"bottom": "652",
			"debug_info": "Conv_80",
			"fused_relu": 0,
			"fused_tanh": 0,
			"has_batch_norm": 0,
			"has_biases": 1,
			"n_groups": 1,
			"n_parallel": 1,
			"name": "Conv_80",
			"pad_b": 0,
			"pad_fill_mode": 0,
			"pad_l": 0,
			"pad_mode": 0,
			"pad_r": 0,
			"pad_t": 0,
			"pad_value": 0,
			"top": "1470",
			"type": "convolution",
			"weights": {}
		},
		{
			"alpha": 0,
			"beta": 6,
			"bottom": "1470",
			"debug_info": "Clip_81",
			"fused_relu": 0,
			"name": "Clip_81",
			"operation": 119,
			"top": "655",
			"type": "elementwise",
			"weights": {}
		},
		{
			"C": 1152,
			"K": 1152,
			"Nx": 5,
			"Ny": 5,
			"blob_biases": 165,
			"blob_weights_f16": 167,
			"bottom": "655",
			"debug_info": "Conv_82",
			"fused_relu": 0,
			"fused_tanh": 0,
			"has_batch_norm": 0,
			"has_biases": 1,
			"n_groups": 1152,
			"n_parallel": 1,
			"name": "Conv_82",
			"pad_b": 2,
			"pad_fill_mode": 0,
			"pad_l": 2,
			"pad_mode": 0,
			"pad_r": 2,
			"pad_t": 2,
			"pad_value": 0,
			"top": "1473",
			"type": "convolution",
			"weights": {}
		},
		{
			"alpha": 0,
			"beta": 6,
			"bottom": "1473",
			"debug_info": "Clip_83",
			"fused_relu": 0,
			"name": "Clip_83",
			"operation": 119,
			"top": "658",
			"type": "elementwise",
			"weights": {}
		},
		{
			"C": 192,
			"K": 1152,
			"Nx": 1,
			"Ny": 1,
			"blob_biases": 169,
			"blob_weights_f16": 171,
			"bottom": "658",
			"debug_info": "Conv_84",
			"fused_relu": 0,
			"fused_tanh": 0,
			"has_batch_norm": 0,
			"has_biases": 1,
			"n_groups": 1,
			"n_parallel": 1,
			"name": "Conv_84",
			"pad_b": 0,
			"pad_fill_mode": 0,
			"pad_l": 0,
			"pad_mode": 0,
			"pad_r": 0,
			"pad_t": 0,
			"pad_value": 0,
			"top": "1476",
			"type": "convolution",
			"weights": {}
		},
		{
			"alpha": 1,
			"beta": 0,
			"bottom": "1476,652",
			"debug_info": "Add_85",
			"fused_relu": 0,
			"name": "Add_85",
			"nd_mode": true,
			"operation": 0,
			"top": "661",
			"type": "elementwise",
			"weights": {}
		},
		{
			"C": 1152,
			"K": 192,
			"Nx": 1,
			"Ny": 1,
			"blob_biases": 173,
			"blob_weights_f16": 175,
			"bottom": "661",
			"debug_info": "Conv_86",
			"fused_relu": 0,
			"fused_tanh": 0,
			"has_batch_norm": 0,
			"has_biases": 1,
			"n_groups": 1,
			"n_parallel": 1,
			"name": "Conv_86",
			"pad_b": 0,
			"pad_fill_mode": 0,
			"pad_l": 0,
			"pad_mode": 0,
			"pad_r": 0,
			"pad_t": 0,
			"pad_value": 0,
			"top": "1479",
			"type": "convolution",
			"weights": {}
		},
		{
			"alpha": 0,
			"beta": 6,
			"bottom": "1479",
			"debug_info": "Clip_87",
			"fused_relu": 0,
			"name": "Clip_87",
			"operation": 119,
			"top": "664",
			"type": "elementwise",
			"weights": {}
		},
		{
			"C": 1152,
			"K": 1152,
			"Nx": 5,
			"Ny": 5,
			"blob_biases": 177,
			"blob_weights_f16": 179,
			"bottom": "664",
			"debug_info": "Conv_88",
			"fused_relu": 0,
			"fused_tanh": 0,
			"has_batch_norm": 0,
			"has_biases": 1,
			"n_groups": 1152,
			"n_parallel": 1,
			"name": "Conv_88",
			"pad_b": 2,
			"pad_fill_mode": 0,
			"pad_l": 2,
			"pad_mode": 0,
			"pad_r": 2,
			"pad_t": 2,
			"pad_value": 0,
			"top": "1482",
			"type": "convolution",
			"weights": {}
		},
		{
			"alpha": 0,
			"beta": 6,
			"bottom": "1482",
			"debug_info": "Clip_89",
			"fused_relu": 0,
			"name": "Clip_89",
			"operation": 119,
			"top": "667",
			"type": "elementwise",
			"weights": {}
		},
		{
			"C": 192,
			"K": 1152,
			"Nx": 1,
			"Ny": 1,
			"blob_biases": 181,
			"blob_weights_f16": 183,
			"bottom": "667",
			"debug_info": "Conv_90",
			"fused_relu": 0,
			"fused_tanh": 0,
			"has_batch_norm": 0,
			"has_biases": 1,
			"n_groups": 1,
			"n_parallel": 1,
			"name": "Conv_90",
			"pad_b": 0,
			"pad_fill_mode": 0,
			"pad_l": 0,
			"pad_mode": 0,
			"pad_r": 0,
			"pad_t": 0,
			"pad_value": 0,
			"top": "1485",
			"type": "convolution",
			"weights": {}
		},
		{
			"alpha": 1,
			"beta": 0,
			"bottom": "1485,661",
			"debug_info": "Add_91",
			"fused_relu": 0,
			"name": "Add_91",
			"nd_mode": true,
			"operation": 0,
			"top": "670",
			"type": "elementwise",
			"weights": {}
		},
		{
			"C": 1152,
			"K": 192,
			"Nx": 1,
			"Ny": 1,
			"blob_biases": 185,
			"blob_weights_f16": 187,
			"bottom": "670",
			"debug_info": "Conv_92",
			"fused_relu": 0,
			"fused_tanh": 0,
			"has_batch_norm": 0,
			"has_biases": 1,
			"n_groups": 1,
			"n_parallel": 1,
			"name": "Conv_92",
			"pad_b": 0,
			"pad_fill_mode": 0,
			"pad_l": 0,
			"pad_mode": 0,
			"pad_r": 0,
			"pad_t": 0,
			"pad_value": 0,
			"top": "1488",
			"type": "convolution",
			"weights": {}
		},
		{
			"alpha": 0,
			"beta": 6,
			"bottom": "1488",
			"debug_info": "Clip_93",
			"fused_relu": 0,
			"name": "Clip_93",
			"operation": 119,
			"top": "673",
			"type": "elementwise",
			"weights": {}
		},
		{
			"C": 1152,
			"K": 1152,
			"Nx": 3,
			"Ny": 3,
			"blob_biases": 189,
			"blob_weights_f16": 191,
			"bottom": "673",
			"debug_info": "Conv_94",
			"fused_relu": 0,
			"fused_tanh": 0,
			"has_batch_norm": 0,
			"has_biases": 1,
			"n_groups": 1152,
			"n_parallel": 1,
			"name": "Conv_94",
			"pad_b": 1,
			"pad_fill_mode": 0,
			"pad_l": 1,
			"pad_mode": 0,
			"pad_r": 1,
			"pad_t": 1,
			"pad_value": 0,
			"top": "1491",
			"type": "convolution",
			"weights": {}
		},
		{
			"alpha": 0,
			"beta": 6,
			"bottom": "1491",
			"debug_info": "Clip_95",
			"fused_relu": 0,
			"name": "Clip_95",
			"operation": 119,
			"top": "676",
			"type": "elementwise",
			"weights": {}
		},
		{
			"C": 320,
			"K": 1152,
			"Nx": 1,
			"Ny": 1,
			"blob_biases": 193,
			"blob_weights_f16": 195,
			"bottom": "676",
			"debug_info": "Conv_96",
			"fused_relu": 0,
			"fused_tanh": 0,
			"has_batch_norm": 0,
			"has_biases": 1,
			"n_groups": 1,
			"n_parallel": 1,
			"name": "Conv_96",
			"pad_b": 0,
			"pad_fill_mode": 0,
			"pad_l": 0,
			"pad_mode": 0,
			"pad_r": 0,
			"pad_t": 0,
			"pad_value": 0,
			"top": "1494",
			"type": "convolution",
			"weights": {}
		},
		{
			"C": 64,
			"K": 320,
			"Nx": 1,
			"Ny": 1,
			"blob_biases": 197,
			"blob_weights_f16": 199,
			"bottom": "1494",
			"debug_info": "Conv_97",
			"fused_relu": 0,
			"fused_tanh": 0,
			"has_batch_norm": 0,
			"has_biases": 1,
			"n_groups": 1,
			"n_parallel": 1,
			"name": "Conv_97",
			"pad_b": 0,
			"pad_fill_mode": 0,
			"pad_l": 0,
			"pad_mode": 0,
			"pad_r": 0,
			"pad_t": 0,
			"pad_value": 0,
			"top": "1497",
			"type": "convolution",
			"weights": {}
		},
		{
			"average_count_exclude_padding": 1,
			"avg_or_max": 1,
			"bottom": "1497",
			"debug_info": "MaxPool_98",
			"name": "MaxPool_98",
			"pad_b": 1,
			"pad_fill_mode": 0,
			"pad_l": 1,
			"pad_mode": 0,
			"pad_r": 1,
			"pad_t": 1,
			"pad_value": 0,
			"size_x": 3,
			"size_y": 3,
			"stride_x": 2,
			"stride_y": 2,
			"top": "681",
			"top_shape_style": 0,
			"type": "pool",
			"weights": {}
		},
		{
			"average_count_exclude_padding": 1,
			"avg_or_max": 1,
			"bottom": "681",
			"debug_info": "MaxPool_99",
			"name": "MaxPool_99",
			"pad_b": 1,
			"pad_fill_mode": 0,
			"pad_l": 1,
			"pad_mode": 0,
			"pad_r": 1,
			"pad_t": 1,
			"pad_value": 0,
			"size_x": 3,
			"size_y": 3,
			"stride_x": 2,
			"stride_y": 2,
			"top": "682",
			"top_shape_style": 0,
			"type": "pool",
			"weights": {}
		},
		{
			"align_corners": 0,
			"bottom": "682",
			"debug_info": "Upsample_113",
			"fractional_scaling_factor_x": 1,
			"fractional_scaling_factor_y": 1,
			"is_legacy_mode": 1,
			"mode": 0,
			"name": "Upsample_113",
			"scaling_factor_x": 2,
			"scaling_factor_y": 2,
			"top": "702",
			"type": "upsample",
			"use_fractional_scale_factors": false,
			"weights": {}
		},
		{
			"bottom": "",
			"constant_blob": 201,
			"debug_info": "Mul_114_load_constant_0",
			"h": 1,
			"k": 1,
			"n": 1,
			"name": "Mul_114_load_constant_0",
			"nd_rank": 1,
			"top": "698",
			"type": "load_constant",
			"w": 1,
			"weights": {}
		},
		{
			"alpha": 1,
			"beta": 0,
			"bottom": "698,702",
			"debug_info": "Mul_114",
			"fused_relu": 0,
			"name": "Mul_114",
			"nd_mode": true,
			"operation": 1,
			"top": "703",
			"type": "elementwise",
			"weights": {}
		},
		{
			"bottom": "",
			"constant_blob": 203,
			"debug_info": "Mul_110_load_constant_0",
			"h": 1,
			"k": 1,
			"n": 1,
			"name": "Mul_110_load_constant_0",
			"nd_rank": 1,
			"top": "695",
			"type": "load_constant",
			"w": 1,
			"weights": {}
		},
		{
			"alpha": 1,
			"beta": 0,
			"bottom": "695,681",
			"debug_info": "Mul_110",
			"fused_relu": 0,
			"name": "Mul_110",
			"nd_mode": true,
			"operation": 1,
			"top": "696",
			"type": "elementwise",
			"weights": {}
		},
		{
			"alpha": 1,
			"beta": 0,
			"bottom": "696,703",
			"debug_info": "Add_115",
			"fused_relu": 0,
			"name": "Add_115",
			"nd_mode": true,
			"operation": 0,
			"top": "704",
			"type": "elementwise",
			"weights": {}
		},
		{
			"bottom": "704",
			"debug_info": "Relu_116",
			"mode": 0,
			"name": "Relu_116",
			"top": "705",
			"type": "activation",
			"weights": {}
		},
		{
			"C": 64,
			"K": 64,
			"Nx": 3,
			"Ny": 3,
			"blob_weights_f16": 205,
			"bottom": "705",
			"debug_info": "Conv_117",
			"fused_relu": 0,
			"fused_tanh": 0,
			"has_batch_norm": 0,
			"has_biases": 0,
			"n_groups": 64,
			"n_parallel": 1,
			"name": "Conv_117",
			"pad_b": 1,
			"pad_fill_mode": 0,
			"pad_l": 1,
			"pad_mode": 0,
			"pad_r": 1,
			"pad_t": 1,
			"pad_value": 0,
			"top": "706",
			"type": "convolution",
			"weights": {}
		},
		{
			"C": 64,
			"K": 64,
			"Nx": 1,
			"Ny": 1,
			"blob_biases": 207,
			"blob_weights_f16": 209,
			"bottom": "706",
			"debug_info": "Conv_118",
			"fused_relu": 0,
			"fused_tanh": 0,
			"has_batch_norm": 0,
			"has_biases": 1,
			"n_groups": 1,
			"n_parallel": 1,
			"name": "Conv_118",
			"pad_b": 0,
			"pad_fill_mode": 0,
			"pad_l": 0,
			"pad_mode": 0,
			"pad_r": 0,
			"pad_t": 0,
			"pad_value": 0,
			"top": "1509",
			"type": "convolution",
			"weights": {}
		},
		{
			"align_corners": 0,
			"bottom": "1509",
			"debug_info": "Upsample_129",
			"fractional_scaling_factor_x": 1,
			"fractional_scaling_factor_y": 1,
			"is_legacy_mode": 1,
			"mode": 0,
			"name": "Upsample_129",
			"scaling_factor_x": 2,
			"scaling_factor_y": 2,
			"top": "722",
			"type": "upsample",
			"use_fractional_scale_factors": false,
			"weights": {}
		},
		{
			"bottom": "",
			"constant_blob": 211,
			"debug_info": "Mul_130_load_constant_0",
			"h": 1,
			"k": 1,
			"n": 1,
			"name": "Mul_130_load_constant_0",
			"nd_rank": 1,
			"top": "718",
			"type": "load_constant",
			"w": 1,
			"weights": {}
		},
		{
			"alpha": 1,
			"beta": 0,
			"bottom": "718,722",
			"debug_info": "Mul_130",
			"fused_relu": 0,
			"name": "Mul_130",
			"nd_mode": true,
			"operation": 1,
			"top": "723",
			"type": "elementwise",
			"weights": {}
		},
		{
			"C": 64,
			"K": 320,
			"Nx": 1,
			"Ny": 1,
			"blob_biases": 213,
			"blob_weights_f16": 215,
			"bottom": "1494",
			"debug_info": "Conv_102",
			"fused_relu": 0,
			"fused_tanh": 0,
			"has_batch_norm": 0,
			"has_biases": 1,
			"n_groups": 1,
			"n_parallel": 1,
			"name": "Conv_102",
			"pad_b": 0,
			"pad_fill_mode": 0,
			"pad_l": 0,
			"pad_mode": 0,
			"pad_r": 0,
			"pad_t": 0,
			"pad_value": 0,
			"top": "1506",
			"type": "convolution",
			"weights": {}
		},
		{
			"bottom": "",
			"constant_blob": 217,
			"debug_info": "Mul_126_load_constant_0",
			"h": 1,
			"k": 1,
			"n": 1,
			"name": "Mul_126_load_constant_0",
			"nd_rank": 1,
			"top": "715",
			"type": "load_constant",
			"w": 1,
			"weights": {}
		},
		{
			"alpha": 1,
			"beta": 0,
			"bottom": "715,1506",
			"debug_info": "Mul_126",
			"fused_relu": 0,
			"name": "Mul_126",
			"nd_mode": true,
			"operation": 1,
			"top": "716",
			"type": "elementwise",
			"weights": {}
		},
		{
			"alpha": 1,
			"beta": 0,
			"bottom": "716,723",
			"debug_info": "Add_131",
			"fused_relu": 0,
			"name": "Add_131",
			"nd_mode": true,
			"operation": 0,
			"top": "724",
			"type": "elementwise",
			"weights": {}
		},
		{
			"bottom": "724",
			"debug_info": "Relu_132",
			"mode": 0,
			"name": "Relu_132",
			"top": "725",
			"type": "activation",
			"weights": {}
		},
		{
			"C": 64,
			"K": 64,
			"Nx": 3,
			"Ny": 3,
			"blob_weights_f16": 219,
			"bottom": "725",
			"debug_info": "Conv_133",
			"fused_relu": 0,
			"fused_tanh": 0,
			"has_batch_norm": 0,
			"has_biases": 0,
			"n_groups": 64,
			"n_parallel": 1,
			"name": "Conv_133",
			"pad_b": 1,
			"pad_fill_mode": 0,
			"pad_l": 1,
			"pad_mode": 0,
			"pad_r": 1,
			"pad_t": 1,
			"pad_value": 0,
			"top": "726",
			"type": "convolution",
			"weights": {}
		},
		{
			"C": 64,
			"K": 64,
			"Nx": 1,
			"Ny": 1,
			"blob_biases": 221,
			"blob_weights_f16": 223,
			"bottom": "726",
			"debug_info": "Conv_134",
			"fused_relu": 0,
			"fused_tanh": 0,
			"has_batch_norm": 0,
			"has_biases": 1,
			"n_groups": 1,
			"n_parallel": 1,
			"name": "Conv_134",
			"pad_b": 0,
			"pad_fill_mode": 0,
			"pad_l": 0,
			"pad_mode": 0,
			"pad_r": 0,
			"pad_t": 0,
			"pad_value": 0,
			"top": "1512",
			"type": "convolution",
			"weights": {}
		},
		{
			"align_corners": 0,
			"bottom": "1512",
			"debug_info": "Upsample_145",
			"fractional_scaling_factor_x": 1,
			"fractional_scaling_factor_y": 1,
			"is_legacy_mode": 1,
			"mode": 0,
			"name": "Upsample_145",
			"scaling_factor_x": 2,
			"scaling_factor_y": 2,
			"top": "742",
			"type": "upsample",
			"use_fractional_scale_factors": false,
			"weights": {}
		},
		{
			"bottom": "",
			"constant_blob": 225,
			"debug_info": "Mul_146_load_constant_0",
			"h": 1,
			"k": 1,
			"n": 1,
			"name": "Mul_146_load_constant_0",
			"nd_rank": 1,
			"top": "738",
			"type": "load_constant",
			"w": 1,
			"weights": {}
		},
		{
			"alpha": 1,
			"beta": 0,
			"bottom": "738,742",
			"debug_info": "Mul_146",
			"fused_relu": 0,
			"name": "Mul_146",
			"nd_mode": true,
			"operation": 1,
			"top": "743",
			"type": "elementwise",
			"weights": {}
		},
		{
			"C": 64,
			"K": 112,
			"Nx": 1,
			"Ny": 1,
			"blob_biases": 227,
			"blob_weights_f16": 229,
			"bottom": "634",
			"debug_info": "Conv_101",
			"fused_relu": 0,
			"fused_tanh": 0,
			"has_batch_norm": 0,
			"has_biases": 1,
			"n_groups": 1,
			"n_parallel": 1,
			"name": "Conv_101",
			"pad_b": 0,
			"pad_fill_mode": 0,
			"pad_l": 0,
			"pad_mode": 0,
			"pad_r": 0,
			"pad_t": 0,
			"pad_value": 0,
			"top": "1503",
			"type": "convolution",
			"weights": {}
		},
		{
			"bottom": "",
			"constant_blob": 231,
			"debug_info": "Mul_142_load_constant_0",
			"h": 1,
			"k": 1,
			"n": 1,
			"name": "Mul_142_load_constant_0",
			"nd_rank": 1,
			"top": "735",
			"type": "load_constant",
			"w": 1,
			"weights": {}
		},
		{
			"alpha": 1,
			"beta": 0,
			"bottom": "735,1503",
			"debug_info": "Mul_142",
			"fused_relu": 0,
			"name": "Mul_142",
			"nd_mode": true,
			"operation": 1,
			"top": "736",
			"type": "elementwise",
			"weights": {}
		},
		{
			"alpha": 1,
			"beta": 0,
			"bottom": "736,743",
			"debug_info": "Add_147",
			"fused_relu": 0,
			"name": "Add_147",
			"nd_mode": true,
			"operation": 0,
			"top": "744",
			"type": "elementwise",
			"weights": {}
		},
		{
			"bottom": "744",
			"debug_info": "Relu_148",
			"mode": 0,
			"name": "Relu_148",
			"top": "745",
			"type": "activation",
			"weights": {}
		},
		{
			"C": 64,
			"K": 64,
			"Nx": 3,
			"Ny": 3,
			"blob_weights_f16": 233,
			"bottom": "745",
			"debug_info": "Conv_149",
			"fused_relu": 0,
			"fused_tanh": 0,
			"has_batch_norm": 0,
			"has_biases": 0,
			"n_groups": 64,
			"n_parallel": 1,
			"name": "Conv_149",
			"pad_b": 1,
			"pad_fill_mode": 0,
			"pad_l": 1,
			"pad_mode": 0,
			"pad_r": 1,
			"pad_t": 1,
			"pad_value": 0,
			"top": "746",
			"type": "convolution",
			"weights": {}
		},
		{
			"C": 64,
			"K": 64,
			"Nx": 1,
			"Ny": 1,
			"blob_biases": 235,
			"blob_weights_f16": 237,
			"bottom": "746",
			"debug_info": "Conv_150",
			"fused_relu": 0,
			"fused_tanh": 0,
			"has_batch_norm": 0,
			"has_biases": 1,
			"n_groups": 1,
			"n_parallel": 1,
			"name": "Conv_150",
			"pad_b": 0,
			"pad_fill_mode": 0,
			"pad_l": 0,
			"pad_mode": 0,
			"pad_r": 0,
			"pad_t": 0,
			"pad_value": 0,
			"top": "1515",
			"type": "convolution",
			"weights": {}
		},
		{
			"align_corners": 0,
			"bottom": "1515",
			"debug_info": "Upsample_161",
			"fractional_scaling_factor_x": 1,
			"fractional_scaling_factor_y": 1,
			"is_legacy_mode": 1,
			"mode": 0,
			"name": "Upsample_161",
			"scaling_factor_x": 2,
			"scaling_factor_y": 2,
			"top": "762",
			"type": "upsample",
			"use_fractional_scale_factors": false,
			"weights": {}
		},
		{
			"bottom": "",
			"constant_blob": 239,
			"debug_info": "Mul_162_load_constant_0",
			"h": 1,
			"k": 1,
			"n": 1,
			"name": "Mul_162_load_constant_0",
			"nd_rank": 1,
			"top": "758",
			"type": "load_constant",
			"w": 1,
			"weights": {}
		},
		{
			"alpha": 1,
			"beta": 0,
			"bottom": "758,762",
			"debug_info": "Mul_162",
			"fused_relu": 0,
			"name": "Mul_162",
			"nd_mode": true,
			"operation": 1,
			"top": "763",
			"type": "elementwise",
			"weights": {}
		},
		{
			"C": 64,
			"K": 40,
			"Nx": 1,
			"Ny": 1,
			"blob_biases": 241,
			"blob_weights_f16": 243,
			"bottom": "581",
			"debug_info": "Conv_100",
			"fused_relu": 0,
			"fused_tanh": 0,
			"has_batch_norm": 0,
			"has_biases": 1,
			"n_groups": 1,
			"n_parallel": 1,
			"name": "Conv_100",
			"pad_b": 0,
			"pad_fill_mode": 0,
			"pad_l": 0,
			"pad_mode": 0,
			"pad_r": 0,
			"pad_t": 0,
			"pad_value": 0,
			"top": "1500",
			"type": "convolution",
			"weights": {}
		},
		{
			"bottom": "",
			"constant_blob": 245,
			"debug_info": "Mul_158_load_constant_0",
			"h": 1,
			"k": 1,
			"n": 1,
			"name": "Mul_158_load_constant_0",
			"nd_rank": 1,
			"top": "755",
			"type": "load_constant",
			"w": 1,
			"weights": {}
		},
		{
			"alpha": 1,
			"beta": 0,
			"bottom": "755,1500",
			"debug_info": "Mul_158",
			"fused_relu": 0,
			"name": "Mul_158",
			"nd_mode": true,
			"operation": 1,
			"top": "756",
			"type": "elementwise",
			"weights": {}
		},
		{
			"alpha": 1,
			"beta": 0,
			"bottom": "756,763",
			"debug_info": "Add_163",
			"fused_relu": 0,
			"name": "Add_163",
			"nd_mode": true,
			"operation": 0,
			"top": "764",
			"type": "elementwise",
			"weights": {}
		},
		{
			"bottom": "764",
			"debug_info": "Relu_164",
			"mode": 0,
			"name": "Relu_164",
			"top": "765",
			"type": "activation",
			"weights": {}
		},
		{
			"C": 64,
			"K": 64,
			"Nx": 3,
			"Ny": 3,
			"blob_weights_f16": 247,
			"bottom": "765",
			"debug_info": "Conv_165",
			"fused_relu": 0,
			"fused_tanh": 0,
			"has_batch_norm": 0,
			"has_biases": 0,
			"n_groups": 64,
			"n_parallel": 1,
			"name": "Conv_165",
			"pad_b": 1,
			"pad_fill_mode": 0,
			"pad_l": 1,
			"pad_mode": 0,
			"pad_r": 1,
			"pad_t": 1,
			"pad_value": 0,
			"top": "766",
			"type": "convolution",
			"weights": {}
		},
		{
			"C": 64,
			"K": 64,
			"Nx": 1,
			"Ny": 1,
			"blob_biases": 249,
			"blob_weights_f16": 251,
			"bottom": "766",
			"debug_info": "Conv_166",
			"fused_relu": 0,
			"fused_tanh": 0,
			"has_batch_norm": 0,
			"has_biases": 1,
			"n_groups": 1,
			"n_parallel": 1,
			"name": "Conv_166",
			"pad_b": 0,
			"pad_fill_mode": 0,
			"pad_l": 0,
			"pad_mode": 0,
			"pad_r": 0,
			"pad_t": 0,
			"pad_value": 0,
			"top": "1518",
			"type": "convolution",
			"weights": {}
		},
		{
			"average_count_exclude_padding": 1,
			"avg_or_max": 1,
			"bottom": "1518",
			"debug_info": "MaxPool_183",
			"name": "MaxPool_183",
			"pad_b": 1,
			"pad_fill_mode": 0,
			"pad_l": 1,
			"pad_mode": 0,
			"pad_r": 1,
			"pad_t": 1,
			"pad_value": 0,
			"size_x": 3,
			"size_y": 3,
			"stride_x": 2,
			"stride_y": 2,
			"top": "787",
			"top_shape_style": 0,
			"type": "pool",
			"weights": {}
		},
		{
			"bottom": "",
			"constant_blob": 253,
			"debug_info": "Mul_184_load_constant_0",
			"h": 1,
			"k": 1,
			"n": 1,
			"name": "Mul_184_load_constant_0",
			"nd_rank": 1,
			"top": "786",
			"type": "load_constant",
			"w": 1,
			"weights": {}
		},
		{
			"alpha": 1,
			"beta": 0,
			"bottom": "786,787",
			"debug_info": "Mul_184",
			"fused_relu": 0,
			"name": "Mul_184",
			"nd_mode": true,
			"operation": 1,
			"top": "788",
			"type": "elementwise",
			"weights": {}
		},
		{
			"bottom": "",
			"constant_blob": 255,
			"debug_info": "Mul_179_load_constant_0",
			"h": 1,
			"k": 1,
			"n": 1,
			"name": "Mul_179_load_constant_0",
			"nd_rank": 1,
			"top": "782",
			"type": "load_constant",
			"w": 1,
			"weights": {}
		},
		{
			"alpha": 1,
			"beta": 0,
			"bottom": "782,1515",
			"debug_info": "Mul_179",
			"fused_relu": 0,
			"name": "Mul_179",
			"nd_mode": true,
			"operation": 1,
			"top": "783",
			"type": "elementwise",
			"weights": {}
		},
		{
			"C": 64,
			"K": 112,
			"Nx": 1,
			"Ny": 1,
			"blob_biases": 257,
			"blob_weights_f16": 259,
			"bottom": "634",
			"debug_info": "Conv_167",
			"fused_relu": 0,
			"fused_tanh": 0,
			"has_batch_norm": 0,
			"has_biases": 1,
			"n_groups": 1,
			"n_parallel": 1,
			"name": "Conv_167",
			"pad_b": 0,
			"pad_fill_mode": 0,
			"pad_l": 0,
			"pad_mode": 0,
			"pad_r": 0,
			"pad_t": 0,
			"pad_value": 0,
			"top": "1521",
			"type": "convolution",
			"weights": {}
		},
		{
			"bottom": "",
			"constant_blob": 261,
			"debug_info": "Mul_176_load_constant_0",
			"h": 1,
			"k": 1,
			"n": 1,
			"name": "Mul_176_load_constant_0",
			"nd_rank": 1,
			"top": "779",
			"type": "load_constant",
			"w": 1,
			"weights": {}
		},
		{
			"alpha": 1,
			"beta": 0,
			"bottom": "779,1521",
			"debug_info": "Mul_176",
			"fused_relu": 0,
			"name": "Mul_176",
			"nd_mode": true,
			"operation": 1,
			"top": "780",
			"type": "elementwise",
			"weights": {}
		},
		{
			"alpha": 1,
			"beta": 0,
			"bottom": "780,783",
			"debug_info": "Add_180",
			"fused_relu": 0,
			"name": "Add_180",
			"nd_mode": true,
			"operation": 0,
			"top": "784",
			"type": "elementwise",
			"weights": {}
		},
		{
			"alpha": 1,
			"beta": 0,
			"bottom": "784,788",
			"debug_info": "Add_185",
			"fused_relu": 0,
			"name": "Add_185",
			"nd_mode": true,
			"operation": 0,
			"top": "789",
			"type": "elementwise",
			"weights": {}
		},
		{
			"bottom": "789",
			"debug_info": "Relu_186",
			"mode": 0,
			"name": "Relu_186",
			"top": "790",
			"type": "activation",
			"weights": {}
		},
		{
			"C": 64,
			"K": 64,
			"Nx": 3,
			"Ny": 3,
			"blob_weights_f16": 263,
			"bottom": "790",
			"debug_info": "Conv_187",
			"fused_relu": 0,
			"fused_tanh": 0,
			"has_batch_norm": 0,
			"has_biases": 0,
			"n_groups": 64,
			"n_parallel": 1,
			"name": "Conv_187",
			"pad_b": 1,
			"pad_fill_mode": 0,
			"pad_l": 1,
			"pad_mode": 0,
			"pad_r": 1,
			"pad_t": 1,
			"pad_value": 0,
			"top": "791",
			"type": "convolution",
			"weights": {}
		},
		{
			"C": 64,
			"K": 64,
			"Nx": 1,
			"Ny": 1,
			"blob_biases": 265,
			"blob_weights_f16": 267,
			"bottom": "791",
			"debug_info": "Conv_188",
			"fused_relu": 0,
			"fused_tanh": 0,
			"has_batch_norm": 0,
			"has_biases": 1,
			"n_groups": 1,
			"n_parallel": 1,
			"name": "Conv_188",
			"pad_b": 0,
			"pad_fill_mode": 0,
			"pad_l": 0,
			"pad_mode": 0,
			"pad_r": 0,
			"pad_t": 0,
			"pad_value": 0,
			"top": "1527",
			"type": "convolution",
			"weights": {}
		},
		{
			"average_count_exclude_padding": 1,
			"avg_or_max": 1,
			"bottom": "1527",
			"debug_info": "MaxPool_203",
			"name": "MaxPool_203",
			"pad_b": 1,
			"pad_fill_mode": 0,
			"pad_l": 1,
			"pad_mode": 0,
			"pad_r": 1,
			"pad_t": 1,
			"pad_value": 0,
			"size_x": 3,
			"size_y": 3,
			"stride_x": 2,
			"stride_y": 2,
			"top": "808",
			"top_shape_style": 0,
			"type": "pool",
			"weights": {}
		},
		{
			"bottom": "",
			"constant_blob": 269,
			"debug_info": "Mul_204_load_constant_0",
			"h": 1,
			"k": 1,
			"n": 1,
			"name": "Mul_204_load_constant_0",
			"nd_rank": 1,
			"top": "807",
			"type": "load_constant",
			"w": 1,
			"weights": {}
		},
		{
			"alpha": 1,
			"beta": 0,
			"bottom": "807,808",
			"debug_info": "Mul_204",
			"fused_relu": 0,
			"name": "Mul_204",
			"nd_mode": true,
			"operation": 1,
			"top": "809",
			"type": "elementwise",
			"weights": {}
		},
		{
			"bottom": "",
			"constant_blob": 271,
			"debug_info": "Mul_199_load_constant_0",
			"h": 1,
			"k": 1,
			"n": 1,
			"name": "Mul_199_load_constant_0",
			"nd_rank": 1,
			"top": "803",
			"type": "load_constant",
			"w": 1,
			"weights": {}
		},
		{
			"alpha": 1,
			"beta": 0,
			"bottom": "803,1512",
			"debug_info": "Mul_199",
			"fused_relu": 0,
			"name": "Mul_199",
			"nd_mode": true,
			"operation": 1,
			"top": "804",
			"type": "elementwise",
			"weights": {}
		},
		{
			"C": 64,
			"K": 320,
			"Nx": 1,
			"Ny": 1,
			"blob_biases": 273,
			"blob_weights_f16": 275,
			"bottom": "1494",
			"debug_info": "Conv_168",
			"fused_relu": 0,
			"fused_tanh": 0,
			"has_batch_norm": 0,
			"has_biases": 1,
			"n_groups": 1,
			"n_parallel": 1,
			"name": "Conv_168",
			"pad_b": 0,
			"pad_fill_mode": 0,
			"pad_l": 0,
			"pad_mode": 0,
			"pad_r": 0,
			"pad_t": 0,
			"pad_value": 0,
			"top": "1524",
			"type": "convolution",
			"weights": {}
		},
		{
			"bottom": "",
			"constant_blob": 277,
			"debug_info": "Mul_196_load_constant_0",
			"h": 1,
			"k": 1,
			"n": 1,
			"name": "Mul_196_load_constant_0",
			"nd_rank": 1,
			"top": "800",
			"type": "load_constant",
			"w": 1,
			"weights": {}
		},
		{
			"alpha": 1,
			"beta": 0,
			"bottom": "800,1524",
			"debug_info": "Mul_196",
			"fused_relu": 0,
			"name": "Mul_196",
			"nd_mode": true,
			"operation": 1,
			"top": "801",
			"type": "elementwise",
			"weights": {}
		},
		{
			"alpha": 1,
			"beta": 0,
			"bottom": "801,804",
			"debug_info": "Add_200",
			"fused_relu": 0,
			"name": "Add_200",
			"nd_mode": true,
			"operation": 0,
			"top": "805",
			"type": "elementwise",
			"weights": {}
		},
		{
			"alpha": 1,
			"beta": 0,
			"bottom": "805,809",
			"debug_info": "Add_205",
			"fused_relu": 0,
			"name": "Add_205",
			"nd_mode": true,
			"operation": 0,
			"top": "810",
			"type": "elementwise",
			"weights": {}
		},
		{
			"bottom": "810",
			"debug_info": "Relu_206",
			"mode": 0,
			"name": "Relu_206",
			"top": "811",
			"type": "activation",
			"weights": {}
		},
		{
			"C": 64,
			"K": 64,
			"Nx": 3,
			"Ny": 3,
			"blob_weights_f16": 279,
			"bottom": "811",
			"debug_info": "Conv_207",
			"fused_relu": 0,
			"fused_tanh": 0,
			"has_batch_norm": 0,
			"has_biases": 0,
			"n_groups": 64,
			"n_parallel": 1,
			"name": "Conv_207",
			"pad_b": 1,
			"pad_fill_mode": 0,
			"pad_l": 1,
			"pad_mode": 0,
			"pad_r": 1,
			"pad_t": 1,
			"pad_value": 0,
			"top": "812",
			"type": "convolution",
			"weights": {}
		},
		{
			"C": 64,
			"K": 64,
			"Nx": 1,
			"Ny": 1,
			"blob_biases": 281,
			"blob_weights_f16": 283,
			"bottom": "812",
			"debug_info": "Conv_208",
			"fused_relu": 0,
			"fused_tanh": 0,
			"has_batch_norm": 0,
			"has_biases": 1,
			"n_groups": 1,
			"n_parallel": 1,
			"name": "Conv_208",
			"pad_b": 0,
			"pad_fill_mode": 0,
			"pad_l": 0,
			"pad_mode": 0,
			"pad_r": 0,
			"pad_t": 0,
			"pad_value": 0,
			"top": "1530",
			"type": "convolution",
			"weights": {}
		},
		{
			"average_count_exclude_padding": 1,
			"avg_or_max": 1,
			"bottom": "1530",
			"debug_info": "MaxPool_223",
			"name": "MaxPool_223",
			"pad_b": 1,
			"pad_fill_mode": 0,
			"pad_l": 1,
			"pad_mode": 0,
			"pad_r": 1,
			"pad_t": 1,
			"pad_value": 0,
			"size_x": 3,
			"size_y": 3,
			"stride_x": 2,
			"stride_y": 2,
			"top": "829",
			"top_shape_style": 0,
			"type": "pool",
			"weights": {}
		},
		{
			"bottom": "",
			"constant_blob": 285,
			"debug_info": "Mul_224_load_constant_0",
			"h": 1,
			"k": 1,
			"n": 1,
			"name": "Mul_224_load_constant_0",
			"nd_rank": 1,
			"top": "828",
			"type": "load_constant",
			"w": 1,
			"weights": {}
		},
		{
			"alpha": 1,
			"beta": 0,
			"bottom": "828,829",
			"debug_info": "Mul_224",
			"fused_relu": 0,
			"name": "Mul_224",
			"nd_mode": true,
			"operation": 1,
			"top": "830",
			"type": "elementwise",
			"weights": {}
		},
		{
			"bottom": "",
			"constant_blob": 287,
			"debug_info": "Mul_219_load_constant_0",
			"h": 1,
			"k": 1,
			"n": 1,
			"name": "Mul_219_load_constant_0",
			"nd_rank": 1,
			"top": "824",
			"type": "load_constant",
			"w": 1,
			"weights": {}
		},
		{
			"alpha": 1,
			"beta": 0,
			"bottom": "824,1509",
			"debug_info": "Mul_219",
			"fused_relu": 0,
			"name": "Mul_219",
			"nd_mode": true,
			"operation": 1,
			"top": "825",
			"type": "elementwise",
			"weights": {}
		},
		{
			"bottom": "",
			"constant_blob": 289,
			"debug_info": "Mul_216_load_constant_0",
			"h": 1,
			"k": 1,
			"n": 1,
			"name": "Mul_216_load_constant_0",
			"nd_rank": 1,
			"top": "821",
			"type": "load_constant",
			"w": 1,
			"weights": {}
		},
		{
			"alpha": 1,
			"beta": 0,
			"bottom": "821,681",
			"debug_info": "Mul_216",
			"fused_relu": 0,
			"name": "Mul_216",
			"nd_mode": true,
			"operation": 1,
			"top": "822",
			"type": "elementwise",
			"weights": {}
		},
		{
			"alpha": 1,
			"beta": 0,
			"bottom": "822,825",
			"debug_info": "Add_220",
			"fused_relu": 0,
			"name": "Add_220",
			"nd_mode": true,
			"operation": 0,
			"top": "826",
			"type": "elementwise",
			"weights": {}
		},
		{
			"alpha": 1,
			"beta": 0,
			"bottom": "826,830",
			"debug_info": "Add_225",
			"fused_relu": 0,
			"name": "Add_225",
			"nd_mode": true,
			"operation": 0,
			"top": "831",
			"type": "elementwise",
			"weights": {}
		},
		{
			"bottom": "831",
			"debug_info": "Relu_226",
			"mode": 0,
			"name": "Relu_226",
			"top": "832",
			"type": "activation",
			"weights": {}
		},
		{
			"C": 64,
			"K": 64,
			"Nx": 3,
			"Ny": 3,
			"blob_weights_f16": 291,
			"bottom": "832",
			"debug_info": "Conv_227",
			"fused_relu": 0,
			"fused_tanh": 0,
			"has_batch_norm": 0,
			"has_biases": 0,
			"n_groups": 64,
			"n_parallel": 1,
			"name": "Conv_227",
			"pad_b": 1,
			"pad_fill_mode": 0,
			"pad_l": 1,
			"pad_mode": 0,
			"pad_r": 1,
			"pad_t": 1,
			"pad_value": 0,
			"top": "833",
			"type": "convolution",
			"weights": {}
		},
		{
			"C": 64,
			"K": 64,
			"Nx": 1,
			"Ny": 1,
			"blob_biases": 293,
			"blob_weights_f16": 295,
			"bottom": "833",
			"debug_info": "Conv_228",
			"fused_relu": 0,
			"fused_tanh": 0,
			"has_batch_norm": 0,
			"has_biases": 1,
			"n_groups": 1,
			"n_parallel": 1,
			"name": "Conv_228",
			"pad_b": 0,
			"pad_fill_mode": 0,
			"pad_l": 0,
			"pad_mode": 0,
			"pad_r": 0,
			"pad_t": 0,
			"pad_value": 0,
			"top": "1533",
			"type": "convolution",
			"weights": {}
		},
		{
			"average_count_exclude_padding": 1,
			"avg_or_max": 1,
			"bottom": "1533",
			"debug_info": "MaxPool_239",
			"name": "MaxPool_239",
			"pad_b": 1,
			"pad_fill_mode": 0,
			"pad_l": 1,
			"pad_mode": 0,
			"pad_r": 1,
			"pad_t": 1,
			"pad_value": 0,
			"size_x": 3,
			"size_y": 3,
			"stride_x": 2,
			"stride_y": 2,
			"top": "846",
			"top_shape_style": 0,
			"type": "pool",
			"weights": {}
		},
		{
			"bottom": "",
			"constant_blob": 297,
			"debug_info": "Mul_240_load_constant_0",
			"h": 1,
			"k": 1,
			"n": 1,
			"name": "Mul_240_load_constant_0",
			"nd_rank": 1,
			"top": "845",
			"type": "load_constant",
			"w": 1,
			"weights": {}
		},
		{
			"alpha": 1,
			"beta": 0,
			"bottom": "845,846",
			"debug_info": "Mul_240",
			"fused_relu": 0,
			"name": "Mul_240",
			"nd_mode": true,
			"operation": 1,
			"top": "847",
			"type": "elementwise",
			"weights": {}
		},
		{
			"bottom": "",
			"constant_blob": 299,
			"debug_info": "Mul_236_load_constant_0",
			"h": 1,
			"k": 1,
			"n": 1,
			"name": "Mul_236_load_constant_0",
			"nd_rank": 1,
			"top": "842",
			"type": "load_constant",
			"w": 1,
			"weights": {}
		},
		{
			"alpha": 1,
			"beta": 0,
			"bottom": "842,682",
			"debug_info": "Mul_236",
			"fused_relu": 0,
			"name": "Mul_236",
			"nd_mode": true,
			"operation": 1,
			"top": "843",
			"type": "elementwise",
			"weights": {}
		},
		{
			"alpha": 1,
			"beta": 0,
			"bottom": "843,847",
			"debug_info": "Add_241",
			"fused_relu": 0,
			"name": "Add_241",
			"nd_mode": true,
			"operation": 0,
			"top": "848",
			"type": "elementwise",
			"weights": {}
		},
		{
			"bottom": "848",
			"debug_info": "Relu_242",
			"mode": 0,
			"name": "Relu_242",
			"top": "849",
			"type": "activation",
			"weights": {}
		},
		{
			"C": 64,
			"K": 64,
			"Nx": 3,
			"Ny": 3,
			"blob_weights_f16": 301,
			"bottom": "849",
			"debug_info": "Conv_243",
			"fused_relu": 0,
			"fused_tanh": 0,
			"has_batch_norm": 0,
			"has_biases": 0,
			"n_groups": 64,
			"n_parallel": 1,
			"name": "Conv_243",
			"pad_b": 1,
			"pad_fill_mode": 0,
			"pad_l": 1,
			"pad_mode": 0,
			"pad_r": 1,
			"pad_t": 1,
			"pad_value": 0,
			"top": "850",
			"type": "convolution",
			"weights": {}
		},
		{
			"C": 64,
			"K": 64,
			"Nx": 1,
			"Ny": 1,
			"blob_biases": 303,
			"blob_weights_f16": 305,
			"bottom": "850",
			"debug_info": "Conv_244",
			"fused_relu": 0,
			"fused_tanh": 0,
			"has_batch_norm": 0,
			"has_biases": 1,
			"n_groups": 1,
			"n_parallel": 1,
			"name": "Conv_244",
			"pad_b": 0,
			"pad_fill_mode": 0,
			"pad_l": 0,
			"pad_mode": 0,
			"pad_r": 0,
			"pad_t": 0,
			"pad_value": 0,
			"top": "1536",
			"type": "convolution",
			"weights": {}
		},
		{
			"align_corners": 0,
			"bottom": "1536",
			"debug_info": "Upsample_255",
			"fractional_scaling_factor_x": 1,
			"fractional_scaling_factor_y": 1,
			"is_legacy_mode": 1,
			"mode": 0,
			"name": "Upsample_255",
			"scaling_factor_x": 2,
			"scaling_factor_y": 2,
			"top": "866",
			"type": "upsample",
			"use_fractional_scale_factors": false,
			"weights": {}
		},
		{
			"bottom": "",
			"constant_blob": 307,
			"debug_info": "Mul_256_load_constant_0",
			"h": 1,
			"k": 1,
			"n": 1,
			"name": "Mul_256_load_constant_0",
			"nd_rank": 1,
			"top": "862",
			"type": "load_constant",
			"w": 1,
			"weights": {}
		},
		{
			"alpha": 1,
			"beta": 0,
			"bottom": "862,866",
			"debug_info": "Mul_256",
			"fused_relu": 0,
			"name": "Mul_256",
			"nd_mode": true,
			"operation": 1,
			"top": "867",
			"type": "elementwise",
			"weights": {}
		},
		{
			"bottom": "",
			"constant_blob": 309,
			"debug_info": "Mul_252_load_constant_0",
			"h": 1,
			"k": 1,
			"n": 1,
			"name": "Mul_252_load_constant_0",
			"nd_rank": 1,
			"top": "859",
			"type": "load_constant",
			"w": 1,
			"weights": {}
		},
		{
			"alpha": 1,
			"beta": 0,
			"bottom": "859,1533",
			"debug_info": "Mul_252",
			"fused_relu": 0,
			"name": "Mul_252",
			"nd_mode": true,
			"operation": 1,
			"top": "860",
			"type": "elementwise",
			"weights": {}
		},
		{
			"alpha": 1,
			"beta": 0,
			"bottom": "860,867",
			"debug_info": "Add_257",
			"fused_relu": 0,
			"name": "Add_257",
			"nd_mode": true,
			"operation": 0,
			"top": "868",
			"type": "elementwise",
			"weights": {}
		},
		{
			"bottom": "868",
			"debug_info": "Relu_258",
			"mode": 0,
			"name": "Relu_258",
			"top": "869",
			"type": "activation",
			"weights": {}
		},
		{
			"C": 64,
			"K": 64,
			"Nx": 3,
			"Ny": 3,
			"blob_weights_f16": 311,
			"bottom": "869",
			"debug_info": "Conv_259",
			"fused_relu": 0,
			"fused_tanh": 0,
			"has_batch_norm": 0,
			"has_biases": 0,
			"n_groups": 64,
			"n_parallel": 1,
			"name": "Conv_259",
			"pad_b": 1,
			"pad_fill_mode": 0,
			"pad_l": 1,
			"pad_mode": 0,
			"pad_r": 1,
			"pad_t": 1,
			"pad_value": 0,
			"top": "870",
			"type": "convolution",
			"weights": {}
		},
		{
			"C": 64,
			"K": 64,
			"Nx": 1,
			"Ny": 1,
			"blob_biases": 313,
			"blob_weights_f16": 315,
			"bottom": "870",
			"debug_info": "Conv_260",
			"fused_relu": 0,
			"fused_tanh": 0,
			"has_batch_norm": 0,
			"has_biases": 1,
			"n_groups": 1,
			"n_parallel": 1,
			"name": "Conv_260",
			"pad_b": 0,
			"pad_fill_mode": 0,
			"pad_l": 0,
			"pad_mode": 0,
			"pad_r": 0,
			"pad_t": 0,
			"pad_value": 0,
			"top": "1539",
			"type": "convolution",
			"weights": {}
		},
		{
			"align_corners": 0,
			"bottom": "1539",
			"debug_info": "Upsample_271",
			"fractional_scaling_factor_x": 1,
			"fractional_scaling_factor_y": 1,
			"is_legacy_mode": 1,
			"mode": 0,
			"name": "Upsample_271",
			"scaling_factor_x": 2,
			"scaling_factor_y": 2,
			"top": "886",
			"type": "upsample",
			"use_fractional_scale_factors": false,
			"weights": {}
		},
		{
			"bottom": "",
			"constant_blob": 317,
			"debug_info": "Mul_272_load_constant_0",
			"h": 1,
			"k": 1,
			"n": 1,
			"name": "Mul_272_load_constant_0",
			"nd_rank": 1,
			"top": "882",
			"type": "load_constant",
			"w": 1,
			"weights": {}
		},
		{
			"alpha": 1,
			"beta": 0,
			"bottom": "882,886",
			"debug_info": "Mul_272",
			"fused_relu": 0,
			"name": "Mul_272",
			"nd_mode": true,
			"operation": 1,
			"top": "887",
			"type": "elementwise",
			"weights": {}
		},
		{
			"bottom": "",
			"constant_blob": 319,
			"debug_info": "Mul_268_load_constant_0",
			"h": 1,
			"k": 1,
			"n": 1,
			"name": "Mul_268_load_constant_0",
			"nd_rank": 1,
			"top": "879",
			"type": "load_constant",
			"w": 1,
			"weights": {}
		},
		{
			"alpha": 1,
			"beta": 0,
			"bottom": "879,1530",
			"debug_info": "Mul_268",
			"fused_relu": 0,
			"name": "Mul_268",
			"nd_mode": true,
			"operation": 1,
			"top": "880",
			"type": "elementwise",
			"weights": {}
		},
		{
			"alpha": 1,
			"beta": 0,
			"bottom": "880,887",
			"debug_info": "Add_273",
			"fused_relu": 0,
			"name": "Add_273",
			"nd_mode": true,
			"operation": 0,
			"top": "888",
			"type": "elementwise",
			"weights": {}
		},
		{
			"bottom": "888",
			"debug_info": "Relu_274",
			"mode": 0,
			"name": "Relu_274",
			"top": "889",
			"type": "activation",
			"weights": {}
		},
		{
			"C": 64,
			"K": 64,
			"Nx": 3,
			"Ny": 3,
			"blob_weights_f16": 321,
			"bottom": "889",
			"debug_info": "Conv_275",
			"fused_relu": 0,
			"fused_tanh": 0,
			"has_batch_norm": 0,
			"has_biases": 0,
			"n_groups": 64,
			"n_parallel": 1,
			"name": "Conv_275",
			"pad_b": 1,
			"pad_fill_mode": 0,
			"pad_l": 1,
			"pad_mode": 0,
			"pad_r": 1,
			"pad_t": 1,
			"pad_value": 0,
			"top": "890",
			"type": "convolution",
			"weights": {}
		},
		{
			"C": 64,
			"K": 64,
			"Nx": 1,
			"Ny": 1,
			"blob_biases": 323,
			"blob_weights_f16": 325,
			"bottom": "890",
			"debug_info": "Conv_276",
			"fused_relu": 0,
			"fused_tanh": 0,
			"has_batch_norm": 0,
			"has_biases": 1,
			"n_groups": 1,
			"n_parallel": 1,
			"name": "Conv_276",
			"pad_b": 0,
			"pad_fill_mode": 0,
			"pad_l": 0,
			"pad_mode": 0,
			"pad_r": 0,
			"pad_t": 0,
			"pad_value": 0,
			"top": "1542",
			"type": "convolution",
			"weights": {}
		},
		{
			"align_corners": 0,
			"bottom": "1542",
			"debug_info": "Upsample_287",
			"fractional_scaling_factor_x": 1,
			"fractional_scaling_factor_y": 1,
			"is_legacy_mode": 1,
			"mode": 0,
			"name": "Upsample_287",
			"scaling_factor_x": 2,
			"scaling_factor_y": 2,
			"top": "906",
			"type": "upsample",
			"use_fractional_scale_factors": false,
			"weights": {}
		},
		{
			"bottom": "",
			"constant_blob": 327,
			"debug_info": "Mul_288_load_constant_0",
			"h": 1,
			"k": 1,
			"n": 1,
			"name": "Mul_288_load_constant_0",
			"nd_rank": 1,
			"top": "902",
			"type": "load_constant",
			"w": 1,
			"weights": {}
		},
		{
			"alpha": 1,
			"beta": 0,
			"bottom": "902,906",
			"debug_info": "Mul_288",
			"fused_relu": 0,
			"name": "Mul_288",
			"nd_mode": true,
			"operation": 1,
			"top": "907",
			"type": "elementwise",
			"weights": {}
		},
		{
			"bottom": "",
			"constant_blob": 329,
			"debug_info": "Mul_284_load_constant_0",
			"h": 1,
			"k": 1,
			"n": 1,
			"name": "Mul_284_load_constant_0",
			"nd_rank": 1,
			"top": "899",
			"type": "load_constant",
			"w": 1,
			"weights": {}
		},
		{
			"alpha": 1,
			"beta": 0,
			"bottom": "899,1527",
			"debug_info": "Mul_284",
			"fused_relu": 0,
			"name": "Mul_284",
			"nd_mode": true,
			"operation": 1,
			"top": "900",
			"type": "elementwise",
			"weights": {}
		},
		{
			"alpha": 1,
			"beta": 0,
			"bottom": "900,907",
			"debug_info": "Add_289",
			"fused_relu": 0,
			"name": "Add_289",
			"nd_mode": true,
			"operation": 0,
			"top": "908",
			"type": "elementwise",
			"weights": {}
		},
		{
			"bottom": "908",
			"debug_info": "Relu_290",
			"mode": 0,
			"name": "Relu_290",
			"top": "909",
			"type": "activation",
			"weights": {}
		},
		{
			"C": 64,
			"K": 64,
			"Nx": 3,
			"Ny": 3,
			"blob_weights_f16": 331,
			"bottom": "909",
			"debug_info": "Conv_291",
			"fused_relu": 0,
			"fused_tanh": 0,
			"has_batch_norm": 0,
			"has_biases": 0,
			"n_groups": 64,
			"n_parallel": 1,
			"name": "Conv_291",
			"pad_b": 1,
			"pad_fill_mode": 0,
			"pad_l": 1,
			"pad_mode": 0,
			"pad_r": 1,
			"pad_t": 1,
			"pad_value": 0,
			"top": "910",
			"type": "convolution",
			"weights": {}
		},
		{
			"C": 64,
			"K": 64,
			"Nx": 1,
			"Ny": 1,
			"blob_biases": 333,
			"blob_weights_f16": 335,
			"bottom": "910",
			"debug_info": "Conv_292",
			"fused_relu": 0,
			"fused_tanh": 0,
			"has_batch_norm": 0,
			"has_biases": 1,
			"n_groups": 1,
			"n_parallel": 1,
			"name": "Conv_292",
			"pad_b": 0,
			"pad_fill_mode": 0,
			"pad_l": 0,
			"pad_mode": 0,
			"pad_r": 0,
			"pad_t": 0,
			"pad_value": 0,
			"top": "1545",
			"type": "convolution",
			"weights": {}
		},
		{
			"align_corners": 0,
			"bottom": "1545",
			"debug_info": "Upsample_303",
			"fractional_scaling_factor_x": 1,
			"fractional_scaling_factor_y": 1,
			"is_legacy_mode": 1,
			"mode": 0,
			"name": "Upsample_303",
			"scaling_factor_x": 2,
			"scaling_factor_y": 2,
			"top": "926",
			"type": "upsample",
			"use_fractional_scale_factors": false,
			"weights": {}
		},
		{
			"bottom": "",
			"constant_blob": 337,
			"debug_info": "Mul_304_load_constant_0",
			"h": 1,
			"k": 1,
			"n": 1,
			"name": "Mul_304_load_constant_0",
			"nd_rank": 1,
			"top": "922",
			"type": "load_constant",
			"w": 1,
			"weights": {}
		},
		{
			"alpha": 1,
			"beta": 0,
			"bottom": "922,926",
			"debug_info": "Mul_304",
			"fused_relu": 0,
			"name": "Mul_304",
			"nd_mode": true,
			"operation": 1,
			"top": "927",
			"type": "elementwise",
			"weights": {}
		},
		{
			"bottom": "",
			"constant_blob": 339,
			"debug_info": "Mul_300_load_constant_0",
			"h": 1,
			"k": 1,
			"n": 1,
			"name": "Mul_300_load_constant_0",
			"nd_rank": 1,
			"top": "919",
			"type": "load_constant",
			"w": 1,
			"weights": {}
		},
		{
			"alpha": 1,
			"beta": 0,
			"bottom": "919,1518",
			"debug_info": "Mul_300",
			"fused_relu": 0,
			"name": "Mul_300",
			"nd_mode": true,
			"operation": 1,
			"top": "920",
			"type": "elementwise",
			"weights": {}
		},
		{
			"alpha": 1,
			"beta": 0,
			"bottom": "920,927",
			"debug_info": "Add_305",
			"fused_relu": 0,
			"name": "Add_305",
			"nd_mode": true,
			"operation": 0,
			"top": "928",
			"type": "elementwise",
			"weights": {}
		},
		{
			"bottom": "928",
			"debug_info": "Relu_306",
			"mode": 0,
			"name": "Relu_306",
			"top": "929",
			"type": "activation",
			"weights": {}
		},
		{
			"C": 64,
			"K": 64,
			"Nx": 3,
			"Ny": 3,
			"blob_weights_f16": 341,
			"bottom": "929",
			"debug_info": "Conv_307",
			"fused_relu": 0,
			"fused_tanh": 0,
			"has_batch_norm": 0,
			"has_biases": 0,
			"n_groups": 64,
			"n_parallel": 1,
			"name": "Conv_307",
			"pad_b": 1,
			"pad_fill_mode": 0,
			"pad_l": 1,
			"pad_mode": 0,
			"pad_r": 1,
			"pad_t": 1,
			"pad_value": 0,
			"top": "930",
			"type": "convolution",
			"weights": {}
		},
		{
			"C": 64,
			"K": 64,
			"Nx": 1,
			"Ny": 1,
			"blob_biases": 343,
			"blob_weights_f16": 345,
			"bottom": "930",
			"debug_info": "Conv_308",
			"fused_relu": 0,
			"fused_tanh": 0,
			"has_batch_norm": 0,
			"has_biases": 1,
			"n_groups": 1,
			"n_parallel": 1,
			"name": "Conv_308",
			"pad_b": 0,
			"pad_fill_mode": 0,
			"pad_l": 0,
			"pad_mode": 0,
			"pad_r": 0,
			"pad_t": 0,
			"pad_value": 0,
			"top": "1548",
			"type": "convolution",
			"weights": {}
		},
		{
			"average_count_exclude_padding": 1,
			"avg_or_max": 1,
			"bottom": "1548",
			"debug_info": "MaxPool_323",
			"name": "MaxPool_323",
			"pad_b": 1,
			"pad_fill_mode": 0,
			"pad_l": 1,
			"pad_mode": 0,
			"pad_r": 1,
			"pad_t": 1,
			"pad_value": 0,
			"size_x": 3,
			"size_y": 3,
			"stride_x": 2,
			"stride_y": 2,
			"top": "947",
			"top_shape_style": 0,
			"type": "pool",
			"weights": {}
		},
		{
			"bottom": "",
			"constant_blob": 347,
			"debug_info": "Mul_324_load_constant_0",
			"h": 1,
			"k": 1,
			"n": 1,
			"name": "Mul_324_load_constant_0",
			"nd_rank": 1,
			"top": "946",
			"type": "load_constant",
			"w": 1,
			"weights": {}
		},
		{
			"alpha": 1,
			"beta": 0,
			"bottom": "946,947",
			"debug_info": "Mul_324",
			"fused_relu": 0,
			"name": "Mul_324",
			"nd_mode": true,
			"operation": 1,
			"top": "948",
			"type": "elementwise",
			"weights": {}
		},
		{
			"bottom": "",
			"constant_blob": 349,
			"debug_info": "Mul_319_load_constant_0",
			"h": 1,
			"k": 1,
			"n": 1,
			"name": "Mul_319_load_constant_0",
			"nd_rank": 1,
			"top": "942",
			"type": "load_constant",
			"w": 1,
			"weights": {}
		},
		{
			"alpha": 1,
			"beta": 0,
			"bottom": "942,1545",
			"debug_info": "Mul_319",
			"fused_relu": 0,
			"name": "Mul_319",
			"nd_mode": true,
			"operation": 1,
			"top": "943",
			"type": "elementwise",
			"weights": {}
		},
		{
			"bottom": "",
			"constant_blob": 351,
			"debug_info": "Mul_316_load_constant_0",
			"h": 1,
			"k": 1,
			"n": 1,
			"name": "Mul_316_load_constant_0",
			"nd_rank": 1,
			"top": "939",
			"type": "load_constant",
			"w": 1,
			"weights": {}
		},
		{
			"alpha": 1,
			"beta": 0,
			"bottom": "939,1527",
			"debug_info": "Mul_316",
			"fused_relu": 0,
			"name": "Mul_316",
			"nd_mode": true,
			"operation": 1,
			"top": "940",
			"type": "elementwise",
			"weights": {}
		},
		{
			"alpha": 1,
			"beta": 0,
			"bottom": "940,943",
			"debug_info": "Add_320",
			"fused_relu": 0,
			"name": "Add_320",
			"nd_mode": true,
			"operation": 0,
			"top": "944",
			"type": "elementwise",
			"weights": {}
		},
		{
			"alpha": 1,
			"beta": 0,
			"bottom": "944,948",
			"debug_info": "Add_325",
			"fused_relu": 0,
			"name": "Add_325",
			"nd_mode": true,
			"operation": 0,
			"top": "949",
			"type": "elementwise",
			"weights": {}
		},
		{
			"bottom": "949",
			"debug_info": "Relu_326",
			"mode": 0,
			"name": "Relu_326",
			"top": "950",
			"type": "activation",
			"weights": {}
		},
		{
			"C": 64,
			"K": 64,
			"Nx": 3,
			"Ny": 3,
			"blob_weights_f16": 353,
			"bottom": "950",
			"debug_info": "Conv_327",
			"fused_relu": 0,
			"fused_tanh": 0,
			"has_batch_norm": 0,
			"has_biases": 0,
			"n_groups": 64,
			"n_parallel": 1,
			"name": "Conv_327",
			"pad_b": 1,
			"pad_fill_mode": 0,
			"pad_l": 1,
			"pad_mode": 0,
			"pad_r": 1,
			"pad_t": 1,
			"pad_value": 0,
			"top": "951",
			"type": "convolution",
			"weights": {}
		},
		{
			"C": 64,
			"K": 64,
			"Nx": 1,
			"Ny": 1,
			"blob_biases": 355,
			"blob_weights_f16": 357,
			"bottom": "951",
			"debug_info": "Conv_328",
			"fused_relu": 0,
			"fused_tanh": 0,
			"has_batch_norm": 0,
			"has_biases": 1,
			"n_groups": 1,
			"n_parallel": 1,
			"name": "Conv_328",
			"pad_b": 0,
			"pad_fill_mode": 0,
			"pad_l": 0,
			"pad_mode": 0,
			"pad_r": 0,
			"pad_t": 0,
			"pad_value": 0,
			"top": "1551",
			"type": "convolution",
			"weights": {}
		},
		{
			"average_count_exclude_padding": 1,
			"avg_or_max": 1,
			"bottom": "1551",
			"debug_info": "MaxPool_343",
			"name": "MaxPool_343",
			"pad_b": 1,
			"pad_fill_mode": 0,
			"pad_l": 1,
			"pad_mode": 0,
			"pad_r": 1,
			"pad_t": 1,
			"pad_value": 0,
			"size_x": 3,
			"size_y": 3,
			"stride_x": 2,
			"stride_y": 2,
			"top": "968",
			"top_shape_style": 0,
			"type": "pool",
			"weights": {}
		},
		{
			"bottom": "",
			"constant_blob": 359,
			"debug_info": "Mul_344_load_constant_0",
			"h": 1,
			"k": 1,
			"n": 1,
			"name": "Mul_344_load_constant_0",
			"nd_rank": 1,
			"top": "967",
			"type": "load_constant",
			"w": 1,
			"weights": {}
		},
		{
			"alpha": 1,
			"beta": 0,
			"bottom": "967,968",
			"debug_info": "Mul_344",
			"fused_relu": 0,
			"name": "Mul_344",
			"nd_mode": true,
			"operation": 1,
			"top": "969",
			"type": "elementwise",
			"weights": {}
		},
		{
			"bottom": "",
			"constant_blob": 361,
			"debug_info": "Mul_339_load_constant_0",
			"h": 1,
			"k": 1,
			"n": 1,
			"name": "Mul_339_load_constant_0",
			"nd_rank": 1,
			"top": "963",
			"type": "load_constant",
			"w": 1,
			"weights": {}
		},
		{
			"alpha": 1,
			"beta": 0,
			"bottom": "963,1542",
			"debug_info": "Mul_339",
			"fused_relu": 0,
			"name": "Mul_339",
			"nd_mode": true,
			"operation": 1,
			"top": "964",
			"type": "elementwise",
			"weights": {}
		},
		{
			"bottom": "",
			"constant_blob": 363,
			"debug_info": "Mul_336_load_constant_0",
			"h": 1,
			"k": 1,
			"n": 1,
			"name": "Mul_336_load_constant_0",
			"nd_rank": 1,
			"top": "960",
			"type": "load_constant",
			"w": 1,
			"weights": {}
		},
		{
			"alpha": 1,
			"beta": 0,
			"bottom": "960,1530",
			"debug_info": "Mul_336",
			"fused_relu": 0,
			"name": "Mul_336",
			"nd_mode": true,
			"operation": 1,
			"top": "961",
			"type": "elementwise",
			"weights": {}
		},
		{
			"alpha": 1,
			"beta": 0,
			"bottom": "961,964",
			"debug_info": "Add_340",
			"fused_relu": 0,
			"name": "Add_340",
			"nd_mode": true,
			"operation": 0,
			"top": "965",
			"type": "elementwise",
			"weights": {}
		},
		{
			"alpha": 1,
			"beta": 0,
			"bottom": "965,969",
			"debug_info": "Add_345",
			"fused_relu": 0,
			"name": "Add_345",
			"nd_mode": true,
			"operation": 0,
			"top": "970",
			"type": "elementwise",
			"weights": {}
		},
		{
			"bottom": "970",
			"debug_info": "Relu_346",
			"mode": 0,
			"name": "Relu_346",
			"top": "971",
			"type": "activation",
			"weights": {}
		},
		{
			"C": 64,
			"K": 64,
			"Nx": 3,
			"Ny": 3,
			"blob_weights_f16": 365,
			"bottom": "971",
			"debug_info": "Conv_347",
			"fused_relu": 0,
			"fused_tanh": 0,
			"has_batch_norm": 0,
			"has_biases": 0,
			"n_groups": 64,
			"n_parallel": 1,
			"name": "Conv_347",
			"pad_b": 1,
			"pad_fill_mode": 0,
			"pad_l": 1,
			"pad_mode": 0,
			"pad_r": 1,
			"pad_t": 1,
			"pad_value": 0,
			"top": "972",
			"type": "convolution",
			"weights": {}
		},
		{
			"C": 64,
			"K": 64,
			"Nx": 1,
			"Ny": 1,
			"blob_biases": 367,
			"blob_weights_f16": 369,
			"bottom": "972",
			"debug_info": "Conv_348",
			"fused_relu": 0,
			"fused_tanh": 0,
			"has_batch_norm": 0,
			"has_biases": 1,
			"n_groups": 1,
			"n_parallel": 1,
			"name": "Conv_348",
			"pad_b": 0,
			"pad_fill_mode": 0,
			"pad_l": 0,
			"pad_mode": 0,
			"pad_r": 0,
			"pad_t": 0,
			"pad_value": 0,
			"top": "1554",
			"type": "convolution",
			"weights": {}
		},
		{
			"average_count_exclude_padding": 1,
			"avg_or_max": 1,
			"bottom": "1554",
			"debug_info": "MaxPool_363",
			"name": "MaxPool_363",
			"pad_b": 1,
			"pad_fill_mode": 0,
			"pad_l": 1,
			"pad_mode": 0,
			"pad_r": 1,
			"pad_t": 1,
			"pad_value": 0,
			"size_x": 3,
			"size_y": 3,
			"stride_x": 2,
			"stride_y": 2,
			"top": "989",
			"top_shape_style": 0,
			"type": "pool",
			"weights": {}
		},
		{
			"bottom": "",
			"constant_blob": 371,
			"debug_info": "Mul_364_load_constant_0",
			"h": 1,
			"k": 1,
			"n": 1,
			"name": "Mul_364_load_constant_0",
			"nd_rank": 1,
			"top": "988",
			"type": "load_constant",
			"w": 1,
			"weights": {}
		},
		{
			"alpha": 1,
			"beta": 0,
			"bottom": "988,989",
			"debug_info": "Mul_364",
			"fused_relu": 0,
			"name": "Mul_364",
			"nd_mode": true,
			"operation": 1,
			"top": "990",
			"type": "elementwise",
			"weights": {}
		},
		{
			"bottom": "",
			"constant_blob": 373,
			"debug_info": "Mul_359_load_constant_0",
			"h": 1,
			"k": 1,
			"n": 1,
			"name": "Mul_359_load_constant_0",
			"nd_rank": 1,
			"top": "984",
			"type": "load_constant",
			"w": 1,
			"weights": {}
		},
		{
			"alpha": 1,
			"beta": 0,
			"bottom": "984,1539",
			"debug_info": "Mul_359",
			"fused_relu": 0,
			"name": "Mul_359",
			"nd_mode": true,
			"operation": 1,
			"top": "985",
			"type": "elementwise",
			"weights": {}
		},
		{
			"bottom": "",
			"constant_blob": 375,
			"debug_info": "Mul_356_load_constant_0",
			"h": 1,
			"k": 1,
			"n": 1,
			"name": "Mul_356_load_constant_0",
			"nd_rank": 1,
			"top": "981",
			"type": "load_constant",
			"w": 1,
			"weights": {}
		},
		{
			"alpha": 1,
			"beta": 0,
			"bottom": "981,1533",
			"debug_info": "Mul_356",
			"fused_relu": 0,
			"name": "Mul_356",
			"nd_mode": true,
			"operation": 1,
			"top": "982",
			"type": "elementwise",
			"weights": {}
		},
		{
			"alpha": 1,
			"beta": 0,
			"bottom": "982,985",
			"debug_info": "Add_360",
			"fused_relu": 0,
			"name": "Add_360",
			"nd_mode": true,
			"operation": 0,
			"top": "986",
			"type": "elementwise",
			"weights": {}
		},
		{
			"alpha": 1,
			"beta": 0,
			"bottom": "986,990",
			"debug_info": "Add_365",
			"fused_relu": 0,
			"name": "Add_365",
			"nd_mode": true,
			"operation": 0,
			"top": "991",
			"type": "elementwise",
			"weights": {}
		},
		{
			"bottom": "991",
			"debug_info": "Relu_366",
			"mode": 0,
			"name": "Relu_366",
			"top": "992",
			"type": "activation",
			"weights": {}
		},
		{
			"C": 64,
			"K": 64,
			"Nx": 3,
			"Ny": 3,
			"blob_weights_f16": 377,
			"bottom": "992",
			"debug_info": "Conv_367",
			"fused_relu": 0,
			"fused_tanh": 0,
			"has_batch_norm": 0,
			"has_biases": 0,
			"n_groups": 64,
			"n_parallel": 1,
			"name": "Conv_367",
			"pad_b": 1,
			"pad_fill_mode": 0,
			"pad_l": 1,
			"pad_mode": 0,
			"pad_r": 1,
			"pad_t": 1,
			"pad_value": 0,
			"top": "993",
			"type": "convolution",
			"weights": {}
		},
		{
			"C": 64,
			"K": 64,
			"Nx": 1,
			"Ny": 1,
			"blob_biases": 379,
			"blob_weights_f16": 381,
			"bottom": "993",
			"debug_info": "Conv_368",
			"fused_relu": 0,
			"fused_tanh": 0,
			"has_batch_norm": 0,
			"has_biases": 1,
			"n_groups": 1,
			"n_parallel": 1,
			"name": "Conv_368",
			"pad_b": 0,
			"pad_fill_mode": 0,
			"pad_l": 0,
			"pad_mode": 0,
			"pad_r": 0,
			"pad_t": 0,
			"pad_value": 0,
			"top": "1557",
			"type": "convolution",
			"weights": {}
		},
		{
			"average_count_exclude_padding": 1,
			"avg_or_max": 1,
			"bottom": "1557",
			"debug_info": "MaxPool_379",
			"name": "MaxPool_379",
			"pad_b": 1,
			"pad_fill_mode": 0,
			"pad_l": 1,
			"pad_mode": 0,
			"pad_r": 1,
			"pad_t": 1,
			"pad_value": 0,
			"size_x": 3,
			"size_y": 3,
			"stride_x": 2,
			"stride_y": 2,
			"top": "1006",
			"top_shape_style": 0,
			"type": "pool",
			"weights": {}
		},
		{
			"bottom": "",
			"constant_blob": 383,
			"debug_info": "Mul_380_load_constant_0",
			"h": 1,
			"k": 1,
			"n": 1,
			"name": "Mul_380_load_constant_0",
			"nd_rank": 1,
			"top": "1005",
			"type": "load_constant",
			"w": 1,
			"weights": {}
		},
		{
			"alpha": 1,
			"beta": 0,
			"bottom": "1005,1006",
			"debug_info": "Mul_380",
			"fused_relu": 0,
			"name": "Mul_380",
			"nd_mode": true,
			"operation": 1,
			"top": "1007",
			"type": "elementwise",
			"weights": {}
		},
		{
			"bottom": "",
			"constant_blob": 385,
			"debug_info": "Mul_376_load_constant_0",
			"h": 1,
			"k": 1,
			"n": 1,
			"name": "Mul_376_load_constant_0",
			"nd_rank": 1,
			"top": "1002",
			"type": "load_constant",
			"w": 1,
			"weights": {}
		},
		{
			"alpha": 1,
			"beta": 0,
			"bottom": "1002,1536",
			"debug_info": "Mul_376",
			"fused_relu": 0,
			"name": "Mul_376",
			"nd_mode": true,
			"operation": 1,
			"top": "1003",
			"type": "elementwise",
			"weights": {}
		},
		{
			"alpha": 1,
			"beta": 0,
			"bottom": "1003,1007",
			"debug_info": "Add_381",
			"fused_relu": 0,
			"name": "Add_381",
			"nd_mode": true,
			"operation": 0,
			"top": "1008",
			"type": "elementwise",
			"weights": {}
		},
		{
			"bottom": "1008",
			"debug_info": "Relu_382",
			"mode": 0,
			"name": "Relu_382",
			"top": "1009",
			"type": "activation",
			"weights": {}
		},
		{
			"C": 64,
			"K": 64,
			"Nx": 3,
			"Ny": 3,
			"blob_weights_f16": 387,
			"bottom": "1009",
			"debug_info": "Conv_383",
			"fused_relu": 0,
			"fused_tanh": 0,
			"has_batch_norm": 0,
			"has_biases": 0,
			"n_groups": 64,
			"n_parallel": 1,
			"name": "Conv_383",
			"pad_b": 1,
			"pad_fill_mode": 0,
			"pad_l": 1,
			"pad_mode": 0,
			"pad_r": 1,
			"pad_t": 1,
			"pad_value": 0,
			"top": "1010",
			"type": "convolution",
			"weights": {}
		},
		{
			"C": 64,
			"K": 64,
			"Nx": 1,
			"Ny": 1,
			"blob_biases": 389,
			"blob_weights_f16": 391,
			"bottom": "1010",
			"debug_info": "Conv_384",
			"fused_relu": 0,
			"fused_tanh": 0,
			"has_batch_norm": 0,
			"has_biases": 1,
			"n_groups": 1,
			"n_parallel": 1,
			"name": "Conv_384",
			"pad_b": 0,
			"pad_fill_mode": 0,
			"pad_l": 0,
			"pad_mode": 0,
			"pad_r": 0,
			"pad_t": 0,
			"pad_value": 0,
			"top": "1560",
			"type": "convolution",
			"weights": {}
		},
		{
			"align_corners": 0,
			"bottom": "1560",
			"debug_info": "Upsample_395",
			"fractional_scaling_factor_x": 1,
			"fractional_scaling_factor_y": 1,
			"is_legacy_mode": 1,
			"mode": 0,
			"name": "Upsample_395",
			"scaling_factor_x": 2,
			"scaling_factor_y": 2,
			"top": "1026",
			"type": "upsample",
			"use_fractional_scale_factors": false,
			"weights": {}
		},
		{
			"bottom": "",
			"constant_blob": 393,
			"debug_info": "Mul_396_load_constant_0",
			"h": 1,
			"k": 1,
			"n": 1,
			"name": "Mul_396_load_constant_0",
			"nd_rank": 1,
			"top": "1022",
			"type": "load_constant",
			"w": 1,
			"weights": {}
		},
		{
			"alpha": 1,
			"beta": 0,
			"bottom": "1022,1026",
			"debug_info": "Mul_396",
			"fused_relu": 0,
			"name": "Mul_396",
			"nd_mode": true,
			"operation": 1,
			"top": "1027",
			"type": "elementwise",
			"weights": {}
		},
		{
			"bottom": "",
			"constant_blob": 395,
			"debug_info": "Mul_392_load_constant_0",
			"h": 1,
			"k": 1,
			"n": 1,
			"name": "Mul_392_load_constant_0",
			"nd_rank": 1,
			"top": "1019",
			"type": "load_constant",
			"w": 1,
			"weights": {}
		},
		{
			"alpha": 1,
			"beta": 0,
			"bottom": "1019,1557",
			"debug_info": "Mul_392",
			"fused_relu": 0,
			"name": "Mul_392",
			"nd_mode": true,
			"operation": 1,
			"top": "1020",
			"type": "elementwise",
			"weights": {}
		},
		{
			"alpha": 1,
			"beta": 0,
			"bottom": "1020,1027",
			"debug_info": "Add_397",
			"fused_relu": 0,
			"name": "Add_397",
			"nd_mode": true,
			"operation": 0,
			"top": "1028",
			"type": "elementwise",
			"weights": {}
		},
		{
			"bottom": "1028",
			"debug_info": "Relu_398",
			"mode": 0,
			"name": "Relu_398",
			"top": "1029",
			"type": "activation",
			"weights": {}
		},
		{
			"C": 64,
			"K": 64,
			"Nx": 3,
			"Ny": 3,
			"blob_weights_f16": 397,
			"bottom": "1029",
			"debug_info": "Conv_399",
			"fused_relu": 0,
			"fused_tanh": 0,
			"has_batch_norm": 0,
			"has_biases": 0,
			"n_groups": 64,
			"n_parallel": 1,
			"name": "Conv_399",
			"pad_b": 1,
			"pad_fill_mode": 0,
			"pad_l": 1,
			"pad_mode": 0,
			"pad_r": 1,
			"pad_t": 1,
			"pad_value": 0,
			"top": "1030",
			"type": "convolution",
			"weights": {}
		},
		{
			"C": 64,
			"K": 64,
			"Nx": 1,
			"Ny": 1,
			"blob_biases": 399,
			"blob_weights_f16": 401,
			"bottom": "1030",
			"debug_info": "Conv_400",
			"fused_relu": 0,
			"fused_tanh": 0,
			"has_batch_norm": 0,
			"has_biases": 1,
			"n_groups": 1,
			"n_parallel": 1,
			"name": "Conv_400",
			"pad_b": 0,
			"pad_fill_mode": 0,
			"pad_l": 0,
			"pad_mode": 0,
			"pad_r": 0,
			"pad_t": 0,
			"pad_value": 0,
			"top": "1563",
			"type": "convolution",
			"weights": {}
		},
		{
			"align_corners": 0,
			"bottom": "1563",
			"debug_info": "Upsample_411",
			"fractional_scaling_factor_x": 1,
			"fractional_scaling_factor_y": 1,
			"is_legacy_mode": 1,
			"mode": 0,
			"name": "Upsample_411",
			"scaling_factor_x": 2,
			"scaling_factor_y": 2,
			"top": "1046",
			"type": "upsample",
			"use_fractional_scale_factors": false,
			"weights": {}
		},
		{
			"bottom": "",
			"constant_blob": 403,
			"debug_info": "Mul_412_load_constant_0",
			"h": 1,
			"k": 1,
			"n": 1,
			"name": "Mul_412_load_constant_0",
			"nd_rank": 1,
			"top": "1042",
			"type": "load_constant",
			"w": 1,
			"weights": {}
		},
		{
			"alpha": 1,
			"beta": 0,
			"bottom": "1042,1046",
			"debug_info": "Mul_412",
			"fused_relu": 0,
			"name": "Mul_412",
			"nd_mode": true,
			"operation": 1,
			"top": "1047",
			"type": "elementwise",
			"weights": {}
		},
		{
			"bottom": "",
			"constant_blob": 405,
			"debug_info": "Mul_408_load_constant_0",
			"h": 1,
			"k": 1,
			"n": 1,
			"name": "Mul_408_load_constant_0",
			"nd_rank": 1,
			"top": "1039",
			"type": "load_constant",
			"w": 1,
			"weights": {}
		},
		{
			"alpha": 1,
			"beta": 0,
			"bottom": "1039,1554",
			"debug_info": "Mul_408",
			"fused_relu": 0,
			"name": "Mul_408",
			"nd_mode": true,
			"operation": 1,
			"top": "1040",
			"type": "elementwise",
			"weights": {}
		},
		{
			"alpha": 1,
			"beta": 0,
			"bottom": "1040,1047",
			"debug_info": "Add_413",
			"fused_relu": 0,
			"name": "Add_413",
			"nd_mode": true,
			"operation": 0,
			"top": "1048",
			"type": "elementwise",
			"weights": {}
		},
		{
			"bottom": "1048",
			"debug_info": "Relu_414",
			"mode": 0,
			"name": "Relu_414",
			"top": "1049",
			"type": "activation",
			"weights": {}
		},
		{
			"C": 64,
			"K": 64,
			"Nx": 3,
			"Ny": 3,
			"blob_weights_f16": 407,
			"bottom": "1049",
			"debug_info": "Conv_415",
			"fused_relu": 0,
			"fused_tanh": 0,
			"has_batch_norm": 0,
			"has_biases": 0,
			"n_groups": 64,
			"n_parallel": 1,
			"name": "Conv_415",
			"pad_b": 1,
			"pad_fill_mode": 0,
			"pad_l": 1,
			"pad_mode": 0,
			"pad_r": 1,
			"pad_t": 1,
			"pad_value": 0,
			"top": "1050",
			"type": "convolution",
			"weights": {}
		},
		{
			"C": 64,
			"K": 64,
			"Nx": 1,
			"Ny": 1,
			"blob_biases": 409,
			"blob_weights_f16": 411,
			"bottom": "1050",
			"debug_info": "Conv_416",
			"fused_relu": 0,
			"fused_tanh": 0,
			"has_batch_norm": 0,
			"has_biases": 1,
			"n_groups": 1,
			"n_parallel": 1,
			"name": "Conv_416",
			"pad_b": 0,
			"pad_fill_mode": 0,
			"pad_l": 0,
			"pad_mode": 0,
			"pad_r": 0,
			"pad_t": 0,
			"pad_value": 0,
			"top": "1566",
			"type": "convolution",
			"weights": {}
		},
		{
			"align_corners": 0,
			"bottom": "1566",
			"debug_info": "Upsample_427",
			"fractional_scaling_factor_x": 1,
			"fractional_scaling_factor_y": 1,
			"is_legacy_mode": 1,
			"mode": 0,
			"name": "Upsample_427",
			"scaling_factor_x": 2,
			"scaling_factor_y": 2,
			"top": "1066",
			"type": "upsample",
			"use_fractional_scale_factors": false,
			"weights": {}
		},
		{
			"bottom": "",
			"constant_blob": 413,
			"debug_info": "Mul_428_load_constant_0",
			"h": 1,
			"k": 1,
			"n": 1,
			"name": "Mul_428_load_constant_0",
			"nd_rank": 1,
			"top": "1062",
			"type": "load_constant",
			"w": 1,
			"weights": {}
		},
		{
			"alpha": 1,
			"beta": 0,
			"bottom": "1062,1066",
			"debug_info": "Mul_428",
			"fused_relu": 0,
			"name": "Mul_428",
			"nd_mode": true,
			"operation": 1,
			"top": "1067",
			"type": "elementwise",
			"weights": {}
		},
		{
			"bottom": "",
			"constant_blob": 415,
			"debug_info": "Mul_424_load_constant_0",
			"h": 1,
			"k": 1,
			"n": 1,
			"name": "Mul_424_load_constant_0",
			"nd_rank": 1,
			"top": "1059",
			"type": "load_constant",
			"w": 1,
			"weights": {}
		},
		{
			"alpha": 1,
			"beta": 0,
			"bottom": "1059,1551",
			"debug_info": "Mul_424",
			"fused_relu": 0,
			"name": "Mul_424",
			"nd_mode": true,
			"operation": 1,
			"top": "1060",
			"type": "elementwise",
			"weights": {}
		},
		{
			"alpha": 1,
			"beta": 0,
			"bottom": "1060,1067",
			"debug_info": "Add_429",
			"fused_relu": 0,
			"name": "Add_429",
			"nd_mode": true,
			"operation": 0,
			"top": "1068",
			"type": "elementwise",
			"weights": {}
		},
		{
			"bottom": "1068",
			"debug_info": "Relu_430",
			"mode": 0,
			"name": "Relu_430",
			"top": "1069",
			"type": "activation",
			"weights": {}
		},
		{
			"C": 64,
			"K": 64,
			"Nx": 3,
			"Ny": 3,
			"blob_weights_f16": 417,
			"bottom": "1069",
			"debug_info": "Conv_431",
			"fused_relu": 0,
			"fused_tanh": 0,
			"has_batch_norm": 0,
			"has_biases": 0,
			"n_groups": 64,
			"n_parallel": 1,
			"name": "Conv_431",
			"pad_b": 1,
			"pad_fill_mode": 0,
			"pad_l": 1,
			"pad_mode": 0,
			"pad_r": 1,
			"pad_t": 1,
			"pad_value": 0,
			"top": "1070",
			"type": "convolution",
			"weights": {}
		},
		{
			"C": 64,
			"K": 64,
			"Nx": 1,
			"Ny": 1,
			"blob_biases": 419,
			"blob_weights_f16": 421,
			"bottom": "1070",
			"debug_info": "Conv_432",
			"fused_relu": 0,
			"fused_tanh": 0,
			"has_batch_norm": 0,
			"has_biases": 1,
			"n_groups": 1,
			"n_parallel": 1,
			"name": "Conv_432",
			"pad_b": 0,
			"pad_fill_mode": 0,
			"pad_l": 0,
			"pad_mode": 0,
			"pad_r": 0,
			"pad_t": 0,
			"pad_value": 0,
			"top": "1569",
			"type": "convolution",
			"weights": {}
		},
		{
			"align_corners": 0,
			"bottom": "1569",
			"debug_info": "Upsample_443",
			"fractional_scaling_factor_x": 1,
			"fractional_scaling_factor_y": 1,
			"is_legacy_mode": 1,
			"mode": 0,
			"name": "Upsample_443",
			"scaling_factor_x": 2,
			"scaling_factor_y": 2,
			"top": "1086",
			"type": "upsample",
			"use_fractional_scale_factors": false,
			"weights": {}
		},
		{
			"bottom": "",
			"constant_blob": 423,
			"debug_info": "Mul_444_load_constant_0",
			"h": 1,
			"k": 1,
			"n": 1,
			"name": "Mul_444_load_constant_0",
			"nd_rank": 1,
			"top": "1082",
			"type": "load_constant",
			"w": 1,
			"weights": {}
		},
		{
			"alpha": 1,
			"beta": 0,
			"bottom": "1082,1086",
			"debug_info": "Mul_444",
			"fused_relu": 0,
			"name": "Mul_444",
			"nd_mode": true,
			"operation": 1,
			"top": "1087",
			"type": "elementwise",
			"weights": {}
		},
		{
			"bottom": "",
			"constant_blob": 425,
			"debug_info": "Mul_440_load_constant_0",
			"h": 1,
			"k": 1,
			"n": 1,
			"name": "Mul_440_load_constant_0",
			"nd_rank": 1,
			"top": "1079",
			"type": "load_constant",
			"w": 1,
			"weights": {}
		},
		{
			"alpha": 1,
			"beta": 0,
			"bottom": "1079,1548",
			"debug_info": "Mul_440",
			"fused_relu": 0,
			"name": "Mul_440",
			"nd_mode": true,
			"operation": 1,
			"top": "1080",
			"type": "elementwise",
			"weights": {}
		},
		{
			"alpha": 1,
			"beta": 0,
			"bottom": "1080,1087",
			"debug_info": "Add_445",
			"fused_relu": 0,
			"name": "Add_445",
			"nd_mode": true,
			"operation": 0,
			"top": "1088",
			"type": "elementwise",
			"weights": {}
		},
		{
			"bottom": "1088",
			"debug_info": "Relu_446",
			"mode": 0,
			"name": "Relu_446",
			"top": "1089",
			"type": "activation",
			"weights": {}
		},
		{
			"C": 64,
			"K": 64,
			"Nx": 3,
			"Ny": 3,
			"blob_weights_f16": 427,
			"bottom": "1089",
			"debug_info": "Conv_447",
			"fused_relu": 0,
			"fused_tanh": 0,
			"has_batch_norm": 0,
			"has_biases": 0,
			"n_groups": 64,
			"n_parallel": 1,
			"name": "Conv_447",
			"pad_b": 1,
			"pad_fill_mode": 0,
			"pad_l": 1,
			"pad_mode": 0,
			"pad_r": 1,
			"pad_t": 1,
			"pad_value": 0,
			"top": "1090",
			"type": "convolution",
			"weights": {}
		},
		{
			"C": 64,
			"K": 64,
			"Nx": 1,
			"Ny": 1,
			"blob_biases": 429,
			"blob_weights_f16": 431,
			"bottom": "1090",
			"debug_info": "Conv_448",
			"fused_relu": 0,
			"fused_tanh": 0,
			"has_batch_norm": 0,
			"has_biases": 1,
			"n_groups": 1,
			"n_parallel": 1,
			"name": "Conv_448",
			"pad_b": 0,
			"pad_fill_mode": 0,
			"pad_l": 0,
			"pad_mode": 0,
			"pad_r": 0,
			"pad_t": 0,
			"pad_value": 0,
			"top": "1572",
			"type": "convolution",
			"weights": {}
		},
		{
			"average_count_exclude_padding": 1,
			"avg_or_max": 1,
			"bottom": "1572",
			"debug_info": "MaxPool_463",
			"name": "MaxPool_463",
			"pad_b": 1,
			"pad_fill_mode": 0,
			"pad_l": 1,
			"pad_mode": 0,
			"pad_r": 1,
			"pad_t": 1,
			"pad_value": 0,
			"size_x": 3,
			"size_y": 3,
			"stride_x": 2,
			"stride_y": 2,
			"top": "1107",
			"top_shape_style": 0,
			"type": "pool",
			"weights": {}
		},
		{
			"bottom": "",
			"constant_blob": 433,
			"debug_info": "Mul_464_load_constant_0",
			"h": 1,
			"k": 1,
			"n": 1,
			"name": "Mul_464_load_constant_0",
			"nd_rank": 1,
			"top": "1106",
			"type": "load_constant",
			"w": 1,
			"weights": {}
		},
		{
			"alpha": 1,
			"beta": 0,
			"bottom": "1106,1107",
			"debug_info": "Mul_464",
			"fused_relu": 0,
			"name": "Mul_464",
			"nd_mode": true,
			"operation": 1,
			"top": "1108",
			"type": "elementwise",
			"weights": {}
		},
		{
			"bottom": "",
			"constant_blob": 435,
			"debug_info": "Mul_459_load_constant_0",
			"h": 1,
			"k": 1,
			"n": 1,
			"name": "Mul_459_load_constant_0",
			"nd_rank": 1,
			"top": "1102",
			"type": "load_constant",
			"w": 1,
			"weights": {}
		},
		{
			"alpha": 1,
			"beta": 0,
			"bottom": "1102,1569",
			"debug_info": "Mul_459",
			"fused_relu": 0,
			"name": "Mul_459",
			"nd_mode": true,
			"operation": 1,
			"top": "1103",
			"type": "elementwise",
			"weights": {}
		},
		{
			"bottom": "",
			"constant_blob": 437,
			"debug_info": "Mul_456_load_constant_0",
			"h": 1,
			"k": 1,
			"n": 1,
			"name": "Mul_456_load_constant_0",
			"nd_rank": 1,
			"top": "1099",
			"type": "load_constant",
			"w": 1,
			"weights": {}
		},
		{
			"alpha": 1,
			"beta": 0,
			"bottom": "1099,1551",
			"debug_info": "Mul_456",
			"fused_relu": 0,
			"name": "Mul_456",
			"nd_mode": true,
			"operation": 1,
			"top": "1100",
			"type": "elementwise",
			"weights": {}
		},
		{
			"alpha": 1,
			"beta": 0,
			"bottom": "1100,1103",
			"debug_info": "Add_460",
			"fused_relu": 0,
			"name": "Add_460",
			"nd_mode": true,
			"operation": 0,
			"top": "1104",
			"type": "elementwise",
			"weights": {}
		},
		{
			"alpha": 1,
			"beta": 0,
			"bottom": "1104,1108",
			"debug_info": "Add_465",
			"fused_relu": 0,
			"name": "Add_465",
			"nd_mode": true,
			"operation": 0,
			"top": "1109",
			"type": "elementwise",
			"weights": {}
		},
		{
			"bottom": "1109",
			"debug_info": "Relu_466",
			"mode": 0,
			"name": "Relu_466",
			"top": "1110",
			"type": "activation",
			"weights": {}
		},
		{
			"C": 64,
			"K": 64,
			"Nx": 3,
			"Ny": 3,
			"blob_weights_f16": 439,
			"bottom": "1110",
			"debug_info": "Conv_467",
			"fused_relu": 0,
			"fused_tanh": 0,
			"has_batch_norm": 0,
			"has_biases": 0,
			"n_groups": 64,
			"n_parallel": 1,
			"name": "Conv_467",
			"pad_b": 1,
			"pad_fill_mode": 0,
			"pad_l": 1,
			"pad_mode": 0,
			"pad_r": 1,
			"pad_t": 1,
			"pad_value": 0,
			"top": "1111",
			"type": "convolution",
			"weights": {}
		},
		{
			"C": 64,
			"K": 64,
			"Nx": 1,
			"Ny": 1,
			"blob_biases": 441,
			"blob_weights_f16": 443,
			"bottom": "1111",
			"debug_info": "Conv_468",
			"fused_relu": 0,
			"fused_tanh": 0,
			"has_batch_norm": 0,
			"has_biases": 1,
			"n_groups": 1,
			"n_parallel": 1,
			"name": "Conv_468",
			"pad_b": 0,
			"pad_fill_mode": 0,
			"pad_l": 0,
			"pad_mode": 0,
			"pad_r": 0,
			"pad_t": 0,
			"pad_value": 0,
			"top": "1575",
			"type": "convolution",
			"weights": {}
		},
		{
			"average_count_exclude_padding": 1,
			"avg_or_max": 1,
			"bottom": "1575",
			"debug_info": "MaxPool_483",
			"name": "MaxPool_483",
			"pad_b": 1,
			"pad_fill_mode": 0,
			"pad_l": 1,
			"pad_mode": 0,
			"pad_r": 1,
			"pad_t": 1,
			"pad_value": 0,
			"size_x": 3,
			"size_y": 3,
			"stride_x": 2,
			"stride_y": 2,
			"top": "1128",
			"top_shape_style": 0,
			"type": "pool",
			"weights": {}
		},
		{
			"bottom": "",
			"constant_blob": 445,
			"debug_info": "Mul_484_load_constant_0",
			"h": 1,
			"k": 1,
			"n": 1,
			"name": "Mul_484_load_constant_0",
			"nd_rank": 1,
			"top": "1127",
			"type": "load_constant",
			"w": 1,
			"weights": {}
		},
		{
			"alpha": 1,
			"beta": 0,
			"bottom": "1127,1128",
			"debug_info": "Mul_484",
			"fused_relu": 0,
			"name": "Mul_484",
			"nd_mode": true,
			"operation": 1,
			"top": "1129",
			"type": "elementwise",
			"weights": {}
		},
		{
			"bottom": "",
			"constant_blob": 447,
			"debug_info": "Mul_479_load_constant_0",
			"h": 1,
			"k": 1,
			"n": 1,
			"name": "Mul_479_load_constant_0",
			"nd_rank": 1,
			"top": "1123",
			"type": "load_constant",
			"w": 1,
			"weights": {}
		},
		{
			"alpha": 1,
			"beta": 0,
			"bottom": "1123,1566",
			"debug_info": "Mul_479",
			"fused_relu": 0,
			"name": "Mul_479",
			"nd_mode": true,
			"operation": 1,
			"top": "1124",
			"type": "elementwise",
			"weights": {}
		},
		{
			"bottom": "",
			"constant_blob": 449,
			"debug_info": "Mul_476_load_constant_0",
			"h": 1,
			"k": 1,
			"n": 1,
			"name": "Mul_476_load_constant_0",
			"nd_rank": 1,
			"top": "1120",
			"type": "load_constant",
			"w": 1,
			"weights": {}
		},
		{
			"alpha": 1,
			"beta": 0,
			"bottom": "1120,1554",
			"debug_info": "Mul_476",
			"fused_relu": 0,
			"name": "Mul_476",
			"nd_mode": true,
			"operation": 1,
			"top": "1121",
			"type": "elementwise",
			"weights": {}
		},
		{
			"alpha": 1,
			"beta": 0,
			"bottom": "1121,1124",
			"debug_info": "Add_480",
			"fused_relu": 0,
			"name": "Add_480",
			"nd_mode": true,
			"operation": 0,
			"top": "1125",
			"type": "elementwise",
			"weights": {}
		},
		{
			"alpha": 1,
			"beta": 0,
			"bottom": "1125,1129",
			"debug_info": "Add_485",
			"fused_relu": 0,
			"name": "Add_485",
			"nd_mode": true,
			"operation": 0,
			"top": "1130",
			"type": "elementwise",
			"weights": {}
		},
		{
			"bottom": "1130",
			"debug_info": "Relu_486",
			"mode": 0,
			"name": "Relu_486",
			"top": "1131",
			"type": "activation",
			"weights": {}
		},
		{
			"C": 64,
			"K": 64,
			"Nx": 3,
			"Ny": 3,
			"blob_weights_f16": 451,
			"bottom": "1131",
			"debug_info": "Conv_487",
			"fused_relu": 0,
			"fused_tanh": 0,
			"has_batch_norm": 0,
			"has_biases": 0,
			"n_groups": 64,
			"n_parallel": 1,
			"name": "Conv_487",
			"pad_b": 1,
			"pad_fill_mode": 0,
			"pad_l": 1,
			"pad_mode": 0,
			"pad_r": 1,
			"pad_t": 1,
			"pad_value": 0,
			"top": "1132",
			"type": "convolution",
			"weights": {}
		},
		{
			"C": 64,
			"K": 64,
			"Nx": 1,
			"Ny": 1,
			"blob_biases": 453,
			"blob_weights_f16": 455,
			"bottom": "1132",
			"debug_info": "Conv_488",
			"fused_relu": 0,
			"fused_tanh": 0,
			"has_batch_norm": 0,
			"has_biases": 1,
			"n_groups": 1,
			"n_parallel": 1,
			"name": "Conv_488",
			"pad_b": 0,
			"pad_fill_mode": 0,
			"pad_l": 0,
			"pad_mode": 0,
			"pad_r": 0,
			"pad_t": 0,
			"pad_value": 0,
			"top": "1578",
			"type": "convolution",
			"weights": {}
		},
		{
			"average_count_exclude_padding": 1,
			"avg_or_max": 1,
			"bottom": "1578",
			"debug_info": "MaxPool_503",
			"name": "MaxPool_503",
			"pad_b": 1,
			"pad_fill_mode": 0,
			"pad_l": 1,
			"pad_mode": 0,
			"pad_r": 1,
			"pad_t": 1,
			"pad_value": 0,
			"size_x": 3,
			"size_y": 3,
			"stride_x": 2,
			"stride_y": 2,
			"top": "1149",
			"top_shape_style": 0,
			"type": "pool",
			"weights": {}
		},
		{
			"bottom": "",
			"constant_blob": 457,
			"debug_info": "Mul_504_load_constant_0",
			"h": 1,
			"k": 1,
			"n": 1,
			"name": "Mul_504_load_constant_0",
			"nd_rank": 1,
			"top": "1148",
			"type": "load_constant",
			"w": 1,
			"weights": {}
		},
		{
			"alpha": 1,
			"beta": 0,
			"bottom": "1148,1149",
			"debug_info": "Mul_504",
			"fused_relu": 0,
			"name": "Mul_504",
			"nd_mode": true,
			"operation": 1,
			"top": "1150",
			"type": "elementwise",
			"weights": {}
		},
		{
			"bottom": "",
			"constant_blob": 459,
			"debug_info": "Mul_499_load_constant_0",
			"h": 1,
			"k": 1,
			"n": 1,
			"name": "Mul_499_load_constant_0",
			"nd_rank": 1,
			"top": "1144",
			"type": "load_constant",
			"w": 1,
			"weights": {}
		},
		{
			"alpha": 1,
			"beta": 0,
			"bottom": "1144,1563",
			"debug_info": "Mul_499",
			"fused_relu": 0,
			"name": "Mul_499",
			"nd_mode": true,
			"operation": 1,
			"top": "1145",
			"type": "elementwise",
			"weights": {}
		},
		{
			"bottom": "",
			"constant_blob": 461,
			"debug_info": "Mul_496_load_constant_0",
			"h": 1,
			"k": 1,
			"n": 1,
			"name": "Mul_496_load_constant_0",
			"nd_rank": 1,
			"top": "1141",
			"type": "load_constant",
			"w": 1,
			"weights": {}
		},
		{
			"alpha": 1,
			"beta": 0,
			"bottom": "1141,1557",
			"debug_info": "Mul_496",
			"fused_relu": 0,
			"name": "Mul_496",
			"nd_mode": true,
			"operation": 1,
			"top": "1142",
			"type": "elementwise",
			"weights": {}
		},
		{
			"alpha": 1,
			"beta": 0,
			"bottom": "1142,1145",
			"debug_info": "Add_500",
			"fused_relu": 0,
			"name": "Add_500",
			"nd_mode": true,
			"operation": 0,
			"top": "1146",
			"type": "elementwise",
			"weights": {}
		},
		{
			"alpha": 1,
			"beta": 0,
			"bottom": "1146,1150",
			"debug_info": "Add_505",
			"fused_relu": 0,
			"name": "Add_505",
			"nd_mode": true,
			"operation": 0,
			"top": "1151",
			"type": "elementwise",
			"weights": {}
		},
		{
			"bottom": "1151",
			"debug_info": "Relu_506",
			"mode": 0,
			"name": "Relu_506",
			"top": "1152",
			"type": "activation",
			"weights": {}
		},
		{
			"C": 64,
			"K": 64,
			"Nx": 3,
			"Ny": 3,
			"blob_weights_f16": 463,
			"bottom": "1152",
			"debug_info": "Conv_507",
			"fused_relu": 0,
			"fused_tanh": 0,
			"has_batch_norm": 0,
			"has_biases": 0,
			"n_groups": 64,
			"n_parallel": 1,
			"name": "Conv_507",
			"pad_b": 1,
			"pad_fill_mode": 0,
			"pad_l": 1,
			"pad_mode": 0,
			"pad_r": 1,
			"pad_t": 1,
			"pad_value": 0,
			"top": "1153",
			"type": "convolution",
			"weights": {}
		},
		{
			"C": 64,
			"K": 64,
			"Nx": 1,
			"Ny": 1,
			"blob_biases": 465,
			"blob_weights_f16": 467,
			"bottom": "1153",
			"debug_info": "Conv_508",
			"fused_relu": 0,
			"fused_tanh": 0,
			"has_batch_norm": 0,
			"has_biases": 1,
			"n_groups": 1,
			"n_parallel": 1,
			"name": "Conv_508",
			"pad_b": 0,
			"pad_fill_mode": 0,
			"pad_l": 0,
			"pad_mode": 0,
			"pad_r": 0,
			"pad_t": 0,
			"pad_value": 0,
			"top": "1581",
			"type": "convolution",
			"weights": {}
		},
		{
			"average_count_exclude_padding": 1,
			"avg_or_max": 1,
			"bottom": "1581",
			"debug_info": "MaxPool_519",
			"name": "MaxPool_519",
			"pad_b": 1,
			"pad_fill_mode": 0,
			"pad_l": 1,
			"pad_mode": 0,
			"pad_r": 1,
			"pad_t": 1,
			"pad_value": 0,
			"size_x": 3,
			"size_y": 3,
			"stride_x": 2,
			"stride_y": 2,
			"top": "1166",
			"top_shape_style": 0,
			"type": "pool",
			"weights": {}
		},
		{
			"bottom": "",
			"constant_blob": 469,
			"debug_info": "Mul_520_load_constant_0",
			"h": 1,
			"k": 1,
			"n": 1,
			"name": "Mul_520_load_constant_0",
			"nd_rank": 1,
			"top": "1165",
			"type": "load_constant",
			"w": 1,
			"weights": {}
		},
		{
			"alpha": 1,
			"beta": 0,
			"bottom": "1165,1166",
			"debug_info": "Mul_520",
			"fused_relu": 0,
			"name": "Mul_520",
			"nd_mode": true,
			"operation": 1,
			"top": "1167",
			"type": "elementwise",
			"weights": {}
		},
		{
			"bottom": "",
			"constant_blob": 471,
			"debug_info": "Mul_516_load_constant_0",
			"h": 1,
			"k": 1,
			"n": 1,
			"name": "Mul_516_load_constant_0",
			"nd_rank": 1,
			"top": "1162",
			"type": "load_constant",
			"w": 1,
			"weights": {}
		},
		{
			"alpha": 1,
			"beta": 0,
			"bottom": "1162,1560",
			"debug_info": "Mul_516",
			"fused_relu": 0,
			"name": "Mul_516",
			"nd_mode": true,
			"operation": 1,
			"top": "1163",
			"type": "elementwise",
			"weights": {}
		},
		{
			"alpha": 1,
			"beta": 0,
			"bottom": "1163,1167",
			"debug_info": "Add_521",
			"fused_relu": 0,
			"name": "Add_521",
			"nd_mode": true,
			"operation": 0,
			"top": "1168",
			"type": "elementwise",
			"weights": {}
		},
		{
			"bottom": "1168",
			"debug_info": "Relu_522",
			"mode": 0,
			"name": "Relu_522",
			"top": "1169",
			"type": "activation",
			"weights": {}
		},
		{
			"C": 64,
			"K": 64,
			"Nx": 3,
			"Ny": 3,
			"blob_weights_f16": 473,
			"bottom": "1169",
			"debug_info": "Conv_523",
			"fused_relu": 0,
			"fused_tanh": 0,
			"has_batch_norm": 0,
			"has_biases": 0,
			"n_groups": 64,
			"n_parallel": 1,
			"name": "Conv_523",
			"pad_b": 1,
			"pad_fill_mode": 0,
			"pad_l": 1,
			"pad_mode": 0,
			"pad_r": 1,
			"pad_t": 1,
			"pad_value": 0,
			"top": "1170",
			"type": "convolution",
			"weights": {}
		},
		{
			"C": 64,
			"K": 64,
			"Nx": 1,
			"Ny": 1,
			"blob_biases": 475,
			"blob_weights_f16": 477,
			"bottom": "1170",
			"debug_info": "Conv_524",
			"fused_relu": 0,
			"fused_tanh": 0,
			"has_batch_norm": 0,
			"has_biases": 1,
			"n_groups": 1,
			"n_parallel": 1,
			"name": "Conv_524",
			"pad_b": 0,
			"pad_fill_mode": 0,
			"pad_l": 0,
			"pad_mode": 0,
			"pad_r": 0,
			"pad_t": 0,
			"pad_value": 0,
			"top": "1584",
			"type": "convolution",
			"weights": {}
		},
		{
			"C": 64,
			"K": 64,
			"Nx": 3,
			"Ny": 3,
			"blob_biases": 479,
			"blob_weights_f16": 481,
			"bottom": "1584",
			"debug_info": "Conv_546",
			"fused_relu": 1,
			"fused_tanh": 0,
			"has_batch_norm": 0,
			"has_biases": 1,
			"n_groups": 1,
			"n_parallel": 1,
			"name": "Conv_546",
			"pad_b": 1,
			"pad_fill_mode": 0,
			"pad_l": 1,
			"pad_mode": 0,
			"pad_r": 1,
			"pad_t": 1,
			"pad_value": 0,
			"top": "1195",
			"type": "convolution",
			"weights": {}
		},
		{
			"C": 64,
			"K": 64,
			"Nx": 3,
			"Ny": 3,
			"blob_biases": 483,
			"blob_weights_f16": 485,
			"bottom": "1195",
			"debug_info": "Conv_548",
			"fused_relu": 1,
			"fused_tanh": 0,
			"has_batch_norm": 0,
			"has_biases": 1,
			"n_groups": 1,
			"n_parallel": 1,
			"name": "Conv_548",
			"pad_b": 1,
			"pad_fill_mode": 0,
			"pad_l": 1,
			"pad_mode": 0,
			"pad_r": 1,
			"pad_t": 1,
			"pad_value": 0,
			"top": "1197",
			"type": "convolution",
			"weights": {}
		},
		{
			"C": 64,
			"K": 64,
			"Nx": 3,
			"Ny": 3,
			"blob_biases": 487,
			"blob_weights_f16": 489,
			"bottom": "1197",
			"debug_info": "Conv_550",
			"fused_relu": 1,
			"fused_tanh": 0,
			"has_batch_norm": 0,
			"has_biases": 1,
			"n_groups": 1,
			"n_parallel": 1,
			"name": "Conv_550",
			"pad_b": 1,
			"pad_fill_mode": 0,
			"pad_l": 1,
			"pad_mode": 0,
			"pad_r": 1,
			"pad_t": 1,
			"pad_value": 0,
			"top": "1199",
			"type": "convolution",
			"weights": {}
		},
		{
			"C": 4,
			"K": 64,
			"Nx": 3,
			"Ny": 3,
			"blob_biases": 491,
			"blob_weights_f16": 493,
			"bottom": "1199",
			"debug_info": "Conv_552",
			"fused_relu": 0,
			"fused_tanh": 0,
			"has_batch_norm": 0,
			"has_biases": 1,
			"n_groups": 1,
			"n_parallel": 1,
			"name": "Conv_552",
			"pad_b": 1,
			"pad_fill_mode": 0,
			"pad_l": 1,
			"pad_mode": 0,
			"pad_r": 1,
			"pad_t": 1,
			"pad_value": 0,
			"top": "1200",
			"type": "convolution",
			"weights": {}
		},
		{
			"C": 64,
			"K": 64,
			"Nx": 3,
			"Ny": 3,
			"blob_biases": 495,
			"blob_weights_f16": 497,
			"bottom": "1581",
			"debug_info": "Conv_539",
			"fused_relu": 1,
			"fused_tanh": 0,
			"has_batch_norm": 0,
			"has_biases": 1,
			"n_groups": 1,
			"n_parallel": 1,
			"name": "Conv_539",
			"pad_b": 1,
			"pad_fill_mode": 0,
			"pad_l": 1,
			"pad_mode": 0,
			"pad_r": 1,
			"pad_t": 1,
			"pad_value": 0,
			"top": "1188",
			"type": "convolution",
			"weights": {}
		},
		{
			"C": 64,
			"K": 64,
			"Nx": 3,
			"Ny": 3,
			"blob_biases": 499,
			"blob_weights_f16": 501,
			"bottom": "1188",
			"debug_info": "Conv_541",
			"fused_relu": 1,
			"fused_tanh": 0,
			"has_batch_norm": 0,
			"has_biases": 1,
			"n_groups": 1,
			"n_parallel": 1,
			"name": "Conv_541",
			"pad_b": 1,
			"pad_fill_mode": 0,
			"pad_l": 1,
			"pad_mode": 0,
			"pad_r": 1,
			"pad_t": 1,
			"pad_value": 0,
			"top": "1190",
			"type": "convolution",
			"weights": {}
		},
		{
			"C": 64,
			"K": 64,
			"Nx": 3,
			"Ny": 3,
			"blob_biases": 503,
			"blob_weights_f16": 505,
			"bottom": "1190",
			"debug_info": "Conv_543",
			"fused_relu": 1,
			"fused_tanh": 0,
			"has_batch_norm": 0,
			"has_biases": 1,
			"n_groups": 1,
			"n_parallel": 1,
			"name": "Conv_543",
			"pad_b": 1,
			"pad_fill_mode": 0,
			"pad_l": 1,
			"pad_mode": 0,
			"pad_r": 1,
			"pad_t": 1,
			"pad_value": 0,
			"top": "1192",
			"type": "convolution",
			"weights": {}
		},
		{
			"C": 4,
			"K": 64,
			"Nx": 3,
			"Ny": 3,
			"blob_biases": 507,
			"blob_weights_f16": 509,
			"bottom": "1192",
			"debug_info": "Conv_545",
			"fused_relu": 0,
			"fused_tanh": 0,
			"has_batch_norm": 0,
			"has_biases": 1,
			"n_groups": 1,
			"n_parallel": 1,
			"name": "Conv_545",
			"pad_b": 1,
			"pad_fill_mode": 0,
			"pad_l": 1,
			"pad_mode": 0,
			"pad_r": 1,
			"pad_t": 1,
			"pad_value": 0,
			"top": "1193",
			"type": "convolution",
			"weights": {}
		},
		{
			"C": 64,
			"K": 64,
			"Nx": 3,
			"Ny": 3,
			"blob_biases": 511,
			"blob_weights_f16": 513,
			"bottom": "1578",
			"debug_info": "Conv_532",
			"fused_relu": 1,
			"fused_tanh": 0,
			"has_batch_norm": 0,
			"has_biases": 1,
			"n_groups": 1,
			"n_parallel": 1,
			"name": "Conv_532",
			"pad_b": 1,
			"pad_fill_mode": 0,
			"pad_l": 1,
			"pad_mode": 0,
			"pad_r": 1,
			"pad_t": 1,
			"pad_value": 0,
			"top": "1181",
			"type": "convolution",
			"weights": {}
		},
		{
			"C": 64,
			"K": 64,
			"Nx": 3,
			"Ny": 3,
			"blob_biases": 515,
			"blob_weights_f16": 517,
			"bottom": "1181",
			"debug_info": "Conv_534",
			"fused_relu": 1,
			"fused_tanh": 0,
			"has_batch_norm": 0,
			"has_biases": 1,
			"n_groups": 1,
			"n_parallel": 1,
			"name": "Conv_534",
			"pad_b": 1,
			"pad_fill_mode": 0,
			"pad_l": 1,
			"pad_mode": 0,
			"pad_r": 1,
			"pad_t": 1,
			"pad_value": 0,
			"top": "1183",
			"type": "convolution",
			"weights": {}
		},
		{
			"C": 64,
			"K": 64,
			"Nx": 3,
			"Ny": 3,
			"blob_biases": 519,
			"blob_weights_f16": 521,
			"bottom": "1183",
			"debug_info": "Conv_536",
			"fused_relu": 1,
			"fused_tanh": 0,
			"has_batch_norm": 0,
			"has_biases": 1,
			"n_groups": 1,
			"n_parallel": 1,
			"name": "Conv_536",
			"pad_b": 1,
			"pad_fill_mode": 0,
			"pad_l": 1,
			"pad_mode": 0,
			"pad_r": 1,
			"pad_t": 1,
			"pad_value": 0,
			"top": "1185",
			"type": "convolution",
			"weights": {}
		},
		{
			"C": 4,
			"K": 64,
			"Nx": 3,
			"Ny": 3,
			"blob_biases": 523,
			"blob_weights_f16": 525,
			"bottom": "1185",
			"debug_info": "Conv_538",
			"fused_relu": 0,
			"fused_tanh": 0,
			"has_batch_norm": 0,
			"has_biases": 1,
			"n_groups": 1,
			"n_parallel": 1,
			"name": "Conv_538",
			"pad_b": 1,
			"pad_fill_mode": 0,
			"pad_l": 1,
			"pad_mode": 0,
			"pad_r": 1,
			"pad_t": 1,
			"pad_value": 0,
			"top": "1186",
			"type": "convolution",
			"weights": {}
		},
		{
			"C": 64,
			"K": 64,
			"Nx": 3,
			"Ny": 3,
			"blob_biases": 527,
			"blob_weights_f16": 529,
			"bottom": "1575",
			"debug_info": "Conv_525",
			"fused_relu": 1,
			"fused_tanh": 0,
			"has_batch_norm": 0,
			"has_biases": 1,
			"n_groups": 1,
			"n_parallel": 1,
			"name": "Conv_525",
			"pad_b": 1,
			"pad_fill_mode": 0,
			"pad_l": 1,
			"pad_mode": 0,
			"pad_r": 1,
			"pad_t": 1,
			"pad_value": 0,
			"top": "1174",
			"type": "convolution",
			"weights": {}
		},
		{
			"C": 64,
			"K": 64,
			"Nx": 3,
			"Ny": 3,
			"blob_biases": 531,
			"blob_weights_f16": 533,
			"bottom": "1174",
			"debug_info": "Conv_527",
			"fused_relu": 1,
			"fused_tanh": 0,
			"has_batch_norm": 0,
			"has_biases": 1,
			"n_groups": 1,
			"n_parallel": 1,
			"name": "Conv_527",
			"pad_b": 1,
			"pad_fill_mode": 0,
			"pad_l": 1,
			"pad_mode": 0,
			"pad_r": 1,
			"pad_t": 1,
			"pad_value": 0,
			"top": "1176",
			"type": "convolution",
			"weights": {}
		},
		{
			"C": 64,
			"K": 64,
			"Nx": 3,
			"Ny": 3,
			"blob_biases": 535,
			"blob_weights_f16": 537,
			"bottom": "1176",
			"debug_info": "Conv_529",
			"fused_relu": 1,
			"fused_tanh": 0,
			"has_batch_norm": 0,
			"has_biases": 1,
			"n_groups": 1,
			"n_parallel": 1,
			"name": "Conv_529",
			"pad_b": 1,
			"pad_fill_mode": 0,
			"pad_l": 1,
			"pad_mode": 0,
			"pad_r": 1,
			"pad_t": 1,
			"pad_value": 0,
			"top": "1178",
			"type": "convolution",
			"weights": {}
		},
		{
			"C": 4,
			"K": 64,
			"Nx": 3,
			"Ny": 3,
			"blob_biases": 539,
			"blob_weights_f16": 541,
			"bottom": "1178",
			"debug_info": "Conv_531",
			"fused_relu": 0,
			"fused_tanh": 0,
			"has_batch_norm": 0,
			"has_biases": 1,
			"n_groups": 1,
			"n_parallel": 1,
			"name": "Conv_531",
			"pad_b": 1,
			"pad_fill_mode": 0,
			"pad_l": 1,
			"pad_mode": 0,
			"pad_r": 1,
			"pad_t": 1,
			"pad_value": 0,
			"top": "1179",
			"type": "convolution",
			"weights": {}
		},
		{
			"bottom": "",
			"constant_blob": 543,
			"debug_info": "Mul_641_load_constant_1",
			"h": 1,
			"k": 1,
			"n": 1,
			"name": "Mul_641_load_constant_1",
			"nd_rank": 3,
			"top": "1320",
			"type": "load_constant",
			"w": 4,
			"weights": {}
		},
		{
			"bottom": "",
			"constant_blob": 545,
			"debug_info": "Add_643_load_constant_1",
			"h": 1,
			"k": 1,
			"n": 1,
			"name": "Add_643_load_constant_1",
			"nd_rank": 3,
			"top": "1322",
			"type": "load_constant",
			"w": 4,
			"weights": {}
		},
		{
			"bottom": "",
			"constant_blob": 547,
			"debug_info": "Mul_653_load_constant_1",
			"h": 1360,
			"k": 1,
			"n": 1,
			"name": "Mul_653_load_constant_1",
			"nd_rank": 3,
			"top": "1332",
			"type": "load_constant",
			"w": 2,
			"weights": {}
		},
		{
			"bottom": "",
			"constant_blob": 549,
			"debug_info": "Mul_658_load_constant_0",
			"h": 1,
			"k": 1,
			"n": 1,
			"name": "Mul_658_load_constant_0",
			"nd_rank": 3,
			"top": "1337",
			"type": "load_constant",
			"w": 4,
			"weights": {}
		},
		{
			"bottom": "",
			"constant_blob": 551,
			"debug_info": "Mul_647_load_constant_1",
			"h": 1360,
			"k": 1,
			"n": 1,
			"name": "Mul_647_load_constant_1",
			"nd_rank": 3,
			"top": "1326",
			"type": "load_constant",
			"w": 2,
			"weights": {}
		},
		{
			"bottom": "",
			"constant_blob": 553,
			"debug_info": "Add_649_load_constant_0",
			"h": 1360,
			"k": 1,
			"n": 1,
			"name": "Add_649_load_constant_0",
			"nd_rank": 3,
			"top": "1328",
			"type": "load_constant",
			"w": 2,
			"weights": {}
		},
		{
			"bottom": "",
			"constant_blob": 555,
			"debug_info": "Div_661_load_constant_1",
			"h": 1,
			"k": 1,
			"n": 1,
			"name": "Div_661_load_constant_1",
			"nd_rank": 1,
			"top": "1340",
			"type": "load_constant",
			"w": 1,
			"weights": {}
		},
		{
			"bottom": "",
			"constant_blob": 557,
			"debug_info": "Mul_667_load_constant_1",
			"h": 1,
			"k": 1,
			"n": 1,
			"name": "Mul_667_load_constant_1",
			"nd_rank": 1,
			"top": "1346",
			"type": "load_constant",
			"w": 1,
			"weights": {}
		},
		{
			"bottom": "",
			"constant_blob": 559,
			"debug_info": "Mul_664_load_constant_1",
			"h": 1,
			"k": 1,
			"n": 1,
			"name": "Mul_664_load_constant_1",
			"nd_rank": 1,
			"top": "1343",
			"type": "load_constant",
			"w": 1,
			"weights": {}
		},
		{
			"C": 64,
			"K": 64,
			"Nx": 3,
			"Ny": 3,
			"blob_biases": 561,
			"blob_weights_f16": 563,
			"bottom": "1584",
			"debug_info": "Conv_574",
			"fused_relu": 1,
			"fused_tanh": 0,
			"has_batch_norm": 0,
			"has_biases": 1,
			"n_groups": 1,
			"n_parallel": 1,
			"name": "Conv_574",
			"pad_b": 1,
			"pad_fill_mode": 0,
			"pad_l": 1,
			"pad_mode": 0,
			"pad_r": 1,
			"pad_t": 1,
			"pad_value": 0,
			"top": "1223",
			"type": "convolution",
			"weights": {}
		},
		{
			"C": 64,
			"K": 64,
			"Nx": 3,
			"Ny": 3,
			"blob_biases": 565,
			"blob_weights_f16": 567,
			"bottom": "1223",
			"debug_info": "Conv_576",
			"fused_relu": 1,
			"fused_tanh": 0,
			"has_batch_norm": 0,
			"has_biases": 1,
			"n_groups": 1,
			"n_parallel": 1,
			"name": "Conv_576",
			"pad_b": 1,
			"pad_fill_mode": 0,
			"pad_l": 1,
			"pad_mode": 0,
			"pad_r": 1,
			"pad_t": 1,
			"pad_value": 0,
			"top": "1225",
			"type": "convolution",
			"weights": {}
		},
		{
			"C": 64,
			"K": 64,
			"Nx": 3,
			"Ny": 3,
			"blob_biases": 569,
			"blob_weights_f16": 571,
			"bottom": "1225",
			"debug_info": "Conv_578",
			"fused_relu": 1,
			"fused_tanh": 0,
			"has_batch_norm": 0,
			"has_biases": 1,
			"n_groups": 1,
			"n_parallel": 1,
			"name": "Conv_578",
			"pad_b": 1,
			"pad_fill_mode": 0,
			"pad_l": 1,
			"pad_mode": 0,
			"pad_r": 1,
			"pad_t": 1,
			"pad_value": 0,
			"top": "1227",
			"type": "convolution",
			"weights": {}
		},
		{
			"C": 80,
			"K": 64,
			"Nx": 3,
			"Ny": 3,
			"blob_biases": 573,
			"blob_weights_f16": 575,
			"bottom": "1227",
			"debug_info": "Conv_580",
			"fused_relu": 0,
			"fused_tanh": 0,
			"has_batch_norm": 0,
			"has_biases": 1,
			"n_groups": 1,
			"n_parallel": 1,
			"name": "Conv_580",
			"pad_b": 1,
			"pad_fill_mode": 0,
			"pad_l": 1,
			"pad_mode": 0,
			"pad_r": 1,
			"pad_t": 1,
			"pad_value": 0,
			"top": "1228",
			"type": "convolution",
			"weights": {}
		},
		{
			"C": 64,
			"K": 64,
			"Nx": 3,
			"Ny": 3,
			"blob_biases": 577,
			"blob_weights_f16": 579,
			"bottom": "1581",
			"debug_info": "Conv_567",
			"fused_relu": 1,
			"fused_tanh": 0,
			"has_batch_norm": 0,
			"has_biases": 1,
			"n_groups": 1,
			"n_parallel": 1,
			"name": "Conv_567",
			"pad_b": 1,
			"pad_fill_mode": 0,
			"pad_l": 1,
			"pad_mode": 0,
			"pad_r": 1,
			"pad_t": 1,
			"pad_value": 0,
			"top": "1216",
			"type": "convolution",
			"weights": {}
		},
		{
			"C": 64,
			"K": 64,
			"Nx": 3,
			"Ny": 3,
			"blob_biases": 581,
			"blob_weights_f16": 583,
			"bottom": "1216",
			"debug_info": "Conv_569",
			"fused_relu": 1,
			"fused_tanh": 0,
			"has_batch_norm": 0,
			"has_biases": 1,
			"n_groups": 1,
			"n_parallel": 1,
			"name": "Conv_569",
			"pad_b": 1,
			"pad_fill_mode": 0,
			"pad_l": 1,
			"pad_mode": 0,
			"pad_r": 1,
			"pad_t": 1,
			"pad_value": 0,
			"top": "1218",
			"type": "convolution",
			"weights": {}
		},
		{
			"C": 64,
			"K": 64,
			"Nx": 3,
			"Ny": 3,
			"blob_biases": 585,
			"blob_weights_f16": 587,
			"bottom": "1218",
			"debug_info": "Conv_571",
			"fused_relu": 1,
			"fused_tanh": 0,
			"has_batch_norm": 0,
			"has_biases": 1,
			"n_groups": 1,
			"n_parallel": 1,
			"name": "Conv_571",
			"pad_b": 1,
			"pad_fill_mode": 0,
			"pad_l": 1,
			"pad_mode": 0,
			"pad_r": 1,
			"pad_t": 1,
			"pad_value": 0,
			"top": "1220",
			"type": "convolution",
			"weights": {}
		},
		{
			"C": 80,
			"K": 64,
			"Nx": 3,
			"Ny": 3,
			"blob_biases": 589,
			"blob_weights_f16": 591,
			"bottom": "1220",
			"debug_info": "Conv_573",
			"fused_relu": 0,
			"fused_tanh": 0,
			"has_batch_norm": 0,
			"has_biases": 1,
			"n_groups": 1,
			"n_parallel": 1,
			"name": "Conv_573",
			"pad_b": 1,
			"pad_fill_mode": 0,
			"pad_l": 1,
			"pad_mode": 0,
			"pad_r": 1,
			"pad_t": 1,
			"pad_value": 0,
			"top": "1221",
			"type": "convolution",
			"weights": {}
		},
		{
			"C": 64,
			"K": 64,
			"Nx": 3,
			"Ny": 3,
			"blob_biases": 593,
			"blob_weights_f16": 595,
			"bottom": "1578",
			"debug_info": "Conv_560",
			"fused_relu": 1,
			"fused_tanh": 0,
			"has_batch_norm": 0,
			"has_biases": 1,
			"n_groups": 1,
			"n_parallel": 1,
			"name": "Conv_560",
			"pad_b": 1,
			"pad_fill_mode": 0,
			"pad_l": 1,
			"pad_mode": 0,
			"pad_r": 1,
			"pad_t": 1,
			"pad_value": 0,
			"top": "1209",
			"type": "convolution",
			"weights": {}
		},
		{
			"C": 64,
			"K": 64,
			"Nx": 3,
			"Ny": 3,
			"blob_biases": 597,
			"blob_weights_f16": 599,
			"bottom": "1209",
			"debug_info": "Conv_562",
			"fused_relu": 1,
			"fused_tanh": 0,
			"has_batch_norm": 0,
			"has_biases": 1,
			"n_groups": 1,
			"n_parallel": 1,
			"name": "Conv_562",
			"pad_b": 1,
			"pad_fill_mode": 0,
			"pad_l": 1,
			"pad_mode": 0,
			"pad_r": 1,
			"pad_t": 1,
			"pad_value": 0,
			"top": "1211",
			"type": "convolution",
			"weights": {}
		},
		{
			"C": 64,
			"K": 64,
			"Nx": 3,
			"Ny": 3,
			"blob_biases": 601,
			"blob_weights_f16": 603,
			"bottom": "1211",
			"debug_info": "Conv_564",
			"fused_relu": 1,
			"fused_tanh": 0,
			"has_batch_norm": 0,
			"has_biases": 1,
			"n_groups": 1,
			"n_parallel": 1,
			"name": "Conv_564",
			"pad_b": 1,
			"pad_fill_mode": 0,
			"pad_l": 1,
			"pad_mode": 0,
			"pad_r": 1,
			"pad_t": 1,
			"pad_value": 0,
			"top": "1213",
			"type": "convolution",
			"weights": {}
		},
		{
			"C": 80,
			"K": 64,
			"Nx": 3,
			"Ny": 3,
			"blob_biases": 605,
			"blob_weights_f16": 607,
			"bottom": "1213",
			"debug_info": "Conv_566",
			"fused_relu": 0,
			"fused_tanh": 0,
			"has_batch_norm": 0,
			"has_biases": 1,
			"n_groups": 1,
			"n_parallel": 1,
			"name": "Conv_566",
			"pad_b": 1,
			"pad_fill_mode": 0,
			"pad_l": 1,
			"pad_mode": 0,
			"pad_r": 1,
			"pad_t": 1,
			"pad_value": 0,
			"top": "1214",
			"type": "convolution",
			"weights": {}
		},
		{
			"C": 64,
			"K": 64,
			"Nx": 3,
			"Ny": 3,
			"blob_biases": 609,
			"blob_weights_f16": 611,
			"bottom": "1575",
			"debug_info": "Conv_553",
			"fused_relu": 1,
			"fused_tanh": 0,
			"has_batch_norm": 0,
			"has_biases": 1,
			"n_groups": 1,
			"n_parallel": 1,
			"name": "Conv_553",
			"pad_b": 1,
			"pad_fill_mode": 0,
			"pad_l": 1,
			"pad_mode": 0,
			"pad_r": 1,
			"pad_t": 1,
			"pad_value": 0,
			"top": "1202",
			"type": "convolution",
			"weights": {}
		},
		{
			"C": 64,
			"K": 64,
			"Nx": 3,
			"Ny": 3,
			"blob_biases": 613,
			"blob_weights_f16": 615,
			"bottom": "1202",
			"debug_info": "Conv_555",
			"fused_relu": 1,
			"fused_tanh": 0,
			"has_batch_norm": 0,
			"has_biases": 1,
			"n_groups": 1,
			"n_parallel": 1,
			"name": "Conv_555",
			"pad_b": 1,
			"pad_fill_mode": 0,
			"pad_l": 1,
			"pad_mode": 0,
			"pad_r": 1,
			"pad_t": 1,
			"pad_value": 0,
			"top": "1204",
			"type": "convolution",
			"weights": {}
		},
		{
			"C": 64,
			"K": 64,
			"Nx": 3,
			"Ny": 3,
			"blob_biases": 617,
			"blob_weights_f16": 619,
			"bottom": "1204",
			"debug_info": "Conv_557",
			"fused_relu": 1,
			"fused_tanh": 0,
			"has_batch_norm": 0,
			"has_biases": 1,
			"n_groups": 1,
			"n_parallel": 1,
			"name": "Conv_557",
			"pad_b": 1,
			"pad_fill_mode": 0,
			"pad_l": 1,
			"pad_mode": 0,
			"pad_r": 1,
			"pad_t": 1,
			"pad_value": 0,
			"top": "1206",
			"type": "convolution",
			"weights": {}
		},
		{
			"C": 80,
			"K": 64,
			"Nx": 3,
			"Ny": 3,
			"blob_biases": 621,
			"blob_weights_f16": 623,
			"bottom": "1206",
			"debug_info": "Conv_559",
			"fused_relu": 0,
			"fused_tanh": 0,
			"has_batch_norm": 0,
			"has_biases": 1,
			"n_groups": 1,
			"n_parallel": 1,
			"name": "Conv_559",
			"pad_b": 1,
			"pad_fill_mode": 0,
			"pad_l": 1,
			"pad_mode": 0,
			"pad_r": 1,
			"pad_t": 1,
			"pad_value": 0,
			"top": "1207",
			"type": "convolution",
			"weights": {}
		},
		{
			"axis_h": 0,
			"axis_k": 1,
			"axis_n": 3,
			"axis_seq": 4,
			"axis_w": 2,
			"bottom": "1200",
			"debug_info": "Transpose_602",
			"name": "Transpose_602",
			"top": "1262",
			"type": "transpose",
			"weights": {}
		},
		{
			"bottom": "1262",
			"debug_info": "Reshape_608",
			"dst_h": -1,
			"dst_k": 1,
			"dst_n": 1,
			"dst_nd_rank": 3,
			"dst_seq": 1,
			"dst_w": 4,
			"dynamic_shape": false,
			"mode": 0,
			"name": "Reshape_608",
			"top": "1272",
			"type": "reshape",
			"version": 1,
			"weights": {}
		},
		{
			"axis_h": 0,
			"axis_k": 1,
			"axis_n": 3,
			"axis_seq": 4,
			"axis_w": 2,
			"bottom": "1193",
			"debug_info": "Transpose_595",
			"name": "Transpose_595",
			"top": "1251",
			"type": "transpose",
			"weights": {}
		},
		{
			"bottom": "1251",
			"debug_info": "Reshape_601",
			"dst_h": -1,
			"dst_k": 1,
			"dst_n": 1,
			"dst_nd_rank": 3,
			"dst_seq": 1,
			"dst_w": 4,
			"dynamic_shape": false,
			"mode": 0,
			"name": "Reshape_601",
			"top": "1261",
			"type": "reshape",
			"version": 1,
			"weights": {}
		},
		{
			"axis_h": 0,
			"axis_k": 1,
			"axis_n": 3,
			"axis_seq": 4,
			"axis_w": 2,
			"bottom": "1186",
			"debug_info": "Transpose_588",
			"name": "Transpose_588",
			"top": "1240",
			"type": "transpose",
			"weights": {}
		},
		{
			"bottom": "1240",
			"debug_info": "Reshape_594",
			"dst_h": -1,
			"dst_k": 1,
			"dst_n": 1,
			"dst_nd_rank": 3,
			"dst_seq": 1,
			"dst_w": 4,
			"dynamic_shape": false,
			"mode": 0,
			"name": "Reshape_594",
			"top": "1250",
			"type": "reshape",
			"version": 1,
			"weights": {}
		},
		{
			"axis_h": 0,
			"axis_k": 1,
			"axis_n": 3,
			"axis_seq": 4,
			"axis_w": 2,
			"bottom": "1179",
			"debug_info": "Transpose_581",
			"name": "Transpose_581",
			"top": "1229",
			"type": "transpose",
			"weights": {}
		},
		{
			"bottom": "1229",
			"debug_info": "Reshape_587",
			"dst_h": -1,
			"dst_k": 1,
			"dst_n": 1,
			"dst_nd_rank": 3,
			"dst_seq": 1,
			"dst_w": 4,
			"dynamic_shape": false,
			"mode": 0,
			"name": "Reshape_587",
			"top": "1239",
			"type": "reshape",
			"version": 1,
			"weights": {}
		},
		{
			"axis_h": 0,
			"axis_k": 1,
			"axis_n": 3,
			"axis_seq": 4,
			"axis_w": 2,
			"bottom": "1228",
			"debug_info": "Transpose_630",
			"name": "Transpose_630",
			"top": "1306",
			"type": "transpose",
			"weights": {}
		},
		{
			"bottom": "1306",
			"debug_info": "Reshape_636",
			"dst_h": -1,
			"dst_k": 1,
			"dst_n": 1,
			"dst_nd_rank": 3,
			"dst_seq": 1,
			"dst_w": 80,
			"dynamic_shape": false,
			"mode": 0,
			"name": "Reshape_636",
			"top": "1316",
			"type": "reshape",
			"version": 1,
			"weights": {}
		},
		{
			"axis_h": 0,
			"axis_k": 1,
			"axis_n": 3,
			"axis_seq": 4,
			"axis_w": 2,
			"bottom": "1221",
			"debug_info": "Transpose_623",
			"name": "Transpose_623",
			"top": "1295",
			"type": "transpose",
			"weights": {}
		},
		{
			"bottom": "1295",
			"debug_info": "Reshape_629",
			"dst_h": -1,
			"dst_k": 1,
			"dst_n": 1,
			"dst_nd_rank": 3,
			"dst_seq": 1,
			"dst_w": 80,
			"dynamic_shape": false,
			"mode": 0,
			"name": "Reshape_629",
			"top": "1305",
			"type": "reshape",
			"version": 1,
			"weights": {}
		},
		{
			"axis_h": 0,
			"axis_k": 1,
			"axis_n": 3,
			"axis_seq": 4,
			"axis_w": 2,
			"bottom": "1214",
			"debug_info": "Transpose_616",
			"name": "Transpose_616",
			"top": "1284",
			"type": "transpose",
			"weights": {}
		},
		{
			"bottom": "1284",
			"debug_info": "Reshape_622",
			"dst_h": -1,
			"dst_k": 1,
			"dst_n": 1,
			"dst_nd_rank": 3,
			"dst_seq": 1,
			"dst_w": 80,
			"dynamic_shape": false,
			"mode": 0,
			"name": "Reshape_622",
			"top": "1294",
			"type": "reshape",
			"version": 1,
			"weights": {}
		},
		{
			"axis_h": 0,
			"axis_k": 1,
			"axis_n": 3,
			"axis_seq": 4,
			"axis_w": 2,
			"bottom": "1207",
			"debug_info": "Transpose_609",
			"name": "Transpose_609",
			"top": "1273",
			"type": "transpose",
			"weights": {}
		},
		{
			"bottom": "1273",
			"debug_info": "Reshape_615",
			"dst_h": -1,
			"dst_k": 1,
			"dst_n": 1,
			"dst_nd_rank": 3,
			"dst_seq": 1,
			"dst_w": 80,
			"dynamic_shape": false,
			"mode": 0,
			"name": "Reshape_615",
			"top": "1283",
			"type": "reshape",
			"version": 1,
			"weights": {}
		},
		{
			"axis": 1,
			"bottom": "1239,1250,1261,1272",
			"debug_info": "Concat_638",
			"name": "Concat_638",
			"nd_mode": true,
			"top": "1318",
			"type": "general_concat",
			"weights": {}
		},
		{
			"alpha": 1,
			"beta": 0,
			"bottom": "1318,1320",
			"debug_info": "Mul_641",
			"fused_relu": 0,
			"name": "Mul_641",
			"nd_mode": true,
			"operation": 1,
			"top": "1321",
			"type": "elementwise",
			"weights": {}
		},
		{
			"alpha": 1,
			"beta": 0,
			"bottom": "1321,1322",
			"debug_info": "Add_643",
			"fused_relu": 0,
			"name": "Add_643",
			"nd_mode": true,
			"operation": 0,
			"top": "1323",
			"type": "elementwise",
			"weights": {}
		},
		{
			"alpha": -3.4028234663852886e+38,
			"beta": 4.135166645050049,
			"bottom": "1323",
			"debug_info": "Clip_644",
			"fused_relu": 0,
			"name": "Clip_644",
			"operation": 119,
			"top": "1324",
			"type": "elementwise",
			"weights": {}
		},
		{
			"axis": 0,
			"bottom": "1324",
			"debug_info": "Slice_650_1330",
			"end": 4,
			"name": "Slice_650_1330",
			"start": 2,
			"top": "1330",
			"type": "slice",
			"weights": {}
		},
		{
			"alpha": 1,
			"beta": 0,
			"bottom": "1330",
			"debug_info": "Exp_651",
			"fused_relu": 0,
			"name": "Exp_651",
			"operation": 27,
			"top": "1331",
			"type": "elementwise",
			"weights": {}
		},
		{
			"alpha": 1,
			"beta": 0,
			"bottom": "1331,1332",
			"debug_info": "Mul_653",
			"fused_relu": 0,
			"name": "Mul_653",
			"nd_mode": true,
			"operation": 1,
			"top": "1333",
			"type": "elementwise",
			"weights": {}
		},
		{
			"alpha": 0,
			"beta": 3.4028234663852886e+38,
			"bottom": "1333",
			"debug_info": "Clip_654",
			"fused_relu": 0,
			"name": "Clip_654",
			"operation": 119,
			"top": "1334",
			"type": "elementwise",
			"weights": {}
		},
		{
			"axis": 2,
			"bottom": "1334,1334",
			"debug_info": "Concat_656",
			"name": "Concat_656",
			"nd_mode": true,
			"top": "1336",
			"type": "general_concat",
			"weights": {}
		},
		{
			"alpha": 1,
			"beta": 0,
			"bottom": "1337,1336",
			"debug_info": "Mul_658",
			"fused_relu": 0,
			"name": "Mul_658",
			"nd_mode": true,
			"operation": 1,
			"top": "1338",
			"type": "elementwise",
			"weights": {}
		},
		{
			"axis": 0,
			"bottom": "1324",
			"debug_info": "Slice_645_1325",
			"end": 2,
			"name": "Slice_645_1325",
			"start": 0,
			"top": "1325",
			"type": "slice",
			"weights": {}
		},
		{
			"alpha": 1,
			"beta": 0,
			"bottom": "1325,1326",
			"debug_info": "Mul_647",
			"fused_relu": 0,
			"name": "Mul_647",
			"nd_mode": true,
			"operation": 1,
			"top": "1327",
			"type": "elementwise",
			"weights": {}
		},
		{
			"alpha": 1,
			"beta": 0,
			"bottom": "1328,1327",
			"debug_info": "Add_649",
			"fused_relu": 0,
			"name": "Add_649",
			"nd_mode": true,
			"operation": 0,
			"top": "1329",
			"type": "elementwise",
			"weights": {}
		},
		{
			"axis": 2,
			"bottom": "1329,1329",
			"debug_info": "Concat_655",
			"name": "Concat_655",
			"nd_mode": true,
			"top": "1335",
			"type": "general_concat",
			"weights": {}
		},
		{
			"alpha": 1,
			"beta": 0,
			"bottom": "1335,1338",
			"debug_info": "Add_659",
			"fused_relu": 0,
			"name": "Add_659",
			"nd_mode": true,
			"operation": 0,
			"top": "1339",
			"type": "elementwise",
			"weights": {}
		},
		{
			"alpha": 1,
			"beta": 0,
			"bottom": "1339,1340",
			"debug_info": "Div_661",
			"fused_relu": 0,
			"name": "Div_661",
			"nd_mode": true,
			"operation": 102,
			"top": "1341",
			"type": "elementwise",
			"weights": {}
		},
		{
			"axis": 0,
			"bottom": "1341",
			"debug_info": "Slice_670_1350",
			"end": 2,
			"name": "Slice_670_1350",
			"start": 0,
			"top": "1350",
			"type": "slice",
			"weights": {}
		},
		{
			"axis": 0,
			"bottom": "1341",
			"debug_info": "Slice_669_1349",
			"end": 4,
			"name": "Slice_669_1349",
			"start": 2,
			"top": "1349",
			"type": "slice",
			"weights": {}
		},
		{
			"alpha": 1,
			"beta": 0,
			"bottom": "1349,1350",
			"debug_info": "Sub_671",
			"fused_relu": 0,
			"name": "Sub_671",
			"nd_mode": true,
			"operation": 33,
			"top": "1351",
			"type": "elementwise",
			"weights": {}
		},
		{
			"axis": 0,
			"bottom": "1341",
			"debug_info": "Slice_665_1345",
			"end": 2,
			"name": "Slice_665_1345",
			"start": 0,
			"top": "1345",
			"type": "slice",
			"weights": {}
		},
		{
			"alpha": 1,
			"beta": 0,
			"bottom": "1345,1346",
			"debug_info": "Mul_667",
			"fused_relu": 0,
			"name": "Mul_667",
			"nd_mode": true,
			"operation": 1,
			"top": "1347",
			"type": "elementwise",
			"weights": {}
		},
		{
			"axis": 0,
			"bottom": "1341",
			"debug_info": "Slice_662_1342",
			"end": 4,
			"name": "Slice_662_1342",
			"start": 2,
			"top": "1342",
			"type": "slice",
			"weights": {}
		},
		{
			"alpha": 1,
			"beta": 0,
			"bottom": "1342,1343",
			"debug_info": "Mul_664",
			"fused_relu": 0,
			"name": "Mul_664",
			"nd_mode": true,
			"operation": 1,
			"top": "1344",
			"type": "elementwise",
			"weights": {}
		},
		{
			"alpha": 1,
			"beta": 0,
			"bottom": "1344,1347",
			"debug_info": "Add_668",
			"fused_relu": 0,
			"name": "Add_668",
			"nd_mode": true,
			"operation": 0,
			"top": "1348",
			"type": "elementwise",
			"weights": {}
		},
		{
			"axis": 2,
			"bottom": "1348,1351",
			"debug_info": "Concat_672",
			"name": "Concat_672",
			"nd_mode": true,
			"top": "allboxes",
			"type": "general_concat",
			"weights": {}
		},
		{
			"axis": 1,
			"bottom": "1283,1294,1305,1316",
			"debug_info": "Concat_637",
			"name": "Concat_637",
			"nd_mode": true,
			"top": "1317",
			"type": "general_concat",
			"weights": {}
		},
		{
			"bottom": "1317",
			"debug_info": "Sigmoid_639",
			"mode": 3,
			"name": "Sigmoid_639",
			"top": "allscores",
			"type": "activation",
			"weights": {}
		},
		{
			"attributes": {
				"is_output": 1
			},
			"bottom": "allboxes,allscores",
			"debug_info": "nms",
			"iou_threshold": 0.3499999940395355,
			"max_boxes": 50,
			"name": "nms",
			"per_class_suppression": true,
			"score_threshold": 0.05000000074505806,
			"top": "nmsBoxes,nmsScores,nmsBoxIdices,nmsNumBoxes",
			"type": "non_maximum_suppression",
			"weights": {}
		}
	],
	"properties": {
		"anec_flags": "SpatialSplitMemory,KernelRewind",
		"espresso.ane.transform_bcast": "1"
	},
	"storage": "model.espresso.weights",
	"transform_params": {
		"image": {
			"bias_a": 0,
			"bias_b": 0,
			"bias_g": 0,
			"bias_r": 0,
			"center_mean": 0,
			"is_network_bgr": 0,
			"scale": 0.003921568859368563
		}
	}
}