{
  "layers" : [
    {
      "name" : "identity",
      "weights" : {

      },
      "dst_w" : 32,
      "version" : 1,
      "dst_n" : -1,
      "dst_nd_rank" : 4,
      "type" : "reshape",
      "dst_h" : 32,
      "mode" : 0,
      "dynamic_shape" : false,
      "bottom" : "input",
      "debug_info" : "",
      "nd_mode" : 1,
      "dst_seq" : 1,
      "dst_k" : 1,
      "top" : "identity"
    },
    {
      "pad_r" : 1,
      "fused_relu" : 1,
      "fused_tanh" : 0,
      "debug_info" : "",
      "pad_fill_mode" : 0,
      "pad_b" : 1,
      "pad_l" : 1,
      "top" : "relu",
      "blob_weights" : 3,
      "K" : 1,
      "blob_biases" : 1,
      "name" : "relu",
      "has_batch_norm" : 0,
      "type" : "convolution",
      "n_groups" : 1,
      "pad_t" : 1,
      "has_biases" : 1,
      "C" : 32,
      "bottom" : "identity",
      "weights" : {

      },
      "Nx" : 3,
      "pad_mode" : 0,
      "pad_value" : 0,
      "Ny" : 3,
      "n_parallel" : 1
    },
    {
      "pad_r" : 1,
      "fused_relu" : 1,
      "fused_tanh" : 0,
      "debug_info" : "",
      "pad_fill_mode" : 0,
      "pad_b" : 1,
      "pad_l" : 1,
      "top" : "relu_1",
      "K" : 32,
      "blob_biases" : 5,
      "quantization_lut_weights_blob" : 7,
      "name" : "relu_1",
      "has_batch_norm" : 0,
      "type" : "convolution",
      "n_groups" : 1,
      "pad_t" : 1,
      "has_biases" : 1,
      "C" : 32,
      "bottom" : "relu",
      "weights" : {

      },
      "Nx" : 3,
      "pad_mode" : 0,
      "pad_value" : 0,
      "Ny" : 3,
      "n_parallel" : 1,
      "quantization_ranges_blob" : 9
    },
    {
      "pad_r" : 1,
      "fused_relu" : 1,
      "fused_tanh" : 0,
      "debug_info" : "",
      "pad_fill_mode" : 0,
      "pad_b" : 1,
      "pad_l" : 0,
      "top" : "relu_2",
      "K" : 32,
      "blob_biases" : 11,
      "stride_x" : 2,
      "quantization_lut_weights_blob" : 13,
      "name" : "relu_2",
      "has_batch_norm" : 0,
      "type" : "convolution",
      "n_groups" : 1,
      "pad_t" : 0,
      "hint_fallback_from_metal" : 1,
      "stride_y" : 2,
      "has_biases" : 1,
      "C" : 64,
      "bottom" : "relu_1",
      "weights" : {

      },
      "Nx" : 3,
      "pad_mode" : 0,
      "pad_value" : 0,
      "Ny" : 3,
      "n_parallel" : 1,
      "quantization_ranges_blob" : 15
    },
    {
      "pad_r" : 1,
      "fused_relu" : 1,
      "fused_tanh" : 0,
      "debug_info" : "",
      "pad_fill_mode" : 0,
      "pad_b" : 1,
      "pad_l" : 1,
      "top" : "relu_3",
      "K" : 64,
      "blob_biases" : 17,
      "quantization_lut_weights_blob" : 19,
      "name" : "relu_3",
      "has_batch_norm" : 0,
      "type" : "convolution",
      "n_groups" : 1,
      "pad_t" : 1,
      "hint_fallback_from_metal" : 1,
      "has_biases" : 1,
      "C" : 64,
      "bottom" : "relu_2",
      "weights" : {

      },
      "Nx" : 3,
      "pad_mode" : 0,
      "pad_value" : 0,
      "Ny" : 3,
      "n_parallel" : 1,
      "quantization_ranges_blob" : 21
    },
    {
      "pad_r" : 1,
      "fused_relu" : 1,
      "fused_tanh" : 0,
      "debug_info" : "",
      "pad_fill_mode" : 0,
      "pad_b" : 1,
      "pad_l" : 0,
      "top" : "relu_4",
      "K" : 64,
      "blob_biases" : 23,
      "stride_x" : 2,
      "quantization_lut_weights_blob" : 25,
      "name" : "relu_4",
      "has_batch_norm" : 0,
      "type" : "convolution",
      "n_groups" : 1,
      "pad_t" : 0,
      "hint_fallback_from_metal" : 1,
      "stride_y" : 2,
      "has_biases" : 1,
      "C" : 128,
      "bottom" : "relu_3",
      "weights" : {

      },
      "Nx" : 3,
      "pad_mode" : 0,
      "pad_value" : 0,
      "Ny" : 3,
      "n_parallel" : 1,
      "quantization_ranges_blob" : 27
    },
    {
      "pad_r" : 0,
      "fused_relu" : 1,
      "fused_tanh" : 0,
      "debug_info" : "",
      "pad_fill_mode" : 0,
      "pad_b" : 0,
      "pad_l" : 0,
      "top" : "relu_5",
      "K" : 128,
      "blob_biases" : 29,
      "stride_x" : 2,
      "quantization_lut_weights_blob" : 31,
      "name" : "relu_5",
      "has_batch_norm" : 0,
      "type" : "convolution",
      "n_groups" : 1,
      "pad_t" : 0,
      "hint_fallback_from_metal" : 1,
      "stride_y" : 2,
      "has_biases" : 1,
      "C" : 128,
      "bottom" : "relu_4",
      "weights" : {

      },
      "Nx" : 3,
      "pad_mode" : 0,
      "pad_value" : 0,
      "Ny" : 3,
      "n_parallel" : 1,
      "quantization_ranges_blob" : 33
    },
    {
      "pad_r" : 0,
      "fused_relu" : 1,
      "fused_tanh" : 0,
      "debug_info" : "",
      "pad_fill_mode" : 0,
      "pad_b" : 0,
      "pad_l" : 0,
      "top" : "relu_6",
      "K" : 128,
      "blob_biases" : 35,
      "quantization_lut_weights_blob" : 37,
      "name" : "relu_6",
      "has_batch_norm" : 0,
      "type" : "convolution",
      "n_groups" : 1,
      "pad_t" : 0,
      "hint_fallback_from_metal" : 1,
      "has_biases" : 1,
      "C" : 512,
      "bottom" : "relu_5",
      "weights" : {

      },
      "Nx" : 3,
      "pad_mode" : 0,
      "pad_value" : 0,
      "Ny" : 3,
      "n_parallel" : 1,
      "quantization_ranges_blob" : 39
    },
    {
      "bottom" : "relu_6",
      "alpha" : 1,
      "operation" : 38,
      "weights" : {

      },
      "hint_fallback_from_metal" : 1,
      "fused_relu" : 0,
      "debug_info" : "",
      "top" : "sign",
      "type" : "elementwise",
      "name" : "sign",
      "beta" : 0
    },
    {
      "pad_r" : 0,
      "fused_relu" : 0,
      "fused_tanh" : 0,
      "debug_info" : "",
      "pad_fill_mode" : 0,
      "pad_b" : 0,
      "pad_l" : 0,
      "top" : "concatenate",
      "blob_weights" : 43,
      "K" : 512,
      "blob_biases" : 41,
      "name" : "concatenate",
      "has_batch_norm" : 0,
      "type" : "convolution",
      "n_groups" : 64,
      "pad_t" : 0,
      "hint_fallback_from_metal" : 1,
      "has_biases" : 1,
      "C" : 64,
      "bottom" : "sign",
      "weights" : {

      },
      "Nx" : 1,
      "pad_mode" : 0,
      "pad_value" : 0,
      "Ny" : 1,
      "n_parallel" : 1
    },
    {
      "dst_seq" : 1,
      "nd_mode" : 1,
      "dst_w" : 64,
      "version" : 1,
      "dst_n" : -1,
      "dst_nd_rank" : 4,
      "weights" : {

      },
      "type" : "reshape",
      "dst_h" : 1,
      "mode" : 0,
      "attributes" : {
        "is_output" : 1
      },
      "dynamic_shape" : false,
      "bottom" : "concatenate",
      "debug_info" : "",
      "hint_fallback_from_metal" : 1,
      "dst_k" : 1,
      "name" : "output",
      "top" : "output"
    }
  ],
  "transform_params" : {
    "input" : {
      "bias_a" : 0,
      "bias_g" : 0,
      "bias_r" : 0,
      "bias_b" : 0,
      "use_direct_cvpixelbuffer" : 1,
      "center_mean" : 0,
      "is_network_bgr" : 0,
      "scale" : 0.0039215688593685627
    }
  },
  "storage" : "p32_64u_fp32_3_2_0_j4duxaz6vk_b256.espresso.weights",
  "metadata_in_weights" : [

  ],
  "properties" : {
    "ane_compiler_batch" : "1",
    "compress_sparse" : "1"
  },
  "analyses" : {
    "N8Espresso23analysis_debug_metadataE" : {
      "path" : "",
      "bundle" : "LearnedFeatures",
      "product" : "",
      "use_case" : "Relocalization pipeline",
      "name" : "HardnetModel",
      "version" : ""
    }
  },
  "format_version" : 200
}
