{
  "storage": "p32_64f_fp32_1_0_0_0000000000_b128.espresso.weights",
  "analyses": {},
  "properties": {},
  "format_version": 200,
  "layers": [
    {
      "pad_r": 1,
      "fused_relu": 1,
      "fused_tanh": 0,
      "debug_info": "Conv_0",
      "pad_fill_mode": 0,
      "pad_b": 1,
      "pad_l": 1,
      "top": "33",
      "K": 1,
      "blob_biases": 1,
      "name": "Conv_0",
      "has_batch_norm": 0,
      "type": "convolution",
      "n_groups": 1,
      "pad_t": 1,
      "has_biases": 1,
      "C": 32,
      "bottom": "input",
      "weights": {},
      "Nx": 3,
      "pad_mode": 0,
      "pad_value": 0,
      "Ny": 3,
      "n_parallel": 1,
      "blob_weights_f16": 3
    },
    {
      "pad_r": 1,
      "fused_relu": 1,
      "fused_tanh": 0,
      "debug_info": "Conv_2",
      "pad_fill_mode": 0,
      "pad_b": 1,
      "pad_l": 1,
      "top": "38",
      "K": 32,
      "blob_biases": 5,
      "name": "Conv_2",
      "has_batch_norm": 0,
      "type": "convolution",
      "n_groups": 1,
      "pad_t": 1,
      "has_biases": 1,
      "C": 32,
      "bottom": "33",
      "weights": {},
      "Nx": 3,
      "pad_mode": 0,
      "pad_value": 0,
      "Ny": 3,
      "n_parallel": 1,
      "blob_weights_f16": 7
    },
    {
      "pad_r": 1,
      "fused_relu": 1,
      "fused_tanh": 0,
      "debug_info": "Conv_4",
      "pad_fill_mode": 0,
      "pad_b": 1,
      "pad_l": 1,
      "top": "43",
      "K": 32,
      "blob_biases": 9,
      "stride_x": 2,
      "name": "Conv_4",
      "has_batch_norm": 0,
      "type": "convolution",
      "n_groups": 1,
      "pad_t": 1,
      "stride_y": 2,
      "has_biases": 1,
      "C": 64,
      "bottom": "38",
      "weights": {},
      "Nx": 3,
      "pad_mode": 0,
      "pad_value": 0,
      "Ny": 3,
      "n_parallel": 1,
      "blob_weights_f16": 11
    },
    {
      "pad_r": 1,
      "fused_relu": 1,
      "fused_tanh": 0,
      "debug_info": "Conv_6",
      "pad_fill_mode": 0,
      "pad_b": 1,
      "pad_l": 1,
      "top": "48",
      "K": 64,
      "blob_biases": 13,
      "name": "Conv_6",
      "has_batch_norm": 0,
      "type": "convolution",
      "n_groups": 1,
      "pad_t": 1,
      "has_biases": 1,
      "C": 64,
      "bottom": "43",
      "weights": {},
      "Nx": 3,
      "pad_mode": 0,
      "pad_value": 0,
      "Ny": 3,
      "n_parallel": 1,
      "blob_weights_f16": 15
    },
    {
      "pad_r": 1,
      "fused_relu": 1,
      "fused_tanh": 0,
      "debug_info": "Conv_8",
      "pad_fill_mode": 0,
      "pad_b": 1,
      "pad_l": 1,
      "top": "53",
      "K": 64,
      "blob_biases": 17,
      "stride_x": 2,
      "name": "Conv_8",
      "has_batch_norm": 0,
      "type": "convolution",
      "n_groups": 1,
      "pad_t": 1,
      "stride_y": 2,
      "has_biases": 1,
      "C": 64,
      "bottom": "48",
      "weights": {},
      "Nx": 3,
      "pad_mode": 0,
      "pad_value": 0,
      "Ny": 3,
      "n_parallel": 1,
      "blob_weights_f16": 19
    },
    {
      "pad_r": 1,
      "fused_relu": 1,
      "fused_tanh": 0,
      "debug_info": "Conv_10",
      "pad_fill_mode": 0,
      "pad_b": 1,
      "pad_l": 1,
      "top": "58",
      "K": 64,
      "blob_biases": 21,
      "name": "Conv_10",
      "has_batch_norm": 0,
      "type": "convolution",
      "n_groups": 1,
      "pad_t": 1,
      "has_biases": 1,
      "C": 64,
      "bottom": "53",
      "weights": {},
      "Nx": 3,
      "pad_mode": 0,
      "pad_value": 0,
      "Ny": 3,
      "n_parallel": 1,
      "blob_weights_f16": 23
    },
    {
      "pad_r": 0,
      "fused_relu": 0,
      "fused_tanh": 0,
      "debug_info": "Conv_12",
      "pad_fill_mode": 0,
      "pad_b": 0,
      "pad_l": 0,
      "top": "output",
      "K": 64,
      "blob_biases": 25,
      "name": "Conv_12",
      "has_batch_norm": 0,
      "type": "convolution",
      "n_groups": 1,
      "pad_t": 0,
      "has_biases": 1,
      "C": 64,
      "bottom": "58",
      "weights": {},
      "Nx": 8,
      "pad_mode": 0,
      "pad_value": 0,
      "Ny": 8,
      "n_parallel": 1,
      "attributes": {
        "is_output": 1
      },
      "blob_weights_f16": 27
    }
  ]
}