{
  "storage": "p32_128f_fp32_1_0_0_0000000000_b64.espresso.weights",
  "analyses": {},
  "properties": {},
  "format_version": 200,
  "layers": [
    {
      "pad_r": 1,
      "fused_relu": 1,
      "fused_tanh": 0,
      "debug_info": "Conv_0",
      "pad_fill_mode": 0,
      "pad_b": 1,
      "pad_l": 1,
      "top": "62",
      "K": 1,
      "blob_biases": 1,
      "name": "Conv_0",
      "has_batch_norm": 0,
      "type": "convolution",
      "n_groups": 1,
      "pad_t": 1,
      "has_biases": 1,
      "C": 32,
      "bottom": "input_patches",
      "weights": {},
      "Nx": 3,
      "pad_mode": 0,
      "pad_value": 0,
      "Ny": 3,
      "n_parallel": 1,
      "blob_weights_f16": 3
    },
    {
      "pad_r": 1,
      "fused_relu": 1,
      "fused_tanh": 0,
      "debug_info": "Conv_2",
      "pad_fill_mode": 0,
      "pad_b": 1,
      "pad_l": 1,
      "top": "67",
      "K": 32,
      "blob_biases": 5,
      "name": "Conv_2",
      "has_batch_norm": 0,
      "type": "convolution",
      "n_groups": 1,
      "pad_t": 1,
      "has_biases": 1,
      "C": 32,
      "bottom": "62",
      "weights": {},
      "Nx": 3,
      "pad_mode": 0,
      "pad_value": 0,
      "Ny": 3,
      "n_parallel": 1,
      "blob_weights_f16": 7
    },
    {
      "pad_r": 1,
      "fused_relu": 1,
      "fused_tanh": 0,
      "debug_info": "Conv_4",
      "pad_fill_mode": 0,
      "pad_b": 1,
      "pad_l": 1,
      "top": "72",
      "K": 32,
      "blob_biases": 9,
      "stride_x": 2,
      "name": "Conv_4",
      "has_batch_norm": 0,
      "type": "convolution",
      "n_groups": 1,
      "pad_t": 1,
      "stride_y": 2,
      "has_biases": 1,
      "C": 64,
      "bottom": "67",
      "weights": {},
      "Nx": 3,
      "pad_mode": 0,
      "pad_value": 0,
      "Ny": 3,
      "n_parallel": 1,
      "blob_weights_f16": 11
    },
    {
      "pad_r": 1,
      "fused_relu": 1,
      "fused_tanh": 0,
      "debug_info": "Conv_6",
      "pad_fill_mode": 0,
      "pad_b": 1,
      "pad_l": 1,
      "top": "77",
      "K": 64,
      "blob_biases": 13,
      "name": "Conv_6",
      "has_batch_norm": 0,
      "type": "convolution",
      "n_groups": 1,
      "pad_t": 1,
      "has_biases": 1,
      "C": 64,
      "bottom": "72",
      "weights": {},
      "Nx": 3,
      "pad_mode": 0,
      "pad_value": 0,
      "Ny": 3,
      "n_parallel": 1,
      "blob_weights_f16": 15
    },
    {
      "pad_r": 1,
      "fused_relu": 1,
      "fused_tanh": 0,
      "debug_info": "Conv_8",
      "pad_fill_mode": 0,
      "pad_b": 1,
      "pad_l": 1,
      "top": "82",
      "K": 64,
      "blob_biases": 17,
      "stride_x": 2,
      "name": "Conv_8",
      "has_batch_norm": 0,
      "type": "convolution",
      "n_groups": 1,
      "pad_t": 1,
      "stride_y": 2,
      "has_biases": 1,
      "C": 128,
      "bottom": "77",
      "weights": {},
      "Nx": 3,
      "pad_mode": 0,
      "pad_value": 0,
      "Ny": 3,
      "n_parallel": 1,
      "blob_weights_f16": 19
    },
    {
      "pad_r": 1,
      "fused_relu": 1,
      "fused_tanh": 0,
      "debug_info": "Conv_10",
      "pad_fill_mode": 0,
      "pad_b": 1,
      "pad_l": 1,
      "top": "87",
      "K": 128,
      "blob_biases": 21,
      "name": "Conv_10",
      "has_batch_norm": 0,
      "type": "convolution",
      "n_groups": 1,
      "pad_t": 1,
      "has_biases": 1,
      "C": 128,
      "bottom": "82",
      "weights": {},
      "Nx": 3,
      "pad_mode": 0,
      "pad_value": 0,
      "Ny": 3,
      "n_parallel": 1,
      "blob_weights_f16": 23
    },
    {
      "pad_r": 0,
      "fused_relu": 0,
      "fused_tanh": 0,
      "debug_info": "Conv_12",
      "pad_fill_mode": 0,
      "pad_b": 0,
      "pad_l": 0,
      "top": "126",
      "K": 128,
      "blob_biases": 25,
      "name": "Conv_12",
      "has_batch_norm": 0,
      "type": "convolution",
      "n_groups": 1,
      "pad_t": 0,
      "has_biases": 1,
      "C": 128,
      "bottom": "87",
      "weights": {},
      "Nx": 8,
      "pad_mode": 0,
      "pad_value": 0,
      "Ny": 8,
      "n_parallel": 1,
      "blob_weights_f16": 27
    },
    {
      "pad_r": 0,
      "fused_relu": 1,
      "fused_tanh": 0,
      "debug_info": "Conv_13",
      "pad_fill_mode": 0,
      "pad_b": 0,
      "pad_l": 0,
      "top": "94",
      "K": 2,
      "blob_biases": 29,
      "name": "Conv_13",
      "has_batch_norm": 0,
      "type": "convolution",
      "n_groups": 1,
      "pad_t": 0,
      "has_biases": 1,
      "C": 32,
      "bottom": "input_keypoints",
      "weights": {},
      "Nx": 1,
      "pad_mode": 0,
      "pad_value": 0,
      "Ny": 1,
      "n_parallel": 1,
      "blob_weights_f16": 31
    },
    {
      "pad_r": 0,
      "fused_relu": 1,
      "fused_tanh": 0,
      "debug_info": "Conv_15",
      "pad_fill_mode": 0,
      "pad_b": 0,
      "pad_l": 0,
      "top": "97",
      "K": 32,
      "blob_biases": 33,
      "name": "Conv_15",
      "has_batch_norm": 0,
      "type": "convolution",
      "n_groups": 1,
      "pad_t": 0,
      "has_biases": 1,
      "C": 64,
      "bottom": "94",
      "weights": {},
      "Nx": 1,
      "pad_mode": 0,
      "pad_value": 0,
      "Ny": 1,
      "n_parallel": 1,
      "blob_weights_f16": 35
    },
    {
      "pad_r": 0,
      "fused_relu": 1,
      "fused_tanh": 0,
      "debug_info": "Conv_17",
      "pad_fill_mode": 0,
      "pad_b": 0,
      "pad_l": 0,
      "top": "100",
      "K": 64,
      "blob_biases": 37,
      "name": "Conv_17",
      "has_batch_norm": 0,
      "type": "convolution",
      "n_groups": 1,
      "pad_t": 0,
      "has_biases": 1,
      "C": 128,
      "bottom": "97",
      "weights": {},
      "Nx": 1,
      "pad_mode": 0,
      "pad_value": 0,
      "Ny": 1,
      "n_parallel": 1,
      "blob_weights_f16": 39
    },
    {
      "pad_r": 0,
      "fused_relu": 0,
      "fused_tanh": 0,
      "debug_info": "Conv_19",
      "pad_fill_mode": 0,
      "pad_b": 0,
      "pad_l": 0,
      "top": "101",
      "K": 128,
      "blob_biases": 41,
      "name": "Conv_19",
      "has_batch_norm": 0,
      "type": "convolution",
      "n_groups": 1,
      "pad_t": 0,
      "has_biases": 1,
      "C": 128,
      "bottom": "100",
      "weights": {},
      "Nx": 1,
      "pad_mode": 0,
      "pad_value": 0,
      "Ny": 1,
      "n_parallel": 1,
      "blob_weights_f16": 43
    },
    {
      "bottom": "126,101",
      "weights": {},
      "hint_fallback_from_metal": 1,
      "nd_mode": true,
      "debug_info": "Concat_20",
      "axis": 1,
      "top": "102",
      "type": "general_concat",
      "name": "Concat_20"
    },
    {
      "pad_r": 0,
      "fused_relu": 1,
      "fused_tanh": 0,
      "debug_info": "Conv_21",
      "pad_fill_mode": 0,
      "pad_b": 0,
      "pad_l": 0,
      "top": "105",
      "K": 256,
      "blob_biases": 45,
      "name": "Conv_21",
      "has_batch_norm": 0,
      "type": "convolution",
      "n_groups": 1,
      "pad_t": 0,
      "hint_fallback_from_metal": 1,
      "has_biases": 1,
      "C": 128,
      "bottom": "102",
      "weights": {},
      "Nx": 1,
      "pad_mode": 0,
      "pad_value": 0,
      "Ny": 1,
      "n_parallel": 1,
      "blob_weights_f16": 47
    },
    {
      "pad_r": 0,
      "fused_relu": 0,
      "fused_tanh": 0,
      "debug_info": "Conv_23",
      "pad_fill_mode": 0,
      "pad_b": 0,
      "pad_l": 0,
      "top": "106",
      "K": 128,
      "blob_biases": 49,
      "name": "Conv_23",
      "has_batch_norm": 0,
      "type": "convolution",
      "n_groups": 1,
      "pad_t": 0,
      "has_biases": 1,
      "C": 128,
      "bottom": "105",
      "weights": {},
      "Nx": 1,
      "pad_mode": 0,
      "pad_value": 0,
      "Ny": 1,
      "n_parallel": 1,
      "blob_weights_f16": 51
    },
    {
      "name": "Add_24",
      "fused_relu": 0,
      "beta": 0,
      "operation": 0,
      "type": "elementwise",
      "alpha": 1,
      "attributes": {
        "is_output": 1
      },
      "bottom": "126,106",
      "debug_info": "Add_24",
      "nd_mode": true,
      "weights": {},
      "top": "output"
    }
  ]
}